pth/takada_model_140.pth (torch, 859042 bytes, 6 tensors)

weight f4 [512, 128]
0	0x3e1ef662	0.15523675
1	0x3dd56351	0.10419334
2	0x3da16640	0.07880831
3	0xbdb9a5ec	-0.0906485
4	0x3e3f26c8	0.18667138
5	0x3eba249c	0.36356056
6	0x3bac606a	0.005260517
7	0xbe5995a1	-0.21248485
8	0xbdda7de8	-0.10668546
9	0x3e8ead47	0.27866575
10	0x3e4402cf	0.19141696
11	0xbd34ca13	-0.044138025
12	0xbea30fd5	-0.31848016
13	0xbeae55bc	-0.34049785
14	0x3c97935e	0.018502887
15	0xbd0a1e67	-0.0337204
16	0xbd5f8395	-0.054568846
17	0x3e83b877	0.25726673
18	0xbdb264f8	-0.087106645
19	0x3e56b1af	0.20966218
20	0xbea79803	-0.32733163
21	0x3aadd74d	0.0013263017
22	0xbe839da0	-0.25706196
23	0x3d504dbb	0.05085538
24	0xbe786e32	-0.24260786
25	0x3e6e9244	0.23297983
26	0xbe633032	-0.22186354
27	0xbdc08ca7	-0.09401827
28	0x3dcd2e32	0.10018577
29	0xbe28ec28	-0.16496336
30	0xbddddca8	-0.108331025
31	0xbd9c3761	-0.0762775
32	0xbd6a088c	-0.057137057
33	0xbdb7bb17	-0.089712314
34	0xbdb18a06	-0.08668904
35	0xbcdffb7d	-0.027341599
36	0xbc2c92b7	-0.010533026
37	0xbe929d7d	-0.2863578
38	0xbd9012b1	-0.07034815
39	0x3e7249ce	0.23660967
40	0xbc4a1b5d	-0.0123356255
41	0x3e8e5323	0.27797803
42	0xbe9470ee	-0.2899241
43	0xbdd9f307	-0.10642057
44	0xbdb47981	-0.088122375
45	0xbe63ea13	-0.22257261
46	0xbd242f82	-0.04008437
47	0x3e763f92	0.24047688
48	0xbe6eef54	-0.23333484
49	0xbd56a1ea	-0.052400507
50	0x3e1d5ba2	0.15366986
51	0x3e12778a	0.14303413
52	0xbe39c634	-0.18142015
53	0x3bce4739	0.0062951115
54	0xbdecdcd9	-0.11565561
55	0xba6efbce	-0.00091165013
56	0xbd579ff3	-0.052642774
57	0xbeaa09fb	-0.3321074
58	0x3e386d3c	0.1801042
59	0x3dcd18ca	0.10014494
60	0xbe483d1e	-0.19554564
61	0x3e22f252	0.1591275
62	0xbd96c972	-0.073626414
63	0xbd2b0a27	-0.04175773
64	0xbe64c9ec	-0.22342652
65	0xbe80b12f	-0.2513518
66	0x3d57915c	0.05262886
67	0xbe8e5aca	-0.27803642
68	0x3ea2b9c3	0.3178235
69	0xbdd3a6d4	-0.10334554
70	0x3eb88333	0.36037597
71	0xbdb72600	-0.08942795
72	0x3e958717	0.29204628
73	0xbe1118f1	-0.1416967
74	0x3e9b7a28	0.30366635
75	0xbd6871cc	-0.05674915
76	0x3d28ea33	0.041238975
77	0xbe0e13c4	-0.13874727
78	0x3d68dd48	0.056851655
79	0x3e1d74a3	0.15376525
80	0xbe1e9f67	-0.15490495
81	0x3d901c9f	0.07036709
82	0xbc46cd48	-0.012133904
83	0xbde334d4	-0.110940605
84	0xbea115f6	-0.31462067
85	0x3e20be15	0.1569751
86	0x3e87cb23	0.2652217
87	0x3e63827e	0.22217748
88	0x3e2b3f3f	0.16723345
89	0xbe5afafa	-0.21384802
90	0x3d77f48c	0.060535952
91	0x3ddd0b9a	0.107932284
92	0xbdd4c16b	-0.10388454
93	0xbdd49bd8	-0.10381287
94	0xbe9e4c78	-0.30917716
95	0x3e21c646	0.15798292
96	0x3eaacd71	0.33359864
97	0x3dbce794	0.092238575
98	0xbe8c9fe1	-0.27465728
99	0xbc8ffc5e	-0.017576393
100	0xbd229186	-0.039689563
101	0xbe18132a	-0.1485106
102	0x3e92d5c7	0.28678724
103	0x3e30ce9e	0.17266318
104	0xbe89cddc	-0.2691487
105	0x3e46a6df	0.19399594
106	0xbeabd6e2	-0.3356238
107	0xbe2249f0	-0.15848517
108	0xbde9d0e7	-0.11416798
109	0xbe1f1c83	-0.1553822
110	0xbe8d94a4	-0.27652466
111	0x3d183b0b	0.037165683
112	0x3eaa8afc	0.33309162
113	0xbe247f7c	-0.16064256
114	0xbdc27d5f	-0.09496569
115	0x3e6dd2f0	0.23224998
116	0xbb973a47	-0.0046151015
117	0x3e543267	0.20722352
118	0xbdd5a844	-0.10432485
119	0x3ea32040	0.31860542
120	0x3e1f95c5	0.15584476
121	0x3de1af8b	0.1101981
122	0x3e6df0f6	0.2323645
123	0x3ddfec76	0.10933773
124	0x3c26e466	0.01018629
125	0x3e6a5ec1	0.22887708
126	0xbdf6e39e	-0.12055133
127	0xbe5c5e15	-0.21520264
128	0x3d5d8f00	0.054091454
129	0x3e146aba	0.14493838
130	0xbd9c458d	-0.07630453
131	0x3e14826d	0.14502878
132	0x3e2dc2c2	0.16968825
133	0x3e8d3cf8	0.27585578
134	0xbe790c16	-0.24321017
135	0x3e6455b6	0.22298321
136	0xbd8b22bd	-0.06793735
137	0xbdc31258	-0.09524983
138	0xbd0fe793	-0.035132956
139	0x3df6bbbd	0.12047527
140	0xbe963492	-0.29336983
141	0xbdab5ed8	-0.083676994
142	0x3e937c29	0.28805664
143	0x3eafab95	0.34310594
144	0x3e262f5b	0.16229002
145	0xbb220174	-0.0024720104
146	0xbd784323	-0.0606109
147	0xbe4a433d	-0.19752212
148	0xbde85510	-0.113443494
149	0x3dfeac5e	0.1243522
150	0xbd569b72	-0.052394338
151	0x3e156a5e	0.14591357
152	0x3d4aaddd	0.049482215
153	0xbe188f7d	-0.14898486
154	0xbe393780	-0.18087578
155	0xbdb535b2	-0.08848132
156	0xbd24ab2b	-0.0402023
157	0x3df4b9ff	0.119495384
158	0x3eb7f799	0.3593109
159	0x3e429c91	0.19005038
160	0x3d514606	0.05109217
161	0x3d6204e3	0.05518044
162	0x3ea7c345	0.32766166
163	0x3d3b0dfa	0.045667626
164	0x3e5921fc	0.2120437
165	0x3e8d8518	0.27640605
166	0xbc4da174	-0.0125507
167	0x3e9287d4	0.28619254
168	0x3ea5ebb9	0.32406405
169	0x3d452dff	0.04813957
170	0x3d724136	0.05914422
171	0x3e303517	0.17207752
172	0x3d87282b	0.06599458
173	0x3de63522	0.11240603
174	0xbe20be63	-0.15697627
175	0x3e5178c7	0.20456229
176	0xbe75467e	-0.23952672
177	0x3e37acb0	0.17936969
178	0x3e3cc402	0.18434146
179	0xbe0fc551	-0.14040114
180	0xbe838773	-0.25689277
181	0x3e666e28	0.22502959
182	0x3e1ae308	0.15125668
183	0x3db33198	0.08749694
184	0x3e108286	0.1411229
185	0x3e4d645a	0.20057812
186	0xbd24629a	-0.040133096
187	0x3e620bc7	0.22074805
188	0xbd443b60	-0.047908187
189	0x3df4073b	0.119154416
190	0xbe8a2bbc	-0.26986492
191	0xbd63836c	-0.055545256
192	0xbdac0439	-0.08399243
193	0x3d4f2c19	0.050579164
194	0xbea901eb	-0.33009276
195	0x3e61847c	0.22023195
196	0xbd41fb1c	-0.047358617
197	0xbded887c	-0.11598298
198	0xbe36a741	-0.1783724
199	0xbe998d34	-0.29990542
200	0xbe90f5ed	-0.28312626
201	0xbe3c99fc	-0.18418115
202	0x3d925d9e	0.07146762
203	0x3da9a4f4	0.082834154
204	0xbe8205ba	-0.25394994
205	0x3e4bf37e	0.19917104
206	0x3e256be6	0.16154441
207	0x3db2ba86	0.08726983
208	0x3e816394	0.25271285
209	0x3d8aa86b	0.067704044
210	0x3e39028c	0.18067378
211	0xbe5bda42	-0.21469977
212	0x3db52b4b	0.08846148
213	0xbe99bd9f	-0.30027482
214	0x3c235057	0.009967885
215	0xbc9ec7c2	-0.019382361
216	0x3e6e0a67	0.23246156
217	0x3da8d61c	0.08243963
218	0x3c854a9b	0.016270926
219	0x3dc4bd17	0.096063785
220	0xbc8979b4	-0.016781665
221	0x3ded68f0	0.11592281
222	0xbd7f1967	-0.062280085
223	0xbe330c31	-0.1748512
224	0xbe3eba67	-0.18625794
225	0x3e703af8	0.23459995
226	0x3dc33335	0.09531251
227	0x3bde57df	0.0067853774
228	0xbe24b1ed	-0.16083498
229	0xbe33f32c	-0.17573231
230	0xbe1f8101	-0.15576555
231	0x3c93576e	0.017986026
232	0xbe1ecbaa	-0.15507379
233	0x3ea3def7	0.32006046
234	0xbe852b0e	-0.2600941
235	0x3db6feb6	0.08935301
236	0xbde11c75	-0.10991756
237	0x3e1c1788	0.15243351
238	0x3e7f891c	0.24954647
239	0x3d219dea	0.03945724
240	0xbe04da2e	-0.12973854
241	0xbd4a7d48	-0.049435884
242	0xbe975f53	-0.29564914
243	0x3d0ee5aa	0.034886993
244	0xbe6ceb8e	-0.23136732
245	0x3e7a689e	0.24453971
246	0x3e8c5740	0.27410316
247	0x3dd8a128	0.10577613
248	0x3e9d5d23	0.3073512
249	0x3e55f8f1	0.20895745
250	0x3d09e56d	0.033666063
251	0x3c7f7b34	0.015593339
252	0x3e898752	0.26861054
253	0x3a6cf750	0.0009039538
254	0x3e58f65a	0.21187726
255	0xbe1fe9d7	-0.15616547

bias f4 [512]
0	0xbda854a5	-0.0821927
1	0xbd80c24d	-0.0628706
2	0x3db2b7c3	0.08726456
3	0x3d002e70	0.031294286
4	0xbdbb7330	-0.0915283
5	0x3d4133ef	0.04716867
6	0x3d9dc154	0.0770289
7	0xbe1ce72d	-0.15322562
8	0xbd95c947	-0.07313781
9	0xbd297cf2	-0.041378923
10	0xbe31c715	-0.173611
11	0x3d94d731	0.07267607
12	0x3e02664a	0.12734333
13	0x3e5b961f	0.21443985
14	0xbd7f8814	-0.062385634
15	0x3dd11954	0.10209909
16	0xbc2b5236	-0.010456612
17	0x3d86f06f	0.06588828
18	0xbdebf191	-0.115206845
19	0x3ddb81b6	0.107181
20	0xbdf56c66	-0.11983566
21	0xbd871bd9	-0.065971084
22	0xbe016a5c	-0.12638229
23	0x3d83323c	0.06406066
24	0x3d891ef7	0.06695359
25	0xbe27d730	-0.16390681
26	0xbe0bd45d	-0.13655229
27	0x3d960500	0.073251724
28	0xbda237ae	-0.07920776
29	0xbd233fd1	-0.039855782
30	0xbdfceef1	-0.12350262
31	0xbddc0303	-0.10742762
32	0xbe102695	-0.14077218
33	0xbd9921ad	-0.07477126
34	0xbe3ac5d1	-0.18239523
35	0xbd62cb37	-0.055369582
36	0x3dc02d30	0.09383619
37	0xbc7dbaa3	-0.015486392
38	0x3d00d501	0.031453136
39	0x3cff8672	0.031192038
40	0x3b5ca118	0.0033665355
41	0xbe001a08	-0.1250993
42	0x3b99d758	0.0046948604
43	0x3c985e8c	0.018599771
44	0x3e23857d	0.1596889
45	0xbdaa65b6	-0.08320181
46	0xbd300f18	-0.042983145
47	0x3cb8babc	0.02254998
48	0x3de067fa	0.10957332
49	0x3e08eedc	0.13372368
50	0xbd228563	-0.03967799
51	0xbdbef341	-0.09323741
52	0x3e3278d0	0.17428899
53	0xbdac14d5	-0.08402411
54	0x3dd94991	0.10609735
55	0xbd1cb8ae	-0.03826206
56	0x3b812787	0.0039414796
57	0xbdfbb8d3	-0.12291112
58	0x3df56b82	0.11983396
59	0x3cbce515	0.023058454
60	0xbe0c9307	-0.13727961
61	0x3de3b293	0.11118045
62	0x3e085c87	0.13316546
63	0x3dbb9e31	0.09161032
64	0xbc5d764a	-0.013516972
65	0x3d892a76	0.06697552
66	0xbd65a75b	-0.056067806
67	0xbdbd8ca4	-0.09255341
68	0xbd528ba2	-0.051402695
69	0xbd97ed11	-0.07418264
70	0x3e49229b	0.19642107
71	0xbdfbb0b3	-0.12289562
72	0x3e394d32	0.18095854
73	0x3c8d2410	0.01722911
74	0x3cccc913	0.024998223
75	0x3d867867	0.06565934
76	0x3df06df0	0.11739719
77	0xbbb0b7d9	-0.00539301
78	0x3e14651e	0.14491698
79	0x3e2ae08a	0.16687217
80	0xbe2fba63	-0.17160945
81	0xbe59e842	-0.21280006
82	0x3dd7be77	0.10534375
83	0x3cd57f45	0.026061663
84	0xbd752ee2	-0.059859164
85	0xbe29792d	-0.16550131
86	0x3e5a5972	0.21323183
87	0xbe274495	-0.16334756
88	0x3e025c1c	0.1273045
89	0x3de2f1fe	0.110813126
90	0x3de286d0	0.1106087
91	0xbdce744c	-0.100807756
92	0x3d0c5f1f	0.034270402
93	0xbd8a6b7e	-0.06758784
94	0x3e66d864	0.22543484
95	0xbc90560a	-0.017619152
96	0xbcd5aa3c	-0.02608215
97	0x3d6947e6	0.056953333
98	0xbb80d305	-0.0039314055
99	0xbdc25299	-0.094884105
100	0xbd62a625	-0.05533423
101	0xbe06a530	-0.13148952
102	0xbd0a0d4b	-0.033704083
103	0xbd90a2ff	-0.07062339
104	0x3cc3d4ab	0.023905119
105	0xbdd533e9	-0.10410292
106	0x3e00badb	0.1257128
107	0xbe20374e	-0.15646097
108	0x3c93a002	0.018020634
109	0xbd8982a9	-0.067143746
110	0x3c8b8770	0.017032355
111	0x3dc8741a	0.097877696
112	0xbde2c1bf	-0.110721104
113	0xbe20130f	-0.1563227
114	0x3d9a720e	0.075412855
115	0x3db8656f	0.09003722
116	0xbdf07e96	-0.11742894
117	0x3dc9a223	0.09845378
118	0x3da5ac37	0.08089488
119	0xbddbf6ee	-0.107404575
120	0x3d4ff1d5	0.05076774
121	0x3dbe4943	0.09291317
122	0x3d9caaea	0.07649787
123	0x3caeb391	0.021325858
124	0xbe1ae7da	-0.15127507
125	0x3e28ca36	0.16483387
126	0x3df6eb66	0.120566174
127	0xbe222608	-0.1583482
128	0x3c7fde5d	0.01561698
129	0x3db093b9	0.08621926
130	0x3d822fe5	0.063567914
131	0xbd92dbac	-0.07170805
132	0x3d58ddae	0.052945785
133	0xbc07ef25	-0.008296763
134	0x3dc6275a	0.096754745
135	0x3e304ff8	0.17218006
136	0xbe1f50a0	-0.155581
137	0x3c52b498	0.01286044
138	0xbdc0744e	-0.09397183
139	0xbd122fa6	-0.035689972
140	0xbdb0f9f5	-0.086414255
141	0x3d66ec3e	0.05637764
142	0x3c96bc70	0.0184004
143	0x3e1eb397	0.15498196
144	0x3d9fb850	0.07798827
145	0xbe2ab403	-0.16670232
146	0xbe0b335f	-0.13593815
147	0xbde6206c	-0.11236653
148	0x3c53a21b	0.012917067
149	0x3ceb08bf	0.028690694
150	0xbde7e3cf	-0.11322748
151	0xbd9bb062	-0.07602002
152	0xbcf35c82	-0.029707197
153	0xbe3a79b8	-0.18210495
154	0x3e21a473	0.15785389
155	0xbc16a00d	-0.0091934325
156	0x3e1803d6	0.14845213
157	0x3da01ee5	0.07818393
158	0x3e37d12c	0.17950886
159	0x3d195253	0.037432026
160	0x3e116f36	0.1420258
161	0xbd1e8c5c	-0.038708076
162	0xbc898d8f	-0.016791133
163	0xbca2ffe9	-0.019897418
164	0xbdae326c	-0.08505711
165	0x3c59c9ed	0.013292772
166	0x3cb6a79d	0.022296721
167	0xbe22447d	-0.15846439
168	0x3cfd091b	0.03088813
169	0xbd5501bd	-0.05200361
170	0x3dacb769	0.0843342
171	0x3e52b043	0.20575051
172	0x3dd50efa	0.10403247
173	0xbd4298d7	-0.04750904
174	0x3e0ff0cf	0.14056705
175	0x3d4e74dd	0.05040442
176	0xbc03a8ca	-0.008035848
177	0x3de5b522	0.11216189
178	0xbb4a900f	-0.003090862
179	0x3d96c107	0.07361036
180	0xbd4e2eaa	-0.05033747
181	0xbd05edc1	-0.032697443
182	0x3d9e1b78	0.07720083
183	0xbcdb9cfa	-0.02680825
184	0x3d0ce66b	0.03439943
185	0x3d3eb26b	0.04655687
186	0xba384b54	-0.0007030268
187	0x3d774cc7	0.060375955
188	0x3d495c94	0.049160555
189	0xbcd14c71	-0.025549145
190	0xbca2c97f	-0.019871471
191	0xbe1031ae	-0.14081451
192	0x3dcfd3ae	0.101477966
193	0xbdbc1e30	-0.09185445
194	0xbd591dab	-0.05300681
195	0xbca70e59	-0.020392584
196	0xbd79a263	-0.06094588
197	0xbe0ada38	-0.13559806
198	0xbe0ee28e	-0.13953611
199	0xbda97c91	-0.08275712
200	0xbe284709	-0.16433348
201	0xbdb52148	-0.088442385
202	0x3e135cbe	0.14390847
203	0xbc10e882	-0.008844497
204	0x3e0444ae	0.12916824
205	0xbdf27698	-0.11839026
206	0xbd0f9e93	-0.035063338
207	0x3e0ff972	0.1406
208	0xbcb787d7	-0.02240364
209	0x3e031cda	0.12803975
210	0x3c1d6d98	0.009608649
211	0xbd8390b0	-0.06424081
212	0xbe39ad50	-0.1813252
213	0x3e0b1fd9	0.13586368
214	0xbe28feca	-0.16503444
215	0x3e33ccb9	0.17558564
216	0xbd88d0c8	-0.06680447
217	0xbd8e5336	-0.06949465
218	0x3ccde512	0.025133643
219	0xbc9d87b7	-0.019229753
220	0xbbfb4e67	-0.0076692584
221	0x3ddcf1d4	0.107883126
222	0x3e09c4c4	0.13453966
223	0x3ca92df0	0.020651788
224	0xbe0f52d9	-0.13996448
225	0x3c9c3b81	0.019071342
226	0xbd0a1dad	-0.033719707
227	0x3e3d98d8	0.18515337
228	0xbe09cbf9	-0.13456716
229	0x3b8ea43a	0.0043530734
230	0x3dbb235d	0.091376044
231	0x3e2613c5	0.16218479
232	0x3d30e24a	0.043184556
233	0xbd7c57aa	-0.06160704
234	0x3e2528fd	0.16128917
235	0x3d3e5d4d	0.046475697
236	0x3df58be0	0.1198957
237	0x3e3bab9f	0.18327187
238	0xbe1b942c	-0.15193242
239	0x3e106a8c	0.14103144
240	0xbd3cc1ae	-0.046083145
241	0x3e232b8e	0.15934584
242	0xbdba5e60	-0.09100032
243	0x3dd801db	0.10547229
244	0x3e0e3160	0.13886023
245	0x3d40340b	0.046924632
246	0x3d9a6fa5	0.07540826
247	0xbe1afc6c	-0.15135354
248	0xbd064265	-0.032778163
249	0x3affd5e8	0.0019518705
250	0xbe01f667	-0.12691651
251	0xbd27530b	-0.04085068
252	0x3e1f650e	0.15565893
253	0x3d2b9665	0.041891474
254	0x3cf4a430	0.029863447
255	0xbe1ab570	-0.15108275

weight f4 [256, 512]
0	0xbe00c780	-0.12576103
1	0xbda3b85f	-0.0799415
2	0xbab5a94c	-0.0013859659
3	0x3d1f51e6	0.038896464
4	0xbdf27db6	-0.11840384
5	0x3e20ee3d	0.1571588
6	0x3c818e4f	0.015814928
7	0xbd109cc3	-0.03530575
8	0x3e0b209c	0.13586658
9	0xbdc2ed04	-0.095178634
10	0xbc89c936	-0.016819578
11	0xbe319078	-0.17340267
12	0xbc5d263a	-0.013497883
13	0x3d30f1ec	0.043199465
14	0x3d3d04b9	0.046147082
15	0xbdc1264c	-0.09431133
16	0x3d721c23	0.059108865
17	0xbd595d3a	-0.053067423
18	0xbdd49a72	-0.103810206
19	0xbe38e27f	-0.18055151
20	0x3d8d0e6d	0.06887517
21	0xbe6999ce	-0.22812578
22	0x3cf5ad5c	0.02998989
23	0xbe45431e	-0.19263884
24	0x3c43b67e	0.011945365
25	0xbafa5f7d	-0.0019101944
26	0xbde0c0b8	-0.10974258
27	0xbde8a3e4	-0.11359385
28	0xbdf74abd	-0.12074802
29	0xbe15f3d5	-0.14643796
30	0x3d90ff18	0.07079905
31	0xbbe81630	-0.007082723
32	0x3e4e0429	0.20118774
33	0xbd6bdeb5	-0.057585437
34	0x3e83b715	0.25725618
35	0xbcfc536a	-0.030801494
36	0xbe05cec7	-0.1306716
37	0x3e24c7a0	0.16091776
38	0xbe157dfa	-0.14598837
39	0xbdef5a40	-0.11687136
40	0x3c03c0a1	0.008041532
41	0xbe1e77e9	-0.1547543
42	0xbd6a1b9a	-0.05715523
43	0xbd89d5b5	-0.067302145
44	0x3e377b19	0.17918052
45	0x3ddc9ffd	0.10772703
46	0xbe28e075	-0.16491874
47	0xbe3e0255	-0.18555577
48	0x3e267130	0.16254115
49	0x3d80131e	0.06253646
50	0x3e1a4572	0.15065554
51	0x3e4e9ddf	0.2017741
52	0xbdc1f6b5	-0.09470884
53	0xbe25eb64	-0.16203076
54	0xbde21f14	-0.11041084
55	0xbe09fdd1	-0.1347573
56	0x3dd9da36	0.106373236
57	0x3e01bdfc	0.1267013
58	0xbdf144bd	-0.11780689
59	0xbe8b0522	-0.27152354
60	0x3dad0118	0.08447474
61	0xbcc76430	-0.024339765
62	0xbe91fab9	-0.285116
63	0xbd5b0968	-0.053475767
64	0x3e5f00cb	0.21777646
65	0x3da4cc79	0.080468126
66	0x3e859aca	0.26094657
67	0x3e3e663d	0.18593688
68	0x3e640de3	0.22270922
69	0xbe437294	-0.19086677
70	0xbe072439	-0.13197412
71	0xbe0d35e5	-0.1379009
72	0xbe1e253c	-0.15443891
73	0x3dd1adde	0.10238241
74	0xbd5505cf	-0.052007493
75	0xbe97c71d	-0.296441
76	0xbdb5e747	-0.08882003
77	0x3e0cbf67	0.13744889
78	0xbe8ffab7	-0.28120968
79	0xbe71e8fd	-0.23624034
80	0x3e4282c1	0.18995191
81	0x3e577a1e	0.21042678
82	0xbdc69a08	-0.09697348
83	0x3cad94d0	0.021189123
84	0x3d631f24	0.05544962
85	0x3e45384e	0.1925976
86	0xbe404f3d	-0.18780227
87	0x3dbc50d0	0.09195101
88	0xbdf61d30	-0.12017286
89	0xbc6f6c47	-0.014613218
90	0xbe24a9db	-0.1608042
91	0xbda7b5df	-0.08188986
92	0xbc482363	-0.012215468
93	0x3d3a8f99	0.0455471
94	0x3d8e5854	0.06950441
95	0xbc947fcb	-0.018127343
96	0xbd355cf3	-0.044278096
97	0xbbf5e574	-0.0075041596
98	0x3b532643	0.003221885
99	0xbde8c662	-0.113659635
100	0x3d767ed4	0.060179546
101	0xbe3ebac2	-0.1862593
102	0xbde27f1f	-0.11059403
103	0xbd9ed99f	-0.07756352
104	0xbe44124e	-0.19147608
105	0x3e7e1e5b	0.24816267
106	0x3d0d6ea0	0.03452933
107	0xbe735902	-0.23764423
108	0xbd23173a	-0.039817072
109	0x3db76ea8	0.08956653
110	0x3d1de2d9	0.038546417
111	0xbd48f0c5	-0.04905774
112	0x3cbb0545	0.022829661
113	0xbdd7b17d	-0.105319
114	0xbdf3b53a	-0.118998006
115	0x3d9ee5db	0.07758685
116	0x3bcdd81d	0.006281866
117	0x3d55578a	0.052085437
118	0x3e232d4f	0.15935253
119	0x3d0c74c4	0.034291044
120	0xbe1a9886	-0.15097246
121	0xbe305813	-0.17221098
122	0xbcc08326	-0.023500036
123	0xbd477737	-0.048697677
124	0x3e4c5f45	0.19958217
125	0xbdce0a01	-0.10060502
126	0xbcad35be	-0.02114379
127	0xbbf2bafb	-0.0074075437
128	0x3d9c142e	0.076210365
129	0x3dca945c	0.098915786
130	0x3e138e11	0.14409663
131	0xbe18b153	-0.14911394
132	0x3e1a624c	0.1507656
133	0x3e56a387	0.20960818
134	0xbe332389	-0.17494024
135	0xbd7f8e33	-0.06239147
136	0x3e4dcce9	0.20097698
137	0xbd15bc6c	-0.036556646
138	0xbd29473f	-0.04132771
139	0x3d3ed81f	0.046592828
140	0xbcf14dff	-0.029456137
141	0x3d6d8c62	0.057995208
142	0xbe1ee9b5	-0.1551884
143	0x3d1faefd	0.03898524
144	0xbe9cab90	-0.30599642
145	0xbd435188	-0.047685176
146	0xbd99ecb4	-0.07515851
147	0xbe482211	-0.19544245
148	0x3e149d20	0.14513063
149	0x3d536be4	0.051616564
150	0xba9cbb9c	-0.0011957767
151	0x3d0d4955	0.034493763
152	0xbd8590e6	-0.06521778
153	0xbd1d689b	-0.038429838
154	0xbbf3311b	-0.0074216253
155	0xbda0df3c	-0.078550786
156	0xbe064fa7	-0.13116322
157	0x3e540b78	0.207075
158	0xbe3074cb	-0.17232053
159	0xbd33444a	-0.043766297
160	0xbdd889b2	-0.10573138
161	0x3d4daedb	0.050215583
162	0x3e017cf1	0.12645318
163	0x3dcc172b	0.099653564
164	0x3d576de9	0.052595053
165	0xbdf86547	-0.12128692
166	0xbda49d8d	-0.08037863
167	0xbc98af7c	-0.018638365
168	0xbe52fa10	-0.20603204
169	0xbd9ba3c8	-0.07599598
170	0xbcd59314	-0.026071109
171	0xbdb8eb1a	-0.09029217
172	0x3e663671	0.22481705
173	0xbd115d6c	-0.035489485
174	0xbe4be682	-0.1991215
175	0xbcd68798	-0.026187703
176	0x3e835a85	0.25654998
177	0x3d9d666c	0.07685551
178	0x3e2a433e	0.16627213
179	0xbd4d044c	-0.050052926
180	0x3d136c71	0.03599209
181	0xbd2dd5cb	-0.042440217
182	0x3d4ac4a7	0.04950395
183	0x3d499e1a	0.049223043
184	0x3d60bbba	0.05486653
185	0xbd77dbac	-0.06051223
186	0xbe8aac57	-0.2708461
187	0xbdb1eb10	-0.08687413
188	0xbe146f85	-0.14495666
189	0x3e4c822f	0.19971536
190	0x3e17283b	0.1476144
191	0xbe14c75f	-0.14529179
192	0x3bc31306	0.0059531955
193	0xbe162966	-0.1466423
194	0xbd239cc5	-0.03994443
195	0xbdd90575	-0.10596744
196	0xbc803eaa	-0.01565488
197	0x3db33665	0.08750609
198	0xbcff9d9c	-0.031203084
199	0x3d151b0d	0.03640275
200	0x3c98fd86	0.018675577
201	0xbe11ac0c	-0.14225787
202	0x3d2973cc	0.041370198
203	0xbdb38c70	-0.08767021
204	0x3d9a46f8	0.075330675
205	0x3ddc2893	0.107499264
206	0xbd6e8d60	-0.058240294
207	0xbe09bef9	-0.13451757
208	0x3e4a9c70	0.19786239
209	0x3e1854fc	0.14876169
210	0xbe0ba872	-0.13638476
211	0x3e58e0b4	0.21179467
212	0x3dae361c	0.08506414
213	0x3ea50201	0.3222809
214	0x3d5aa272	0.053377576
215	0xbc8bbead	-0.017058695
216	0xbdb5aadf	-0.08870482
217	0xbd660b0d	-0.056162883
218	0xbe5c377a	-0.21505538
219	0x3ddd8336	0.10816042
220	0x3d2b1577	0.041768517
221	0xbad5d1aa	-0.0016313095
222	0xbe557129	-0.20843948
223	0x3d520bed	0.051280905
224	0xbc909b59	-0.0176522
225	0xbdd5a842	-0.10432483
226	0x3e6ae3f8	0.22938526
227	0xbe544a7d	-0.2073154
228	0xbb82dedf	-0.0039938535
229	0xbddc5db3	-0.10760059
230	0xbc224524	-0.00990418
231	0x3e4be140	0.19910145
232	0x3dcd886e	0.100357875
233	0x3e90d665	0.2828857
234	0xbc9539ed	-0.018216098
235	0xbc45631f	-0.012047558
236	0xbcea356f	-0.028589932
237	0x3dcac8e4	0.09901598
238	0x3c9aea05	0.018910417
239	0xbe5a0539	-0.21291055
240	0xbde247ff	-0.110488884
241	0xbd9c4410	-0.076301694
242	0x3dee7242	0.11642887
243	0x3dedb8b4	0.11607495
244	0xbe96cf42	-0.29455
245	0x3e21b7be	0.15792748
246	0xbe8618bb	-0.26190743
247	0x3cbc9d2c	0.023024164
248	0x3d82d635	0.06388513
249	0x3d8d2562	0.06891896
250	0x3e3c4555	0.18385823
251	0xbd6b0d25	-0.057385582
252	0x3caf15af	0.021372644
253	0xbdf7366b	-0.12070926
254	0xbe22d0a6	-0.15899906
255	0x3d0c09f1	0.03418917

bias f4 [256]
0	0xbde78346	-0.11304335
1	0xbdb4a91b	-0.08821317
2	0xbc223c42	-0.009902062
3	0xbdb8ceea	-0.09023841
4	0x3d1b3d37	0.037900176
5	0x3db6bed0	0.08923113
6	0x3d9116cf	0.070844285
7	0xbd85abde	-0.06526922
8	0x3d2be99f	0.041970845
9	0xbc9e6552	-0.019335423
10	0x3d8c7a81	0.06859303
11	0x3d76ef3b	0.06028674
12	0x3b8c2e33	0.0042779683
13	0x3dc6fa4c	0.09715709
14	0x3c15bae1	0.009138794
15	0xbcd51727	-0.026012016
16	0x3b4bf53e	0.0031121518
17	0x3cbc6dfd	0.023001665
18	0x3d116a19	0.035501573
19	0x3cd50038	0.02600108
20	0xbda128e0	-0.078691244
21	0x3d6a474a	0.057196893
22	0xbd05b0d1	-0.03263933
23	0x3c4a5046	0.01234824
24	0x3cdb5e03	0.026778227
25	0x3c0dff1b	0.008666779
26	0xbd7faa38	-0.062418193
27	0xbcd4d821	-0.025981965
28	0xbd04dab8	-0.03243515
29	0x3df4e8ec	0.11958489
30	0x3d5965f4	0.053075746
31	0x3cda80b4	0.026672699
32	0x3d7f8bc2	0.062389143
33	0x3d22e1dd	0.03976618
34	0xbacc471c	-0.0015585157
35	0xbd28c98e	-0.041207843
36	0xbd98a976	-0.07454197
37	0x3d026d89	0.031842742
38	0x3e13d279	0.14435758
39	0xbcb77b8a	-0.022397775
40	0x3d1b1fea	0.037872232
41	0xbd5337b6	-0.051566802
42	0x3dcaf510	0.09910023
43	0x3d9a338b	0.07529362
44	0xbd692bac	-0.056926414
45	0x3ce49e7c	0.027907602
46	0x3dff67a5	0.124709405
47	0xbd9a97cd	-0.07548485
48	0xbd55d699	-0.05220661
49	0x3da90a91	0.082539685
50	0xbdb89c92	-0.090142384
51	0x3d979d8a	0.07403095
52	0xbd98ece0	-0.07467055
53	0xbd3c9db4	-0.046048835
54	0x3d077338	0.033068866
55	0x3dba7b9d	0.091056086
56	0xbc65d137	-0.0140269315
57	0xbdb13501	-0.08652688
58	0x3df62ce2	0.120202795
59	0x3dea2109	0.11432082
60	0x3d55492e	0.052071743
61	0x39297bc1	0.00016163198
62	0x3a698b78	0.0008909027
63	0xbdc47022	-0.095917
64	0xbc6291b8	-0.013828687
65	0xbdaf844b	-0.08570155
66	0x3dafbf1b	0.08581372
67	0x3d924826	0.071426675
68	0x3cc3ffd7	0.023925705
69	0x3d3afe3f	0.045652624
70	0x3dd18215	0.10229889
71	0x3d8c69b1	0.068560965
72	0x3d8f42fc	0.06995198
73	0x3cc0b3f7	0.023523314
74	0xbcbeb354	-0.02327887
75	0xbbbe5bbc	-0.0058092754
76	0x3dbd7ac8	0.09251934
77	0xbc86d86f	-0.016460625
78	0xbc0dd9c8	-0.00865788
79	0x3dbe30c2	0.092866436
80	0x3ccf9471	0.025339337
81	0x3c920af6	0.017827492
82	0xbbe44b50	-0.0069669858
83	0xbdbf8816	-0.09352128
84	0x3ddf3206	0.10898213
85	0xbd24fe53	-0.040281605
86	0x3dfd2ff1	0.1236266
87	0x3d8dab19	0.069174
88	0xbca21b9b	-0.019788554
89	0x3d39da38	0.045374125
90	0x3d5a03cb	0.053226274
91	0xbd9a5b06	-0.075368926
92	0xbcce11ce	-0.025154974
93	0x3d2a3bda	0.041560985
94	0xbdbab726	-0.09116964
95	0xbd03b3f5	-0.032154042
96	0x3d443108	0.047898322
97	0x3d02c5dd	0.03192698
98	0x3d715a2b	0.05892388
99	0x3cbeec76	0.023306113
100	0xbc92f777	-0.017940266
101	0x3d03381d	0.032035936
102	0x3ccf5a5f	0.025311647
103	0xbcfe558b	-0.03104665
104	0xbc67362c	-0.014112037
105	0xbe0e43cb	-0.13893048
106	0x3cb98f05	0.022651205
107	0x3e0dc924	0.1384626
108	0x3e03fdc9	0.1288978
109	0xbd56fc79	-0.05248687
110	0x3cf474b6	0.029840808
111	0xbcbdcdd1	-0.02316943
112	0xbcd08be6	-0.025457334
113	0x3dd2cfcd	0.10293541
114	0x3d930dd7	0.07180374
115	0xbd18fd9d	-0.03735124
116	0x3de1300c	0.10995492
117	0xbdadfb2b	-0.08495172
118	0xbd29716e	-0.04136794
119	0x3d94a999	0.07258911
120	0xbcc6f1a7	-0.02428515
121	0x3d880cfd	0.06643102
122	0xbd817c2b	-0.06322511
123	0xbc6ab281	-0.014324785
124	0x3d17ebda	0.03709016
125	0x3c0a1928	0.008428849
126	0xbd176ea0	-0.036970735
127	0xbc98b316	-0.018640082
128	0x3d6a7707	0.05724242
129	0x3d82baa1	0.06383253
130	0x3cc261e2	0.023728315
131	0x3d2c3c56	0.04204973
132	0xbcc7ca58	-0.024388477
133	0xbd771979	-0.060327027
134	0xbc8cc0fd	-0.017181868
135	0xbd2d1415	-0.04225548
136	0xbbc9b1c6	-0.0061552254
137	0x3bf0dbb2	0.0073504085
138	0x3ddfbc4f	0.10924589
139	0xbd3c2f2a	-0.045943417
140	0x3d234699	0.03986225
141	0x3af76344	0.0018874188
142	0xbd47f4c3	-0.048817407
143	0x3d8ecaed	0.06972299
144	0xbdd830d9	-0.10556192
145	0xbd09010f	-0.033448275
146	0x3b0106f9	0.0019687994
147	0xbcd3a5b2	-0.025835846
148	0xbd029403	-0.031879436
149	0x3d0e9377	0.034808602
150	0xbb9dafa2	-0.004812197
151	0x3dcb797e	0.09935282
152	0x3d29d8bd	0.041466463
153	0xbccbfef1	-0.024901839
154	0x3bc92c26	0.006139296
155	0x3dc140ce	0.09436189
156	0xbc35d50f	-0.01109816
157	0xbcff9c91	-0.031202586
158	0xbd13e59d	-0.03610765
159	0x3db6b876	0.08921902
160	0xbd51a48b	-0.05118231
161	0x3b1295af	0.002236705
162	0x3d708cef	0.058728155
163	0xbd123d8e	-0.035703234
164	0x3d169d99	0.03677139
165	0x3d3097ee	0.04311364
166	0x3c900772	0.017581675
167	0xbc3b3987	-0.01142729
168	0xbd4bc599	-0.04974899
169	0x3ccf2b57	0.02528922
170	0xbd484870	-0.048897207
171	0x3d251a49	0.04030827
172	0x3d201122	0.03907884
173	0xbe05bd8e	-0.1306059
174	0x3dd7d833	0.105392836
175	0x3cc7d7e4	0.024394937
176	0xbd015b70	-0.031581342
177	0x3d58a167	0.0528883
178	0x3b0181b6	0.0019761152
179	0x3c823372	0.015893672
180	0x3d7fc41a	0.062442876
181	0xbdd43530	-0.10361707
182	0x3d39672e	0.045264415
183	0x3b0360b0	0.0020046644
184	0x3da1126c	0.07864842
185	0xbd43d78d	-0.047812987
186	0xbd331abf	-0.04372668
187	0x3d5916bc	0.053000197
188	0x3d9db804	0.07701114
189	0xbd27ad0a	-0.040936507
190	0x3d6c54d2	0.05769808
191	0x3d19541c	0.03743373
192	0xbd7a0e61	-0.06104887
193	0xbbcf89aa	-0.0063335495
194	0x3ca007ae	0.019534912
195	0x3dabeeb3	0.08395138
196	0x3d237699	0.039908025
197	0xbce5a428	-0.028032377
198	0x3b7240fc	0.0036965003
199	0x3d0f34cf	0.03496247
200	0xbd2f55f3	-0.042806577
201	0xbd80cf6b	-0.06289562
202	0x3c9c2e1a	0.019064952
203	0xbc0a45eb	-0.008439521
204	0x3d9fee96	0.078091785
205	0x3a8d4704	0.0010778611
206	0x3d562c4b	0.052288335
207	0x3d01daca	0.031702794
208	0x3e100802	0.14065555
209	0xbd019cf4	-0.031643823
210	0xbc34a70f	-0.011026158
211	0x3d9b6919	0.07588405
212	0x3d237f19	0.03991613
213	0x3b393a57	0.0028263533
214	0x3cad63bb	0.02116572
215	0xbd72987e	-0.05922746
216	0xbcfff3b7	-0.031244142
217	0xbbffd173	-0.0078069507
218	0x3d4ae0f3	0.049530935
219	0x3c8b8b8f	0.01703432
220	0x3cea7f00	0.028625011
221	0x3c607575	0.013699879
222	0xbd365304	-0.044512764
223	0xbd3e41aa	-0.04644934
224	0x3e0b3804	0.13595587
225	0x3d8eb250	0.06967604
226	0xbd0e924d	-0.034807492
227	0x3cb54f66	0.022132587
228	0x3d97ce22	0.074123636
229	0x3d8447d7	0.06459015
230	0xbd9c033a	-0.07617803
231	0x3dab735a	0.08371611
232	0x3cf4ccff	0.029882906
233	0x3d920c66	0.07131271
234	0x3dd9f323	0.10642078
235	0xbcea92a9	-0.028634386
236	0x3d7bb197	0.06144866
237	0x3c3e203f	0.011604368
238	0xbd4dfcaf	-0.050289806
239	0xbd7b02f4	-0.061282113
240	0xbdb38808	-0.0876618
241	0x3b08ef58	0.0020894613
242	0x3bed0be2	0.0072340826
243	0x3d70b2d1	0.058764283
244	0x3cd6e06b	0.026230058
245	0x3d1865a0	0.037206292
246	0x3d72f8c8	0.059319288
247	0x3daa272d	0.083082534
248	0x3cf7c171	0.030243607
249	0x3d5c140f	0.053730067
250	0x3d5142b4	0.051089004
251	0xbd3b694b	-0.045754712
252	0x3d7e6676	0.062109433
253	0x3cfdbd35	0.03097401
254	0xbd94deaa	-0.07269032
255	0x3d175292	0.03694398

weight f4 [64, 256]
0	0x3e254a60	0.16141653
1	0xbd1ee205	-0.038789768
2	0xbe1cb402	-0.15303043
3	0x3d8b3458	0.06797093
4	0xbd1bd897	-0.038048353
5	0x3de9afe4	0.114105016
6	0x3d9c7dff	0.07641219
7	0x3e81b5c6	0.25333995
8	0x3bb97a68	0.005660344
9	0x3df0cd32	0.11757888
10	0x3ddcf765	0.10789374
11	0x3d5e90b1	0.054337207
12	0xbe655fdd	-0.2239985
13	0xbe1099c2	-0.14121154
14	0x3ce5151e	0.027964171
15	0x3e4a4343	0.19752221
16	0xbe7e16f3	-0.24813442
17	0x3dd7c4ca	0.105355814
18	0x3d01fba8	0.03173414
19	0x3d1d0f59	0.038344715
20	0xbe0b0027	-0.13574277
21	0xbdbb2392	-0.09137644
22	0x3de9e5fb	0.114208184
23	0xbe11ec9d	-0.14250417
24	0x3bf9cfe8	0.0076236613
25	0xbdf0afc3	-0.11752274
26	0x3db5e3e3	0.088813566
27	0x3da310a7	0.079621606
28	0x3d587172	0.052842565
29	0xbe2222eb	-0.15833633
30	0xbd352af4	-0.044230416
31	0x3ce5ffde	0.028076109
32	0xbeb1f594	-0.34757674
33	0x3e7a89c7	0.2446662
34	0x3d054416	0.032535635
35	0xbdffd031	-0.12490881
36	0x3c50b0c3	0.012737456
37	0x3d95e9e1	0.073199995
38	0xbe4181a5	-0.18897112
39	0x3e2d07f0	0.16897559
40	0x3d5c5d18	0.05379972
41	0xbd750653	-0.059820484
42	0xbe048ee3	-0.12945132
43	0x3e1223ba	0.14271441
44	0x3e4edefd	0.20202251
45	0x3dd39638	0.10331386
46	0xbccb8b2c	-0.024846636
47	0xbd515203	-0.051103603
48	0xbd86d670	-0.065838695
49	0xbd8c3c54	-0.06847444
50	0x3e3d4c90	0.18486238
51	0x3e05c27f	0.13062476
52	0x3d476130	0.04867667
53	0xbdcc9599	-0.09989471
54	0x3e8918fa	0.26776868
55	0xbe0fd561	-0.14046241
56	0xbcb4afab	-0.022056421
57	0xbdd38ec5	-0.103299655
58	0x3dbbafd5	0.09164397
59	0x3d1dbad5	0.038508255
60	0x3da30c65	0.079613484
61	0xbe1cc5be	-0.15309808
62	0xbd4c5d6d	-0.049893785
63	0x3e1a3350	0.15058637
64	0x3d8eb42c	0.06967959
65	0xbe13b7e6	-0.1442562
66	0xbdfbe456	-0.12299411
67	0x3e536695	0.206446
68	0x3da76345	0.08173231
69	0x3deade0a	0.11468132
70	0xbdbc1ae6	-0.09184818
71	0x3c265ec1	0.010154427
72	0xbe51b1a0	-0.20477915
73	0x3e3c9ae2	0.18418458
74	0x3dfb2db6	0.12264578
75	0x3dab4a18	0.08363742
76	0xbd15f8f3	-0.03661437
77	0xbde8c245	-0.11365179
78	0xbe035a83	-0.12827496
79	0x3cb04b02	0.021520142
80	0x3e31fffe	0.1738281
81	0x3e133625	0.14376123
82	0x3ea30463	0.31839284
83	0x3d980cff	0.07424354
84	0xbe62bdf3	-0.22142772
85	0x3de8ea8b	0.113728605
86	0x3da58487	0.08081918
87	0x3d2a7681	0.04161692
88	0xbe6ab8ca	-0.22922054
89	0x3d92a74e	0.07160817
90	0xbd96a8dd	-0.07356427
91	0x3d8a4ec4	0.067533046
92	0x3dda3710	0.106550336
93	0xbe8114b9	-0.25211123
94	0x3d554d30	0.052075565
95	0xbdbc72d6	-0.09201591
96	0xbd83543e	-0.06412552
97	0x3d9e7164	0.07736471
98	0x3e9b0040	0.30273628
99	0x3cfecf37	0.031104667
100	0x3d579629	0.05263344
101	0x3d2fb52c	0.04289739
102	0x3e1cf4bd	0.15327735
103	0x3d0e2e4b	0.034712117
104	0xbd99b805	-0.07505802
105	0xbc753666	-0.014966583
106	0xbe091f8c	-0.1339094
107	0x3c8632c7	0.016381634
108	0x3e4f8b53	0.20267992
109	0x3db56a23	0.088581346
110	0xbc942bda	-0.018087316
111	0x3d94a3ea	0.072578266
112	0x3e20cd27	0.1570326
113	0xbe10da46	-0.14145765
114	0x3c90d8ef	0.017681567
115	0x3d503f6b	0.05084173
116	0xbe0bc04e	-0.13647577
117	0xbd8ec5e8	-0.06971341
118	0x3e944e14	0.2896582
119	0xbea36f71	-0.3192096
120	0xbcf639d9	-0.03005688
121	0xbe2a92f8	-0.16657627
122	0x3d9f46ec	0.07777199
123	0x3e2a8b8b	0.16654794
124	0xbc16a246	-0.009193962
125	0xbe236193	-0.1595519
126	0xbe356e04	-0.17717749
127	0x3bc9f0ba	0.00616273
128	0xbdbe50ed	-0.09292779
129	0x3d1ab8b7	0.037773814
130	0xbdeb0a6b	-0.114765964
131	0xba060bd4	-0.0005113457
132	0xbd5fedbb	-0.054670077
133	0xbcb0be18	-0.021575019
134	0x3dddb3fd	0.10825346
135	0x3d10ebc2	0.035381086
136	0xbdf8c529	-0.1214698
137	0x3d471863	0.04860724
138	0x3b36c1ee	0.0027886587
139	0x3e882dba	0.26597387
140	0x3e3a299f	0.1817994
141	0x3d741729	0.0595924
142	0x3e057f3e	0.1303682
143	0x3d769220	0.06019795
144	0x3ce0c7f8	0.027439103
145	0x3dc34d2e	0.09536205
146	0xbe4b3637	-0.198449
147	0x3d4742b9	0.048647616
148	0xbbe4f677	-0.0069873887
149	0xbd3c7abb	-0.046015482
150	0x3d5c32c6	0.05375936
151	0xbe16804a	-0.14697376
152	0xbde6e93b	-0.11274954
153	0xbe896939	-0.2683809
154	0xbc0a9b94	-0.008459944
155	0x3e2b6817	0.16738926
156	0x3e884d94	0.26621687
157	0x3e4972cf	0.19672702
158	0xbe16f00f	-0.14740013
159	0x3b4f56d6	0.0031637452
160	0xbd03a38d	-0.032138396
161	0x3d82a70e	0.063795194
162	0xbe5e7674	-0.21724874
163	0x3e1a64bc	0.1507749
164	0x3c8ac607	0.01694013
165	0xbd1628d9	-0.03666005
166	0xbdc7409c	-0.0972912
167	0xbce1e14b	-0.027573248
168	0xbe41f05c	-0.18939346
169	0x3d418dc1	0.047254328
170	0x3e20f550	0.1571858
171	0x3de2743b	0.110573255
172	0xbe8116a6	-0.25212592
173	0x3d911493	0.07084002
174	0xbe73145a	-0.23738232
175	0x3c0f0862	0.008730026
176	0xbe8d5a19	-0.27607802
177	0xbe6861ae	-0.22693512
178	0x3d97e5ec	0.07416901
179	0x3dd6c828	0.104873955
180	0x3d6a1620	0.057150006
181	0xbd5b8be5	-0.05360021
182	0xbe24b19a	-0.16083375
183	0x3d8d5f23	0.069029115
184	0x3d5a18e3	0.05324639
185	0x3dfaddac	0.12249312
186	0xbea6e1cc	-0.32594144
187	0xbd30d836	-0.043174945
188	0xbe64c750	-0.22341657
189	0x3d201770	0.03908485
190	0x3d859a9e	0.065236315
191	0xbd38ed2a	-0.045148052
192	0xbdb7340c	-0.08945474
193	0x3c0d1947	0.008611984
194	0xbe0f2ad6	-0.13981184
195	0x3e108124	0.14111763
196	0xbe0a2bc3	-0.13493256
197	0x3d1db4d5	0.038502533
198	0xbbc88ae0	-0.006120071
199	0x3d9d6bf4	0.07686606
200	0xbe6d6497	-0.23182903
201	0x3e230e0d	0.15923329
202	0xbd80ada2	-0.06283118
203	0xbd76c907	-0.06025031
204	0xbe6315bb	-0.22176258
205	0xbd7c236b	-0.061557215
206	0xbcc9e594	-0.024645604
207	0x3d0251ce	0.031816296
208	0xbdb34829	-0.08753998
209	0xbcfead36	-0.031088453
210	0x3d90c2a7	0.07068377
211	0x3da34c12	0.07973494
212	0xbd5f6989	-0.054544006
213	0x3dd4b70d	0.10386477
214	0x3db5c27d	0.08874986
215	0xbe0a6634	-0.1351555
216	0xbd8fd849	-0.07023675
217	0x3e1f1d40	0.15538502
218	0x3d5db245	0.05412509
219	0x3df786ea	0.1208628
220	0x3db96127	0.090517335
221	0x3e584b6d	0.21122523
222	0xbe27b146	-0.16376218
223	0xbe94e099	-0.29077604
224	0x3d0c0d9a	0.03419266
225	0x3dbf642f	0.093452804
226	0xbc262462	-0.01014051
227	0xbd24a9cf	-0.040201005
228	0x3d63764f	0.05553275
229	0xbce509b0	-0.02795872
230	0xbe2efc60	-0.17088461
231	0xbd99f25e	-0.07516931
232	0x3e8c537a	0.27407438
233	0xbe7e5221	-0.24836017
234	0x3d8a0ca8	0.06740695
235	0x3e0bf47c	0.13667482
236	0xbd6d5d22	-0.057950146
237	0x3e7c6075	0.2464617
238	0x3d1d6b70	0.03843254
239	0xbdce7b8d	-0.10082159
240	0x3dd4312a	0.1036094
241	0x3d0d39da	0.034479
242	0xbcfc41bc	-0.030793063
243	0xbdf6a1e6	-0.120425984
244	0x3e07c295	0.13257821
245	0xbe746618	-0.2386707
246	0x3c53cafa	0.012926811
247	0x3e2c06e4	0.16799504
248	0x3d88b018	0.06674212
249	0x3e0a0aaa	0.1348063
250	0xbdb6952b	-0.0891517
251	0xbdf11f0f	-0.11773502
252	0x3cdfa46d	0.027300084
253	0xbd8c3c92	-0.0684749
254	0x3d941f3c	0.0723252
255	0x3de9cf13	0.114164494

bias f4 [64]
0	0xbd64b071	-0.05583233
1	0x3d923ec7	0.0714088
2	0xba0421ed	-0.0005040456
3	0x3dcfe6ca	0.101514414
4	0xbcb725d2	-0.022356901
5	0xbd7d7ea9	-0.06188837
6	0x3d48de3c	0.049040064
7	0x3d0d7027	0.034530785
8	0x3e15b7a3	0.14620833
9	0x3e268b1a	0.16264
10	0xbc98c99d	-0.018650824
11	0xbd171b39	-0.036891196
12	0xbe0fbf32	-0.14037779
13	0x3d1bb08b	0.03801016
14	0xbdbe7430	-0.09299505
15	0xbd01cd58	-0.03168997
16	0x3daec9b9	0.08534569
17	0xbd194245	-0.037416715
18	0x3dd20653	0.102551125
19	0xbda34a2b	-0.07973131
20	0x3dce4368	0.100714505
21	0xbdc685df	-0.09693503
22	0xbcdc1991	-0.02686766
23	0xbe061cb2	-0.13096884
24	0xbc9c23f5	-0.019060114
25	0xbdbe9d94	-0.093073994
26	0xbcd23cea	-0.025663812
27	0x3a353f02	0.0006913991
28	0xbd4431af	-0.047898944
29	0x3db03a22	0.08604838
30	0xbc802227	-0.015641285
31	0xbe067adb	-0.13132803
32	0x3d5497a7	0.05190244
33	0xbe02d01d	-0.12774701
34	0xbde22f5a	-0.11044188
35	0x3d32fc5b	0.043697696
36	0xbd28de41	-0.041227583
37	0xbdcd4be5	-0.10024241
38	0xbdacdd24	-0.08440617
39	0x3d398894	0.045296267
40	0x3d8dec80	0.069298744
41	0xbd73faa9	-0.05956522
42	0x3dba67a8	0.09101802
43	0x3e65d33d	0.22443862
44	0x3e157c79	0.14598264
45	0x3e4b219e	0.19837043
46	0xbe14c960	-0.14529943
47	0xbda61454	-0.08109346
48	0xbc1b3e5e	-0.009475319
49	0x3d293d06	0.041317962
50	0xba40370c	-0.00073324214
51	0xbc901168	-0.017586425
52	0x3e3a3dfd	0.18187709
53	0xbcdbdd37	-0.026838882
54	0xbd3f4f38	-0.04670641
55	0x3aeab707	0.001790733
56	0x3ce8eff6	0.028434735
57	0xbd6eaaca	-0.058268346
58	0xbddae180	-0.10687542
59	0xbdec4f54	-0.11538568
60	0xbcbb4a26	-0.022862505
61	0xbd5fc134	-0.054627612
62	0x3dc2c911	0.095110066
63	0xbb248416	-0.0025103143
