pth/takada_model_5.pth (torch, 119438 bytes, 6 tensors)

weight f4 [128, 128]
00000000: 08f0 34be ce2d ad3c 6ece 0e3e ca8a ad3d
00000010: 8b4b e93c 58b5 c13d 5e2a 283d fc22 5b3d
00000020: a55c 283e bcb7 03be 463c 05be c8e7 4a3e
00000030: 5c37 0b3e 082b 9d3d 2c23 0a3e 761f b73d
00000040: a928 053d e606 01be 54c3 433e 8051 d93d
00000050: a352 6d3e ec20 463e 29c3 e53d 509c 883d
00000060: e8f3 323e f64a 043e 9b81 0cbe 2e7a 1b3e
00000070: 89f3 823e 2594 803e 529a e63d 17ec d43d
00000080: 319f b23d a7dd 213e 9362 ee3c 1849 4c3e
00000090: 7e80 2bbc 1b19 a3bd ee0c 893d 7181 c83c
000000a0: f3c5 a23d dc33 353e f701 0a3e 805c 653e
000000b0: 22e1 033d 6450 033e d9d6 b63d 7f81 c83d
000000c0: beda 9f3d f22a 3d3d 4292 aa3d 21f1 983d
000000d0: fa20 383e d94f fabc fbfa c13c 8d71 c13c
000000e0: bab3 383d dcbc 3c3e c379 373e 9bfc 0c3e
000000f0: af91 153d 7840 a83d c05a 273e 1dc9 a33d
00000100: a129 253c f49b 203e 06f6 ec3d 07eb 983d
00000110: be51 b23d 0d4a 073e 7de7 883d 761e ab3c
00000120: 99c9 093d 7a4b 043e 48e5 113e ea4a 07be
00000130: 83b5 98bd dbd6 2e3e b9aa c23d fc9d 123d
00000140: b8f6 023e c85a 653d a707 353e f06d 0bbc
00000150: 54b1 03be d150 91bd 5770 2ebc 8871 f73d
00000160: 9d37 263e 69ea a13d 0c0d 163e 668d 333e
00000170: 53bb ba3d 9ee9 21bd 8a9b 8abd afdf c6bd
00000180: dfb8 783d 4160 1e3e 57b4 393e da8b 4e3e
00000190: 46f5 6a3e ab7a 4e3e 15ee 1c3e 2689 a13d
000001a0: 8089 8a3d 067f 1c3d b3a7 a53d 2da5 313d
000001b0: 2b36 653e 88df 1e3e 3a2f bd3d 8e27 a63d
000001c0: de7d 28bc 2c41 673d 3473 813d 724e b83d
000001d0: 0693 5c3e 8785 d23d 68f5 843d 6596 213d
000001e0: c197 b73d 565d 40bd 28b9 343d cd5a b53d
000001f0: 1ab1 d73d efab e13d c3bb 103d 89cd d63d
00000200: 82ae 3dbf d100 12bf 8e9f 11bf 4629 eebe
00000210: 0650 0cbf 5d67 f1be fa44 0cbf 3299 11bf
00000220: 2b04 26bf b21d 41bf 7815 00bf 5cae dbbe
00000230: ef68 fdbe 9f79 e3be 2a1b 0ebf ce04 f3be
00000240: 468f 08bf 0ccb 0bbf 7c42 c8be 6bbc e6be
00000250: 2ea1 d0be 83cb bdbe d2fd 01bf 12d8 febe
00000260: 20fa d5be a8b2 01bf 2f2d ddbe a42d 24be
00000270: 170f d1be 3ba7 c7be 4582 adbe 73b1 fabe
00000280: 7989 f7be 82d8 cbbe 8ba6 f9be 0428 b1be
00000290: c150 a4be a448 c7be 65d6 d9be 9f12 0bbf
000002a0: ca7f dbbe 8381 fcbe 3c3f d9be 5c99 dcbe
000002b0: f9ba a1be 66ff e0be 509e ffbe cb8b fabe
000002c0: edae f5be a47b 13bf 8cc6 fdbe 63c7 afbe
000002d0: 7e35 ecbe bf9d d6be 8e06 03bf 4900 f1be
000002e0: d0ad 13bf 4ee2 fabe 5ee3 dabe a521 06bf
000002f0: 5342 dbbe 5fba 08bf c966 05bf bdbe 2dbf
00000300: a51a 45bf 29b7 c6be 5b55 ebbe 33bd 04bf
00000310: ca0f d5be 72e0 f2be b8b7 ffbe 91f3 36bf
00000320: 170a cfbe 8f97 e6be 4335 03bf 43d3 e9be
00000330: efb8 fcbe f754 efbe bdaf 1cbf bae8 d5be
00000340: 6a97 f0be cdd5 c1be 5a61 d8be dda1 42be
00000350: 63b4 90be db6e dcbe d730 c3be c279 0abf
00000360: 6b4e fabe 22c1 fcbe 6603 a2be e755 55be
00000370: 7225 19be cecc cdbe f051 abbe 5431 c4be
00000380: d56d e0be 192a d0be 1c4d 573d c6c0 9bbe
00000390: 58b1 cfbe dcd4 a2be eb77 05bf 0dcc b7be
000003a0: d227 f7be cd21 babe 5883 a5be ac55 4dbe
000003b0: 82c4 1fbe 00c3 e2be e60a ccbe f706 fcbe
000003c0: 052f f7be 1849 14bf 3e75 e4be c775 c1be
000003d0: 27d5 d5be 6fcf e6be 61a1 2bbf 32e9 f7be
000003e0: 25fa 1bbf ac35 16bf 8688 d8be 0c0e 02bf
000003f0: 017e 03bf 9fe2 e0be 5a9e f6be 46a0 2dbf
-0.1766969 0.021140005 0.13945934 0.084737375 0.028478405 0.09458417 0.04105603 0.05350016
0.16441591 -0.12863058 -0.13011274 0.1981498 0.13595337 0.07674223 0.1348998 0.089415476
0.03250948 -0.12600288 0.1911748 0.10611248 0.23176055 0.19348496 0.112188645 0.06670439
0.17475855 0.1291922 -0.13721316 0.15183327 0.25576428 0.25113025 0.11259903 0.10396593
0.087217696 0.1580721 0.029099738 0.19949758 -0.010467647 -0.07963773 0.06691919 0.024475785
0.07947912 0.17695564 0.13477312 0.22398567 0.032197125 0.12823635 0.08927698 0.097903244
0.07805394 0.046183534 0.08328678 0.07467867 0.1798133 -0.030555652 0.023679247 0.023613716
0.045093276 0.18431419 0.17917542 0.13768236 0.036515888 0.082154214 0.16343212 0.07997344
0.010080726 0.15684491 0.11570363 0.07466703 0.08706997 0.13211842 0.06684778 0.020888548
0.033639524 0.12919417 0.1424762 -0.13212171 -0.074564956 0.17074148 0.09505219 0.035795197
0.12789428 0.05599478 0.176787 -0.008510098 -0.12860614 -0.07095493 -0.010646901 0.12082201
0.16232152 0.07906038 0.14653414 0.17534408 0.091177605 -0.039529435 -0.06767948 -0.09710633
0.06072318 0.15466405 0.181352 0.20170537 0.22945127 0.20163982 0.15325196 0.07887487
0.06764507 0.038207076 0.08088627 0.043370415 0.22383945 0.15514958 0.092375234 0.08113013
-0.010283915 0.056458637 0.063208014 0.08999337 0.2154046 0.102793746 0.0649212 0.039450068
0.08964492 -0.046964012 0.04412189 0.088552095 0.10531826 0.11019122 0.035335314 0.104884215
-0.740944 -0.57032496 -0.56884086 -0.46515864 -0.54809606 -0.47149172 -0.5479275 -0.5687438
-0.6485011 -0.75435936 -0.5003276 -0.42906463 -0.4949412 -0.44428727 -0.555102 -0.47464603
-0.5334362 -0.546067 -0.39113224 -0.45065627 -0.4074797 -0.3706933 -0.50777924 -0.49774224
-0.41792393 -0.5066323 -0.43198535 -0.16033036 -0.40831825 -0.38994774 -0.3388845 -0.48963508
-0.4834707 -0.3981362 -0.48759875 -0.34600842 -0.3209286 -0.38922608 -0.42546383 -0.5432529
-0.42870933 -0.4931756 -0.42431056 -0.43085754 -0.3158796 -0.43944854 -0.4992547 -0.4893478
-0.4798502 -0.57610536 -0.49565542 -0.34331807 -0.4613456 -0.41917226 -0.51181877 -0.4707053
-0.5768709 -0.49000782 -0.42751592 -0.5239509 -0.4282404 -0.5340938 -0.5210996 -0.6786917
-0.7699378 -0.38811615 -0.4596356 -0.51851195 -0.4161361 -0.47436863 -0.49944854 -0.714654
-0.40437385 -0.45037505 -0.51253146 -0.45668992 -0.49359843 -0.4674451 -0.61205655 -0.4177912
-0.4699052 -0.3785843 -0.42261773 -0.19007058 -0.28262624 -0.43053326 -0.381232 -0.5409204
-0.48887953 -0.493661 -0.31643218 -0.2083355 -0.1495569 -0.40195316 -0.3346095 -0.38318884
-0.43833795 -0.40657118 0.05256377 -0.30420512 -0.4056499 -0.31803024 -0.52136105 -0.35897866
-0.48272568 -0.36353913 -0.3232677 -0.20052212 -0.15602306 -0.44289398 -0.39852065 -0.49224064
-0.4827806 -0.5792403 -0.446207 -0.3778517 -0.41764185 -0.45080134 -0.6704312 -0.484201
-0.60928565 -0.58675647 -0.4229166 -0.50802684 -0.5136414 -0.43922898 -0.48167688 -0.6782268

bias f4 [128]
00000000: 2128 183e 2872 bebe eb3a e1be c081 d23d
00000010: ee25 0bbe d290 77be 6819 94be 268c de3e
00000020: 9cf1 59be 7a70 0fbf bb35 6fbd a313 91be
00000030: 42f8 e3bd 5917 f7bc b4e5 f3bd 8b09 d7bd
00000040: eb04 b23e f518 a93d a6fe da3e 2678 17be
00000050: 3e76 50bf b424 e83d dbb6 f33e e561 45bd
00000060: db8a ce3e 0f66 97be 28a3 463f ca28 9ebe
00000070: b6cc 023f a8b9 21be fa92 3a3e 82ff 233e
00000080: 2d33 bf3e c71b 90be e434 3b3e 0808 9bbb
00000090: 2a6f d9bd 7fd9 a63e 4cec cd3e b276 1e3f
000000a0: d4cf 7abf 899a 24be 56be a33e 8fd1 6ebe
000000b0: e6ac e93e a882 0ebf 2083 c8be 333e a83e
000000c0: c658 98be 435b 3fbe 2ac1 18bf c88b 3e3e
000000d0: a641 f8bb f131 f33e a852 1d3f 8110 1d3e
000000e0: 2143 62be 5d88 b3bd c428 9ebe 273a 003f
000000f0: 695f 9f3d 570f 963e 5e17 973e d760 e33e
00000100: 702a 7b3e ec96 c3be c712 fc3d ce72 b4be
00000110: f837 c8be b84f 893e 239a e7be 0a93 24bf
00000120: 75ac 6ebe 388a 0fbe 0d65 923e 9cbb 8f3e
00000130: e046 30be c198 2abf 0858 823d 691d a73e
00000140: 52e2 2ebf 2cce 0fbd c6d5 a0bd 3b2b 83be
00000150: 4a6d 023e f213 403f 801b 8fbe 0bc6 ab3d
00000160: af2d 10bf fa1d febd 7ba2 abbe d7d0 70be
00000170: e485 cbbe 46ef b5bc a79e 413e fd99 dbbd
00000180: 5937 fd3c 9604 63bd cd6f d93e b53a f4bd
00000190: b082 3c3f cdfc d7be 0d01 aa3e 1044 383e
000001a0: e1ae e7be 35fb ba3e 179a 553e ab39 333d
000001b0: 37b8 35bc 56e6 30be 1049 9dbe 4779 d1bd
000001c0: c46d 523e 4a3d 983f b8de acbe 6b6c 79be
000001d0: 4344 bebe e8f9 e1bd 03b9 cd3e 570a c3bd
000001e0: a9d7 0fbc 2505 103d 9e1a fb3e 6302 92be
000001f0: 9515 143f 8561 58be 80c1 9a3e 5cd4 f6bb
0.14859058 -0.3719647 -0.43990263 0.10278654 -0.13588688 -0.24176338 -0.28925633 0.434663
-0.21283573 -0.56031 -0.05840085 -0.28335294 -0.11131336 -0.0301625 -0.11909047 -0.10499867
0.34769377 0.08256713 0.42772406 -0.14791927 -0.81430423 0.113351256 0.47600445 -0.048189063
0.40340313 -0.29570052 0.77592707 -0.30890495 0.51093614 -0.15793478 0.1822013 0.16015437
0.37343732 -0.28146192 0.18281895 -0.004731182 -0.10616906 0.3258781 0.40219343 0.61899865
-0.9797337 -0.16074575 0.31981152 -0.23322128 0.45639724 -0.55668116 -0.3916254 0.32859954
-0.2975523 -0.18687157 -0.59669745 0.1860801 -0.0075761853 0.4749904 0.6145425 0.15338327
-0.2209592 -0.087662436 -0.30890477 0.50088733 0.0778187 0.29308578 0.29510015 0.4440982
0.24527907 -0.38201082 0.12308269 -0.3524384 -0.391052 0.26818633 -0.45234784 -0.64286864
-0.23307975 -0.1401757 0.2859272 0.28072822 -0.17214537 -0.66639334 0.06364447 0.32639626
-0.6831409 -0.03510873 -0.07853274 -0.2561892 0.12737003 0.75030434 -0.27950668 0.08387383
-0.5631971 -0.12408061 -0.335224 -0.23517166 -0.39750588 -0.022208821 0.18908177 -0.1072273
0.03091018 -0.055424295 0.4246811 -0.1192526 0.73636913 -0.4218506 0.33203927 0.17994714
-0.4525061 0.3651978 0.20859562 0.04375617 -0.0110912835 -0.17275366 -0.30719805 -0.1022821
0.20549685 1.1893704 -0.3376367 -0.24357764 -0.37161455 -0.11033994 0.40180215 -0.095234565
-0.008779445 0.035161156 0.49043745 -0.28517446 0.5784543 -0.21130951 0.30225754 -0.0075326394

weight f4 [64, 128]
00000000: f168 093e 5942 613f 1b14 fb3e 65b8 60bf
00000010: 0273 22bf 2292 0abf a391 95be d59e 1cbf
00000020: 62f8 febe 26e6 e73e c25c 003f f59f 733f
00000030: 91a2 743f 5923 77be 9f9a 1d3f 6419 673f
00000040: ce7b 1d3e a40f 34bf 8fb5 68bf 16e0 633f
00000050: b0ea 193f 7af6 5abf 82ee 12be ca57 2bbe
00000060: f874 5ebf e146 cdbd 86ee 71bf 1987 0bbf
00000070: cae5 7bbf 6acc 1cbe e050 1f3e 1603 e8be
00000080: 3b37 e6be 8be5 803e 0228 413e 3e11 1fbf
00000090: 8449 5dbd 6682 6bbf cc57 62bf f934 babe
000000a0: dd67 d93e ddfe 333f 4b98 f23d 9566 6f3f
000000b0: 72c9 72bf 2029 683f b3f3 013f b015 76bf
000000c0: 5de0 f33e 45d7 53bd 4d8a 6a3f e0ce 9cbe
000000d0: efeb fe3e e0ff 1cbf 35e0 73bf 5805 43bf
000000e0: d5e3 063f e336 2dbd b82b 3b3f 82a8 47bf
000000f0: 2324 463f d101 86be c055 7ebf 2da0 4fbf
00000100: 19bc fdbe 5e1b 253f 6fa4 693d bcf6 563f
00000110: ed59 153f 76dd 68bf 2e16 c43e cf60 623f
00000120: 1ff9 673f aa72 f5be ee43 e2be bf50 98be
00000130: e719 653f d919 0b3f 9ea2 97be b4bd 8dbd
00000140: 36d4 23bf 41c5 193f 7e90 c5bd e48c 1e3f
00000150: b348 3f3e 017c 0ebf de6a 87bd 7577 073e
00000160: 3c1e 453e aca1 733d e481 0fbf 2f33 6a3f
00000170: 3e86 5a3f 8e55 04bf dc42 383e 9f50 c03e
00000180: 2965 2f3e 0cf4 343f 4301 6bbf b965 21be
00000190: 0a64 68bf ab50 36bf 1367 13bf 1b72 253e
000001a0: 1322 543f 1f7a 12bf 6bc1 453f f8f6 253e
000001b0: 09e4 1f3f 927f e63e 8445 0b3f 26f0 babe
000001c0: 87c5 763e 57a9 62bf 21fc 09be 4e16 5c3f
000001d0: a99c e33e 1859 f9bd 6d90 10bf bad0 603f
000001e0: 0d32 17bf 0e2f f4be e8c2 72bf 41b1 72be
000001f0: 6e71 89be 4046 0cbf f688 e03e 14bc 2c3e
00000200: 262b 4b3f 9122 eb3d cc6d 823f 906b f53d
00000210: 0a1a dd3d 3193 e0bd 7f0a b43e 00c3 1dbf
00000220: e2f5 c3bc ba48 253f 74d3 b83d e676 cbbe
00000230: f7ef 37be 8f2a c0be 842a 2f3f 3af2 8abe
00000240: c065 963e 4a5a 80be 6a4f 0abf 93e4 d3bc
00000250: dd4b 093e 5543 8bbe c0f0 6abb 5b1f 063e
00000260: a0ee 04be e43a d0be 6ff9 01be 0f76 1f3e
00000270: 89d1 6bbd 9b5b 12bf 01f0 513e 1d3a d2be
00000280: f809 1ebf 2370 023f e771 383f 6635 e0be
00000290: efd5 54bf e478 fdbe 1e9c 1b3e 7a49 17bf
000002a0: a68f 033f d553 5abe d7e0 073d 0ed0 8bbe
000002b0: 8478 c4bd 2dfb 063d 74ce 683f 53e8 c63d
000002c0: 8075 0a3f 45ac 15bf ca65 753f 5e4c 5ebf
000002d0: 58a1 993d 0b2d 06bf 7e40 50be 2859 66bf
000002e0: 8125 4ebd 3c71 aabe 645e 19bd c64d 1fbf
000002f0: 8253 9ebd 295b b2be 26cb 28be cbf1 4838
00000300: fe59 1abf fcaf 94bc 0648 903e 309c 03be
00000310: 2b07 273f 8c45 aa3d ff0d 8f3f b9be 8abd
00000320: 6136 dc3e 5edb 00bf cb31 4fbf a22f babd
00000330: 0698 9fbe c383 f63d 369e ccbe 564f ddbe
00000340: 641c 5b3f 84f4 72bd 627d a2bd 3baf 763d
00000350: 7db8 1e3f 9ef4 14be e732 013d 8d91 1b3f
00000360: 4a55 0f3f 2972 893e 669b ff3d 38e2 75be
00000370: 8344 8e3b 7ab3 033e 64d8 3c3f 17b0 993f
00000380: d03d 803f eb9d 04bc 3b72 d7be 316c f2be
00000390: 15f6 4fbf b1ec 033f 68d8 14bf ea95 ec3d
000003a0: cb4e a33e 8633 9ebf 5207 14bc 1cbd 9e3e
000003b0: dcb3 43be dec8 e23e 06fa e83c 676d 02be
000003c0: ffe2 f13e 3ba5 18bf bafa 933e 472f 87be
000003d0: 5ea9 1d3f 362d 27bf 9613 f8be 51a1 b8be
000003e0: 0153 94be a40f 36bd 23cc eb3d 8e60 31be
000003f0: 0118 abbd edcc a43e d044 fbbd 53e8 303f
0.13418938 0.87991863 0.49038777 -0.87781364 -0.6345674 -0.5412923 -0.29212674 -0.6117986
-0.49798876 0.45292777 0.5014154 0.9516595 0.95560557 -0.24134578 0.6156406 0.9027312
0.15379259 -0.70336366 -0.90902036 0.89013803 0.6012373 -0.85532343 -0.14348796 -0.16732708
-0.8689723 -0.10023285 -0.9450458 -0.5450302 -0.98397505 -0.15312353 0.15558195 -0.45314854
-0.44964013 0.25175127 0.18862918 -0.62135684 -0.054025188 -0.9199585 -0.8841522 -0.3636854
0.42462054 0.70310766 0.11845454 0.935159 -0.9483863 0.9068775 0.5076248 -0.9612684
0.47632113 -0.05171897 0.9161728 -0.30626583 0.49789378 -0.61327934 -0.9526399 -0.7618003
0.52691394 -0.042288672 0.73113585 -0.779915 0.7739889 -0.2617326 -0.99349594 -0.81103784
-0.4955757 0.64494884 0.05704158 0.83970237 0.5834034 -0.9096292 0.38298172 0.8842897
0.90614504 -0.47939044 -0.4419245 -0.29749104 0.8949265 0.54336315 -0.29616255 -0.069209486
-0.63995683 0.6006661 -0.096467 0.6193373 0.18680076 -0.55657965 -0.0661218 0.13229163
0.19249815 0.059480354 -0.5605757 0.9148435 0.8536109 -0.51693046 0.17994255 0.3756151
0.17128433 0.70684886 -0.917988 -0.1576146 -0.9077765 -0.7121684 -0.57579154 0.16156809
0.82864493 -0.5721759 0.7724826 0.16207492 0.6245733 0.45019203 0.5440295 -0.36511344
0.24098788 -0.8853964 -0.13475086 0.85971534 0.4445546 -0.121751964 -0.56470376 0.8781849
-0.59060746 -0.4769215 -0.94828653 -0.2370043 -0.26844352 -0.54794693 0.43854493 0.16868621
0.79362714 0.114812024 1.0189757 0.119834065 0.10795982 -0.109655745 0.35164258 -0.6162567
-0.023920957 0.64564097 0.090247065 -0.3973915 -0.17962633 -0.3753247 0.6842425 -0.2713793
0.29374504 -0.25068885 -0.54027426 -0.025865829 0.13407846 -0.27199808 -0.0035849065 0.13097899
-0.12981653 -0.4066993 -0.12692808 0.1557238 -0.057572875 -0.5717103 0.2050171 -0.41059962
-0.6173396 0.5095236 0.720488 -0.4379074 -0.83138937 -0.49506295 0.15196273 -0.5909649
0.51391065 -0.21321042 0.03317341 -0.2730717 -0.09593299 0.032954384 0.9094002 0.09712281
0.5408554 -0.5846599 0.9585844 -0.8683528 0.07501477 -0.5241248 -0.20337102 -0.8997979
-0.050328735 -0.33289516 -0.037443534 -0.6222805 -0.077307716 -0.34835175 -0.16483745 4.7908903e-05
-0.6029357 -0.018150322 0.2817995 -0.1285255 0.6524531 0.08314046 1.1176146 -0.06774659
0.43010238 -0.5033473 -0.80935353 -0.090911165 -0.31170672 0.1203685 -0.39964455 -0.4322459
0.85590196 -0.05931522 -0.07934071 0.060225707 0.62000257 -0.14546439 0.031542685 0.6076897
0.55989516 0.2684491 0.12480812 -0.24012077 0.0043416633 0.12861434 0.73767686 1.2006863
1.0018864 -0.008094291 -0.42079338 -0.47348168 -0.81234866 0.5153304 -0.5814271 0.11552031
0.31896052 -1.2359474 -0.009034948 0.31003654 -0.1911158 0.44293875 0.028439533 -0.12737046
0.47243497 -0.5962712 0.28902227 -0.26403257 0.6158656 -0.6530336 -0.48452443 -0.36060575
-0.28969577 -0.04444851 0.11513545 -0.17321989 -0.08354188 0.32187596 -0.12268984 0.691045

bias f4 [64]
00000000: 9e1f a7be abdd 1fbf 2f0d 72bf 0091 03bf
00000010: 62b6 45bf b76e 4fbf faf7 4ebe 1186 31be
00000020: bafd 79be 4ffd 32bf b7e1 13bf 983e d0be
00000030: f14a afbe e28f 05bf 3805 25bf aba4 0cbf
00000040: 986a 69bf a023 2cbf 016d d8be 109a 04bf
00000050: 2f68 bbbe 7e1d 3fbf 53db 64bf fef2 e8be
00000060: 3258 b3be 4dcf 863e c891 8c3e 4242 62bf
00000070: d4bb 53bf 1833 92be 3e38 2fbf 9145 29bf
00000080: 5015 54bf 5078 b8be 1da9 dfbe c0ec f1be
00000090: 9ad7 d8be 6432 04bf 3691 09bf 6105 4cbf
000000a0: 385a 6ebe 5a17 f6be 03f6 adbd d81b d8be
000000b0: 6737 27bf 7c15 3dbf b8a2 34bf 9bee 29bf
000000c0: 6f1e ccbe 6eca 23bf b6f6 29bf 29cf 46bf
000000d0: 041b adbe f121 2bbf 72d9 cebe 1b4e c2be
000000e0: 598c 2abf 9911 5cbf ab12 6bbf 948c 903b
000000f0: 28b8 32bf 6288 f2be a0f9 4ebf 3015 6abf
-0.3264131 -0.62447613 -0.94551367 -0.5139313 -0.7723142 -0.8102831 -0.20211783 -0.17336299
-0.24413195 -0.6991777 -0.5776629 -0.40672755 -0.34236863 -0.5217267 -0.6446109 -0.54938763
-0.91178274 -0.6724186 -0.42270663 -0.5179758 -0.36602923 -0.74654377 -0.8939716 -0.45497888
-0.35028225 0.26330033 0.27454972 -0.8838235 -0.8270848 -0.28554606 -0.68445194 -0.66121775
-0.8284502 -0.3602929 -0.4368371 -0.47250938 -0.4235199 -0.5163939 -0.537372 -0.7969571
-0.23276603 -0.4806469 -0.08494189 -0.42208743 -0.6531891 -0.7386091 -0.7056079 -0.6637971
-0.3986697 -0.6398076 -0.66392076 -0.7765985 -0.33809674 -0.66848665 -0.40400273 -0.37950215
-0.66620404 -0.8596435 -0.9182536 0.0044112895 -0.6981225 -0.47369677 -0.8084965 -0.9143858

weight f4 [64, 64]
00000000: 271e 2e3f 5077 8e3f 0e27 d2be c17e 003f
00000010: 6869 b03d 4634 bc3e 5797 2c3d 089f 0d3f
00000020: 8f42 413f aa69 e7be 272d 9e3e 14c7 b93e
00000030: e29c 4dbd 35b3 073f ac66 fcbe 7517 003f
00000040: 9e91 bdbe 18a1 b1be b097 ccbe 3cdb b2be
00000050: bc81 073f eb3b f0be 9929 373f e820 c1be
00000060: 6b7b dc3e a1e6 753f 58a2 61bd a81f aebe
00000070: eb1a 273d 66da ec3e 5ded f4be 0864 abbe
00000080: e1f3 c23e d48e e33e 06d9 adbe 33d2 f63b
00000090: 8d5c a93e 2c5f 8bbe ef78 debe b9c3 093e
000000a0: b484 c73e 56a3 02bf 42bd f83e c633 203f
000000b0: 7bf0 1b3f 3f6b bebd 71fa 7abe 856f 2e3f
000000c0: c90d 07bf f14d 023e 9f1c 8ebe a81d bbbe
000000d0: 1662 333f 52b3 4d3f 6b1b aabe abeb 4a3f
000000e0: 0a3e b4be 37e7 b2be 2826 bdbe a877 3c3f
000000f0: 48c2 2c3f 17ec 3cbe 0a9f abbe cf92 b1be
00000100: 22ac 443f 726a 9c3f 590b 813f 42f8 a73e
00000110: 25f5 173f f97a 333f 94f5 4b3f 874e 6e3f
00000120: 40af 6b3f 2120 e53e f2e0 483f 5e4a 893e
00000130: 27a1 2d3f 7190 903f d757 423f f135 9d3e
00000140: 92be 0c3f 0d93 b33e 092b 403f 7ac4 343f
00000150: ef3f d43e 3c3c 433f 37f4 753f 975a 1e3f
00000160: eeeb e03d fd0f 683f 9912 ff3e 3794 2b3f
00000170: 7588 4a3f dc51 443f 142e 4e3f a6a0 423f
00000180: e5f0 0f3f e86e 823e d3e4 3e3f 90a5 5a3f
00000190: 8bf9 263e 29e3 5b3f 194c 363f b27d 693f
000001a0: fc3b 263f d85d 1d3f b707 013f 233e 753e
000001b0: 52b8 453f e95c 413f 5a2f 733f 6819 983e
000001c0: f4ed ecbe e324 1a3f 151e 213f 5bf1 cc3e
000001d0: cb61 843f 2d63 853e c860 cebe c7db 0e3f
000001e0: 876f 803f 8b77 c1be 4b2c 1c3f 37bb 0d3f
000001f0: 8409 3d3f 537f 7a3f c0fa 1a3f 9905 453f
00000200: bb73 c0bd 5709 97bd cb2a c8bd 0c15 f43e
00000210: 804b 01be 48da 383f 9e95 243f ebdc 713f
00000220: f89f 69bb 9b2c f53e 0cc1 553f 5ef6 0f3f
00000230: baaf 183f 0975 153f 6113 30be 53e2 0a3f
00000240: 3045 0ebc adae 1f3f f067 0a3e e6cd 0abd
00000250: 9e20 203f 4a30 173f fc39 453f b0b6 1a3f
00000260: 40fd cfba 070c 243f b1d2 103f f832 93bc
00000270: d324 babd 9e55 473f f226 473e 26db 60be
00000280: e269 c43e cec1 a13e a681 febd 7479 583f
00000290: 08d1 3dbf 0692 403f cf79 0a3f 6617 20be
000002a0: fc3e 623f 717a 443f 5b65 013f ca51 a83e
000002b0: 33b1 423f f226 bcbd a6e1 90bd 3ef4 1c3f
000002c0: 97ab adbe c902 2c3f dfb8 debe 011c 83be
000002d0: 5b1d 803f 3a91 f43e 08c1 2fbf cded 243f
000002e0: e0ef 52be 19cc 8bbe ef21 843e ffd8 e63e
000002f0: 2f71 263f e2d8 8fbe 5fd3 a9bc 0aea 01bd
00000300: e286 423f 5bef 843f 1209 c63e d465 aa3e
00000310: e731 1c3f bd5b 293f 72e5 383f ac23 5a3f
00000320: 47ae 833f 2016 2c3f b8df 573f 1423 423f
00000330: 57a7 003f cf4d 783f 8cf2 293f 5a20 273f
00000340: e03b d63e dc57 333f 9229 d03e 7a8f e13e
00000350: cab7 373f 151f 353f 9455 483f b3e5 0c3f
00000360: 3725 d33d 1638 713f 010a 0d3f 6695 ce3e
00000370: 8564 803f 4a8c 573f bc50 133f f15c a43d
00000380: 5c60 403f 3d63 2b3f 497a 2e3f 6f2c 3a3f
00000390: 3915 dd3d 795c 3b3f 9853 223f f9e3 793f
000003a0: 8ed6 6c3f b038 343f 2eeb 383f e2b1 f73e
000003b0: c506 203f eff0 833f 99f5 653f 6687 423f
000003c0: 5408 efbe ceb9 223f 648d 2f3f d0e3 ea3d
000003d0: 9384 6f3f fede b03e cb4a e4be fd69 4f3f
000003e0: c390 2e3f 9743 6ebf 0f53 243f 18ad 193f
000003f0: adc5 3e3f 6077 c23e 19c6 183e c8c9 ba3d
0.6801476 1.1130161 -0.4104542 0.5019341 0.08613855 0.3675863 0.042136516 0.5532079
0.75492185 -0.45197803 0.30893824 0.36284697 -0.050198443 0.53007823 -0.49297082 0.5003579
-0.3702516 -0.34693217 -0.39959478 -0.34932888 0.52932334 -0.46920714 0.7154785 -0.37720418
0.4306291 0.96055037 -0.055086464 -0.34008527 0.040797155 0.46260375 -0.47837344 -0.33474755
0.3807669 0.44444907 -0.33954638 0.007532382 0.33078423 -0.27221048 -0.4345164 0.13453569
0.38968432 -0.5103048 0.48581892 0.62579 0.6091382 -0.09297799 -0.24509598 0.68138915
-0.5275541 0.12725045 -0.2775621 -0.36546063 0.7007154 0.80351746 -0.33224043 0.7926585
-0.35203582 -0.34942028 -0.36943173 0.7362008 0.6748395 -0.18449436 -0.33519775 -0.3468232
0.76825154 1.2219985 1.0081588 0.32806593 0.59358436 0.70109516 0.796716 0.93088573
0.92064285 0.44751075 0.7846824 0.2681455 0.67824024 1.129408 0.7591528 0.30705217
0.5497829 0.35073128 0.75065666 0.706123 0.41455027 0.76263785 0.9607577 0.6185698
0.109825 0.90649396 0.49818876 0.6702303 0.79114467 0.7668741 0.8053906 0.7602638
0.5622695 0.2547524 0.7456791 0.8540888 0.1630613 0.85893494 0.71209866 0.9120742
0.6493528 0.6147132 0.50402397 0.23949485 0.77234375 0.75532395 0.9499413 0.29706883
-0.46275294 0.60212535 0.62936527 0.4002789 1.0342344 0.26052228 -0.40308213 0.55804104
1.0034035 -0.37786517 0.61005086 0.5536379 0.73842645 0.9785053 0.60538864 0.76961666
-0.09397074 -0.07374828 -0.09773787 0.47672307 -0.12626457 0.7220807 0.642908 0.9447772
-0.0035648327 0.47885594 0.8349769 0.562353 0.5964314 0.58381706 -0.17194892 0.54251593
-0.008683488 0.6237591 0.13516212 -0.033887766 0.6254977 0.5905806 0.770416 0.6043501
-0.0015868321 0.6408085 0.5657149 -0.01796864 -0.09089055 0.77865016 0.1944845 -0.21958598
0.38362032 0.31593174 -0.12427072 0.8456032 -0.7414708 0.75222814 0.54092115 -0.15633926
0.88377357 0.7674933 0.5054528 0.328749 0.76051635 -0.09187116 -0.07074289 0.61310184
-0.33919975 0.6719175 -0.4350042 -0.25607303 1.0008959 0.4776705 -0.6865392 0.64425355
-0.20599318 -0.27304152 0.2580714 0.4508743 0.65016454 -0.28095156 -0.020730672 -0.031717338
0.75987065 1.0385545 0.38678795 0.33280814 0.61013645 0.66155607 0.72225106 0.8521068
1.028756 0.6722126 0.8432574 0.75834775 0.5025534 0.96993726 0.6638572 0.6528374
0.41842556 0.7005594 0.40656716 0.44054776 0.71764815 0.7075055 0.7825558 0.55037993
0.103098325 0.94226205 0.5509339 0.40348357 1.0030676 0.8419844 0.57545066 0.0802554
0.7514703 0.669483 0.6815534 0.7272405 0.107950635 0.7318798 0.63408804 0.97613484
0.92514884 0.70399 0.72233856 0.483779 0.6251033 1.0307902 0.8982788 0.7598785
-0.4668604 0.63564765 0.6857512 0.11469233 0.9356167 0.3454513 -0.44588313 0.810211
0.6818964 -0.93071884 0.6418924 0.60029745 0.7452038 0.379817 0.14919318 0.09120518

bias f4 [64]
00000000: 3ea2 1c3f f072 893e 6e13 aa3e 2d25 8f3e
00000010: 6700 9c3e 94c6 ab3e 5125 8f3e d867 163f
00000020: 1771 873e a026 883d 5b4d 883e abde 863e
00000030: a073 893e f67d 7d3e 9b95 353d de67 983e
00000040: ab20 a63e 6398 8a3e 105f 933e 903d 993e
00000050: c574 963e 140c b03e 5246 903e 7436 a43e
00000060: 483d 993e 8e18 933e f246 9c3e d7ac cdc0
00000070: 38cc d1c0 088b b43e eed8 843e 2585 993e
00000080: caa9 9d3e 4484 993e 612a b73e 8b03 d3c0
00000090: 7b2e cfc0 5eb4 a23e 4325 823e 6067 a33e
000000a0: 2c0f 953e e234 803e cea6 ad3e 9c4f b03e
000000b0: 1963 793e ec12 a03e d0e0 883e 1682 a23e
000000c0: 974d 9a3e 128d 893d ad60 933e a946 903e
000000d0: d60a a53e ee80 a13e 0bdb 683d 62d4 903e
000000e0: 4053 133f eede 9e3e 8dc5 a43e c948 973e
000000f0: 7db5 9e3e 1319 933e cd1f 913e 03b7 193f
0.6118506 0.26845503 0.3321795 0.2795805 0.30469057 0.3354994 0.27958158 0.58752203
0.26453468 0.06647992 0.26621518 0.26341757 0.26846027 0.24755082 0.044332128 0.29766744
0.324468 0.27069387 0.28783464 0.2992978 0.29385963 0.34384215 0.2817865 0.32072794
0.29929566 0.2872967 0.30522877 -6.4273486 -6.556179 0.35262322 0.25946754 0.29984394
0.307936 0.29983723 0.3577452 -6.5941825 -6.474424 0.31778234 0.25419053 0.31914806
0.29113138 0.25040346 0.33916324 0.34435737 0.24354209 0.31264436 0.26734018 0.31739873
0.3013732 0.0671636 0.28784695 0.2817891 0.3223483 0.31543678 0.05684952 0.28287035
0.57548904 0.31029457 0.3218197 0.29547718 0.3099784 0.28730068 0.28344575 0.6004488
