pth/takada_model_20.pth (torch, 119448 bytes, 6 tensors)

weight f4 [128, 128]
000000 31 77 22 3d 03 a4 2d 3e 4d 70 c0 be 1f ea a3 be
       0.03966445 0.16957097 -0.3758568 -0.32014558
000010 b2 09 3c be 99 b0 74 be 6a 6f 6e bd de c0 00 3e
       -0.18363073 -0.23895492 -0.05821172 0.12573573
000020 e8 a5 98 bd cd 99 c6 3d 2a 26 cb 3d aa 4d 81 be
       -0.07453519 0.09697304 0.099193886 -0.25254565
000030 33 24 bf 3e 31 45 76 bc da a9 8a 3d 77 a9 b0 3d
       0.37332305 -0.015031145 0.06770678 0.08626073
000040 a0 43 73 be 44 56 b1 be 57 23 b7 3e 6b ca 81 be
       -0.23756266 -0.34636128 0.3576915 -0.25349745
000050 af 12 9d bd e0 bd 8d bd b1 58 a3 3d 29 13 4a 3d
       -0.07669579 -0.069209814 0.07975901 0.04933468
000060 22 11 e5 3b 40 7c 86 3e 0e 6f 17 3e dd 7c 48 3e
       0.006990568 0.2626667 0.14788458 0.19578882
000070 ec b3 ad 3d b1 91 ba bd f3 61 b9 3e 74 88 d4 3d
       0.08481583 -0.0910982 0.36207542 0.10377589
000080 c8 40 75 3e 9f 31 45 3e 50 ab d4 bb 38 ae 7f 3d
       0.23950493 0.1925721 -0.0064901486 0.062422007
000090 82 7d 0b 3e 57 d0 71 be 92 56 57 be d7 1f 93 bd
       0.13622096 -0.23614632 -0.21029118 -0.07183807
0000a0 8b b0 12 3e 67 ee 97 bb 6c d0 76 be 69 f8 43 3e
       0.14325158 -0.004636574 -0.24102944 0.1913773
0000b0 b0 c9 06 bc 66 54 1f 3e 49 f7 8f be 53 bc dc bd
       -0.008226797 0.15559539 -0.2811835 -0.107781075
0000c0 b5 bb 76 3e c1 88 18 be fe a8 36 3e 9c b1 e3 bc
       0.24095042 -0.14895917 0.17837903 -0.027794652
0000d0 52 63 90 bd fe 32 40 bd 16 b7 60 be 40 f8 ea 3e
       -0.07050194 -0.04692363 -0.21944842 0.45892525
0000e0 5c ee 7a 3e 8f 1f 91 be 57 ff dd bd 8c 85 a3 3e
       0.2450499 -0.2834439 -0.10839718 0.31937826
0000f0 53 30 af 3c 45 b1 89 bd 20 78 df be 9f 30 e7 be
       0.021385347 -0.067232646 -0.43646336 -0.45154282
000100 75 7a 14 3e 43 cf 84 3e 0b 7d 7f be d2 71 a8 be
       0.14499839 0.25939378 -0.24950044 -0.32899338
000110 40 88 36 be 61 8c 94 be 3c 45 17 3e 94 2c 8a be
       -0.17825413 -0.2901335 0.14772505 -0.26987135
000120 18 21 c7 3d ce bd 93 bd f7 98 8e bc f1 0d a8 bd
       0.09723109 -0.07213937 -0.017406924 -0.08205784
000130 7e 99 9e 3e 38 74 99 bd 5f 38 9a bd be e0 14 3d
       0.3097648 -0.0749287 -0.07530283 0.036347143
000140 fa b8 8f be 97 07 9e be 8f 1c b2 3e 78 1a 87 be
       -0.28070813 -0.30865166 0.34787413 -0.26387382
000150 ae ed 0b be 99 46 aa bd 22 04 04 3e 68 21 02 3e
       -0.13664886 -0.08314247 0.12892202 0.12708056
000160 17 42 74 3d b7 56 b1 3e 33 57 f9 3d 52 2b 01 3e
       0.05963334 0.3463647 0.12174835 0.12614182
000170 a8 5a 4e 3b e1 90 1e be 2d 32 16 3e c1 35 43 3d
       0.003148714 -0.15484954 0.14667578 0.047658686
000180 2d 8d 59 3e 39 13 90 3e a1 fa cd 3d eb 03 22 3d
       0.2124526 0.28139666 0.10057569 0.039554518
000190 10 3f cb 3c ff 5c 86 be 56 37 2e be 79 66 5c 3c
       0.024810344 -0.26242825 -0.17013296 0.013452166
0001a0 6c 6a 21 3e ad 8b 14 bd 7f ca 54 be d3 06 9f 3e
       0.15763253 -0.036266018 -0.20780371 0.31059894
0001b0 61 23 1f 3e 3c 55 96 3e 41 32 d6 be df 34 81 bd
       0.1554084 0.29361904 -0.41835216 -0.063089125
0001c0 1a 69 20 3e 2c 00 dc be c6 22 af 3e ed 49 91 bd
       0.15665093 -0.4296888 0.34206218 -0.07094178
0001d0 46 93 99 bd 2f a4 ca bd b3 27 1d bc 46 d3 b5 3e
       -0.07498793 -0.09894597 -0.009591985 0.3551275
0001e0 5c dc 87 3e 01 37 90 be bc 7f 06 be f5 0c a2 3e
       0.26535308 -0.28166965 -0.13134664 0.3165051
0001f0 11 85 e7 3d 5f 2e a2 3d 44 dc 35 be 2f 42 80 be
       0.11304677 0.07919001 -0.17759806 -0.25050494
000200 c0 13 db be a8 74 10 3e 6c 31 2f 3e a5 43 b2 be
       -0.42788506 0.14107001 0.17108697 -0.34817234
000210 0a 39 c1 3e 47 bf a6 be 7e 34 4d 3d 09 ef bc be
       0.3773883 -0.32567808 0.05009889 -0.3690112
000220 12 e3 2f 3e bd e8 d3 3d 63 f4 58 be 0f 1e 89 be
       0.17176464 0.10347126 -0.21186976 -0.26780745
000230 1a 3b a9 be 48 fc e8 bd 97 d8 96 be f9 2b d6 3e
       -0.33052903 -0.11376244 -0.2946212 0.41830423
000240 bd 09 78 3e 3f 1a dc bc 6f 11 83 be a1 20 9a be
       0.24222465 -0.026867984 -0.25599238 -0.3010302
000250 23 da a2 3c ed 2d b3 3e ef 8a c4 3e 9d 21 38 be
       0.019879406 0.34995976 0.38387248 -0.17981572
000260 de 99 27 be 99 1d de 3c 84 53 b2 3e 10 56 05 bd
       -0.1636729 0.027113723 0.34829342 -0.03255278
000270 72 a0 9f be 2f ed 76 3d e3 d6 5b be 40 d5 6b bb
       -0.31177098 0.06028479 -0.21468692 -0.0035985261
000280 2b 11 91 be 19 dc 04 3d 53 d4 cd be 96 a3 bf be
       -0.2833341 0.032436464 -0.40201053 -0.37429494
000290 4a e2 a9 be 15 0b 65 be 5b be 89 be 90 a8 4c 3e
       -0.33180457 -0.22367509 -0.26903042 0.19986176
0002a0 61 2e 32 be 81 1b 09 3e 95 b0 d6 be 9a 04 7f bc
       -0.17400505 0.13389398 -0.41931596 -0.015565062
0002b0 79 1d 6e be 54 3b 19 3d 39 f1 04 3e e6 aa ae 3d
       -0.2325343 0.037410095 0.12982644 0.0852869
0002c0 85 e7 cf 3e 5b 01 95 be 89 28 a7 bd 89 90 1a be
       0.40606323 -0.29102597 -0.08162028 -0.15094198
0002d0 25 bd e2 be dc c0 90 3e 96 60 b5 be 1c b6 16 3d
       -0.4428493 0.2827214 -0.35425252 0.036794767
0002e0 28 72 0e 3e 1d 7a 1b be a9 8f 97 3d dd cf 75 3e
       0.13910735 -0.15183301 0.07400448 0.24005075
0002f0 38 0d 73 be c6 84 bb be 51 47 81 3e 8c 3c a7 3e
       -0.23735511 -0.36624736 0.25249723 0.3266338
000300 8f d7 df be e1 7e de 3d b4 f1 2a 3e 33 51 b9 be
       -0.43719146 0.10864044 0.16693765 -0.36194763
000310 e7 5d ce 3e a9 74 4f be ea 72 5b be cb f2 af be
       0.40306017 -0.20259346 -0.21430555 -0.34364924
000320 16 b5 5d 3e 17 97 89 3e a4 f5 3c be 8f dd 0a be
       0.2165111 0.26873085 -0.1845308 -0.1356108
000330 99 26 b3 be 70 42 d3 bd 96 85 12 bd a2 63 68 3e
       -0.34990385 -0.10315406 -0.03577193 0.22694257
000340 64 e8 b9 3e 6d 8c 49 be fa ba 6a be f1 62 0d 3c
       0.36310112 -0.19682474 -0.22922888 0.0086295465
000350 21 4d 6f 3d e2 0f 24 3e 05 73 aa 3e 3a 48 52 be
       0.058423165 0.16021684 0.33290878 -0.20535365
000360 19 11 5f be 15 ce 10 bd 80 79 83 3e 64 34 a2 bd
       -0.21783866 -0.035352785 0.25678635 -0.07920149
000370 c0 e2 b6 bd da b5 47 be 34 40 1c be 04 4d f6 3c
       -0.08929968 -0.19502965 -0.15258867 0.03006602
000380 8d ea 74 be 5d b5 d8 bd b6 83 83 be 4a 0e 22 3e
       -0.23917599 -0.10581467 -0.25686425 0.15825763
000390 38 4b e2 3c 89 d1 9a be ce 99 59 be 3e 38 9b bd
       0.027623758 -0.30237988 -0.21250078 -0.07579087
0003a0 04 77 58 be bf ea 16 3e 0d 10 9b be 45 2b 0a bd
       -0.21139151 0.14737986 -0.30285683 -0.03373267
0003b0 ac d7 06 be 20 59 ed bc 87 63 4e 3e 28 57 07 3e
       -0.1316821 -0.028973162 0.20155154 0.13216841
0003c0 f1 9c 82 3e 56 87 16 bf fe 8f 3c bd 4c f2 67 be
       0.25510362 -0.58800256 -0.04603576 -0.22651023
0003d0 b4 10 d7 be b6 0b 24 3e ab 0f fd be eb 7f 0a be
       -0.4200493 0.16020092 -0.49426016 -0.1352536
0003e0 2c 4f 58 bd 38 03 4f 3c a1 0b 09 3e f2 75 96 3e
       -0.05280988 0.012635045 0.13383342 0.2938686
0003f0 26 c2 69 3d 43 54 7b be d6 9d 5f 3e 93 2b 6e 3e
       0.05706992 -0.24543862 0.21837553 0.2325881

bias f4 [128]
000000 ac d3 bd 3d f5 d6 25 be a2 8b 92 3d 49 71 54 be
       0.09268889 -0.16195281 0.07155539 -0.2074634
000010 78 af 47 3e 52 3d 36 be 4f bb ca bd 2b 31 38 3e
       0.1950053 -0.1779683 -0.098990075 0.17987506
000020 8e eb 8b 3d 7e f8 00 3e 27 7c be 3b bc f9 e5 bd
       0.06832038 0.12594792 0.00581314 -0.11229274
000030 9b cc 0a 3e a4 b8 46 bd df 1f 36 3e b8 a8 93 bd
       0.13554613 -0.04851593 0.17785595 -0.07209915
000040 94 00 6e be 33 fd 84 3d 94 61 36 3e f4 3e 16 bd
       -0.23242408 0.064936064 0.1781066 -0.03668113
000050 e7 da 64 bd 9d ac 74 3e 92 e2 be 3d f8 e3 c8 3d
       -0.055872824 0.23893972 0.093205586 0.098091066
000060 60 d1 6f 3a c6 d1 b4 bd 40 4d 2d 3e 9e fc 9d 3d
       0.0009148326 -0.088290736 0.16924 0.077141985
000070 1f ea 79 bd cf 05 be 3d 2e c2 a8 bd 68 25 1c bd
       -0.06101429 0.09278452 -0.08240162 -0.03812161
000080 32 57 14 3e b9 f8 3d be 31 19 cf 3c bf 76 04 3e
       0.14486387 -0.18551911 0.025280567 0.12935923
000090 1e 39 47 be e1 f9 e5 bd 23 c4 29 be d7 16 e6 bd
       -0.19455382 -0.11229301 -0.16578726 -0.11234825
0000a0 b7 ce a3 bd 3d 21 92 3e 9e ac 50 be 3e 6c 56 3e
       -0.07998412 0.28540984 -0.20378348 0.20939729
0000b0 62 96 37 bd 3d bf 77 3d 4c 23 4f 3e 2c 41 d1 3d
       -0.04482115 0.060485113 0.20228308 0.10217509
0000c0 ee 1e 79 be 7c ff 14 be 40 df 43 3d ce 75 38 3e
       -0.24328205 -0.14550585 0.04782033 0.18013689
0000d0 12 b2 0b 3e 11 66 40 bd b5 cc 9c 3d 60 1d cd 3c
       0.13642147 -0.046972338 0.07656232 0.025038421
0000e0 35 8d 20 3d 15 85 43 be ae b6 ef 3d 62 a3 10 3e
       0.039197166 -0.19093736 0.11704765 0.14124826
0000f0 54 3b 83 bd b8 4d 29 3e f6 4b fd 3d 66 88 5d 3d
       -0.064078 0.16533554 0.12368004 0.054085158
000100 63 bb 8b bc a5 38 69 3e 69 8f a3 bd 4e 4c 3d 3e
       -0.017057126 0.22775514 -0.07986338 0.18486139
000110 68 79 09 be 0c 7b 01 be 4f 6f 73 bd dc e6 fb 3d
       -0.13425219 -0.12644595 -0.059432324 0.12299892
000120 c9 98 cd bc bc 88 87 3c 38 f9 28 be 9d b5 3f 3c
       -0.025097268 0.016544692 -0.1650132 0.011701015
000130 f8 2e 40 3b 76 fb 2a be ab c0 5e bd 39 5a ef bd
       0.002932487 -0.16697487 -0.05438296 -0.116871305
000140 a1 13 03 3e 08 26 13 3e 8e 05 57 3e 50 5c 94 bd
       0.12800457 0.14369977 0.20998213 -0.0724417
000150 c9 55 9d 3d 66 31 3c be b0 86 00 3d ce d0 b3 3d
       0.07682378 -0.18378219 0.031378448 0.08780061
000160 e3 65 31 be 6b 35 f4 bd d0 8c 72 3c e8 3b 5d 3e
       -0.17324023 -0.11924251 0.01480408 0.21604884
000170 7c 3c e0 bd bc 3c 1d be 32 a8 18 3e 83 28 4f 38
       -0.109490365 -0.153552 0.14907911 4.9390375e-05
000180 93 86 6c 3d eb 7a 34 3e 32 2a 2c be 09 f9 6c 3c
       0.057745527 0.17625014 -0.16812971 0.0144636715
000190 52 f0 99 bd 7c cc 45 3e 55 24 4d be 7f 35 38 bd
       -0.075165406 0.19316286 -0.20033391 -0.044972893
0001a0 1b a3 0e be 4b 2c f8 bd 2c d3 82 bd b2 7d 27 be
       -0.13929407 -0.12117823 -0.06387934 -0.16356543
0001b0 6b af 6f 3e 12 1c 12 be fc 14 3f 3e 98 59 4a be
       0.2340676 -0.1426852 0.18660349 -0.1976074
0001c0 ca 5b 12 be dc 5f 45 be 2e 91 07 be 58 92 25 3d
       -0.14292827 -0.19274849 -0.13238975 0.040422767
0001d0 f6 4a 23 3e f3 bb 20 bd 10 3d 37 3e be 83 15 be
       0.15946564 -0.039241742 0.17894387 -0.14601037
0001e0 47 18 b5 3d 2b 32 e1 bd 51 5a 5c 3e 4e 68 72 3d
       0.08842521 -0.10995897 0.21518828 0.059181504
0001f0 91 72 12 3e 16 36 e8 3c 60 51 48 3e 0e b8 33 3e
       0.14301516 0.028346103 0.19562292 0.1755068

weight f4 [64, 128]
000000 0d 06 96 3e 42 8f ae 3e fb e1 46 3e ed 8f df 3e
       0.2930149 0.34093672 0.19422142 0.43664494
000010 6a da cb 3e de b9 82 3e c0 eb 83 3c cd 86 b5 3e
       0.39815074 0.2553243 0.016103625 0.35454407
000020 d9 e7 3a 3e 51 37 78 bd 08 62 4d 3e fc 9b 8a bd
       0.18252505 -0.06059963 0.20056927 -0.06768033
000030 b5 6b 5b be a1 63 ba 3e da 70 3a 3e 65 df 10 3e
       -0.21427806 0.36404136 0.18207112 0.14147718
000040 17 44 d5 bd 01 33 a2 3c c5 b2 41 3e 86 76 14 be
       -0.10413378 0.019799711 0.18915851 -0.14498338
000050 3a dc 6b 3d 20 13 14 3e d5 73 79 3d 06 a2 f0 3e
       0.05758307 0.1446042 0.06090148 0.46998614
000060 87 68 61 3e 64 16 30 3d bf 76 e6 3d 79 0a c6 3e
       0.2201253 0.042990103 0.11253118 0.38679865
000070 7c 66 c1 be 94 d9 aa be 29 11 8e 3e 25 bd 8e 3c
       -0.37773502 -0.33369124 0.27747467 0.017424176
000080 49 07 94 3e b6 a1 a7 3d fb f3 85 be ec 69 94 be
       0.28911808 0.08185141 -0.26162705 -0.28987062
000090 58 7b 6c be d9 b1 f3 be 2b d0 76 3e e2 08 91 be
       -0.23093927 -0.47596624 0.24102847 -0.2832709
0000a0 6a 3c ae be be d4 1c bd 0c 92 8f be 83 8c 9f be
       -0.34030467 -0.038288824 -0.28041112 -0.3116189
0000b0 fa e5 e1 be 01 2b 69 be 4a 8d 82 be c0 8e 9a 3e
       -0.4412077 -0.22770311 -0.2549842 0.30187035
0000c0 a0 30 60 3e d5 86 01 3e d3 72 a2 3e 81 ac ea ba
       0.21893549 0.1264909 0.3172823 -0.0017904193
0000d0 a5 fa 90 be 75 de 9a be b3 d1 88 bc 0a a1 8e 3e
       -0.28316227 -0.30247846 -0.016701555 0.27857238
0000e0 45 b1 6b bd 62 b6 99 be a5 b7 be be 1f 19 5d 3e
       -0.057542104 -0.3002196 -0.37249485 0.21591614
0000f0 90 1f a2 be ee e8 46 be 11 c1 85 3e d4 14 e4 be
       -0.31664705 -0.19424793 0.2612386 -0.4454714
000100 e9 1d fc 3e a8 91 9f bb 52 aa 59 3d 23 d3 98 3e
       0.4924157 -0.0048696585 0.053140946 0.29848585
000110 e6 ca 50 3e 17 06 48 3e 6a c0 54 3e ff 08 b5 3d
       0.203899 0.19533573 0.20776525 0.088396065
000120 57 ba c2 3e 19 c0 7f bd 0a f4 58 bd b0 8f 48 3c
       0.3803279 -0.062439058 -0.05296711 0.012241289
000130 b4 6d 08 bf dd 18 65 3e dc 4c ba bc 2c c3 22 3d
       -0.53292394 0.22372766 -0.022741728 0.03973691
000140 c2 16 69 bc ee 2e 83 be 3d f8 b7 3d 3a 93 71 be
       -0.014226617 -0.25621742 0.089828946 -0.23591319
000150 cf 35 41 be 79 43 af be 8f 0e a0 3e 7a 13 2c 3e
       -0.18868183 -0.34231165 0.31261107 0.16804305
000160 d7 6b 19 3e 03 2f ce 3d de 60 c5 3e a3 24 81 be
       0.14982544 0.100675605 0.38550466 -0.25223264
000170 79 09 63 3e 50 cf 5d 3d 93 9c c3 bb ee 95 18 3e
       0.22171582 0.054152787 -0.005969593 0.14900944
000180 98 51 8b be b9 4d 04 3e 08 b1 31 be 53 57 55 bd
       -0.2721069 0.12920274 -0.17352688 -0.052085232
000190 c8 50 38 be ee d7 95 3e b9 18 a0 3e 52 1c 7f 3e
       -0.17999566 0.29266304 0.31268862 0.24913147
0001a0 a2 40 ff bd e0 eb 88 bd dc b8 65 bc 49 aa 44 3e
       -0.124634996 -0.066856146 -0.014021125 0.19205584
0001b0 86 50 67 be 89 74 c1 be 5d df ce 3d b4 bc 20 bd
       -0.22589311 -0.37784222 0.10101197 -0.03924246
0001c0 8e 75 80 be 36 a2 3c 3e 42 5f 1e be 1e dd a8 be
       -0.25089687 0.18421254 -0.15466025 -0.329812
0001d0 35 90 c0 3e ed 80 5a be d3 9a a6 be ef 42 9e 3e
       0.3761002 -0.21338244 -0.32539997 0.3091044
0001e0 61 52 61 3e 51 18 d8 3d 9a 36 c7 be 2d 30 6b be
       0.22004081 0.10551513 -0.38908845 -0.22967596
0001f0 55 45 26 be 82 83 1f 3d e8 06 0c 3e fc 6c 65 3e
       -0.16237386 0.038943775 0.1367451 0.22404855
000200 9b 36 a8 bd af 55 b7 be 34 19 d2 be 22 53 63 be
       -0.0821354 -0.3580756 -0.41034853 -0.22199681
000210 1c 29 77 3c 1a bb 05 bd 79 54 a7 3d 8b 36 8c be
       0.015085485 -0.032649137 0.08170409 -0.27385363
000220 47 72 d1 3d c6 3e 03 be 68 f4 28 3e 73 71 50 be
       0.10226875 -0.12816915 0.16499484 -0.20355777
000230 91 4a 93 be 7d 5c 0a 3e 3a 63 b5 bd 2c ea dc 3d
       -0.28767827 0.13511844 -0.088568166 0.10786852
000240 85 16 ab be e2 f0 61 3d f4 96 8f 3e 4d 80 ac be
       -0.3341562 0.055161364 0.28044856 -0.33691636
000250 d3 ce 3a be 74 4d 19 3e 4c 70 7e be 37 ac 6d 3d
       -0.1824296 0.14970952 -0.24847525 0.058025565
000260 30 e7 c1 be f5 46 71 bd 1b e2 97 bd 3d 8d 67 3d
       -0.37871695 -0.05890556 -0.07416173 0.05653118
000270 0e c6 83 3e 73 c1 9b be ca ef 66 3d b1 4b a0 3e
       0.2573704 -0.30421028 0.056381024 0.31307748
000280 34 26 b7 bd 2c 44 77 be 44 50 89 be 81 c4 59 3d
       -0.089428335 -0.241471 -0.2681905 0.053165916
000290 2f 59 2f bd 1c 3e 4c 3e 92 e6 4c 3e 07 b6 92 3c
       -0.04280966 0.19945568 0.2000983 0.017909063
0002a0 1c 4c b0 3e 2e fd b6 be d3 9c 30 3e 62 f6 23 be
       0.34433067 -0.35740036 0.17247324 -0.16011956
0002b0 c6 6c 9f be 8a 03 08 bd 7d b6 2d 3e ae a7 0d 3e
       -0.31137675 -0.0332065 0.16964145 0.13833496
0002c0 38 9d 60 3e 2f 2f b2 bd 4f 2a b1 3e 1d 24 ab 3e
       0.21934974 -0.08700406 0.3460259 0.3342599
0002d0 ad 4d 05 bf 18 a2 3e be cb f1 58 3e 8b c4 77 3e
       -0.5207165 -0.18616521 0.21185987 0.24196069
0002e0 57 bd 60 be 49 2f 91 be 22 ad d4 be b2 df d2 be
       -0.21947227 -0.28356388 -0.4153834 -0.4118629
0002f0 9c 03 63 3c 28 a4 89 be fb d7 b4 3c 76 da 77 3d
       0.013855841 -0.26883054 0.022075644 0.060511075
000300 b3 5f 25 be a7 b0 f4 3d a2 95 bd 3c 9b 25 84 be
       -0.16149788 0.11947756 0.02314264 -0.2580994
000310 ca f7 47 3e 8a 61 a0 3e d2 31 8f 3e 81 f8 a3 bd
       0.19528118 0.31324416 0.27967697 -0.08006383
000320 e4 4f 8c 3e 88 59 06 bd 80 f7 e7 3e 14 96 d3 bc
       0.27404702 -0.032800227 0.45306015 -0.025828399
000330 a2 3b 0c 3e c1 dc fb 3d e8 f1 67 3e 38 e8 06 be
       0.13694623 0.12297965 0.22650874 -0.13174522
000340 a3 58 e6 be c4 d1 15 3e 98 c8 25 3b 28 d1 94 3e
       -0.449895 0.146308 0.0025296565 0.29065824
000350 01 e0 ae be 55 d5 d7 3d 28 91 f9 3d 50 00 db be
       -0.34155276 0.10538737 0.121858895 -0.42773676
000360 09 a6 c3 be 7a 5a a3 be 84 e4 af 3e 31 93 33 3e
       -0.38212612 -0.31904966 0.3435403 0.17536618
000370 0b a2 af 3e 0b 2e 0f be 02 b2 ac 3d f9 28 a9 3d
       0.34303316 -0.13982408 0.0843239 0.08259768
000380 75 d3 56 3e 03 5d 53 3d f8 ea 09 be 90 bd 9d be
       0.20979102 0.051602375 -0.1346854 -0.30808687
000390 8a 31 94 be 75 60 5d be 4b 2a ad be 75 ee b7 bd
       -0.28944045 -0.21618827 -0.3382133 -0.08981029
0003a0 fe fd ca 3c 7a b3 f9 bd f9 bc 7b 3e 17 13 ba be
       0.024779316 -0.121924356 0.24583806 -0.3634269
0003b0 08 6b 94 be aa 0b 97 be b5 e0 ac 3e d5 bb 7b 3e
       -0.28987908 -0.29501086 0.33765188 0.24583371
0003c0 c9 fe 3f be 11 a6 90 be 92 56 9e 3e 9f 62 89 be
       -0.18749537 -0.282517 0.30925423 -0.26833054
0003d0 1c 78 97 3e 5c b7 a7 3e 8e fa 01 bd e1 a3 83 be
       0.29583824 0.3275708 -0.03173309 -0.25710967
0003e0 a5 e3 0b be 41 30 7b be 0e 51 de bd ef e6 e3 3d
       -0.13661058 -0.24530126 -0.10855304 0.111280315
0003f0 39 bd 91 be 18 86 69 be a6 08 8e 3d e9 f4 aa 3e
       -0.28464678 -0.22805059 0.06935243 0.33389977

bias f4 [64]
000000 2a bd 00 3e 67 4f 02 be 8f 81 17 3e 07 36 2f be
       0.1257216 -0.12725602 0.14795516 -0.17110454
000010 05 15 13 3e ff 0d 80 bc 09 07 f0 3d 49 f6 53 bd
       0.14363487 -0.015631674 0.11720092 -0.051748548
000020 7a af 8e 3d 42 d5 1f be cb a2 08 3d 3f 19 df 3c
       0.06967063 -0.15608695 0.033358376 0.027233718
000030 96 9d d4 3d db 47 8b 3d 5f 1b 9f bc c3 21 67 3d
       0.1038162 0.06800815 -0.019422231 0.056428682
000040 d7 83 01 3e 5e d7 2b 3e f5 67 24 3e e1 b0 e0 3d
       0.12647949 0.16781375 0.16055281 0.10971237
000050 0b 7b 8a 39 c0 80 e8 3c bc 7a ce 3d be 41 8e 3d
       0.00026413085 0.028381705 0.100820035 0.06946133
000060 35 8b c7 3d f3 e8 4a bc 04 d3 b3 3d 5f c4 96 bc
       0.097433485 -0.012384641 0.087804824 -0.018404184
000070 cd 77 5b 3c ca 15 26 3d ba 17 ee bd be ac 20 3e
       0.013395262 0.040548123 -0.11625619 0.15690896
000080 66 b3 52 bd d5 7c 85 bd 23 fb 09 be de 3f 60 bc
       -0.05144062 -0.065179504 -0.13474707 -0.013687102
000090 a1 38 b9 bd 14 0c 36 3d 3f b9 11 3d d4 f6 bc 3d
       -0.09044004 0.044445112 0.035577055 0.09226766
0000a0 6d 67 de bd ab c2 ea 3d f2 85 89 bd 9e 49 17 3e
       -0.10859571 0.11462911 -0.06715001 0.14774176
0000b0 6c 6e 3b bd 02 a4 12 bd df 26 73 bc 22 5e db bc
       -0.045759603 -0.03580094 -0.014840811 -0.026778284
0000c0 b1 be 9e bd ab 9f f8 bd 45 a1 ff bb 6b 26 f7 3c
       -0.07751215 -0.12139829 -0.0078012072 0.030169686
0000d0 07 7c e8 3d 10 04 d0 bd 81 16 12 3e dd 8c 19 3e
       0.11351781 -0.10157025 0.14266397 0.14995141
0000e0 4b 84 9f 3d 25 0a 91 bd 13 61 01 bd 47 4f a5 3d
       0.07788905 -0.07082013 -0.031586718 0.080717616
0000f0 44 ab 86 bd 4f 30 ea 3d 42 1d 8f bb 77 f7 ac 3b
       -0.06575635 0.114349954 -0.0043675015 0.0052785235

weight f4 [64, 64]
000000 70 30 01 3e 5b ed 31 3e 22 74 2b 3e 4d 98 48 3c
       0.12616134 0.173757 0.1674352 0.012243343
000010 2e e6 85 3c ff 7d ac 3d 35 8f 8e bd 4d 68 7d 3e
       0.01634511 0.08422469 -0.06960908 0.24746819
000020 7a 61 5a 3d 3e 61 8e be 0e 73 26 3d 90 ca 21 bd
       0.053315617 -0.27808565 0.04063707 -0.03949982
000030 87 5b 9f bc d1 b3 0d 3e 9c bf 4e bd c3 3c bb be
       -0.019452823 0.13838126 -0.0504757 -0.36569795
000040 4d 29 78 be d7 8b 42 3d c6 c2 22 3e 10 27 09 be
       -0.24234505 0.047496643 0.15894613 -0.13393807
000050 63 05 cc bc fb f0 d4 bd 60 44 23 bd 0b c5 a9 3c
       -0.024904912 -0.10397526 -0.03986013 0.02072384
000060 c3 af 76 3e 71 77 cc 3d a8 2b 3e be 52 1c 5a 3b
       0.24090485 0.09983719 -0.18571341 0.003328104
000070 05 19 9e 3e 6d a5 ca be fe 1d 2d 3e 6d c1 8d bc
       0.30878463 -0.39579335 0.16905972 -0.017304147
000080 b9 bd 5f 3e ba 32 79 3e a6 58 ac 3d dd 3e 22 be
       0.21849717 0.24335757 0.08415346 -0.15844293
000090 20 1f 9b 3d e2 ec be 3d a1 c7 5e 3e 50 c1 04 be
       0.07574296 0.093225256 0.2175584 -0.12964368
0000a0 16 18 77 be 31 a8 a3 3e fd ce 8a 3e 7a 48 07 be
       -0.24130282 0.31964257 0.27111045 -0.13211241
0000b0 44 66 2a be 11 b8 61 3c 74 80 ac 3d 28 64 7f be
       -0.16640574 0.013776795 0.08422938 -0.2494055
0000c0 db 4c ba bd f9 d9 63 bc 15 1c 58 be c0 d5 90 be
       -0.0909669 -0.013906949 -0.21104462 -0.28288078
0000d0 08 dc be be 3c 04 f1 3d 9e ec 4e be ea 4c 2c 3e
       -0.37277246 0.11768386 -0.2020745 0.16826215
0000e0 f4 ac 8a 3d 69 7c b0 3c c9 63 a8 bd bb 7a b7 bd
       0.067712694 0.021543698 -0.082221575 -0.08958956
0000f0 05 3d 8d bc ed 5d 18 be 8f a4 1d be 6f 48 a7 3d
       -0.01724101 -0.1487958 -0.15394805 0.081681125
000100 14 16 81 be 80 ae ba 3e 97 3a 83 3e b1 df 98 3e
       -0.25212157 0.36461258 0.25630638 0.29858163
000110 28 a5 e0 3d ea ba a6 3e 57 40 97 be 61 53 1c 3e
       0.10969001 0.3256448 -0.29541275 0.15266182
000120 b1 0a 03 3e 95 b6 c0 bd 55 d5 d2 bd ca 33 c9 3c
       0.12797047 -0.09409825 -0.10294596 0.024560828
000130 ad 6d d7 3e 75 8d 81 be 62 1c 90 be d5 cc 9a be
       0.42075863 -0.25303236 -0.28146654 -0.302344
000140 54 f7 1e be 54 c3 a5 3d 6b 77 7f bd 8d 73 16 be
       -0.15524036 0.080938965 -0.062369745 -0.14692517
000150 4c ad 55 3e 39 19 8d 3d ef e8 6e 3e ce b9 5c bd
       0.20866889 0.068895765 0.23331045 -0.053888135
000160 ac 6d 94 be d8 d0 71 3c ae 56 eb 3d 8b e1 41 be
       -0.28989923 0.014759265 0.11491142 -0.18933694
000170 54 b3 45 be b2 1b a1 bd 59 7e 9f 3e 3e 50 c0 bc
       -0.1930669 -0.078666106 0.31151083 -0.023475762
000180 4e e6 83 3d 8d 8a 9e be d1 73 98 be 5a 3f 19 3e
       0.064404115 -0.3096508 -0.2977586 0.14965573
000190 84 59 9d be 4c 8f 0f 3d 7e 9f 8c be bf db a2 bd
       -0.30732358 0.035048768 -0.27465433 -0.079520695
0001a0 c6 75 aa 3c 4f 5c e2 3d 87 84 bd 3d ad 7e 73 3e
       0.020808112 0.11052763 0.09253793 0.23778792
0001b0 72 87 4c be 15 8f 14 3e 04 01 12 3e 31 bf c9 be
       -0.19973543 0.14507706 0.142582 -0.3940368
0001c0 57 21 98 bd e3 af f0 bd e1 2c c5 3e c2 23 f3 bd
       -0.07428234 -0.11752298 0.38510802 -0.11872055
0001d0 fd 4e 83 3e e6 df 79 3e 68 9b 0e 3e ab ca 48 3e
       0.256462 0.24401817 0.1392647 0.19608562
0001e0 d4 90 df 3d 1c cd 20 bd bd 2b 35 3c 3d f7 11 be
       0.10916296 -0.039258108 0.011057791 -0.1425447
0001f0 ca 1a bc be e0 e2 a3 be 84 6c 8f 3c de b3 07 be
       -0.36739188 -0.3200903 0.017507799 -0.13252208
000200 26 61 39 be 48 00 dd 3d 28 bf 19 bd bb c7 9b be
       -0.18103465 0.10791069 -0.037535816 -0.3042582
000210 e7 b4 cf be d0 6b e7 bd 20 0e 8e be e5 8b ee bd
       -0.40567705 -0.112998605 -0.27745152 -0.116477765
000220 0c 69 c9 3d a7 06 b7 3d ef 54 db 3e af d6 8d be
       0.09834489 0.08936816 0.42838237 -0.27702853
000230 d9 ba bd 3e c3 82 b2 bd 45 46 d6 3e 47 6f 12 be
       0.37056616 -0.08716347 0.41850486 -0.14300261
000240 8d 1e 5e 3e e9 74 b7 3d 04 8d 33 be f5 92 dd be
       0.21691342 0.08957846 -0.17534262 -0.43276182
000250 ec f6 8f 3e 6b e9 c5 be 80 7e 70 be ae ca 5d be
       0.28118074 -0.38654646 -0.23485756 -0.21659347
000260 2e 32 db 3d 52 c2 e5 bd 7d 77 93 be 2f 64 56 bd
       0.107029304 -0.11218704 -0.288021 -0.052341636
000270 2b 1e 35 be 92 8f a0 be 87 f0 c9 be 35 17 df 3e
       -0.1768729 -0.31359535 -0.3944132 0.43572393
000280 14 5e 37 3e 79 d6 15 3e 51 ac 07 bf de a2 8f 3e
       0.17906982 0.14632596 -0.5299731 0.28053945
000290 84 e8 0b 3e bc aa 1e bd 1e 2c 98 bd b4 9c 8a be
       0.13662916 -0.038737044 -0.0743029 -0.2707268
0002a0 43 ed d6 3e f6 5f 84 3d 58 4c 88 3e b5 2b c8 3e
       0.4197789 0.064636156 0.26620746 0.39095846
0002b0 24 11 81 3e 08 30 89 be 43 6d d1 3d b3 38 73 be
       0.2520839 -0.26794457 0.10225918 -0.23752098
0002c0 75 11 d7 3d 23 52 a9 3e 43 7f f9 3b e5 04 a6 be
       0.105013765 0.33070478 0.0076140477 -0.3242561
0002d0 fa 7f 4e 3a 26 37 43 be 3f 0a f0 3e 38 53 6b be
       0.00078773464 -0.19064006 0.46882817 -0.22980964
0002e0 4c 03 f3 3d 65 b3 a3 3e 0f a3 a6 3e f3 10 ac be
       0.11865863 0.31972805 0.3254628 -0.3360668
0002f0 47 75 c8 bd 52 90 54 3d 5d dc f9 3e b8 51 7e be
       -0.09787994 0.051895447 0.48800936 -0.2483586
000300 6d ec 5e 3e 0f 87 b8 be 27 53 0f 3e 38 df c3 3e
       0.21769877 -0.36040542 0.13996564 0.3825624
000310 ec 8e 31 bc 6e 8a 89 3e 90 c3 ad be ce ce c4 be
       -0.010837298 0.26863426 -0.33938265 -0.3843903
000320 8b 6e 20 3e 6b 9c 90 3e be 51 ba 3e b9 9f 60 3e
       0.15667169 0.28244337 0.3639049 0.2193593
000330 ca 2b ca 3d c3 bf 8d be 63 d7 bd 3d 20 ea 87 be
       0.09871633 -0.27685365 0.092695974 -0.2654581
000340 0c a8 35 3e 0e 83 6c 3d 50 d9 4b be e5 f2 ec be
       0.17739886 0.05774217 -0.19907117 -0.46279064
000350 51 ca a1 be 93 67 e3 bd 38 a4 4e bd 6e 17 cc be
       -0.31599668 -0.111037396 -0.05044958 -0.39861625
000360 81 41 23 3e b3 66 51 3e a7 a3 41 3b b8 a4 ec 3e
       0.15942957 0.20449333 0.0029547007 0.4621942
000370 9a 6e ae 3e 69 b0 96 bd f0 0e c3 3e 2c 04 91 be
       0.34068757 -0.07357866 0.38097334 -0.28323495
000380 72 b7 af bc 99 0c 85 be 82 58 05 bf 36 a3 dc 3e
       -0.021449778 -0.25986174 -0.5208818 0.4309327
000390 fa 60 e5 bd 85 9d 87 3e 77 d5 ae 3e fe 70 ca bd
       -0.112001374 0.26487365 0.34147236 -0.09884833
0003a0 d6 ab 94 bd c0 b1 e1 bd 6f e7 f6 bd 9d d4 aa be
       -0.072593376 -0.11020231 -0.12055861 -0.33365336
0003b0 0e e7 2e 3e b6 14 00 bf cd 33 b0 be d7 77 01 3e
       0.17080328 -0.500316 -0.3441452 0.12643372
0003c0 18 ff 28 be d2 6b 79 be 44 48 55 3e b6 12 4e be
       -0.1650356 -0.24357536 0.20828348 -0.20124325
0003d0 3f 2d cf 3e c8 a3 30 be 03 db 8a be 7a 2e 1a bd
       0.40464208 -0.17249978 -0.27120218 -0.03764198
0003e0 96 62 8f 3e 6d e9 00 3d c9 55 23 3e d5 69 6b bc
       0.28004903 0.031472612 0.15950693 -0.014368494
0003f0 43 2d 2d be a9 be 97 3e e4 2b 70 be f0 8e 53 be
       -0.16911797 0.2963765 -0.23454243 -0.20659995

bias f4 [64]
000000 6b 89 9d 3e 7d ed 15 3c c4 d2 0a 3d 79 bc 2d 3d
       0.30768904 0.00915086 0.033892408 0.04241607
000010 93 5d 0b be e5 a4 98 bd d6 85 2e 3e b6 e1 df 3d
       -0.13609914 -0.07453326 0.17043242 0.10931723
000020 dc b9 9c bd 04 78 2c bd 1b 93 f5 bd 40 15 99 3c
       -0.07652637 -0.042106643 -0.11990949 0.01868689
000030 e1 5e a3 bd d2 5f 46 be 98 cf 52 bd 7c 3c 23 3d
       -0.07977081 -0.1937249 -0.051467508 0.039852604
000040 b2 7c cf bd 85 ad a4 bb d4 9d 82 bd 6e 2c a6 bc
       -0.101312056 -0.005025568 -0.063777596 -0.020284858
000050 e5 18 00 be 85 9a 39 3c 7d 5f 61 bc 33 92 c7 bd
       -0.12509497 0.011328344 -0.013755676 -0.09744682
000060 33 3a 02 be 8b 69 d2 bd 83 4e 70 bd 5d 7a 26 bd
       -0.12717514 -0.10274037 -0.058668625 -0.04064404
000070 3a 38 e7 bc 24 8a 86 3d 9b b5 6e bc b2 7a c4 bd
       -0.028225053 0.06569317 -0.014569665 -0.09593715
000080 de c2 62 be 82 9c 1e 3e ff 82 05 3e 88 4d a3 3d
       -0.22144648 0.1548939 0.13038252 0.07973772
000090 a4 b0 97 bd 3e be fe bc a8 bd a4 bc a2 8e a5 bd
       -0.074067384 -0.031096574 -0.020109966 -0.08083846
0000a0 2f db ac bc d5 10 01 be 08 11 cb bd 14 48 ef 3d
       -0.021100609 -0.12604077 -0.09915358 0.1168367
0000b0 16 c4 8c 3d f6 2c 97 bd d1 b2 0b be 23 5f 2a bd
       0.06873338 -0.073816225 -0.13642432 -0.041594636
0000c0 8a 14 84 bd 92 18 0d be d6 fb dd bd a6 a3 9a bd
       -0.0644923 -0.13778904 -0.108390495 -0.07550745
0000d0 6d 58 c8 3d bc 07 66 bb 0e 1b 94 bd 85 75 0e 3d
       0.09782491 -0.0035099825 -0.07231723 0.034780044
0000e0 bc 39 95 bd 06 94 12 3e 6b e3 8a ba 72 9a ac bd
       -0.072864026 0.14314279 -0.001059634 -0.084278956
0000f0 e6 77 51 3e 85 8b 1c bd d6 c6 a9 3c d0 e2 90 bd
       0.20455894 -0.038218994 0.020724695 -0.07074511
