pth/takada_model_90.pth (torch, 464792 bytes, 6 tensors)

weight f4 [256, 128]
00000000: f9f4 72be f1c9 0140 a1e6 b53f 7ab8 8d3f
00000010: 7a65 b03f a03a ba3f 148a 1f40 06bd 3740
00000020: b49c 123f 3a6f fd3b 27a4 fbbf a710 323d
00000030: 89ae 2cbe 2636 433e d5fd 2940 6f64 0f40
00000040: d9e6 abbd 247c e5bf 6b0a 1cc0 add7 d9be
00000050: 5ae8 27bf a37c 13bf d4e4 e13e 2797 af3f
00000060: 54c6 36be 56c6 bbbf 04e2 f0bf 0d66 0f3f
00000070: 1fb7 ac3f f6b5 1e3f 5ae2 5abe 3bc0 aa3f
00000080: 6ba1 c8bc ed24 cdbf 29a6 93be 4c3b b4bf
00000090: dddf cabf b02d 93bf 31bd 8ebe 45a8 9d3f
000000a0: 01db 72be d5c3 94bf bb4f 9cbe 0b24 a3be
000000b0: 95b7 4cbf fa9b f2be 0697 0d3e fa8c 8e3f
000000c0: 9c51 393f 196f 743f f28f f13e 35cb 6d3d
000000d0: 3012 653e 09c1 3e3e 4535 4b3f 7266 093f
000000e0: 3ec1 703f 3d7e 063f 43a4 b83f 117b b73f
000000f0: d0ba b83f 593c d03f 5297 2440 294a 733f
00000100: d4c4 a0bf ac10 df3e 8b26 54bf cf66 cf3e
00000110: e4cd 5dbf c31b 8fbf b496 c0bd 008e 3140
00000120: f1cf 1740 88e9 883f 1050 433f 0dc4 a1bd
00000130: 004e ffbf 7e70 d1bf 390e 1d3e 7160 afbe
00000140: 5ecb 783f ef18 593f c277 543e 3027 71be
00000150: f855 07bf 421d 3cbf 3545 893e e576 a43e
00000160: 166f 1d3f 4951 bfbe 246f 80bf 2eb5 903f
00000170: 44a8 103f a9f1 96bf 46b7 bdbe 6ef2 373e
00000180: 0586 193f 6efe e7be a2a2 a6bf 05f2 853f
00000190: 125b 0840 b82d 12bf 3ec7 14bf 233d b03e
000001a0: 4acf ed3e b83f 23bd 8bff 86bf e383 8ebf
000001b0: eb1f 6c3f c809 56bf 0ff0 52be c4f2 e83d
000001c0: 5c98 f13f 93a1 613e 3d89 a4be b185 68bf
000001d0: 5eb2 92bf c825 0abf 8d76 d33f 7c0c da3f
000001e0: 5bed d93e 7cd9 ce3f d4ed 48be a4bc 52be
000001f0: 5d0c fdbe d2a3 36be 0afc 9b3f fc05 db3e
00000200: e746 8fc0 be9c 88c0 0f53 71c0 bc2e 6ac0
00000210: 66b7 73c0 8729 6ec0 7c0a 8ec0 baa6 91c0
00000220: af85 80c0 e036 84c0 7c7d 1dc0 6a4b 21c0
00000230: f196 24c0 e71d 4ac0 57cf 8fc0 29ae 86c0
00000240: 27ab 6bc0 1ff5 20c0 87fd 953f fb92 473f
00000250: 72f7 423f 5a9a 15be cba7 48c0 1b76 72c0
00000260: 178b 6dc0 d870 32c0 d61a 6a3f 1da2 f63e
00000270: 1542 ca3e 20a5 3e3f 9a4a 05c0 7c93 6ec0
00000280: e2f6 71c0 5bef 33c0 7794 113f 6cbb 943f
00000290: a019 2140 9bc5 863f 46e9 f6bf e9dc 69c0
000002a0: 5d46 75c0 7b2d 63c0 f41c 86bd fbfa ba3f
000002b0: 694f 1140 8cd4 9a3f 8d28 27c0 5320 68c0
000002c0: 1411 80c0 e769 71c0 1e0f 4fc0 49d6 1fc0
000002d0: ccf5 bebe cc71 2fc0 2d61 6ec0 5afb 82c0
000002e0: 8b0b 86c0 ab5a 7dc0 3044 70c0 6140 80c0
000002f0: 5113 6ec0 f14a 78c0 11f1 71c0 f05e 89c0
00000300: 9466 a8c0 924c 81c0 d420 66c0 869c 5fc0
00000310: 4339 69c0 b6bc 61c0 1d9f 85c0 f7f3 97c0
00000320: a018 66c0 1aff 67c0 d062 54c0 2dd8 39c0
00000330: 283a 35c0 a3ae 51c0 95c8 80c0 2609 82c0
00000340: 934e 73c0 d291 5cc0 9565 d53e 03fb 873f
00000350: e893 8e3f e8c2 4c3e 72d6 4ac0 47c5 54c0
00000360: 75bb 6dc0 03f9 43c0 76d9 b23f 2ab1 763f
00000370: c057 803f 0f0a 0a40 647c 1dc0 dadd 4ac0
00000380: 3aad 7ac0 eb47 39c0 d418 a33f 226d dd3e
00000390: 72d4 cdbe 5bc6 853f 6911 0cbf 24a7 4cc0
000003a0: 2328 71c0 3bf7 58c0 295c 1c3f d3fb 1840
000003b0: ea01 213f 9d57 b93f bd91 33c0 dae3 54c0
000003c0: 9708 87c0 d7c5 8bc0 03cf 2ec0 891f e8be
000003d0: 7ba8 66bd dad9 17c0 8e4b 84c0 af7c 7ec0
000003e0: 5ba0 84c0 6e5d 75c0 54b9 36c0 9ae6 48c0
000003f0: 7c62 1ec0 01c4 2fc0 3c31 67c0 c9f0 93c0
-0.23726262 2.0279505 1.4211007 1.1071923 1.3780968 1.4549141 2.4928026 2.870912
0.5727036 0.0077342065 -1.965947 0.043472912 -0.16863455 0.19063625 2.6561177 2.240505
-0.0839364 -1.792851 -2.4381359 -0.4254736 -0.65588915 -0.57612056 0.44119895 1.3718003
-0.17849094 -1.4669902 -1.8818974 0.5601509 1.3493384 0.619964 -0.21375409 1.3339914
-0.024491033 -1.6026894 -0.28837708 -1.4080596 -1.5849568 -1.1498318 -0.27878717 1.2316977
-0.23716356 -1.1622263 -0.3052958 -0.31863436 -0.79967624 -0.47384626 0.13827142 1.1136773
0.7239015 0.9548202 0.47180134 0.05805512 0.22370219 0.18628325 0.7937816 0.53671944
0.94044864 0.52536374 1.4425129 1.4334432 1.4432011 1.6268417 2.5717359 0.95035034
-1.2560067 0.43567407 -0.8287131 0.40508124 -0.8664229 -1.1180347 -0.09403744 2.774292
2.3720667 1.0696268 0.7629404 -0.07898722 -1.9945679 -1.6362455 0.15337457 -0.34253266
0.97185314 0.8480367 0.20748809 -0.23550105 -0.5286555 -0.73482144 0.26810613 0.3212196
0.6149763 -0.37366703 -1.0033917 1.1305292 0.5650675 -1.1792499 -0.3705389 0.17963573
0.5997012 -0.45311302 -1.3018382 1.0464483 2.1305585 -0.5710101 -0.5811652 0.34421644
0.46447212 -0.03985569 -1.0546736 -1.1133999 0.922362 -0.83608675 -0.20599388 0.11374429
1.8874621 0.22034292 -0.32135954 -0.90828997 -1.1460683 -0.539639 1.6520554 1.703506
0.425639 1.6160121 -0.19621974 -0.20579773 -0.49423495 -0.1783593 1.2186291 0.42778003
-4.477405 -4.2691336 -3.7706945 -3.6591024 -3.8080688 -3.7212846 -4.43878 -4.5516024
-4.016319 -4.1316986 -2.460784 -2.520228 -2.5717127 -3.158075 -4.49406 -4.20876
-3.6823213 -2.514961 1.1717995 0.7795865 0.7615882 -0.14609662 -3.1352413 -3.7884586
-3.7116144 -2.7881374 0.914472 0.48170558 0.39503542 0.7447071 -2.0826783 -3.7277517
-3.7806935 -2.811484 0.56867164 1.1619697 2.517189 1.0529054 -1.9289939 -3.6541083
-3.8324196 -3.549651 -0.06548491 1.4607843 2.2704718 1.2096114 -2.61185 -3.626973
-4.0020847 -3.7720888 -3.2352977 -2.497454 -0.37296903 -2.7413206 -3.7246811 -4.0931826
-4.188909 -3.958659 -3.7541618 -4.0078588 -3.719929 -3.879574 -3.7803385 -4.292839
-5.2625217 -4.040597 -3.5957537 -3.4939284 -3.64412 -3.527143 -4.175673 -4.748531
-3.595253 -3.6249452 -3.318531 -2.9038193 -2.8316746 -3.276284 -4.024485 -4.0636168
-3.8016708 -3.4464002 0.41679063 1.0623478 1.1138887 0.19996226 -3.1693387 -3.3245409
-3.7145665 -3.0620735 1.3972614 0.9636408 1.0026779 2.156864 -2.4607172 -3.1697907
-3.916823 -2.8950145 1.2741952 0.43247324 -0.40201145 1.0451158 -0.54714066 -3.1977015
-3.7680748 -3.3900898 0.61078125 2.3903701 0.62893546 1.4479862 -2.8057702 -3.326407
-4.2197986 -4.3679004 -2.731385 -0.4533656 -0.05631302 -2.3726716 -4.134223 -3.97636
-4.1445746 -3.8338275 -2.8550615 -3.1390748 -2.474761 -2.7463381 -3.61238 -4.6231427

bias f4 [256]
00000000: d846 843f f438 413f 0ecc 0ec0 b00a a1c0
00000010: 0dae 2bc0 a7c4 a340 0ba4 283f e3f8 c6bd
00000020: f9fc 87c0 5977 ddbf 9b6a 513f 4e49 c13f
00000030: 1e67 42bf d549 5ec0 8c18 05c0 c0b6 4bc0
00000040: 442d 133f d37c 6840 011f 5640 2d3e ce40
00000050: 0f2e e33f 9b59 50be 3308 64c0 d69a 2b40
00000060: 411c 3c40 4a60 5640 b779 9fbf 34ba 52c0
00000070: 274a cc40 4220 57c0 45eb c240 34a2 913f
00000080: 857a bbbd 8809 8c40 f7b1 a540 0ff3 9cc0
00000090: 9f0c febf 0162 a0c0 3a48 be3f 0cea 8040
000000a0: 8771 15c0 f0a3 7840 cb37 7640 a40f ec40
000000b0: 1def 073f c33b e2bf 9b32 15bf 0758 80c0
000000c0: b996 d3bf ce00 54c0 12d7 67c0 421a eac0
000000d0: ed34 403f 9290 6840 9432 7c40 d0d8 aa40
000000e0: 613d b33f ac65 0b40 bf3d 8740 13ee 70c0
000000f0: 9ded 16c0 332c b4c0 ee7d c53f b2b0 633f
00000100: e033 0740 00a8 b8c0 4ff6 22bf b04c c73f
00000110: 7c75 0d40 9ac4 dfbf 5fc5 1d40 3405 ae40
00000120: 0b6a 753d 5f52 e03f 5dd1 d340 145d 01c0
00000130: 4586 7c40 9989 43c0 42b9 adc0 7bc9 0f41
00000140: 3c85 32c0 1d1c 3ec0 3cb5 b840 367d f8bf
00000150: 5dd6 7f40 7671 d1bf bf24 9140 b661 5040
00000160: 7fc8 d9bf 08a8 0d41 6f04 d73e 0e10 563f
00000170: 2f56 0140 aa52 8bbf 338c 393f 846d 58be
00000180: 2eed 6640 c5ef 7dbf 05cb 3640 8a29 f7bf
00000190: 582c e6bf 06d8 1b40 511c bac0 2db1 bf3f
000001a0: 7396 43be 9412 8ac0 c8ae b5c0 842f 58bf
000001b0: 3088 1940 ad39 05c1 8787 6fc0 ca74 7ec0
000001c0: 6281 1841 46ad 8bbf 676d f8c0 2552 2ebd
000001d0: c975 04c0 ef63 efbe bf6d 1fc0 0b6e 3140
000001e0: 24e0 1c40 aa2d 9440 a583 0241 4bcf 8bc0
000001f0: 830f 8ebf 886f 9240 44de 0d40 30bf a73f
00000200: 0fdd aabf 2b2a b1be 3041 e8c0 2f88 90c0
00000210: 4934 b540 e669 67c0 01ff 8040 4eeb 55c0
00000220: 7c43 69c0 4ca8 be3f 0a5c 613f 2e46 5fc0
00000230: 2e9d b2bd bcc9 8939 8577 a6bf 69c0 33c0
00000240: 2d63 c3bf 4e4c 8c40 d35a 74c0 5269 5d40
00000250: 187c 90be 72bd 1abf ef6e 4c40 26d1 0f40
00000260: 2dd4 e43e 9dc7 ab40 60cb a53f 279d 1c40
00000270: 1985 14c0 5fae b3bf b24f 5d40 aa83 f43f
00000280: ce6a ab40 4ade 43bf c77e 5740 9d68 713f
00000290: 61ff fdbf 4cbe fb3f afe6 d4c0 b6e0 d0bf
000002a0: 8cbd 61ba 0fbc 4f3d 81ee 9cc0 2e40 4fc0
000002b0: fd65 4340 ab21 2040 1ff5 823f b36c dc40
000002c0: 7045 e53f 4f58 75bf 8f7d 0a3e 81a8 153f
000002d0: 4fb5 95c0 68e6 cc3f 5fdf 4940 a4c6 bd3f
000002e0: 417f 87c0 84cf 2cc0 f1b6 85c0 19d0 21c0
000002f0: 5c2d 11c0 74c7 d7c0 abe0 6ec0 9256 77bf
00000300: c47e 073f e1a1 3b40 bb92 833f 2219 36c0
00000310: ea20 b2be c1ba 8b40 f877 3940 4ce2 a83f
00000320: 3dea 27c0 7c0a 0d40 4cb4 e540 e227 8840
00000330: 7cd7 8840 0737 87be 229d 963f d388 1dbf
00000340: b34c 5240 9c0e 75c0 82e1 3440 e792 ee3d
00000350: 0b53 58c0 a94d 8a40 f5da 71c0 256d 20c0
00000360: f792 2b3f 511e 6ec0 ef3e 81c0 6b12 f2be
00000370: 7150 99c0 ba17 9f40 52bb 32bf 81b8 ef40
00000380: ce36 1b41 2203 5a3f a37d babf 66d4 2840
00000390: ceb1 b9bf 8683 5d40 78b5 40c0 1512 64bc
000003a0: 85cc 8f40 e08f 0dc0 1676 143f 24d0 aabe
000003b0: 9c88 95c0 4bb3 c6c0 7e8b 423f 0649 72c0
000003c0: 7d86 f43c 4b60 03c1 2ef2 2abf ecf5 7440
000003d0: 0e84 5f40 a5f4 1e3f e59f 5bc0 f32a 1f40
000003e0: 2864 edbe 8d9d 92c0 8787 b6bf cd50 8cbf
000003f0: 56af 3540 651d 36be c946 5b40 2951 bbc0
1.033412 0.7547753 -2.2312045 -5.0325546 -2.6824982 5.1177554 0.6587531 -0.0971544
-4.2496305 -1.7302047 0.8180329 1.5100496 -0.75938594 -3.4732563 -2.0796232 -3.1830292
0.57490945 3.6326187 3.3456423 6.44509 1.7748431 -0.20346682 -3.5630004 2.6813254
2.9392245 3.349627 -1.245902 -3.292615 6.384052 -3.3613439 6.0912194 1.1377625
-0.09154228 4.3761635 5.177974 -4.9046702 -1.9847602 -5.0119634 1.4865792 4.02857
-2.3350542 3.885006 3.8471553 7.3769093 0.5309923 -1.7674488 -0.5828034 -4.0107455
-1.6530372 -3.312549 -3.6225019 -7.3157053 0.7508076 3.6338239 3.940587 5.3389664
1.4003106 2.1780806 4.2262874 -3.764531 -2.3582528 -5.6303954 1.5429056 0.8894149
2.1125412 -5.770508 -0.6365709 1.5570278 2.2102957 -1.7481873 2.4651716 5.438135
0.059915584 1.7525138 6.619307 -2.021306 3.9456952 -3.0552733 -5.4288645 8.98669
-2.789382 -2.970466 5.7721233 -1.9413211 3.9974587 -1.636275 4.5357356 3.2559638
-1.7014312 8.853523 0.4199557 0.8361825 2.0208852 -1.0884602 0.7247955 -0.21135527
3.6082263 -0.99193984 2.8561413 -1.9309552 -1.7982283 2.43506 -5.8159566 1.4975945
-0.1910036 -4.314768 -5.6775856 -0.84447503 2.3989372 -8.326581 -3.742647 -3.9758782
9.531588 -1.0912254 -7.763355 -0.042558808 -2.069689 -0.4675593 -2.4910734 2.7723415
2.4511805 4.630574 8.15714 -4.3690543 -1.1098484 4.5761147 2.216691 1.3105221
-1.3348712 -0.34602484 -7.2579575 -4.516624 5.6626325 -3.6158385 4.0311284 -3.3424869
-3.644744 1.489511 0.88031065 -3.4886584 -0.08721386 0.0002628098 -1.3005224 -2.8086188
-1.5264641 4.3843145 -3.8180435 3.4595532 -0.28219676 -0.6044532 3.1942708 2.2471404
0.44693127 5.368117 1.295269 2.4470918 -2.3206236 -1.4037589 3.4579892 1.9102681
5.3567877 -0.7651106 3.3671129 0.9430025 -1.984356 1.9667449 -6.6531596 -1.6318576
-0.00086113135 0.050716456 -4.9041142 -3.2382922 3.0530999 2.502055 1.0231055 6.888269
1.7911816 -0.95837873 0.1352446 0.5846024 -4.6783824 1.6007814 3.1542585 1.4826245
-4.234284 -2.7001657 -4.1785817 -2.5283263 -2.2683935 -6.7430973 -3.7324626 -0.9661647
0.52927804 2.9317553 1.0279154 -2.845284 -0.34790736 4.366547 2.8979473 1.319406
-2.6236718 2.203765 7.178259 4.2548685 4.2763042 -0.2640917 1.1766703 -0.615369
3.2859313 -3.8290167 2.826264 0.11649113 -3.3800685 4.32198 -3.778989 -2.5066617
0.67021126 -3.7206004 -4.0389323 -0.47279677 -4.7910695 4.9716463 -0.6981708 7.4912724
9.70088 0.8516103 -1.4569591 2.6379638 -1.4507387 3.4611526 -3.011076 -0.013920327
4.493716 -2.2119064 0.57992685 -0.33361924 -4.672926 -6.2093863 0.759941 -3.785707
0.029849285 -8.211009 -0.66775787 3.8275099 3.492435 0.6209205 -3.4316342 2.4869964
-0.46365476 -4.5817323 -1.426011 -1.0962158 2.8388267 -0.1778465 3.4261954 -5.8536572

weight f4 [256, 256]
00000000: 3427 9bc0 5ba4 a940 e712 08c0 bd1e 78c0
00000010: b12c 2540 0529 aac0 d615 8540 e927 3dc0
00000020: 4861 1d41 81f7 0241 920a 0d41 f43d 5a40
00000030: 215c 3940 d1e5 553f 3c2a a5bf 9496 92c0
00000040: 721e cc3f 5d25 edbf 5e94 99c0 f89e 8340
00000050: edab 5140 33d6 42c0 91a7 0a40 5942 86c0
00000060: 7254 9dc0 41d7 2440 7519 8e40 3fb5 a240
00000070: 7869 1340 b324 a040 d2c7 ed40 cdcf b640
00000080: 2c92 6040 7a48 d2c0 0920 70c0 d91b 1641
00000090: 38ad 66c0 c931 cbbe 5387 dc40 8373 9cc0
000000a0: 1c4e 3d40 0fae 5dc0 8b2f 97c0 d986 b3c0
000000b0: b880 1940 354e 1b3f 60de 9940 d28d a140
000000c0: afa9 c540 4aba 9940 197b a2bf 89f6 c340
000000d0: f7c9 ecc0 c280 ebc0 248d 6440 8ad5 afc0
000000e0: c5cd 7c3f e8a3 a1c0 5359 5dc0 c782 8640
000000f0: ccd7 9140 d06a b740 4cf5 98c0 be06 1fc1
00000100: eb05 9fc0 fd35 b5c0 11db c63f 5641 8e40
00000110: d518 493f 06eb 1641 4649 4040 4214 b2c0
00000120: b02e 8340 dad7 d640 33e4 dac0 24bf 0641
00000130: 3fd5 03c1 7223 fc40 775e 0541 2ce1 a040
00000140: 44fc f440 f926 8540 74ce 1dc1 688a c63f
00000150: f2f0 0ac1 7dce 0541 a929 a8c0 7346 a7c0
00000160: 8be1 9640 261c d6c0 15b7 7cc0 1f00 a1c0
00000170: 1374 a3c0 74df 453f ca84 18c0 6a38 6340
00000180: e48f bbc0 7a60 1141 5316 9dc0 ce4b 86c0
00000190: d6c9 9fc0 4f84 0140 11eb 0040 caad 3bc0
000001a0: 69ab 8a40 a6f2 2741 c174 4040 da70 b140
000001b0: ba2b 8140 18ff 2f3e 1f76 6d40 1b60 9a40
000001c0: cb4d e3bf 1ab8 1b41 82ec b940 41e9 09c0
000001d0: f0da 3bc0 eb6e 5240 bc12 f540 6108 b1c0
000001e0: 438d a63f 0a6c fcc0 aa27 2f40 ef7f fb40
000001f0: 5975 b5c0 ae90 a2c0 e0ca 59c0 c0f0 16c1
00000200: 5a7f 9e40 ff43 14c0 db99 4240 2da4 fe40
00000210: dcc4 f7c0 2d4e 0441 81c1 91c0 8627 83c0
00000220: 84bc 9340 ed8d 96c0 c270 e840 1c65 9440
00000230: 83d3 6d40 ca4d 8640 98bb 0441 49a4 cc40
00000240: fde4 8fc0 e261 6f40 159d bb40 5109 63bf
00000250: c62e e93f 46d8 1cbf b448 0d3f b356 7d40
00000260: 30be 97c0 c586 a9c0 e60c 59c0 9cb6 43c0
00000270: 5e6a 04c0 ae48 0141 85f3 b5c0 9b3e 2840
00000280: e77f 2e40 e92a d6c0 3407 18c1 bfdb 08c0
00000290: ee17 81c0 a4be 92c0 d66b e140 37b9 99c0
000002a0: 1fe8 28c0 c4a0 19c1 a68f 34c0 9162 9b40
000002b0: 200e 5e3f faff 01c1 7550 0f41 0f6e 85c0
000002c0: b8cc 73c0 140b 7d40 b7c5 1741 b35f cdc0
000002d0: 1ffd a840 0ae7 ea3f 88d4 ed3f 6d08 bbc0
000002e0: f716 bd40 9783 c340 95cd 9640 612e 46c0
000002f0: fd70 d4c0 c637 0ec0 b2a6 2741 7000 a9bf
00000300: 177d 03c0 257f adc0 c8ae 9e40 465b aac0
00000310: a6f8 2040 e308 9fc0 27fc 9ec0 5706 7c40
00000320: b995 d840 0712 9abe 9bf5 c6c0 e8ec a1c0
00000330: b071 a9c0 f24b dbc0 d6fd 2741 abb1 a940
00000340: fdc2 4740 60a0 1341 9310 8240 761c 2041
00000350: 26f1 1e41 2afa e8c0 37de be40 043a 9f40
00000360: 3cd4 a03e 64b8 1e41 a9e2 9140 7b75 3440
00000370: 021c 1641 8501 0e40 cbe7 a140 29bc 17c1
00000380: 47aa 5c40 2cef 8f40 2d0f 0941 9216 e040
00000390: 74a0 5040 07aa 77c0 0a32 1fc0 c4a0 8a40
000003a0: 6cf2 9bc0 3bb0 af40 6790 bcc0 0058 0e40
000003b0: 70e8 bf40 f082 1141 dda3 a4c0 6846 b240
000003c0: d411 59bf ed57 02c0 2781 86be e7f8 bd3f
000003d0: c93a bcc0 781b d740 293c 9c40 f545 a4c0
000003e0: d7f9 9dbf e7e4 a240 d3a7 8d40 26dd 9740
000003f0: 468c 9bc0 da04 a7bf 8067 443e fc4b d33f
-4.8485355 5.301313 -2.1261537 -3.876876 2.5808527 -5.3175073 4.1589155 -2.955561
9.83625 8.185426 8.815081 3.4100313 2.896248 0.83553797 -1.2903514 -4.580881
1.5946791 -1.8527027 -4.799361 4.1131554 3.2761185 -3.0443237 2.1664774 -4.195599
-4.9165583 2.575638 4.4406075 5.084625 2.3033123 5.00448 7.430642 5.7128663
3.5089216 -6.571347 -3.7519553 9.381799 -3.6043224 -0.3968642 6.891519 -4.8891006
2.9578924 -3.4637487 -4.7245536 -5.610211 2.3984814 0.6066621 4.8083954 5.048562
6.1769633 4.8039904 -1.2693816 6.1238446 -7.399654 -7.3594675 3.5711145 -5.494817
0.9875148 -5.051258 -3.458577 4.203464 4.5575924 5.7317886 -4.7799435 -9.939146
-4.9694724 -5.6628404 1.5535604 4.4454756 0.78553516 9.432379 3.0044723 -5.564973
4.099449 6.713849 -6.8403563 8.421665 -8.239562 7.879327 8.335563 5.027487
7.655794 4.1610074 -9.862904 1.5510988 -8.683825 8.362912 -5.2550855 -5.2273498
4.715032 -6.690936 -3.9486744 -5.031265 -5.107919 0.7729409 -2.3831048 3.5503182
-5.861315 9.086054 -4.908975 -4.1967535 -4.993388 2.0237005 2.0143473 -2.9324822
4.333424 10.49674 3.007126 5.545026 4.0365877 0.17187154 3.7103345 4.8242316
-1.7758116 9.732447 5.8101206 -2.1548617 -2.935238 3.28802 7.658537 -5.532273
1.301186 -7.8881884 2.736796 7.859367 -5.6705747 -5.080161 -3.4030075 -9.433777
4.953046 -2.3166502 3.0406406 7.957541 -7.7427807 8.269086 -4.554871 -4.0985746
4.616762 -4.704825 7.2637644 4.6373425 3.7160347 4.1969957 8.295799 6.3950543
-4.4967027 3.7403493 5.862925 -0.8868609 1.8217399 -0.6126751 0.5518906 3.9584167
-4.7419662 -5.2977014 -3.3914123 -3.0580206 -2.0689921 8.080244 -5.6859765 2.6288211
2.7265565 -6.692738 -9.501759 -2.1384122 -4.034171 -4.5857716 7.0444136 -4.803859
-2.6391675 -9.601749 -2.8212676 4.855782 0.86740303 -8.124994 8.957143 -4.169685
-3.80937 3.9538012 9.48577 -6.417932 5.2808986 1.8351758 1.8580484 -5.8447785
5.9090533 6.109813 4.7125955 -3.0965807 -6.6387925 -2.2221541 10.478197 -1.3203259
-2.0545099 -5.4217706 4.9588356 -5.323642 2.5151763 -4.969835 -4.9682803 3.937887
6.7682767 -0.3009188 -6.217481 -5.060169 -5.295128 -6.8530207 10.499472 5.302938
3.1212761 9.226654 4.064523 10.006948 9.933874 -7.2805376 5.964626 4.975832
0.31411922 9.920017 4.5589185 2.8196704 9.381838 2.2188427 5.059545 -9.483438
3.447893 4.497946 8.566205 7.002755 3.2597933 -3.8697526 -2.4874291 4.3321247
-4.8733425 5.4902625 -5.8926272 2.224121 5.9971237 9.094467 -5.145003 5.5710945
-0.8479283 -2.0366166 -0.2627041 1.4841584 -5.882176 6.722103 4.882344 -5.1335397
-1.234187 5.090442 4.4267364 4.7457457 -4.860873 -1.3048356 0.19180107 1.6507564

bias f4 [256]
00000000: 5236 f8c0 f66e 0fc1 8bec 01c1 8a43 bdc0
00000010: c3b0 04c1 9f39 d2c0 d3ef d1c0 acc6 94bf
00000020: 8ce0 dac0 a072 91c0 c077 e3c0 fe68 d4c0
00000030: 463e d3c0 89bf 12c1 a181 e1c0 1471 1ec1
00000040: cff2 d2c0 ad2d 0d41 e1a1 e8c0 3c13 efc0
00000050: 3ee5 cec0 9966 ecc0 f86f 13c1 e660 cac0
00000060: 9832 ebc0 ce7c 0dc1 fb6e d8c0 3fc5 0fc1
00000070: 73f9 4ec0 1ab0 0dc1 055c d3c0 8e65 0940
00000080: 71ae 12c1 6fa9 e1c0 272a 0bc1 dbb1 07c1
00000090: 1e98 0fc1 7bde 06c1 9527 fcc0 1b11 13c1
000000a0: 4993 ffc0 b93e 0dc1 40df f9c0 37fa d4c0
000000b0: 7648 053f 57ad d2c0 2e63 4740 a435 ecc0
000000c0: 6d9b e1c0 af16 9bc0 6f01 aec0 7f9a 91c0
000000d0: 8abe d1c0 b7f0 c0c0 579c 01c1 e9f2 c4c0
000000e0: 6af0 d2c0 ccdf 0fc1 ef7b e4c0 621c d3c0
000000f0: aab3 efc0 182d eac0 3e38 95c0 08e6 f1c0
00000100: 315d 04c1 da8d 0ec1 a385 1bc1 95c3 ebc0
00000110: bf64 aac0 2dc8 c9c0 ecd8 0bc1 096e d2c0
00000120: 308f b0c0 a70d 14c1 67e5 fbc0 f74b f7c0
00000130: 6c35 fcbe b055 f6c0 2426 d1c0 efc9 07c1
00000140: 11dd c1c0 9e0a 003f 3d32 8dc0 a6d9 92c0
00000150: 5094 d8c0 a899 13c1 b4f1 e8bf bc9d efc0
00000160: b1d5 d0c0 236e 92c0 2d73 dac0 339e f6c0
00000170: 8d00 1bc1 2e9b d1c0 7b23 afc0 737a d5c0
00000180: 20ed ccc0 50ad fdc0 2018 02c1 402e d4c0
00000190: 6656 edc0 afdf d3c0 5a28 3cbf cff1 d3c0
000001a0: 6e41 84c0 2a4f 21c1 f7bb d7c0 604d bcc0
000001b0: f522 7fc0 c1d7 14c1 a28c b5c0 df82 dbc0
000001c0: 6e86 f8c0 ace0 d8c0 880b d3c0 9d0b e5c0
000001d0: 56bd d3c0 b690 f0c0 0c73 efc0 543f dac0
000001e0: 1948 ecc0 4d16 b940 9f36 a9c0 2499 afc0
000001f0: 2f13 0ec1 54b6 d0c0 d63c 0cc1 c301 0fc1
00000200: 42fc 0dc1 0a81 f3c0 1ffc c3c0 0745 0fc1
00000210: 399a f2c0 4510 dec0 6f3d 01c1 4f65 07c1
00000220: 5c9e 0dc1 6819 fac0 ae55 d3c0 e4b3 19c1
00000230: cafb 92c0 4fbe 0dc1 ee08 dcc0 b1eb d3c0
00000240: 576f 09c1 7f5a e0c0 29d9 02c1 fa76 f4c0
00000250: e1d7 15c1 4698 f3c0 6b2b 9bbf ee5b 0bc0
00000260: 73e6 fec0 1f4e 0ec1 aca6 d5c0 c7ff 33c1
00000270: b064 d2c0 3160 09c1 1b0f 2f40 5980 c0c0
00000280: 9d9a edc0 53ed b6c0 b936 0cc0 a861 0ec1
00000290: e9ab d2c0 d853 94c0 5b45 f9c0 817b c5c0
000002a0: c6ed 17c1 706a d1c0 ae7f d0c0 1ee1 cfc0
000002b0: 9940 a7bf c2a3 bcc0 ca39 dbc0 6180 d1c0
000002c0: 3976 94c0 e40d 49c0 b9cb f5c0 59fa 28c1
000002d0: 4821 24c1 82e4 12c1 acaa fbc0 c804 d8c0
000002e0: 619a 08c1 9096 d2c0 a136 863f e837 c6c0
000002f0: 96fc 0dc1 19b7 0ec1 d76a d2c0 e672 ddc0
00000300: 7d36 3340 8d32 d0c0 ba99 fbc0 9da4 edc0
00000310: 77ab 0ec1 f4a2 bebf 0bae dfc0 0d1a d1c0
00000320: ae44 0cc1 9491 15c1 d0fe efc0 1190 ffc0
00000330: 8ed7 f8c0 db60 dbc0 166c 13c1 5bd8 f8bf
00000340: 8b05 10c1 8a69 11c1 e9b8 e1c0 0a27 19c1
00000350: f996 efc0 b830 18c1 bcfc 08c1 d1df d2c0
00000360: 6d01 07c1 a86d d0c0 e272 d2c0 3303 bfc0
00000370: f371 0fc1 8970 0ac1 a0b9 eac0 ff46 e8c0
00000380: 7fc6 d0c0 af93 aac0 6f12 05c1 4b03 08c1
00000390: 49e2 0dc1 ecba d3c0 788f 46c0 8bfa cfc0
000003a0: 54cd 20c1 7786 f9c0 f9f9 e1bf 2455 ddc0
000003b0: 995b 09c1 c33b dcc0 7525 09c1 6b03 1bc1
000003c0: c6bd 03c1 9694 e3c0 0016 0bc1 e5dd 0fc1
000003d0: f5cd fec0 25d2 4ec0 330c ddc0 e41f bbbf
000003e0: 4d83 d6c0 dd65 0ac1 3339 b0c0 04eb 11c0
000003f0: 559a 12c1 4ca1 eec0 c9e7 87c0 f7c5 f0c0
-7.756631 -8.96459 -8.12025 -5.9144945 -8.293155 -6.569534 -6.5605254 -1.162313
-6.8399105 -4.5452423 -7.108368 -6.6378164 -6.6013517 -9.1717615 -7.047074 -9.902607
-6.5921397 8.823651 -7.2697606 -7.471098 -6.4654837 -7.387524 -9.214836 -6.3243284
-7.349926 -8.84297 -6.7635474 -8.985656 -3.2339752 -8.855494 -6.604983 2.1468234
-9.167588 -7.051933 -8.697791 -8.480922 -8.974638 -8.4293165 -7.879832 -9.191676
-7.986729 -8.827813 -7.808502 -6.655544 0.5206369 -6.5836596 3.1154284 -7.381548
-7.050223 -4.846519 -5.437675 -4.5501094 -6.554509 -6.029384 -8.100669 -6.154652
-6.5918474 -8.992138 -7.1401286 -6.5972147 -7.4906816 -7.3180046 -4.6631155 -7.55933
-8.272752 -8.909632 -9.720126 -7.3676248 -5.324798 -6.3056855 -8.740459 -6.575932
-5.517479 -9.253333 -7.871753 -7.728023 -0.49259508 -7.69796 -6.535906 -8.4868
-6.0582356 0.500162 -4.4123826 -4.5890684 -6.7681046 -9.225014 -1.8198762 -7.4880047
-6.5260854 -4.5759444 -6.8265595 -7.7068114 -9.687634 -6.550193 -5.473081 -6.6711974
-6.403946 -7.9274063 -8.13089 -6.6306458 -7.4167967 -6.621055 -0.7349907 -6.6232677
-4.132987 -10.081827 -6.741695 -5.884445 -3.9865086 -9.302674 -5.673417 -6.8597255
-7.76641 -6.777426 -6.5951576 -7.1576676 -6.6168623 -7.517665 -7.482794 -6.8202305
-7.383801 5.7839723 -5.2879176 -5.487444 -8.8796835 -6.522257 -8.764853 -8.93793
-8.874086 -7.609502 -6.1245265 -8.954352 -7.581326 -6.939486 -8.077498 -8.462234
-8.851162 -7.8156013 -6.604209 -9.606419 -4.593236 -8.858962 -6.87609 -6.622521
-8.589683 -7.011047 -8.178018 -7.6395235 -9.365205 -7.612338 -1.2122625 -2.177486
-7.965631 -8.894073 -6.6765957 -11.249946 -6.574791 -8.585984 2.735297 -6.0156674
-7.4251237 -5.7164702 -2.19084 -8.898842 -6.583485 -4.635235 -7.7897162 -6.171326
-9.49555 -6.544243 -6.515586 -6.49623 -1.3066589 -5.89499 -6.8508043 -6.5469213
-4.6394315 -3.1414728 -7.6811185 -10.56112 -10.258125 -9.180788 -7.864584 -6.7505836
-8.53769 -6.580879 1.0485421 -6.1943245 -8.8741665 -8.919702 -6.575542 -6.9202757
2.8002007 -6.5061707 -7.8625154 -7.4263444 -8.916862 -1.4893479 -6.9899955 -6.53443
-8.7667675 -9.348042 -7.499855 -7.986336 -7.776313 -6.855573 -9.213888 -1.9441026
-9.001353 -9.088266 -7.053822 -9.572031 -7.4871793 -9.511894 -8.561703 -6.5898213
-8.437848 -6.513386 -6.576524 -5.9691405 -8.96532 -8.652474 -7.3351593 -7.2586665
-6.5242305 -5.330528 -8.317 -8.500804 -8.867745 -6.6165676 -3.1025066 -6.499334
-10.050129 -7.797664 -1.7654411 -6.916643 -8.584863 -6.882295 -8.571645 -9.688334
-8.233831 -7.111888 -8.692871 -8.991673 -7.9626412 -3.2315762 -6.907739 -1.4619107
-6.703528 -8.649869 -5.5069823 -2.2799692 -9.162679 -7.4571896 -4.247044 -7.5241656

weight f4 [64, 256]
00000000: 41f8 0241 ec08 5640 2af3 bf40 0650 f23f
00000010: 4b06 91c0 a1f0 92c0 f075 92c0 8352 dc40
00000020: 063e 7bc0 5107 93c0 7f89 d0c0 d1a6 55c0
00000030: 1f6d 92c0 7249 f640 6c3e 92c0 3db2 e340
00000040: 15c0 92c0 fc17 92c0 5747 60c0 ba7e 0541
00000050: d97d 93c0 b417 6dc0 7219 07c0 cbeb d340
00000060: 2c52 21c0 d81a 2a41 6c77 5a40 3da0 0541
00000070: f339 5940 fcd1 18c0 b1fd 91c0 597a 1e41
00000080: adb8 2c40 63b5 de40 7571 c040 c4ea 5bc0
00000090: 79df 04c0 93cd e640 2232 2ec0 88b8 d640
000000a0: 35d8 cdbf 6f8f a140 8f0e 83c0 efc8 91c0
000000b0: 4a13 2641 afa6 93c0 eae5 0541 219e 75c0
000000c0: 220e 6741 69f4 8ec0 e84e 8dc0 59af 93c0
000000d0: 75b2 92c0 ef8a eb40 2f65 49c0 2621 85c0
000000e0: 2cb3 93c0 69c7 60c0 2dcb 5cc0 5025 92c0
000000f0: 27a8 92c0 14d3 65c0 557c aa40 ea93 0bc0
00000100: 7184 91c0 f294 1a41 ef7e 0ec0 5409 90c0
00000110: bcff 9940 57ca c0c0 a204 5941 bb17 93c0
00000120: 0920 d540 f35c d440 59db 1ec0 b0e2 49c0
00000130: f1ff ae40 6834 e740 0061 91c0 0258 92c0
00000140: 35b3 5dc0 868d ea40 0dda a340 e0ca 8ec0
00000150: 3730 91c0 cc0e 57c0 4cdf 8b40 ce7b 41c0
00000160: 4290 91c0 5019 93c0 630d 8fc0 5bb8 81c0
00000170: e3fa 8640 c712 91c0 e65f 7dc0 579e c140
00000180: 9684 93c0 8de1 ce3f e0a5 0a41 840c c240
00000190: fc2e 6440 2697 91c0 fe77 1c41 8852 91c0
000001a0: 0c9b 95c0 82a2 84c0 ac17 82c0 48a7 4e3f
000001b0: 6a6f d240 8723 2fc0 ee50 a240 70c1 6740
000001c0: f372 6ac0 e603 93c0 afcb be40 21ed c940
000001d0: 24a5 92c0 2410 67c0 3e11 efbf 64d6 91c0
000001e0: 2538 e140 8637 86c0 2adf 87c0 3fcd b140
000001f0: d621 31c0 1591 90c0 9c0f 43c0 1366 62c0
00000200: 86ed 1cc0 aea3 9440 fce0 25c0 5e5a 84c0
00000210: a0ae 5cc0 3fe7 8ec0 fadd 1841 aa45 8440
00000220: 8c1d b940 00d3 5541 9363 93c0 9207 eb40
00000230: 942a 8ec0 14be f93f f05d 8ec0 0ba8 93c0
00000240: a420 e3bf c364 8cc0 37db 43c0 1aaa 80c0
00000250: 423c 32c0 3289 0741 44a0 8540 58fb 40c0
00000260: 4f11 85c0 0651 1641 784c 0741 ae58 79c0
00000270: 0961 90c0 366a a740 6e78 90c0 5ad8 78c0
00000280: d083 9cbf 6d45 8ec0 8ab1 9040 e24d b940
00000290: 979a 91c0 1bab d240 30d4 1fc0 b8af 993e
000002a0: 3440 003f f455 92c0 9fe5 91c0 8bf3 92c0
000002b0: 0104 5fc0 74c0 8cc0 b017 0f41 f35c d0c0
000002c0: 5727 d440 2447 9240 c492 e340 4369 83c0
000002d0: 9882 d4bf 9cf5 1a41 0078 75c0 41bb 80c0
000002e0: 32a6 1b41 71c6 93c0 38f1 2b41 67f6 86c0
000002f0: 9108 68c0 e873 cf40 70bf 91c0 1aa2 67c0
00000300: 860d d540 e321 92c0 9fdd ae40 1940 6140
00000310: 8979 9740 e93b 1bc0 c686 8541 e941 93c0
00000320: 8642 d340 91e1 f940 5ae0 0e41 9464 7bc0
00000330: f6fc 90c0 3e7b 90c0 51fa f140 0ced 5f40
00000340: 79d2 ba40 3122 71c0 1dea df40 9d86 e940
00000350: 5a6f 80c0 9e62 e440 103a 23c0 f597 d1c0
00000360: 4b1f e2bf ced6 90c0 0a5e 92c0 8274 8bc0
00000370: 333e 6ac0 39fc 0641 1a95 8dc0 5e7c 90c0
00000380: 4dc5 8cc0 a3d3 fc40 51d6 f0bf e7e3 ad40
00000390: c762 8fc0 a9ba 92c0 9932 c340 ff3a 93c0
000003a0: 6d46 2141 cec4 29c0 c896 0740 5838 0041
000003b0: ee11 56c0 2ee0 10c0 1e49 bf40 2b99 fa40
000003c0: 4da5 92c0 d7ab e040 e87b 0341 2431 86c0
000003d0: 2e2f 34c0 a889 93c0 83db 8d40 52c9 ef40
000003e0: 0cea 91c0 3fec ac40 881e 8941 eaf5 2341
000003f0: 1802 0741 6808 8dc0 7315 e740 ec38 25c0
8.185609 3.3442945 5.998433 1.8930671 -4.532018 -4.5918736 -4.5768967 6.885072
-3.9256606 -4.594643 -6.516784 -3.3383067 -4.5758204 7.6964655 -4.57012 7.1155076
-4.5859475 -4.565428 -3.5043542 8.343439 -4.6091123 -3.7045717 -2.110928 6.6225333
-2.5206404 10.631554 3.413539 8.351621 3.394162 -2.3878164 -4.562218 9.90487
2.6987717 6.959642 6.0138497 -3.436204 -2.0761397 7.2125945 -2.7218099 6.710026
-1.6081606 5.048759 -4.095527 -4.555778 10.379709 -4.614097 8.368631 -3.8377764
14.44095 -4.467335 -4.415882 -4.6151547 -4.5842843 7.3607097 -3.1468008 -4.1602964
-4.6156216 -3.512171 -3.4499009 -4.5670547 -4.5830264 -3.5910082 5.3276772 -2.180903
-4.547417 9.661364 -2.2264974 -4.5011387 4.8124676 -6.0246997 13.563631 -4.596647
6.6601605 6.6363463 -2.482138 -3.154461 5.468743 7.2251472 -4.543091 -4.573243
-3.464063 7.329776 5.1203675 -4.462265 -4.5371356 -3.3602781 4.371008 -3.0231814
-4.5488596 -4.59684 -4.470384 -4.0537543 4.218126 -4.533542 -3.9589782 6.0505786
-4.609935 1.6162583 8.665497 6.064028 3.5653677 -4.5497007 9.779295 -4.5413246
-4.6751766 -4.1448374 -4.0653896 0.80724 6.5761003 -2.7365434 5.072379 3.6211815
-3.663266 -4.594226 5.9623637 6.3101964 -4.582659 -3.6103601 -1.8677137 -4.5574207
7.0381036 -4.194278 -4.2459917 5.5563045 -2.7676902 -4.51771 -3.0478277 -3.53748
-2.4519973 4.6449804 -2.591857 -4.136031 -3.4481583 -4.4657283 9.5541935 4.133504
5.784857 13.364014 -4.605905 7.344674 -4.4426975 1.9511132 -4.448967 -4.614263
-1.7744336 -4.3873 -3.0602548 -4.0207644 -2.7849278 8.470995 4.1758137 -3.0153408
-4.158363 9.394781 8.456169 -3.8960376 -4.511845 5.231715 -4.514701 -3.888205
-1.2227726 -4.445975 4.5216722 5.790757 -4.550121 6.583387 -2.497326 0.30016875
0.50097966 -4.5729923 -4.55928 -4.5922294 -3.4846194 -4.398493 8.943283 -6.5113463
6.629802 4.571184 7.1116657 -4.1065993 -1.6602354 9.684963 -3.8354492 -4.022858
9.728075 -4.617974 10.746391 -4.2175784 -3.6255229 6.4828987 -4.554619 -3.619269
6.657901 -4.5666366 5.4645534 3.5195372 4.733586 -2.4255316 16.690807 -4.6017957
6.6018705 7.808785 8.929773 -3.9280138 -4.530879 -4.515044 7.561806 3.4988432
5.8381925 -3.7677119 6.9973283 7.2976823 -4.0135927 7.137038 -2.5504189 -6.5497994
-1.76658 -4.5262213 -4.5739794 -4.357972 -3.6600463 8.436578 -4.424451 -4.5151815
-4.3990846 7.9008346 -1.8815404 5.43407 -4.480808 -4.5852857 6.0999265 -4.6009517
10.079694 -2.652637 2.118578 8.013756 -3.3448443 -2.2636828 5.9776754 7.8311973
-4.5826783 7.0209765 8.217751 -4.1934986 -2.8153796 -4.6105537 4.433046 7.493325
-4.55982 5.4038386 17.139908 10.247538 8.438011 -4.407276 7.2213683 -2.5815992

bias f4 [64]
00000000: 3b12 b240 cf13 a740 581f a940 eb6e a740
00000010: bb3c a840 1939 a940 e76e a740 9249 b140
00000020: abf3 a640 379d a040 7601 a740 78ea a640
00000030: cf13 a740 8268 a640 c9e7 9f40 1403 a840
00000040: 9fde a840 1b26 a740 9eb2 a740 7110 a840
00000050: e5e3 a740 597d a940 0781 a740 3dc0 a840
00000060: 7110 a840 bba9 a740 2a41 a840 1103 c6c0
00000070: be5a c4c0 47c5 a940 27ca a640 e314 a840
00000080: 3757 a840 df14 a840 4aef a940 c053 c6c0
00000090: 21cf c5c0 7aaa a840 6ca0 a640 2fb3 a840
000000a0: 88cd a740 db7f a640 0857 a940 9b81 a940
000000b0: ae47 a640 c27e a840 a10a a740 1ca6 a840
000000c0: 3222 a840 d1a2 a040 9cb2 a740 7d7c a740
000000d0: 41cd a840 a694 a840 554e a040 0f8a a740
000000e0: 6fe8 b040 356d a840 e9c8 a840 44f1 a740
000000f0: 356d a840 1eae a740 958e a740 72b3 b140
5.5647254 5.221168 5.285076 5.23229 5.2574134 5.28822 5.232288 5.5402308
5.2172446 5.0191913 5.2189283 5.2161217 5.221168 5.2002573 4.997044 5.2503757
5.2771754 5.2234015 5.240554 5.252007 5.246569 5.296551 5.2345004 5.2734666
5.252007 5.239469 5.2579546 -6.1878743 -6.136077 5.3053317 5.212177 5.2525496
5.2606463 5.2525477 5.31046 -6.1977234 -6.1815343 5.27081 5.2070827 5.271873
5.2438393 5.2031074 5.291874 5.297071 5.19625 5.2654734 5.2200475 5.270277
5.254174 5.019875 5.240553 5.2339463 5.2750554 5.2681456 5.009562 5.235603
5.5283732 5.263331 5.274525 5.2482014 5.263331 5.2400045 5.236155 5.553155
