pth/takada_model_95.pth (torch, 464792 bytes, 6 tensors)

weight f4 [256, 128]
000000 00 f7 d6 bd de d2 fc bd 19 db c6 bd 92 0d b9 bd
       -0.1049633 -0.12344907 -0.09709758 -0.090357915
000010 af e3 9e bd fb f0 04 3c d9 90 a8 3d e8 38 d8 bc
       -0.07758271 0.008114095 0.082307525 -0.026394323
000020 83 71 3a be 26 9a a5 bc 7e 02 41 3d 49 2f 18 3c
       -0.18207364 -0.020215105 0.047121517 0.009288617
000030 66 14 02 be 44 aa 3d 3a 50 d9 81 3d 72 31 c4 3d
       -0.12703094 0.00072351494 0.06340277 0.095797434
000040 c3 6d 9f bd e4 4c 24 3d 33 cf 01 be 3b 39 2d be
       -0.07784607 0.04011239 -0.12676696 -0.16916363
000050 16 17 b4 bd 02 7d 31 be df 74 a6 3d 28 8a 6d ba
       -0.08793466 -0.17332843 0.0812776 -0.00090614194
000060 6d 40 2a bd e0 eb 98 bd 0e 7e 11 be a7 9f ba bd
       -0.041565347 -0.074668646 -0.14208242 -0.091124825
000070 fc bf e8 be 0b b2 6d be c5 bd 14 bd 26 32 3c 3d
       -0.45458972 -0.23212449 -0.03631379 0.045946263
000080 14 4c cb bd 65 9a 9f bd c7 b3 90 bb 5e 03 f3 be
       -0.0992662 -0.0779312 -0.0044159624 -0.47463506
000090 d5 29 49 be 2b c2 35 be 6c 02 49 bd a3 3d ba bb
       -0.19644864 -0.1774985 -0.049074575 -0.005683617
0000a0 c3 a5 16 bd 3f 61 69 3d ec 8b 3c bd f1 71 8c 3d
       -0.036779176 0.056977507 -0.046031877 0.0685767
0000b0 27 4c 6e bd 5b f8 28 be cb 1b 6e 3c a8 bc 68 bd
       -0.058178093 -0.1650099 0.014532994 -0.05682054
0000c0 05 01 38 be fe df 42 be f5 de 82 bd 5d 05 95 bd
       -0.17969139 -0.19030759 -0.06390182 -0.072764136
0000d0 11 fd 5b be b4 23 09 bc b1 1a 29 3d 78 e6 2a be
       -0.21483256 -0.008370329 0.04128522 -0.1668948
0000e0 cb 0c a5 bd 09 4a 2a be e4 3b 85 bc 3f 36 41 bd
       -0.08059081 -0.16629805 -0.01626391 -0.047170874
0000f0 18 65 c8 3c 3c 78 dd bc 87 2c d1 bd 8d c0 53 bc
       0.024462268 -0.027034871 -0.10213571 -0.012924326
000100 ab 87 11 bd 71 dc 92 bd 87 10 9c 3c 17 be 20 3c
       -0.035529774 -0.07170952 0.01905085 0.009810946
000110 85 24 f5 3c 10 7d 1c bd 36 f1 cc 3d af 54 63 be
       0.02992464 -0.038205206 0.10006945 -0.22200273
000120 e0 bc d9 bd 98 16 f0 3c 4a 18 69 bd 04 1f fe 3c
       -0.10631728 0.029307649 -0.05690793 0.031020649
000130 b0 34 35 bc a8 10 ac 3a 1e c5 d8 bd da 7c b6 3b
       -0.011059925 0.0013127523 -0.10584472 0.0055690827
000140 f1 a9 97 bd da 69 82 bd 96 62 dd bd e4 35 9c bd
       -0.074054606 -0.06367846 -0.108098194 -0.07627466
000150 f1 85 64 be e3 80 8b be 07 4d b1 bc 52 b2 52 bc
       -0.2231672 -0.2724677 -0.021643175 -0.012859898
000160 58 7d 51 bd 09 c6 7e 3c b7 29 73 be 60 7f d2 be
       -0.051144928 0.015550145 -0.23746382 -0.41112804
000170 2b a7 5b be a6 27 b2 bd 9d 5f 09 bd b7 4a 96 bd
       -0.21450488 -0.086989686 -0.03353845 -0.073384695
000180 3d c8 a1 3d 4b 90 81 3c 21 e1 a9 bd a6 b6 17 be
       0.078995205 0.015815875 -0.08294893 -0.14815769
000190 cc b4 e0 be 63 9e 8a be 78 14 43 be 1e 30 79 3d
       -0.43887937 -0.27073964 -0.19050777 0.060836904
0001a0 88 0d 8c 3c ca 96 0c bc 96 c3 12 be 08 db ed 3c
       0.017096296 -0.008580873 -0.14332423 0.029035106
0001b0 df 9d a9 3b 79 37 a9 bd d4 58 80 3c b7 11 98 bd
       0.0051762904 -0.08262534 0.015667357 -0.07425254
0001c0 44 41 36 be f8 7b b0 bd bc 11 10 bd 3d 9f 3d 3d
       -0.17798334 -0.08617395 -0.035173163 0.04629444
0001d0 a4 db ff 3c 58 df 84 3d eb d1 f9 3c c4 99 31 3d
       0.031232662 0.06487912 0.030495605 0.043359533
0001e0 83 5b d9 bd 67 2d ca bd 4c 4c 1f 3e 00 7c 93 3d
       -0.106131576 -0.09871941 0.15556449 0.072013855
0001f0 56 eb 99 3d dd 2a 33 bd 9a e8 22 bc a6 9a dd 3c
       0.0751559 -0.04374205 -0.009943152 0.027051281
000200 76 1f 36 3e 89 cc 1a 3e 68 f3 f9 3d aa ee 43 3e
       0.17785439 0.15117086 0.12204629 0.19134012
000210 0a 6d 4f 3e 2a 44 83 3e aa f5 40 3e 14 cb 55 3e
       0.20256439 0.25637943 0.18843713 0.2087825
000220 a2 55 08 3e c9 df b3 3d d8 18 5b 3e 26 df 2d 3e
       0.13313916 0.08782918 0.21396196 0.16979656
000230 9c 63 4f 3e 01 17 35 3e ca cd 85 3e 5a 53 88 3e
       0.20252842 0.17684557 0.26133567 0.26626092
000240 98 f6 59 3e 16 f8 a5 3d 96 c7 62 3e ef 4c 47 3e
       0.21285474 0.08103959 0.22146448 0.19462942
000250 57 0d 30 3e 5a ab 0c 3e d0 e7 c2 3d ad b6 28 3e
       0.17192589 0.1373724 0.09516871 0.16475935
000260 9c 48 6e 3e fb 0f 1a 3e a3 76 10 3e 0f 61 01 3e
       0.23269886 0.15045159 0.14107756 0.12634681
000270 78 5f 88 3e ed 52 5c 3e 48 c7 bc 3d ac 00 fc 3d
       0.26635337 0.21516009 0.092176974 0.12304816
000280 3b 07 6c 3e 59 b4 19 3e be 5a 81 3e 14 ed e6 3d
       0.23049633 0.15010203 0.25264543 0.11275688
000290 5d 07 2b 3e f4 31 63 3e 8d 50 f1 3d e0 20 ee 3d
       0.16702028 0.22187024 0.11782942 0.11627364
0002a0 9d d8 41 3e 4c 4f e4 3d c9 d4 99 3d 09 7f 4e 3e
       0.18930288 0.11147937 0.07511289 0.20165648
0002b0 ba 24 6b 3e 0b f5 50 3e d4 16 63 3e 80 2f 87 3e
       0.22963229 0.20405976 0.22176677 0.26403427
0002c0 f7 04 24 3e 40 4d 1b 3e 29 52 45 3e 99 81 c8 3d
       0.16017519 0.15166187 0.19269623 0.09790344
0002d0 42 cf 58 3e e0 95 8c 3e f4 82 5b 3e 0c 84 76 3e
       0.21172813 0.27458096 0.21436673 0.2407381
0002e0 8b 62 05 3e c0 ce 76 3e b1 07 4a 3e ca 57 55 3e
       0.13025872 0.24102306 0.19729497 0.2083427
0002f0 6c ec 8b 3e 34 3c 75 3e 9b 6f 38 3e 29 99 29 3e
       0.27328813 0.23948747 0.18011324 0.16562332
000300 c6 27 04 3e 5b e3 89 3e ec 2f d8 3d 63 e1 be 3d
       0.12905797 0.2693127 0.10556015 0.09320333
000310 eb a2 42 3e 7e 51 50 3e 94 26 8b 3e a2 e8 78 3e
       0.19007461 0.20343587 0.2717787 0.24307492
000320 25 4b 94 3e 80 d0 8e 3e f9 d0 2a 3e a8 08 84 3d
       0.2896358 0.27893448 0.16681279 0.064469635
000330 03 e5 2b 3e 99 c7 3a 3e 9b d1 83 3e 9c ed 4a 3e
       0.1678658 0.18240203 0.25745854 0.19817203
000340 9b 45 44 3e b5 11 4f 3e c6 40 75 3e 0e a0 14 3e
       0.19167177 0.20221598 0.2395049 0.14514181
000350 8b f8 3e 3e ba 7e 76 3e 97 0f c8 3d 19 c0 0c 3e
       0.18649499 0.2407178 0.097685985 0.13745154
000360 e4 50 e0 3d 16 0e 34 3e 73 35 53 3e c1 d2 60 3a
       0.10952929 0.17583498 0.20625858 0.00085763267
000370 4e 12 08 3e 23 5b 1d 3e 8f f1 ea 3d 1f ec 31 3e
       0.13288233 0.15366797 0.11471855 0.1737523
000380 66 0f 38 3e 1f 64 ef 3d bb c8 65 3e a9 71 99 3e
       0.17974624 0.116890185 0.22439854 0.29969528
000390 d3 89 64 3e fa d4 4b 3e cd 3c 61 3e 96 5f d7 3d
       0.22318201 0.19905463 0.2199585 0.105162784
0003a0 55 73 1a 3e 0b 13 42 3e f5 80 59 3e d3 e4 91 3e
       0.15083058 0.18952577 0.212406 0.28494892
0003b0 3a f0 0c 3e fb 2e 9d 3e 13 a5 8c 3d f8 9c df 3d
       0.13763514 0.30699906 0.06867423 0.10918611
0003c0 0d f0 81 3e 5f 57 c4 3e 6c c3 bf 3d 28 7d d5 3d
       0.25378457 0.3834791 0.09363446 0.10424262
0003d0 4b cb 4e 3e 76 72 08 3e 20 6f 03 3e b9 f6 0d 3e
       0.20194738 0.13324913 0.1283536 0.13863648
0003e0 ba c9 14 3e 96 8f 6d 3e 52 11 cf 3d 45 1f d6 3d
       0.14530078 0.23199305 0.101107255 0.10455183
0003f0 61 a6 1d 3e 93 c6 85 3e 03 40 bf 3d 4f 27 63 3e
       0.153955 0.26128063 0.09338381 0.22182964

bias f4 [256]
000000 0b 44 b3 be a0 d6 15 3e 04 c4 97 3e e9 44 a9 3e
       -0.3501285 0.14632654 0.29641736 0.33060387
000010 d3 60 14 bf 03 47 1a bf 8c 74 53 be 0d 51 8b be
       -0.5796024 -0.60264605 -0.20649928 -0.27210274
000020 a1 4c ad be e7 39 b1 3e 2b a3 98 3e c4 bf 8e 3e
       -0.33847526 0.34614488 0.29811987 0.2788068
000030 ac 08 79 3e 91 e9 54 3e a1 b3 55 3e 04 da 3c 3d
       0.24319714 0.20792224 0.20869304 0.046106353
000040 6c 87 37 3e b4 cd a9 3e 86 e6 c3 be 68 5f 6a 3d
       0.17922753 0.33164752 -0.38261813 0.057219893
000050 99 0d fb be 59 79 24 bd bf ee 0e 3f 4b d7 3f 3e
       -0.49033812 -0.04015479 0.5583305 0.18734471
000060 72 95 da 3e 42 38 4f 3e fa f6 00 3f 19 62 aa be
       0.42692143 0.20236304 0.50376856 -0.33277968
000070 46 54 61 3c 20 6f d0 3e a8 61 27 3f 3b 51 a5 bc
       0.0137530025 0.40709782 0.65383387 -0.020180335
000080 76 6b 5e be 25 6c c0 bd 21 57 b1 be 4d 0b 2a bf
       -0.2172068 -0.09395627 -0.34636787 -0.66423494
000090 7e ed d8 bd 6b c8 e6 bd bf cd c3 be bf f9 39 bf
       -0.10592173 -0.112686954 -0.3824291 -0.7264671
0000a0 0e 46 ba be 07 df 9c 3e dc ac e5 be a9 c3 a4 be
       -0.36381572 0.30638906 -0.44858444 -0.32180527
0000b0 ee 98 f1 be 85 99 07 bf 6a ac 1d 3d d8 5e 34 3e
       -0.4718699 -0.5296863 0.038494505 0.17614305
0000c0 69 62 80 be c7 0e 12 3f f5 9c 59 3e e1 c2 dc 3e
       -0.2507508 0.570538 0.2125128 0.4311743
0000d0 f5 4f 51 be 25 70 05 bf e3 77 1a 3e 8d b3 0a 3d
       -0.20440657 -0.52124244 0.15084796 0.03386264
0000e0 13 12 6a 3e 9f 46 2e bf 18 7e a2 3e 62 9b a1 3e
       0.22858457 -0.6807651 0.31736827 0.3156386
0000f0 61 ee dc bd 65 07 45 bf bb c5 dd 3c c5 c4 b2 bd
       -0.10787655 -0.7696441 0.027071824 -0.08728937
000100 14 1c 09 bf b9 74 dd be c1 93 00 3e b3 bd 30 bd
       -0.5355847 -0.43253115 0.12556364 -0.04314966
000110 61 ea 0c 3e c1 e2 a1 3e a0 83 89 3e b3 7a fe be
       0.13761283 0.31618312 0.26858234 -0.49702987
000120 88 26 6f be 8d 27 10 3e f6 fe a4 3c 29 d9 b5 be
       -0.23354542 0.14077587 0.020141106 -0.35517243
000130 3b 01 88 3d 88 ca a2 3e 2c e8 6b 3e 56 24 1b bf
       0.0664086 0.31795144 0.23037785 -0.6060232
000140 e2 33 14 be a4 46 86 be 0d d5 5e be 5e 4a b8 be
       -0.14472917 -0.2622577 -0.2176096 -0.35994238
000150 ad 78 2f 3d 15 4e c8 3e 06 40 ec 3d 14 b9 f3 be
       0.042839695 0.39122072 0.11535649 -0.4760214
000160 7b df 94 be da f0 ba bc a9 5d f6 be b6 92 22 be
       -0.29076752 -0.022819925 -0.48118332 -0.15876278
000170 16 75 9f 3e 31 88 f6 3e 5b a0 18 bd cf 7c d1 3e
       0.31144017 0.4815078 -0.037262302 0.40915534
000180 42 ec c4 be 3b 9d 12 bf 4f 3d 95 3e ad 60 e2 be
       -0.384615 -0.57271165 0.29148337 -0.44214383
000190 12 79 b5 3e 11 a6 ae 3e 71 3c 58 3d 9d c4 64 3e
       0.35443932 0.34111074 0.052792016 0.22340627
0001a0 e8 ac 21 3d 92 22 1f 3f 9e a0 08 be 36 b9 be be
       0.039471537 0.62162125 -0.1334252 -0.3725068
0001b0 e9 e7 9c be 6c e2 81 3e e1 cd 03 3f 6e fb 6f 3e
       -0.30645683 0.2536806 0.5148602 0.23435757
0001c0 60 76 9f 3e df f7 fd 3d cc 9e 65 bf ef 2a 9f 3e
       0.31145 0.12400793 -0.8969543 0.31087443
0001d0 de 00 5f 3e 10 58 6f 3d 0a 12 05 3e 88 1c 31 bf
       0.21777675 0.058433592 0.12995163 -0.6918416
0001e0 df 87 aa 3e 04 dc ec bd e4 be fe be 15 77 ff 3d
       0.33306786 -0.11565402 -0.49755013 0.12473885
0001f0 94 51 ec 3e d7 3b 95 3d 14 65 84 3e c0 2d 54 be
       0.4615599 0.07286804 0.25858366 -0.20720577
000200 de a9 92 be 7b 63 2f 3e 4c 6b 9a be 60 53 3a bc
       -0.28645223 0.17127793 -0.30159986 -0.011372417
000210 e4 84 15 be 1e e7 6b bd 24 f0 96 be db fe 01 3f
       -0.14601475 -0.057593457 -0.29480088 0.50779504
000220 8a 4d 0b bf 92 c5 d8 be c9 a6 a0 3e 93 6d 82 3e
       -0.5441519 -0.42338234 0.31377247 0.25474223
000230 9d 4c 4d be 54 12 f7 3e d9 93 2e 3f fb 0b a5 bc
       -0.20048757 0.4825617 0.6819435 -0.020147314
000240 fc 25 ec be 1d f9 73 3b b3 03 1e 3e 5e 9f 09 3f
       -0.4612273 0.003722734 0.15431099 0.537588
000250 62 2f cf 3d f6 c4 47 be 79 9c f8 bd 69 83 84 3e
       0.101164594 -0.19508728 -0.1213922 0.25881508
000260 52 c0 1e bd a1 d4 29 be c7 b9 b1 be f6 23 e6 3e
       -0.03875763 -0.16585018 -0.3471205 0.4494931
000270 61 93 1e 3f 8e 78 94 3e 98 5c 8b be be cf 0d 3f
       0.6194363 0.28998226 -0.2721908 0.55395114
000280 e6 dd 74 be 47 ae 7c 3e 80 cf b1 be 0a d7 51 be
       -0.23912773 0.24675857 -0.34728622 -0.20492187
000290 2a b7 b1 be 45 10 ba be 6c ca 89 be bd 4a 98 bd
       -0.34710056 -0.36340538 -0.26912248 -0.0743613
0002a0 af 6f 27 3d b7 e2 c1 be 05 14 b0 be 84 3c d0 be
       0.040877994 -0.37868282 -0.34390274 -0.4067117
0002b0 cf 4f 17 bf f1 4e fa 3d bf 60 c9 be dd c6 f2 3e
       -0.59106153 0.12222088 -0.39331624 0.47417346
0002c0 d6 d6 46 3c ff 4b 76 be 37 4a 9d be 88 93 95 3e
       0.012136182 -0.24052428 -0.30720684 0.2921412
0002d0 a8 d6 db 3d db b2 cd be d0 43 9e 3e 2a 35 fb 3e
       0.10734302 -0.40175518 0.30911112 0.49063998
0002e0 db 2f bc 3e 0e 16 93 3e 2f e1 20 be 85 fb 04 b9
       0.3675526 0.28727764 -0.157109 -0.000126822
0002f0 ac 2c 33 3e cd 77 fd bc e9 c9 b1 3e ef d7 a9 3e
       0.1749751 -0.030940915 0.34724358 0.33172557
000300 24 c1 51 be 92 10 99 be f1 c3 d2 3e ef 76 10 3d
       -0.20483834 -0.29895455 0.41165116 0.035269674
000310 85 d9 9a 3e c7 a2 3c be 01 1f 31 be 5b 38 8a be
       0.3024408 -0.1842147 -0.17296983 -0.2699612
000320 11 e3 a9 be c3 ca d3 3e e1 5a 69 3e 78 f6 79 be
       -0.3318105 0.41365632 0.22788574 -0.24410427
000330 3f 5c ea 3c 8c 04 ae 3e f3 bf 16 bd 93 74 1e 3d
       0.02860844 0.33987844 -0.03680415 0.038685393
000340 a9 c0 6c 3e 04 da 7b be 2a 95 c6 3e ee 0c 60 be
       0.23120369 -0.24594885 0.38785678 -0.21879932
000350 de c2 9f be b3 f0 50 be 39 31 4f be 92 92 b8 3d
       -0.3120336 -0.2040432 -0.2023362 0.09012331
000360 86 54 c8 3d 0b 9a dd be 67 6d b4 3d cf 41 1a 3f
       0.097817466 -0.43281588 0.08809929 0.60256666
000370 e3 a3 5d 3e 64 70 b9 be 95 cd 8a bd b0 8a 8f be
       0.21644549 -0.3621856 -0.06777493 -0.28035498
000380 49 d4 61 3e 39 ee da bd 30 ac c6 be d3 9c ec 3d
       0.22053637 -0.106899686 -0.38803244 0.11553349
000390 84 e1 4b bf a4 0f b5 3e 39 fa a0 3d 67 8d 26 bf
       -0.79640985 0.35363495 0.07860226 -0.6505951
0003a0 45 6c 02 be 49 c8 b5 be f5 94 5c be 27 81 87 3e
       -0.12736614 -0.35504368 -0.21541198 0.26465723
0003b0 cc 61 04 3d 19 8a ee 3e 87 a4 4a 3e a4 36 57 3e
       0.03231983 0.46589735 0.19789325 0.21016937
0003c0 b5 d7 07 bf 30 c3 98 3e a1 a0 db be 5f 9a a1 bd
       -0.5306352 0.29836416 -0.42895988 -0.07890772
0003d0 44 29 df 3e a6 60 17 bf 26 fe 08 bf dc 52 b0 3e
       0.4358617 -0.5913185 -0.535128 0.34438217
0003e0 f7 fc 2c be 9a 63 94 be e9 95 8a bd 92 60 a9 be
       -0.16893373 -0.2898224 -0.06766874 -0.3308149
0003f0 d6 18 9b bc 84 15 a8 be f8 f4 29 be 4d 13 de bd
       -0.018932741 -0.32828915 -0.16597354 -0.10843525

weight f4 [256, 256]
000000 9d ff ca 3e 29 03 c2 be 5c d0 bc 3e 6d b3 c0 3e
       0.39648142 -0.37893036 0.36877716 0.3763689
000010 7b 06 b0 be 60 f4 b9 be 96 82 c7 3e 16 3b ab be
       -0.34379944 -0.36319256 0.38966817 -0.33443516
000020 0c e8 28 3f 05 59 b8 be cd 65 37 bf 04 d8 cd be
       0.65979075 -0.36005417 -0.7163971 -0.4020387
000030 e0 d0 ca be df 64 3f bf fc 7c 3a 3f 18 e9 b7 be
       -0.39612484 -0.7476329 0.7284696 -0.35920024
000040 a9 a2 32 bf 43 ae c7 3e 2b ce 2a 3f 46 af a5 3e
       -0.6977945 0.3900014 0.6672084 0.32360286
000050 17 3c c8 be 51 0e cc be 29 18 39 bf 1d 6a c5 be
       -0.39108345 -0.39854673 -0.7230249 -0.3855752
000060 f0 c9 33 bf 35 f3 d4 3e cd 91 a7 3e 5e 15 d1 3e
       -0.7023001 0.41591802 0.32728425 0.40836614
000070 1b 97 b2 be 7c 6f 37 bf 96 08 a9 3e bc ad d5 be
       -0.3488091 -0.71654487 0.33014363 -0.4173411
000080 00 20 28 3f 8c a0 a8 be 92 f7 d0 3e 9c cf 37 3f
       0.6567383 -0.32934988 0.4081388 0.7180116
000090 d2 ae bd 3e 47 80 3d bf 68 8c 35 3f 77 15 d7 be
       0.3704744 -0.7402386 0.7091737 -0.42008564
0000a0 08 55 ac be cf d0 30 bf d4 a2 2b bf 24 02 c2 3e
       -0.33658624 -0.69068617 -0.6704533 0.37892258
0000b0 00 aa ad be 9f 29 a9 be fb b7 33 3f 11 93 41 bf
       -0.33918762 -0.33039567 0.70202607 -0.7561503
0000c0 e0 f2 a2 3e 9a a9 c6 3e 2e b0 b5 be 22 c7 42 bf
       0.31825924 0.3880127 -0.35485977 -0.760851
0000d0 43 67 30 3f 1f 08 31 3f 5b 07 3b bf f1 fe db 3e
       0.68907565 0.69153017 -0.730581 0.42967942
0000e0 84 7c 3c bf 72 2d d3 be 24 c4 b4 be 7b 60 36 bf
       -0.73627496 -0.4124561 -0.35305893 -0.7124097
0000f0 09 e6 b9 3e ab 22 40 3f bb e5 42 3f 33 fd d5 3e
       0.36308315 0.750529 0.7613179 0.41794738
000100 04 bc 9d be e2 cb 37 3f 37 ac d4 be a0 e7 c9 3e
       -0.30807507 0.71795475 -0.4153764 0.39434528
000110 75 64 37 bf 81 54 a5 be d7 52 b8 be 5f a0 2d 3f
       -0.7163766 -0.32291034 -0.36000702 0.6782283
000120 1f 66 c1 3e 4e 90 d7 be e4 50 ab be b0 43 39 3f
       0.37773225 -0.42102283 -0.33460152 0.7236891
000130 8e 15 b2 be 44 53 28 bf b1 bc d0 3e 8f e9 d5 be
       -0.3478207 -0.65752053 0.4076896 -0.41779754
000140 be 54 0b be 02 92 30 3f e0 34 bc 3e 9a 59 a2 3e
       -0.13606545 0.6897279 0.3675909 0.31708986
000150 34 7f b7 3e a8 d2 2b bf 00 18 aa be 09 21 32 3f
       0.35839236 -0.6711831 -0.33221436 0.6958166
000160 a4 6d 2e 3f c5 cf d4 be d0 80 28 3f cd 68 a2 be
       0.6813605 -0.41564766 0.6582155 -0.31720582
000170 f5 d0 ce be aa a9 b4 3e d7 79 35 bf 89 9e 27 bf
       -0.40393797 0.35285693 -0.7088904 -0.6547628
000180 02 3a 35 3f 91 b4 b6 be 02 d5 ce be 6e f1 3f 3f
       0.7079164 -0.35684636 -0.40396887 0.7497777
000190 37 66 b6 3e ec eb 3f bf b9 27 9f 3e 86 19 32 bf
       0.3562486 -0.74969363 0.31084993 -0.69570196
0001a0 b7 75 a2 3e c2 99 39 bf b1 85 bc 3e e4 c9 35 3f
       0.31730434 -0.7250024 0.36820748 0.71011186
0001b0 60 6e 27 3f b9 7b bb be af 59 2f bf cf b4 d6 be
       0.65402794 -0.3661783 -0.6849622 -0.4193482
0001c0 57 8c 3d bf 43 fb b0 3e 5b 71 b1 be 14 45 cb 3e
       -0.74042267 0.34566697 -0.34656796 0.3970114
0001d0 c0 97 c2 be 24 cf c2 3e 04 1d d8 be 0e 8a a0 be
       -0.380064 0.3804866 -0.42209637 -0.31355327
0001e0 d3 b0 40 bf 32 26 a8 3e 23 d6 3e 3f 0c e3 ab 3e
       -0.7526981 0.3284164 0.74545497 0.3357166
0001f0 d2 04 38 bf aa 66 d1 be 07 fb c0 be 91 20 d7 3e
       -0.71882355 -0.4089864 -0.3769152 0.42017034
000200 c9 5f cd be 41 d0 27 bf 55 d6 38 3f bd 37 d8 be
       -0.4011214 -0.65552145 0.72202045 -0.42230025
000210 1c 41 38 3f 15 4c da 3e 38 e1 b1 3e 25 ca da be
       0.7197435 0.4263617 0.3474214 -0.4273235
000220 a8 e2 39 3f 88 1a a8 3e b8 85 d7 be ab a1 2a bf
       0.72611475 0.32832742 -0.42094207 -0.66652936
000230 a7 ea 9e be a8 f7 24 3f ed bb b6 3e 63 af d2 be
       -0.310384 0.64440393 0.3569025 -0.41149434
000240 73 cf 2b 3f 43 a6 c2 3e fb 7b d0 be 12 23 ac be
       0.6711342 0.38017473 -0.4071959 -0.33620507
000250 a7 1e dc be b9 d2 a5 3e 9d c2 3f 3f 6f f0 a1 be
       -0.42992136 0.3238733 0.7490633 -0.3162875
000260 7d a2 aa 3e 40 e5 b0 3e 0c f3 3b 3f df f6 32 bf
       0.33327094 0.34549904 0.73417735 -0.69907945
000270 18 b5 c0 3e 1b 39 43 bf 7c 04 d5 3e 31 43 31 bf
       0.37638164 -0.7625901 0.41604984 -0.6924315
000280 ce 4c c2 3e f6 41 39 bf 21 99 37 bf 7c 08 3c 3f
       0.37949222 -0.72366273 -0.7171803 0.73450446
000290 1d 16 b4 3e cd a1 bc 3e 6b 9a b2 3e fa 19 ba be
       0.3517312 0.36842194 0.34883437 -0.36347944
0002a0 15 fc b0 3e 87 31 d8 be f6 59 b3 be 3d a8 28 3f
       0.34567323 -0.42225286 -0.35029572 0.6588171
0002b0 2c b2 ca be ce 81 af be a1 c2 27 3f ed b9 3b bf
       -0.3958906 -0.3427872 0.65531355 -0.73330575
0002c0 91 8f c5 3e f1 78 bd be 5c fa a1 3e 05 c1 b6 be
       0.38586095 -0.37006333 0.31636322 -0.35694137
0002d0 65 59 c9 be 7d 09 28 3f 4c 65 2a 3f 05 96 38 bf
       -0.39326015 0.6563948 0.66560817 -0.7210391
0002e0 d3 d7 34 3f ec 65 45 bf c2 c0 c5 3e b1 0b a0 3e
       0.7064182 -0.77108645 0.38623625 0.3125892
0002f0 63 b1 ac be 3c 00 be 3e 54 ff b9 be f7 6d 38 bf
       -0.33729085 0.37109554 -0.36327612 -0.72042793
000300 17 0e c5 3e 4b d4 b7 3e 8b 85 ca be be 1b d6 3e
       0.38487312 0.35904154 -0.3955501 0.4181804
000310 f5 0c 8a 3e 70 68 29 3f 96 7a b3 3e d6 fc 3f 3f
       0.2696301 0.66174984 0.35054463 0.7499517
000320 c9 5e 3e 3f 4a 87 b1 3e fb c4 d7 be 79 f4 c5 3e
       0.7436338 0.3467353 -0.42142472 0.3866308
000330 cf 18 cc be e3 bf d3 be b8 cc cd 3e dc 1b c6 be
       -0.39862677 -0.41357335 0.4019525 -0.3869313
000340 31 70 d6 3e a5 1b b2 3e 17 39 30 bf 54 a6 38 3f
       0.4188247 0.34786716 -0.6883711 0.72128797
000350 72 0b 43 3f 61 15 b1 3e cc b0 30 3f a6 2a b2 be
       0.7618934 0.34586623 0.6901977 -0.34798163
000360 d5 0a d1 be a5 aa da be 99 3f d1 3e a2 6d c4 3e
       -0.40828577 -0.42708316 0.40868834 0.38364893
000370 6f 44 9d 3e b1 8e a6 be 96 de d9 be a9 8f ad 3e
       0.30716273 -0.3253074 -0.42552632 0.33898667
000380 67 0f d8 be f4 7e c3 3e fb ba c5 3e 19 7b 2a bf
       -0.4219925 0.38182795 0.38619217 -0.6659408
000390 c5 5b ce be 2c af 44 bf e4 d8 27 bf 04 5b b1 be
       -0.4030439 -0.7682979 -0.65565324 -0.34639752
0003a0 a7 26 41 3f 9a ee b7 3e 43 83 b9 be 6c a9 9e be
       0.75449604 0.35924226 -0.36232957 -0.30988634
0003b0 30 68 d3 be 2d 9e cd 3e 5b 9f 2f bf 0f 18 dc be
       -0.41290426 0.4015974 -0.6860253 -0.42987105
0003c0 94 7d be be 21 6e c8 be 90 ba 41 3f 87 bb c6 be
       -0.37205184 -0.39146522 0.75675297 -0.38814947
0003d0 68 98 99 3e 2c f6 d2 be 79 e1 b3 be e3 b2 da be
       0.2999909 -0.4120344 -0.3513296 -0.42714605
0003e0 6a 27 43 3f 66 73 cb 3e 6d 9c b4 be 2d 33 ce 3e
       0.76232016 0.3973648 -0.35275593 0.4027342
0003f0 f8 45 aa be 65 d0 41 3f 58 36 9d 3e b0 39 34 3f
       -0.33256507 0.7570861 0.30705523 0.70400524

bias f4 [256]
000000 a3 e2 25 bf 87 42 36 bf 5e a5 32 bf 7d 4f 81 bd
       -0.64798945 -0.7119526 -0.6978358 -0.06313989
000010 b9 11 34 bf e0 a0 7e be aa 72 40 bf 92 f1 83 bf
       -0.7033954 -0.24866056 -0.75174963 -1.0308096
000020 09 67 62 bf 6e e7 30 bf a1 73 7b bf 66 6a ee bc
       -0.8843847 -0.69103134 -0.9822331 -0.02910347
000030 af 2a 04 bf b3 7f 2c bf b6 58 6e bf 5c ba 47 bf
       -0.5162763 -0.67382354 -0.9310411 -0.78018737
000040 e7 5f 48 bf 1a cc 11 be 0b 06 76 bf b3 20 53 bf
       -0.78271335 -0.14238015 -0.9610297 -0.8247177
000050 82 75 33 bf 36 c3 2e bf 2a bb 0f 3f 41 c8 6b bf
       -0.7010118 -0.6826662 0.56144965 -0.9210244
000060 0b a4 84 bf 88 e1 18 bf 1f 6d 64 bf 86 e9 29 bf
       -1.0362562 -0.59719133 -0.89229006 -0.66371953
000070 e1 cf 64 be f9 3e 62 bf 88 63 5e bf f2 5f 13 bf
       -0.22344925 -0.8837734 -0.8687062 -0.57568276
000080 a7 84 80 bf 94 0b 2b bf 55 b7 6e bf 4b 7b 8d bd
       -1.0040482 -0.6681454 -0.9324849 -0.06908282
000090 0b 7f 75 bf 90 cd 79 bf 01 35 0c bf 84 9a 63 bf
       -0.9589698 -0.9757929 -0.5476838 -0.8890765
0000a0 37 dd d4 be a2 ea 34 bf 35 ab ab be 3b 70 4f bf
       -0.41575024 -0.7067052 -0.33529058 -0.81030625
0000b0 67 3a 32 bf c0 c0 c7 be 34 bf 1a bf 7b 8f 8d be
       -0.69620365 -0.39014244 -0.60448 -0.2764853
0000c0 6c 37 4b bf 14 b9 2d bf 44 39 34 bf c9 05 31 bf
       -0.7938144 -0.6786053 -0.7039988 -0.6914945
0000d0 43 f5 35 bf 30 37 1d bf bf ef 35 bf 03 ea 62 bf
       -0.71077365 -0.61412334 -0.7106895 -0.88638324
0000e0 10 99 78 bf 5b 02 34 bf d3 90 4c bf cc 0a 42 bf
       -0.97108555 -0.70316094 -0.79908484 -0.75797725
0000f0 9e ab 33 bf c1 48 2f bf d5 4d 61 bf ed b4 42 bf
       -0.7018374 -0.6847039 -0.8800939 -0.7605732
000100 5a e0 b7 bd f7 86 2d bf bc da 31 bf ed 2a de be
       -0.089783385 -0.67784065 -0.6947439 -0.43392125
000110 ae f0 8c bd 2e b6 40 bf 53 af 42 bf 06 01 82 bf
       -0.068818435 -0.75277984 -0.76048774 -1.0156562
000120 e2 70 81 bf 55 26 6e bf 8d 63 4a bf cd 97 f5 be
       -1.0112574 -0.9302724 -0.7905815 -0.47967377
000130 09 ce 46 bf 8d 33 2f bf c8 60 5d be b2 9b 6a bf
       -0.77658135 -0.68438035 -0.2161895 -0.9164382
000140 e1 dd 3f bf f1 e8 3a bf c0 90 ff be fa 93 7f bf
       -0.74947935 -0.7301169 -0.49915123 -0.9983517
000150 20 e8 03 bf a8 b3 5c bf c5 ee e9 be 1a 48 fa be
       -0.5152607 -0.86211634 -0.4568998 -0.48883134
000160 15 92 30 bf dd cd 6c 3c 55 b2 2a bf 4b 8b 3f bf
       -0.68972903 0.0144533785 -0.66678363 -0.7482192
000170 4d 51 2d bf a4 db 0a bf 2a 3b 20 3e 46 82 35 bf
       -0.6770218 -0.54241395 0.1564757 -0.70901906
000180 ca f4 37 bf e6 9c 73 bf 34 bc f6 be 17 d2 dd bd
       -0.71857893 -0.95161283 -0.48190463 -0.10831087
000190 dd 99 23 bf af 42 6f bf bc fd 51 bf 4e 56 54 bf
       -0.6390665 -0.93461126 -0.8202779 -0.8294419
0001a0 6e df 75 bf 61 2f 36 bf 4e a5 8c bf 44 74 6d bf
       -0.9604405 -0.71166044 -1.0987947 -0.9275553
0001b0 e8 79 53 bd 7d 98 90 3c 20 a0 2d bf 3f 3d 3c bf
       -0.05162993 0.017650837 -0.67822456 -0.73530954
0001c0 ef c2 5c be 8a 49 13 bf a5 8d 35 bf c9 3f a0 be
       -0.21558736 -0.57534087 -0.7091926 -0.31298664
0001d0 0c d4 27 bf f5 fa 5e bf e4 34 70 bf 28 3b 31 bf
       -0.6555793 -0.8710168 -0.93830705 -0.6923089
0001e0 e1 28 9f be 59 1e 2e bf 9b e0 1e bf f5 8d 2a bf
       -0.31085876 -0.68015057 -0.6206147 -0.6662286
0001f0 7a 20 5e bf 80 2d 3c bf e2 4f 2a bf f2 53 40 bf
       -0.86768305 -0.7350693 -0.6652814 -0.7512809
000200 59 87 73 bf c4 8e ee be ac fe 2b bf 28 5d d3 be
       -0.951284 -0.46593297 -0.67185473 -0.4128201
000210 17 5b 5e bf 31 58 78 be d9 0d 44 be 4e 12 18 bf
       -0.8685774 -0.24252392 -0.19145907 -0.5940293
000220 c1 96 05 3e 3e 02 25 bf 48 35 26 bf 02 73 6b bf
       0.1304579 -0.64456546 -0.6492505 -0.91972363
000230 a8 cd 6f bf f1 36 4b bf 27 2e 1c be 56 18 70 bf
       -0.9367318 -0.7938071 -0.1525198 -0.93787134
000240 4e 54 3d bf 93 93 10 bf 9b 60 1b bf 12 69 b3 3c
       -0.73956764 -0.5647518 -0.60694283 0.021900687
000250 c3 b2 26 bf c7 67 35 bf c1 27 2a bf 99 8b 77 be
       -0.6511652 -0.70861477 -0.6646691 -0.24174346
000260 56 40 36 bf df 42 43 bf 22 f2 3e bf e3 a0 23 bf
       -0.7119192 -0.7627391 -0.74588215 -0.6391737
000270 46 d2 35 bf 35 d6 58 bf c7 d2 2f bf 04 d7 15 bf
       -0.71023977 -0.84701854 -0.68680996 -0.5853121
000280 6d 94 3b bf 5c 3c 49 bf e9 0a 47 be c9 d0 28 bf
       -0.73273355 -0.78607726 -0.19437756 -0.6594358
000290 5f 59 79 be b0 9b 3a bf 3e ff 38 bf f5 97 22 bf
       -0.24350499 -0.7289381 -0.7226447 -0.6351312
0002a0 36 34 7b bf f4 37 31 bf bf db fb be fc 3a 2c bf
       -0.9812654 -0.69226 -0.4919109 -0.67277503
0002b0 3a 89 86 3e cc 8b ca be 99 f1 4a bf f2 d7 13 bf
       0.2627657 -0.39559782 -0.792749 -0.5775138
0002c0 77 61 31 bf d7 c8 3e bf 2d c3 0f be d4 af 52 bf
       -0.69289345 -0.7452521 -0.14039297 -0.8229954
0002d0 15 cb 64 bf e5 f4 04 bf 69 b4 65 be 91 c6 65 be
       -0.8937238 -0.5193618 -0.22432102 -0.22439028
0002e0 7f 99 0a bf 3b e5 2b bf a1 d3 27 bf 4d 8f 33 bf
       -0.54140466 -0.6714665 -0.65557295 -0.70140535
0002f0 c0 d9 3e bf d8 4a d8 be 42 fb 41 3e 57 c4 3d bf
       -0.7455101 -0.422446 0.18943503 -0.74127716
000300 5f bc 24 bf d0 4f 8d 3d 60 e8 3c bf ca a8 00 be
       -0.6434993 0.06899989 -0.73792076 -0.12564388
000310 92 ed 8d be b7 fd 5f bf 2f ef 50 bf 3b 0a 3c bf
       -0.27720314 -0.87496513 -0.81614965 -0.7345311
000320 fb 51 77 bf b3 fa 42 bf df b1 7b bf 18 1f 3a bf
       -0.9660947 -0.76163787 -0.98318285 -0.72703695
000330 3f f2 51 3d de 63 a1 3d 0c 6f f9 be 2f 38 31 bf
       0.051256415 0.07880376 -0.48717535 -0.69226354
000340 7b b2 19 bf f8 7f 62 bf 9d 69 38 bf d3 9c 2c bf
       -0.60037965 -0.88476515 -0.72036153 -0.67426795
000350 b2 bb 34 bf 81 d1 70 bf 47 ff 41 bf 82 05 24 bf
       -0.705989 -0.9406968 -0.7578015 -0.64070904
000360 cb 3a 3e bf 86 7b 63 bf 52 68 35 bf c4 4d 31 bf
       -0.7430846 -0.88860357 -0.70862305 -0.69259286
000370 02 92 2f bf e3 7a f6 be a8 17 60 3f 18 b8 2c bf
       -0.68582165 -0.4814063 0.87536097 -0.67468405
000380 94 84 14 bf 8e 67 fd be 09 bd f0 be ea 5c 23 bf
       -0.580148 -0.49493068 -0.47019222 -0.6381365
000390 62 49 9c be 8c 58 62 bf 5f 14 16 bf 15 63 3b bf
       -0.30524737 -0.8841636 -0.58624834 -0.7319806
0003a0 ae 84 29 bf d2 89 33 bf 57 c6 60 bf ab d6 58 bf
       -0.6621808 -0.7013217 -0.8780264 -0.8470256
0003b0 9d 25 49 bf d6 85 ff be cb 17 4e bf d5 3d 52 bf
       -0.7857302 -0.49906796 -0.80505055 -0.821256
0003c0 39 a2 83 be 9d 85 34 bf 38 ce dd be fa dd 33 bf
       -0.25709704 -0.7051638 -0.43321395 -0.70260584
0003d0 07 8d 49 bf 85 9b f0 be cd 15 e8 be 7f d1 c1 be
       -0.78730816 -0.46993652 -0.45329133 -0.37855145
0003e0 60 57 41 bf 53 58 74 bf 8f 76 30 bf fe 76 13 bf
       -0.7552395 -0.9544727 -0.68930906 -0.5760344
0003f0 82 7e 55 bf b0 d3 64 bf 50 2c 91 3e 72 87 3d bf
       -0.8339616 -0.8938551 0.2835412 -0.740348

weight f4 [64, 256]
000000 d2 c4 2a 3f 08 62 b7 be cd 71 2b 3f aa dc f4 3e
       0.66706574 -0.3581698 0.6697052 0.47824603
000010 c3 7a cf 3e 68 5a 7c be 78 c8 d9 3f 69 be 44 3e
       0.40523347 -0.24643862 1.7014303 0.1921326
000020 e9 81 bd 3e 52 ab 49 bd 49 5b be 3e 0b 0f 38 3f
       0.37013176 -0.04923565 0.3717902 0.71897954
000030 74 79 c8 3e da 96 80 be 69 08 60 3f da 50 8d 3d
       0.3915516 -0.2511509 0.8751283 0.06900187
000040 e1 c7 84 be f3 f4 6b 3f cd 42 45 be 68 57 cf be
       -0.25933746 0.9217064 -0.19263764 -0.40496373
000050 3c 60 33 3f 69 4e d7 3d 34 1d c5 3d a8 55 7e be
       0.70068717 0.105130024 0.09624711 -0.24837363
000060 2b d2 25 3e 3e 42 55 3f 7a 54 85 3e 07 e5 a2 3e
       0.16193454 0.833042 0.26041013 0.3181536
000070 88 04 fb bd ab 85 54 3f c1 65 9a be d7 73 7f 3f
       -0.12256724 0.8301646 -0.30155757 0.9978613
000080 f6 6d 49 3f f5 97 2b 3f 55 03 6e 3e 00 cc 85 3f
       0.7868341 0.67028743 0.23243459 1.0452881
000090 83 23 b4 3d c1 7a a6 3e 69 02 3b 3f cc 91 4d 3f
       0.08795836 0.3251553 0.7305055 0.80300593
0000a0 85 6c a4 3f dc d5 8f be 7e a7 ea bd ea 1f 38 3f
       1.2845618 -0.2809285 -0.11457728 0.71923697
0000b0 d3 17 1a 3d 54 51 7c 3f 37 ce 04 3f 2b 39 8b 3f
       0.037620377 0.98561597 0.5187716 1.0876821
0000c0 e5 c6 87 3d 62 df 6f be 4a a2 3f 3f be 30 09 3f
       0.06629733 -0.23425058 0.7485701 0.5359
0000d0 4b 0b 72 3e 23 2d 27 3f 9c b5 32 3f af 27 33 3f
       0.2363712 0.6530325 0.69808364 0.6998243
0000e0 16 4b 4c 3f 2e 6f db 3e a5 92 47 3f 16 ba de bd
       0.7980207 0.4285826 0.77958137 -0.10875337
0000f0 60 1c d8 3e 96 14 4c be 40 50 9a be 08 93 41 3f
       0.42209148 -0.19929728 -0.3013935 0.75614977
000100 02 e5 b0 be b5 24 4a 3d f2 2f d6 bd 72 e2 09 3f
       -0.3454972 0.049351413 -0.104583636 0.53861153
000110 7b 58 de 3e 6c e3 3c 3f 2b 3a e5 bd 31 7f 35 be
       0.4342688 0.7378452 -0.11192735 -0.17724301
000120 bf 6d 33 3f 13 92 f5 bd 5f 4f bc 3e f6 d5 18 3f
       0.70089334 -0.11990752 0.36779305 0.5970148
000130 a4 d6 0b bf ce 7a e7 bd 8a 35 80 be 1d bf 41 3f
       -0.5462439 -0.1130272 -0.25040847 0.7568224
000140 9c f7 36 3d c7 25 a6 3e 8b a8 24 3f 23 d3 6b 3e
       0.044669732 0.32450697 0.64319676 0.23029761
000150 f9 d8 46 3f bb c9 cf 3e e0 c8 6d 3f 48 8c 8d 3f
       0.77674824 0.40583596 0.92884636 1.1058435
000160 b2 da 79 3d 13 f1 dd 3e 9a 3c 51 bd ae 7c 1f 3f
       0.06099958 0.43347988 -0.051083185 0.6229962
000170 57 16 0a bd 6b 63 c0 3d c0 d3 15 3f f8 ca 85 be
       -0.03371271 0.093939625 0.5852623 -0.26131415
000180 17 95 0d be 02 10 cc 3e 04 52 9f 3d c4 9c 12 3f
       -0.13826405 0.39855963 0.07779315 0.57270455
000190 c7 68 1f bb eb 59 c0 be ba 1b e1 be 0b 3b 02 bf
       -0.0024323927 -0.37568602 -0.43966466 -0.5087134
0001a0 61 01 93 be 4c da a9 be 16 94 4b 3d 41 3f 27 be
       -0.2871199 -0.3317436 0.049701773 -0.16332723
0001b0 75 18 97 be 7b 24 82 3f 92 93 89 3f 81 31 21 3f
       -0.29510847 1.0167383 1.074816 0.6296616
0001c0 5f b8 9c 3f 31 c4 18 3f 00 cb 28 3f 86 44 2a be
       1.2243766 0.59674364 0.65934753 -0.16627702
0001d0 e0 36 e9 3e b7 7a 0a be eb b5 86 be ab 49 1e 3f
       0.4554968 -0.13523374 -0.26310667 0.6183116
0001e0 3d dd c0 3e 06 c2 0d be c6 db c2 3d 78 e4 d2 be
       0.3766879 -0.13843545 0.09514575 -0.41189933
0001f0 16 94 13 3e 78 eb 7b be 4e 78 32 3f 3a 85 3a 3f
       0.14411959 -0.24601543 0.6971482 0.7285954
000200 3b 0f 32 bd 2a 3a 09 3f 98 0d d6 3e 07 4a bb 3e
       -0.043471556 0.53604376 0.41807246 0.36579916
000210 61 ec fc bd 96 3b 16 3f a8 e7 7e 3e d2 f7 c8 3f
       -0.12349773 0.5868467 0.24893057 1.5700629
000220 fa fa fe 3e 48 a0 19 3f 7f 55 a9 3e 98 cb 55 3e
       0.49800855 0.60010195 0.3307304 0.20878446
000230 cf 1f 84 3e 9f 84 ac 3e d7 03 12 be 16 da 9b be
       0.25805518 0.33694932 -0.14259277 -0.30439824
000240 e0 db 37 be c9 65 4d 3f 12 95 31 be 4c fe 23 3f
       -0.1795497 0.80233437 -0.17342022 0.640599
000250 42 ce 30 3f 89 83 cb 3e 5f 66 45 3e 95 4d 7f 3d
       0.69064724 0.3974879 0.19277333 0.062329847
000260 48 82 4f 3f f0 c2 f5 3d 9c 09 83 be 8b 56 6c bd
       0.8105817 0.12000072 -0.2559327 -0.05769972
000270 65 56 76 be 93 9d 41 3f 3f 3f 2a 3e bc 19 7c be
       -0.24056394 0.75631064 0.16625689 -0.24619192
000280 7c 03 20 3f ed 45 04 3f ed ea 04 3e 8a 63 99 be
       0.62505317 0.516692 0.12980242 -0.29958755
000290 98 38 b6 3e 8a 81 3f 3f e9 00 94 be ed 38 b7 be
       0.35590053 0.74807036 -0.28906944 -0.35785618
0002a0 80 8f 95 bd 41 e2 c5 3e 14 e5 26 3f e1 9f 3e be
       -0.07302761 0.3864918 0.65193295 -0.18615676
0002b0 14 dd e5 3e f3 ec 43 3f ae c3 84 3d 1b c9 c9 3e
       0.44895232 0.7653343 0.064826354 0.39411244
0002c0 47 8e 3b 3f 47 1e 90 3e 14 59 8a 3e 29 ec 22 be
       0.73263973 0.281481 0.27021086 -0.159104
0002d0 03 83 88 bd 82 bd 44 be 48 05 e5 3e 94 ff 40 3f
       -0.066656135 -0.19212916 0.44730592 0.7538998
0002e0 f9 be a7 3f 8b 5b 01 bf ee 3c 63 bd 44 89 25 3f
       1.3105155 -0.5053031 -0.05547803 0.64662576
0002f0 16 5a d6 3e a1 a9 a4 be e7 b0 18 3f 6d 6e 64 be
       0.41865605 -0.32160667 0.5964493 -0.22307749
000300 54 27 df 3e c8 7e 51 3f d5 25 81 be b9 b7 06 3f
       0.43584692 0.8183408 -0.25224176 0.5262409
000310 5e f7 31 3f 5d 79 1d ba be d7 9d bd 55 21 00 3f
       0.6951808 -0.0006007159 -0.07707165 0.5005086
000320 c6 b2 00 be 83 7a 81 3e 92 07 42 3f fa 46 49 3e
       -0.12568197 0.25288782 0.757928 0.19655982
000330 b7 58 c1 3d 84 b9 b4 be c8 36 28 3f fd fc ae bd
       0.09440749 -0.35297787 0.6570859 -0.085443474
000340 d1 58 d6 bd d7 e0 ee 3d cc 81 b3 be 12 be 51 be
       -0.10466159 0.116639785 -0.35059965 -0.20482662
000350 18 a2 fb 3e 15 3f 98 3e 3b cf 9c be a2 e7 33 3f
       0.49147105 0.29735628 -0.30626854 0.7027532
000360 1d 0e 4c be 1e 59 61 be fd 9c 51 3f a1 64 3b 3f
       -0.19927259 -0.22006652 0.8188017 0.7320042
000370 e4 c1 88 be 7f 90 7e be fc 30 eb 3e 14 89 84 bd
       -0.26710427 -0.24859808 0.4593581 -0.06471458
000380 ff 0a f0 3e 97 af dc be 2d 55 c0 3f 33 e2 41 3f
       0.4688339 -0.43102714 1.5025994 0.7573578
000390 a2 66 03 3f e0 be 54 3f 09 be 4d 3f c2 a2 3d 3f
       0.5132848 0.8310375 0.80368096 0.74076474
0003a0 5f d9 cd 3e d0 60 07 be 06 1b e2 3e 65 57 9b be
       0.40204903 -0.13220525 0.44161242 -0.30340114
0003b0 67 17 42 3e 01 7d 0c 3f 18 02 17 3f 4f f6 28 3f
       0.1895424 0.5487824 0.5898757 0.6600084
0003c0 c3 bb bb be 41 5a c3 3d f2 37 76 3e 01 72 34 3f
       -0.36666688 0.09538699 0.24044779 0.70486456
0003d0 b5 24 7d bd 33 0e 59 3f 49 c2 13 3e ee a8 1b 3f
       -0.061802585 0.8478729 0.14429583 0.6080464
0003e0 2f 0a 2b 3d ed ae 46 3f b1 4d a0 3e a9 bb e9 3e
       0.04175776 0.77610666 0.31309274 0.45650986
0003f0 01 68 63 3f 4f 2e 0b be 7d 74 20 3f 25 cb 82 be
       0.8883057 -0.13591884 0.62677747 -0.25545612

bias f4 [64]
000000 e9 df 56 3f aa dc fd 3e bb 4a 0f 3f c3 c5 01 3f
       0.8393541 0.49582416 0.55973405 0.50692385
000010 0d 36 08 3f b7 18 10 3f 3e c6 01 3f ca 9c 50 3f
       0.53207475 0.5628771 0.5069312 0.8148924
000020 04 db fb 3e ef 6f 96 3e af b7 fc 3e 15 46 fb 3e
       0.49190533 0.29382274 0.4935889 0.49076906
000030 a6 d7 fd 3e c1 21 f3 3e 28 1c 8b 3e fa 68 06 3f
       0.4957859 0.4748669 0.2716992 0.5250393
000040 7e 42 0d 3f d5 01 ff 3e f8 e4 03 3f 59 d3 06 3f
       0.55179584 0.49806085 0.51521254 0.5266624
000050 61 6e 05 3f b3 39 12 3f 42 58 02 3f 96 50 0c 3f
       0.5212155 0.5711929 0.5091592 0.54810464
000060 b0 d3 06 3f dc c0 03 3f 29 59 08 3f 88 e0 f1 c0
       0.5266676 0.51466155 0.5326105 -7.5586586
000070 6c 82 f0 c0 21 79 1f bf 77 3d f9 3e 64 f5 06 3f
       -7.5159206 -0.62294203 0.48679706 0.52718186
000080 f1 08 09 3f 44 f4 06 3f e1 c5 15 3f f2 f6 f1 c0
       0.5352927 0.5271647 0.58505064 -7.5613947
000090 df 55 f3 c0 82 9c 0b 3f ac a7 f6 3e 4e e9 0b 3f
       -7.6042323 0.54535687 0.48174798 0.5465287
0000a0 49 bc 04 3f fa 9d f4 3e b2 06 11 3f af 27 11 3f
       0.518498 0.47776777 0.5665084 0.5670118
0000b0 f2 5c 1d c1 a1 17 57 3e 78 4a fd 3e 42 7d 0b 3f
       -9.835192 0.21005107 0.49470878 0.54488003
0000c0 b9 61 07 3f 65 cd 96 3e ed e4 03 3f 33 57 02 3f
       0.5288349 0.2945358 0.5152119 0.50914305
0000d0 a9 b8 0c 3f 17 f5 0a 3f a9 85 91 3e af a0 02 3f
       0.5496927 0.5428023 0.28422287 0.51026434
0000e0 9b 91 4d 3f a2 b7 09 3f 99 97 0c 3f 69 da 05 3f
       0.803003 0.53795826 0.5491882 0.5228639
0000f0 a1 b9 09 3f 81 ba 03 3f d0 c4 02 3f 61 e7 53 3f
       0.5379887 0.5145646 0.5108156 0.8277493
