pth/takada_model_70.pth (torch, 300440 bytes, 6 tensors)

weight f4 [256, 128]
000000 61 b4 10 3f fc 02 9f bf 58 3d a0 3e 86 58 8e 3f
       0.56525236 -1.2422786 0.31296802 1.1120765
000010 6b b4 35 3f bb eb 2e be 08 bc 09 bf 2f a3 2c be
       0.7097842 -0.17082112 -0.5380254 -0.16859125
000020 a4 bc 91 bf af 24 cd bf a8 0d 19 3f 77 be a0 be
       -1.1385694 -1.602682 0.5978646 -0.31395313
000030 b9 17 92 3f 12 56 2d 3f 1c 1d 1e 3e 10 46 2b be
       1.141349 0.6770946 0.15440792 -0.16725945
000040 3f da 5b bf 8c e5 39 bd 92 b9 18 3f 92 7f 4f 3e
       -0.8587989 -0.04538493 0.5965816 0.20263508
000050 80 00 c6 3f 9d f9 2f bf 39 49 80 bf 78 35 a5 3e
       1.5468903 -0.68740255 -1.0022346 0.32267356
000060 f1 d6 ae 3e 5b c6 20 3e dd 4a 47 bf 10 9c fe 3e
       0.34148362 0.15700667 -0.7784861 0.4972844
000070 c9 2f e9 3e 89 cf 5c bf 8a ce 9e be d5 4f 2e 3e
       0.4554427 -0.86254174 -0.31016952 0.17022641
000080 fc 2c c9 3e 10 aa 1f bf f9 dc 82 3f 4f 08 53 3f
       0.39292133 -0.6236887 1.0223686 0.8243455
000090 50 d7 26 3f 70 3e 79 3e 21 2c c1 be 38 47 26 bf
       0.6517229 0.24340224 -0.3772898 -0.6495242
0000a0 18 8a 8c 3f 78 42 c8 be fb 60 34 bd a9 c1 56 c0
       1.0979643 -0.39113212 -0.0440378 -3.35557
0000b0 4e fe f6 3e 17 1a 94 3f c4 90 00 bf fa 9a ef 3d
       0.48240894 1.1570462 -0.50220895 0.11699481
0000c0 d1 24 f9 3d 41 b2 a9 bf 12 cb 64 be 2c dd ba bf
       0.12165225 -1.3257524 -0.2234309 -1.4598746
0000d0 a8 ba 0b be 28 21 fc bd cf c4 75 be 6b ac 86 3e
       -0.13645422 -0.123110116 -0.24000858 0.2630342
0000e0 b2 9b ed 3d 32 ab f5 3e e4 98 4d 3e af 8c 2c be
       0.11601962 0.47982174 0.20077854 -0.16850542
0000f0 38 62 85 3f c2 e5 c6 3e 0d 04 94 be ed de a2 3f
       1.0420599 0.38847166 -0.2890934 1.2724282
000100 32 03 3e be 4a 04 c8 3d 75 30 d5 3e 8e 61 88 3f
       -0.18555906 0.09766443 0.41638532 1.0654771
000110 c7 89 10 3e 98 db 0b 3f 45 db 81 bf 44 f2 a2 be
       0.14115058 0.5463195 -1.0145041 -0.3182546
000120 98 92 18 3e 40 0e dd 3d a6 6e 89 3f 02 7e 94 3e
       0.14899671 0.107937336 1.0736892 0.29002386
000130 fa b0 09 3f 4a 26 90 3f 36 3e c3 3d f4 84 a5 3f
       0.5378567 1.1261685 0.0953335 1.2931199
000140 37 03 89 bf a9 ac 80 bf cf 19 8d be d3 f8 ea 3e
       -1.0704106 -1.0052692 -0.27558753 0.45892963
000150 a9 a3 7b bc 1b 94 40 bf 07 c8 aa bf fd b8 07 bf
       -0.015358844 -0.7522599 -1.3342294 -0.53016645
000160 bc 27 8e 3e db f3 ef 3d 24 12 0f bf 77 57 46 3f
       0.2776469 0.117164336 -0.55887055 0.7747721
000170 a9 9f 54 3f ff 7f 00 bf 35 1a 69 be 1c 60 24 be
       0.8305612 -0.50195307 -0.22763903 -0.16052288
000180 50 e2 d0 3e f0 c5 30 bf f0 ea 2c 3f b8 56 07 3f
       0.40797663 -0.6905203 0.67545986 0.528667
000190 87 98 3a 3f c6 24 ea 3d cb 3a 4d 3d f3 cb 35 bf
       0.7288899 0.11432795 0.050104897 -0.71014327
0001a0 3a a7 36 bd 13 e5 27 3d 03 01 24 3e 6d 97 6a c0
       -0.044593073 0.040989947 0.16016011 -3.6654923
0001b0 36 bd 04 3e 6a a5 c7 3e 13 9b 97 bf 1e 3a 9a 3e
       0.12962803 0.38993388 -1.18442 0.30122465
0001c0 fc eb c5 bd be 17 9b bf 9d a1 0e 3e a3 d5 84 bf
       -0.09664151 -1.211662 0.13928838 -1.0377697
0001d0 2d 77 ad bd b1 fc ad 3e 66 28 5d bf db 27 04 3c
       -0.084699966 0.3398185 -0.8638977 0.008066143
0001e0 8e a8 71 3f b1 2c f1 3d c1 de 0b bf 5d 42 6a bf
       0.9439782 0.11776102 -0.5463677 -0.9150751
0001f0 26 e5 0c 3f 77 49 0c 3e 9b bc 80 3f 30 5d af 3f
       0.5503715 0.136999 1.0057558 1.3700314
000200 b1 f9 3d 3e 73 e1 27 3f 38 b2 72 3e 44 71 88 3e
       0.18552281 0.65578383 0.23700798 0.26648915
000210 a9 0e 03 c0 6a 24 15 bf ef ac cf 3e 52 9a 64 bf
       -2.0477698 -0.5825869 0.40561625 -0.89297974
000220 3f 11 12 be cc 69 f9 be 5c d4 5a bc 6c fd 60 bd
       -0.14264391 -0.4871353 -0.0133562945 -0.054929182
000230 16 ee df bf 47 15 42 40 f5 cc 18 bf a2 c5 81 bf
       -1.7494533 3.0325487 -0.5968774 -1.0138438
000240 68 2a 05 40 36 75 64 3d 9b ab 03 3d d7 08 3e bf
       2.0807133 0.055775844 0.032146078 -0.7423224
000250 14 70 57 3f fd 12 c6 bf 53 7a ca be 98 20 0f 3f
       0.8415539 -1.5474545 -0.3954645 0.5590911
000260 2b 02 91 bf 5d 12 a4 bc 89 8d 4d be 06 06 0e bf
       -1.1328787 -0.020028288 -0.20073523 -0.5547794
000270 36 b3 6a be 3f cc 2e 40 da 03 0a be 8c e4 8e 3f
       -0.22919926 2.7312162 -0.13478032 1.1163497
000280 59 42 79 3f 39 dc 3e bf 33 41 9a 3f 1c ae 41 bf
       0.97366863 -0.74554783 1.2051147 -0.75656295
000290 f4 d0 a6 be 33 58 5b 3f 94 e0 1f be a2 61 8e bf
       -0.32581294 0.85681456 -0.15613014 -1.1123545
0002a0 3d 86 c3 bf a6 f2 e5 3e 7e f7 8c bf 42 22 0b be
       -1.5275341 0.4491169 -1.1013029 -0.13587287
0002b0 75 3a 54 3f da f6 3d 3e 64 d7 c5 3f 44 e1 dc 3d
       0.829017 0.18551198 1.5456357 0.107851535
0002c0 c2 98 cc 3e 83 c7 fd bf 5b 5f cc be 3e bb d3 3d
       0.39960295 -1.9826511 -0.399165 0.10338448
0002d0 80 86 98 3f 67 d4 c9 bf 67 07 b4 bf ce 30 ec be
       1.1916046 -1.5767945 -1.4064759 -0.46130985
0002e0 20 d3 29 40 67 9d 1e 3f eb 55 4d 3f 8f 9d 85 be
       2.653511 0.61958927 0.80209225 -0.2609677
0002f0 ca 7d 61 bf c3 32 66 3f 7a 0e 94 bd 0a f7 11 3f
       -0.88082564 0.89921206 -0.07229324 0.57017577
000300 4c 0c 02 40 1c 66 f7 be ec d4 88 3c 02 47 2b bd
       2.0320005 -0.4832009 0.016703092 -0.041815765
000310 17 80 bc 3e 51 4d 59 bf 4a 1c 90 bf 4d 16 12 bf
       0.36816475 -0.848836 -1.1258633 -0.5706528
000320 c3 ae 9c bf 7e 0c 54 3f d2 09 a0 3d 70 81 85 be
       -1.2240833 0.8283156 0.07814373 -0.26075315
000330 a7 e3 b6 bf f3 52 16 40 e8 06 e4 3f b0 c6 ce 3f
       -1.4288224 2.3488128 1.7814608 1.6154385
000340 e4 a9 c1 3e 5b 4b 07 3f 7e a7 6a bf 02 8e b8 be
       0.3782493 0.5284936 -0.9166182 -0.36045843
000350 7a e3 fa be 89 84 7b bf a9 23 fd bd 50 30 82 3e
       -0.49001676 -0.9824911 -0.12360317 0.25427485
000360 a3 f1 0c 3f 49 59 55 bd ab 72 15 3f 7c 14 1c be
       0.5505621 -0.052087102 0.58378094 -0.15242189
000370 99 2f 4b be e0 c5 cd 3f ad 39 36 3f d9 ba b4 3e
       -0.19842376 1.6076012 0.71181756 0.35298803
000380 e4 8a 06 3e e9 a5 62 bf a8 09 93 3e c7 49 e6 bd
       0.1313892 -0.8853441 0.28718305 -0.11244541
000390 19 70 eb be bc b2 a0 3f 5f 3d 7f 3e 3f b7 82 bf
       -0.4598396 1.2554545 0.24925755 -1.0212172
0003a0 0c 60 a0 bd 14 f1 3b 3c a2 d8 90 bf 1e 64 b2 be
       -0.078308195 0.011471052 -1.1316111 -0.34842008
0003b0 c2 43 fb 3d e8 4d 86 3e cd cf 8a 3f b2 c6 c0 3d
       0.12268783 0.26231313 1.0844666 0.09412898
0003c0 bb 04 2a 3f 1e 83 d8 bf b5 db b5 bf ba 7f 07 3f
       0.6641347 -1.6915014 -1.4207674 0.5292927
0003d0 24 59 66 3f f8 42 a3 bf 23 0e 2f bf f3 9d 83 bf
       0.8997977 -1.2754812 -0.68380946 -1.0282577
0003e0 d9 93 59 be ca 20 62 bf d3 8b 95 bf b8 f5 8b 3f
       -0.21247806 -0.8833128 -1.1683296 1.0934362
0003f0 85 da fb 3e 2b 1a 68 3f ec 09 a2 bf 1b c6 f5 3f
       0.49190155 0.9066493 -1.2659278 1.9201082

bias f4 [256]
000000 83 1b 55 3f 0b 1e f6 be 7a c5 34 3e 81 5f d2 be
       0.83245105 -0.48069796 0.17653456 -0.4108849
000010 72 2e 9a be 23 a6 ac 3c ea 41 ee bd 8d 67 64 be
       -0.3011356 0.021075314 -0.11633666 -0.22305126
000020 eb dd 1e 40 f6 f5 0e 3f 1f 7a bb 3e 86 a2 94 3d
       2.4822948 0.55844057 0.36616609 0.072575614
000030 8a b2 46 3c 1e 5f 1b be f9 92 0c 40 55 4d f8 3e
       0.012127528 -0.15173003 2.1964705 0.484965
000040 6e 31 6d 3e 96 e7 8e be 36 85 b4 3a 42 46 50 be
       0.23163387 -0.2791106 0.001377261 -0.20339301
000050 34 11 ea 3e 10 d5 9d 3d ac 51 97 bf 7b 76 6d bc
       0.4571625 0.07706654 -1.1821799 -0.01449358
000060 5b 1b 01 bf 97 05 23 3f 3f e6 6d 3f 28 be bb bf
       -0.50432366 0.63680404 0.9292945 -1.4667406
000070 46 a5 d3 bd 60 ad 47 be f3 bd ef 3e 22 5f 64 bd
       -0.10334258 -0.19499731 0.46824607 -0.05575479
000080 ff 23 68 3e 81 4e 23 3f 4b 7b 14 bf 15 38 56 3f
       0.22669981 0.6379166 -0.5800063 0.83679324
000090 95 b5 b3 be 0e fa 43 bd c1 a7 51 3e b7 3c ce 3e
       -0.35099474 -0.047845893 0.2047415 0.40280697
0000a0 59 aa 02 3f ac 32 77 bd 2e 39 bc 3e 0b ea 2f 3f
       0.5104118 -0.06035106 0.36762375 0.68716496
0000b0 b0 96 b9 3e 66 fe 7f 3e 25 80 20 be b5 bc 8c be
       0.36247778 0.24999389 -0.15673883 -0.27487722
0000c0 68 36 29 3f d7 f9 d3 3e 47 9a 25 3e 13 9d 80 be
       0.6609864 0.4140155 0.16172133 -0.25119838
0000d0 5e 6a 80 3f 77 b8 de 3e 0a 5b 83 bf f5 40 18 3f
       1.0032461 0.4350011 -1.0262158 0.59474117
0000e0 fd 1d 57 3f 9b 2b 98 3e 98 03 c9 3f f2 cf 88 3d
       0.84030133 0.29720768 1.5704222 0.066802874
0000f0 fa ab 30 3e a3 88 64 be af 2f 15 3f 51 d1 5d bf
       0.17253104 -0.22317748 0.58275884 -0.86647516
000100 db b5 8c 3e 6b b3 bf bd 32 8f 13 be 7b cb 8e 3e
       0.27482495 -0.09360393 -0.14410093 0.27889618
000110 1b 22 d6 be 0b 2e 0d bf 32 6e 16 bf 37 39 5a 3f
       -0.41822895 -0.5514838 -0.58761895 0.8524355
000120 da d6 9d 3e 52 66 b5 be b3 70 99 be 41 6e 6c 3e
       0.3082798 -0.35429627 -0.29968795 0.23088934
000130 31 eb b1 3d 3b 36 49 3d 7d 4f a7 be fd 16 06 bf
       0.08687437 0.049123984 -0.32677832 -0.5237883
000140 77 5b a9 3e 0f 1e 2a be 23 f0 79 bf c1 b6 38 bd
       0.33077595 -0.16613029 -0.97632045 -0.045096163
000150 e2 9e 25 3d f5 11 9b 3e af 1c 4d be 43 12 05 3f
       0.040434726 0.30287138 -0.20030473 0.5198099
000160 4b 72 b4 3c 37 5a 8f be 9a 40 c2 bd 5d 91 e8 3e
       0.022027155 -0.27998516 -0.09484978 0.45423403
000170 04 6e 09 3f fb 4d ea 3e f6 d5 a9 3e 6e bf 3e 3f
       0.53683496 0.4576262 0.33171052 0.7451085
000180 52 82 8d bf d6 3b 1a 3e 66 85 24 3f 46 a3 b1 3f
       -1.1055396 0.15061888 0.6426605 1.3877952
000190 b4 4c 44 be a1 7b ef 3d 6c dc fc 3d 66 12 b3 bd
       -0.19169885 0.11693502 0.1234673 -0.087437436
0001a0 ab 0e 8d bc 9a 5a 04 3d a4 ba eb be 11 d8 ba bf
       -0.017218908 0.032312967 -0.46040833 -1.4597188
0001b0 0d ca 89 be d4 f6 e1 3e 3d 07 77 be 61 87 68 bf
       -0.26911965 0.44133627 -0.24123855 -0.9083157
0001c0 d9 c5 d1 3d 40 15 31 be 9b 11 ba be 01 da 96 3c
       0.102428146 -0.17293262 -0.36341557 0.0184145
0001d0 94 55 23 3f 02 51 2b bf 4e c7 02 be bf 3c b7 bd
       0.63802457 -0.66920483 -0.12771341 -0.08947133
0001e0 33 d2 e5 3e d6 f0 e0 be 41 95 3d 3f 72 f7 f7 3d
       0.44886932 -0.43933743 0.7405587 0.12107743
0001f0 00 b3 75 3f ca db fe be 73 f3 f4 bd f1 ba 74 3e
       0.9597626 -0.4977706 -0.11960497 0.23899437
000200 20 be 85 bd 2a c7 d7 bd e5 cd 23 be 55 48 c2 be
       -0.06530404 -0.105360344 -0.15996511 -0.3794581
000210 05 09 57 3f 8d 6f 3d bf 97 3a 9e 3f ae 29 6b be
       0.8399814 -0.7399834 1.236163 -0.22965118
000220 ed d4 82 be 1e 5c 98 3e 9d 2a 45 3f a5 b2 21 bd
       -0.25553074 0.2975778 0.7701815 -0.03947701
000230 54 46 3a 3f 1d c2 67 3e 4b 0f d6 bf 7d 3c 48 be
       0.7276356 0.22632642 -1.6723417 -0.19554324
000240 c2 cb 38 bf be 97 8f bd fe 62 6b 3f 54 ed ac be
       -0.7218591 -0.070113644 0.91947925 -0.33774817
000250 6f 0d 2f 3d 53 48 43 3f dc 3e 80 be e5 01 b5 3c
       0.04273742 0.76282233 -0.25047958 0.02209563
000260 76 a3 4a 3f 40 94 c8 be dc b2 91 3f 6f 4b 7a be
       0.7915567 -0.39175606 1.1382709 -0.24442838
000270 e0 4b 62 3f 07 45 f1 bd 00 3d c0 be c3 c4 35 3e
       0.88397026 -0.11780744 -0.3754654 0.1775084
000280 29 a5 f7 3e bd a8 4e bf ac 9c 48 3d 1b 9d 77 be
       0.48368195 -0.80726224 0.04897754 -0.24181025
000290 9b 03 32 be 59 1b ba be 58 b6 f6 be b8 c7 16 3e
       -0.17384188 -0.3634899 -0.48185992 0.14724624
0002a0 3b 63 ad 3e 87 d4 32 3f 63 30 00 3f 96 7c 93 3e
       0.3386477 0.6985554 0.5007383 0.2880599
0002b0 19 da 8b 3e dc 6d 9e 3d 9d 4a f6 3e bc 3f 13 bf
       0.27314833 0.07735798 0.481038 -0.57519126
0002c0 21 75 83 be 4d c2 30 3e ee c1 4f 3e ff 98 39 bf
       -0.256753 0.1726162 0.20288822 -0.7249908
0002d0 72 62 f5 3d 38 f4 2c 3f 80 bd e9 be 4b 67 32 3f
       0.119816676 0.6756015 -0.4565239 0.6968886
0002e0 6e b7 3a bd 5e ba 48 be 6d 1b 15 3f f7 28 8c bf
       -0.04558509 -0.19602343 0.58244973 -1.0950001
0002f0 4f 11 ce bf 95 98 04 bf 1f 08 c4 3e e4 94 cb bd
       -1.6099032 -0.5179532 0.38287446 -0.09940508
000300 90 13 cd 3e cf 08 0b 3f e9 a8 4b bf 16 41 80 3b
       0.40053988 0.54310316 -0.7955461 0.003914009
000310 d7 f0 48 bf f9 e3 0a c0 7e 2f 93 be 62 dc 9d bb
       -0.7849249 -2.1701643 -0.2874717 -0.0048175314
000320 30 0f 59 3d 2d 27 29 be 34 6a 06 40 f3 a9 f6 be
       0.052993 -0.1651885 2.1002321 -0.48176536
000330 d8 ed 3a bd 85 9a a2 3d fe 72 5d bf e9 f6 25 be
       -0.04563698 0.079396285 -0.8650359 -0.1620747
000340 41 02 f6 3d 9e f2 81 bf c1 ec bd be 4e e2 bd be
       0.12012149 -1.0152166 -0.3709469 -0.3708672
000350 74 91 a6 bd b2 76 8d be 48 b0 36 3e 51 03 75 be
       -0.08133212 -0.2762962 0.17840683 -0.23927046
000360 77 37 8b 3d 30 d0 c3 3e b5 8b bd 3c 76 ce a0 be
       0.067976885 0.38244772 0.023137907 -0.31407517
000370 94 4e 8c bd aa ea 46 3d ac f0 1e 3f f1 97 a5 3e
       -0.06850925 0.048563637 0.62085986 0.32342485
000380 2a e2 75 3d 2d 81 48 3e 63 38 db 3e 4a 33 6d bd
       0.06003014 0.19580527 0.42816457 -0.05791024
000390 03 64 8e be d6 c6 98 be 79 09 cf be e4 2e af bc
       -0.27810678 -0.298392 -0.40436915 -0.021384664
0003a0 99 a8 34 bf 0b ca 87 bd 7e 62 0f 3f 37 7f 85 be
       -0.7056976 -0.066303335 0.5600966 -0.2607362
0003b0 70 f2 dd bd be 6b 2c 3e f2 64 dd be 72 41 27 3f
       -0.10837257 0.16837975 -0.43241078 0.65334237
0003c0 db 36 7d 3b 0d 9f 46 bf fb bb 7f 3e 13 37 89 3c
       0.0038637433 -0.7758644 0.24974053 0.016749894
0003d0 e9 2a 6c 3d dc 86 65 be 6c e3 0e be b9 0e 86 bc
       0.05765811 -0.22414726 -0.13953942 -0.016364442
0003e0 ce 9d 49 3e d8 58 f8 be 78 59 03 be ea 9d b9 bc
       0.19689104 -0.48505282 -0.12827098 -0.022658307
0003f0 b1 4d 49 bc 0f 8e 3a be e0 f2 80 be d6 c4 83 3d
       -0.0122865895 -0.18218254 -0.251853 0.06434028

weight f4 [128, 256]
000000 af 9b 4e be ca c9 48 bf cf d1 12 3f af 07 b4 bd
       -0.20176576 -0.78432906 0.5735139 -0.08790528
000010 fa 0d 06 3f f1 2f aa be a3 08 45 3d d8 d8 26 3f
       0.52365077 -0.332397 0.04810394 0.6517463
000020 f6 c0 73 bf 72 4c c0 be d9 72 15 be 6b 25 e5 be
       -0.9521631 -0.37558323 -0.14594592 -0.4475511
000030 da ae 3b 3e f3 34 10 be 8a 53 df bc 4a 8d eb be
       0.1832842 -0.14082699 -0.027261514 -0.46006233
000040 3d dd 6f be be 71 d0 be 0c b4 87 3d 71 93 24 3f
       -0.2342424 -0.40711778 0.06626138 0.6428748
000050 a9 55 a6 bd 32 5d 11 3d 35 69 2d 3e a4 0e c2 be
       -0.08121807 0.03548927 0.16934665 -0.37901795
000060 f3 c1 1d be 2e de 85 bf 70 8e 04 bf af 80 a5 bd
       -0.15406017 -1.0458429 -0.5177984 -0.08081185
000070 23 5c 27 3f b2 ed 2c bf 9e 1e 46 3d 8a e9 03 bf
       0.65374964 -0.67550194 0.048369043 -0.5152823
000080 48 60 5d 3f f0 b4 f8 be 63 6c fa 3e df 55 52 3e
       0.8647504 -0.48575544 0.48910818 0.2054057
000090 05 47 00 be 51 9b 6f 3d fc c6 b5 3e 76 be 2b 3c
       -0.12527092 0.05849773 0.35503376 0.010482421
0000a0 93 97 1b be 5d 8e 20 bf a9 6c 8d 3c c3 e0 95 bf
       -0.1519454 -0.6271723 0.017263727 -1.1709217
0000b0 8c 55 91 3e 0d 55 9d be c4 30 9d 3d d9 61 df be
       0.2838558 -0.3072895 0.07675317 -0.4362934
0000c0 4a 4e c0 3d 3f 9f 2e 3e 42 d8 a4 be 2e 38 83 3e
       0.093899325 0.17052935 -0.32196242 0.256288
0000d0 83 ad fb be c0 11 9a be e0 95 1b 3f 00 ac dd 3d
       -0.49155816 -0.30091667 0.60775566 0.10823822
0000e0 c6 fb 81 3e a2 77 d4 3d 63 b4 2a bf 07 c5 36 bf
       0.253874 0.10374381 -0.666815 -0.7139439
0000f0 c5 f7 33 3f 50 b0 03 3f cb ee 58 3e c6 cb a4 3d
       0.7029994 0.51440907 0.21184842 0.08046679
000100 89 55 46 be 65 1c 0e 3f 3e ce ce 3e 5b 40 f5 be
       -0.19368567 0.55512077 0.40391725 -0.47900662
000110 93 c1 ed be c4 eb 8b 3e 69 ec 26 3f d8 68 2f bf
       -0.46436748 0.27328312 0.65204483 -0.68519354
000120 50 b4 3e be c9 4a 5d bc 07 80 0b 3e 57 78 17 be
       -0.18623471 -0.0135066 0.13623057 -0.14792
000130 e1 2e c2 be 42 40 4c 3e 06 b3 11 3d 35 2c ab 3d
       -0.3792639 0.19946387 0.03557112 0.08358041
000140 48 25 01 be c4 74 2b 3e 26 41 00 3e 0f 7f 04 3e
       -0.12611878 0.16743761 0.12524852 0.12939094
000150 cd 2a 5e 3e b2 a3 7d bb ff 3c 96 be 85 bd 25 bf
       0.21696015 -0.0038702306 -0.2934341 -0.6474231
000160 5d a0 54 3f ed eb 19 3f 3a 38 d9 3d 59 36 3a 3e
       0.83057195 0.6012562 0.106064275 0.18184794
000170 6e 46 65 be 8e 0b 23 3f bc 4b cb bd 94 2e 9a be
       -0.22390148 0.63689506 -0.099265546 -0.3011366
000180 0d 78 9d 3d 8f e8 aa be 52 5f 23 bf 58 ad 29 bf
       0.076889135 -0.33380553 -0.6381732 -0.66280127
000190 c7 b3 19 bd 62 b4 54 bc 44 b7 9c bc 18 90 fd 3d
       -0.037524965 -0.01298246 -0.019130357 0.12380999
0001a0 03 95 0d bf 92 61 20 bf 4d 98 88 3d 9c 64 50 3f
       -0.553055 -0.6264888 0.06669674 0.8140352
0001b0 49 0d 8b be 98 09 fd 3e c7 3d 83 bd 99 7b 23 bd
       -0.27158573 0.49421382 -0.064082675 -0.039912794
0001c0 01 43 91 3e 53 56 4d 3d 49 7b d8 3d 2a e1 0d 3f
       0.28371432 0.050131153 0.1057039 0.554217
0001d0 d6 b1 bb be b5 2f ff 3e f9 54 e1 be 46 d3 38 be
       -0.36659116 0.49841085 -0.44010141 -0.18049344
0001e0 69 1f ce bf 1a a6 16 be 16 97 5f be 54 0c a3 be
       -1.6103336 -0.147118 -0.21834978 -0.31845343
0001f0 26 ec d6 3c bc 17 90 bd 9a d7 e6 3e a4 b4 b4 bc
       0.026235651 -0.07035777 0.45086366 -0.022058792
000200 06 e0 7c be 44 de b7 3e 8f d2 68 3e a0 26 14 bd
       -0.24694833 0.35911763 0.22736572 -0.03616965
000210 81 55 df be 4c 90 94 3d 52 66 d7 ba 61 01 3a be
       -0.43619922 0.07254085 -0.0016433692 -0.18164589
000220 74 5c 02 3f 3c 23 31 be 94 5c 4a bf 1a d4 a5 bd
       0.5092232 -0.17298597 -0.79047513 -0.08097096
000230 4f 1d be be 52 4b 3d 3f f2 e7 8d 3e 03 e5 02 bf
       -0.37131736 0.73943055 0.27716023 -0.51130694
000240 a1 cc ba 3e 06 35 23 bd 38 57 db 3d 49 2f 04 3f
       0.36484244 -0.03984549 0.10709995 0.5163465
000250 32 10 ef 3e 06 9c 47 bf 84 cc 64 be b7 62 83 3e
       0.46692044 -0.7797245 -0.22343642 0.2566125
000260 34 ac 41 be f4 28 01 bf 01 fd 55 bf ef 6c 2e bf
       -0.18913347 -0.50453115 -0.8358918 -0.6813497
000270 10 45 18 bf 84 80 10 3f 9c 79 60 be 73 0a 42 bf
       -0.5948038 0.564461 -0.2192139 -0.75797194
000280 22 90 d1 be 7a 47 af 3d c0 83 b9 be fb 30 1f 3e
       -0.40930277 0.08558555 -0.3623333 0.15546028
000290 67 fd 03 bf c9 aa 68 3d b8 64 6d be 16 a2 95 bc
       -0.51558536 0.0568035 -0.23182952 -0.018265765
0002a0 79 24 e3 3e 99 14 c7 3d 61 01 75 3e 9e 5b 55 be
       0.44363764 0.097207256 0.23926307 -0.2083573
0002b0 ed 98 85 be 63 2d 02 3f 28 28 e2 3d ce 40 cf 3e
       -0.26093236 0.50850505 0.110428154 0.4047913
0002c0 22 48 53 3e e3 3a 8e bc 6c 16 a6 3e fd ed 68 3e
       0.20632985 -0.017362064 0.32438982 0.22747035
0002d0 ac f2 99 3e 91 2e 81 bf bb cb 51 be 8d 09 8b 3e
       0.30067956 -1.0092336 -0.20487873 0.27155724
0002e0 d4 db 0c 3f 46 30 46 be 65 e3 59 be 23 db 30 3e
       0.5502293 -0.19354352 -0.2127815 0.17271094
0002f0 49 87 6b bd f5 60 d5 3e b6 6d cf 3e e7 20 ce 3e
       -0.057502065 0.41675535 0.4051339 0.40259477
000300 92 81 37 be 58 4e 07 3f 81 d7 1a 3f 77 17 8a bd
       -0.17920521 0.5285392 0.6048508 -0.06742757
000310 f1 a3 f8 3e 88 fa 5d be 2c c7 64 3e b7 60 a7 3d
       0.48562577 -0.21677601 0.22341603 0.08172744
000320 7b 38 a4 be 26 25 e1 be ac 4a 86 bf de ba 45 3f
       -0.3207434 -0.43973655 -1.0491538 0.7723826
000330 48 ca fd 3d 6f 49 6a bd 4d 02 4f 3f 5c dc 8c be
       0.12392098 -0.057198938 0.80862886 -0.2751187
000340 a1 e5 b2 3e 8b 1b b4 be 74 e8 61 3e db 63 7e 3d
       0.34940818 -0.35177264 0.2206133 0.06210695
000350 ac 31 49 be 3d 14 16 be e9 4a a2 bc 7c 35 8e be
       -0.19647855 -0.14656158 -0.01981111 -0.2777518
000360 44 64 fe be c1 1a b0 3d d9 d8 5c bd 83 71 d3 be
       -0.49685872 0.08598853 -0.05391774 -0.4129754
000370 a4 74 dc be 7c 99 93 bd 12 9a 12 bf 43 b6 4a 3f
       -0.4305774 -0.07207009 -0.5726634 0.7918436
000380 ee ff 04 3f ed 7c 2a 3f aa 56 7a bf ac 3a 9e 3e
       0.5195302 0.6659687 -0.9778849 0.30904138
000390 f4 ef e6 3d 32 02 c7 3e 69 66 a5 3d 01 e3 28 3d
       0.11276236 0.38868862 0.08076174 0.041232113
0003a0 b2 d5 dc 3d 8c c7 22 3d e6 22 f4 3d 3f 99 46 3d
       0.10782947 0.039741084 0.11920719 0.04848599
0003b0 56 4e 09 bf c6 22 44 bf 5b 03 d3 3c 02 ca 18 3e
       -0.53635156 -0.7661556 0.025758436 0.1492081
0003c0 3a d5 1e be 47 ff 76 3d 7f c0 04 3f 9d 0a e3 bd
       -0.15511027 0.060302045 0.51856226 -0.11086009
0003d0 b9 0e 8a be bb 39 b2 be 5c 44 02 be e7 04 d1 be
       -0.26964357 -0.3480967 -0.1272139 -0.40824053
0003e0 38 54 43 bd 91 56 7a 3d 58 92 41 3f 47 0a 40 be
       -0.04768774 0.061117712 0.7561393 -0.1875392
0003f0 bd 96 49 bf a4 b5 1f bd 3e 4d 04 be 87 5b 95 be
       -0.78745633 -0.038991585 -0.1292009 -0.29171392

bias f4 [128]
000000 2a 48 04 bf c9 5b a5 bf 20 71 b4 be f4 a0 75 be
       -0.51672614 -1.2918636 -0.35242558 -0.2398718
000010 53 5f d9 bf ec d8 28 3f 30 a6 ef 3d ff fc da be
       -1.6982216 0.65955997 0.117016196 -0.42771146
000020 01 04 83 bf 3e bd 62 bf 48 07 c0 be 0f b0 82 bf
       -1.0235597 -0.8857001 -0.37505555 -1.0209979
000030 16 c8 5c be 3b 72 4a be a2 aa 82 be e8 7d ff 3d
       -0.21560702 -0.19770138 -0.25520808 0.124751866
000040 24 ba 8d be 8b 70 c1 bf 5e df 67 3d 30 e6 07 be
       -0.27681077 -1.511247 0.056609504 -0.13271403
000050 a8 53 17 be a7 18 18 3f ab 22 93 bd b1 66 c3 bf
       -0.14778006 0.59412616 -0.07184347 -1.5265714
000060 e4 a0 1a 3e d2 df 8e bf 9c 39 1f bf d2 0a ab bf
       0.15100437 -1.1162055 -0.6219728 -1.3362677
000070 9a e7 ae bf a6 d1 e4 be f5 fe 5e be 6f d6 02 c0
       -1.3664429 -0.446912 -0.21776946 -2.044338
000080 ff 92 0e be 6a e0 8e bf e9 74 60 bf cd ed e9 bd
       -0.13923262 -1.1162236 -0.8767839 -0.1142231
000090 9e 0c 0e bf 84 1e 40 bf 6d 7e 26 bf b9 a4 21 c0
       -0.55488 -0.75046563 -0.6503666 -2.5256789
0000a0 7f 9a 28 bf 9a f1 73 bf c9 31 8f 3c c9 23 db be
       -0.6586074 -0.9529053 0.017479794 -0.4280074
0000b0 6e 84 2a bf 3e 37 74 bd d7 f1 42 bf 6d 3d 13 c0
       -0.6660832 -0.059622996 -0.7615027 -2.3006241
0000c0 9a 21 bd 3e af 20 fa bf 8c 28 0d be 91 00 a4 bd
       0.36939698 -1.9541224 -0.13784999 -0.080079205
0000d0 d5 72 4e be 2e 86 e0 bf e5 5b 8d be e9 d0 24 3e
       -0.20160992 -1.7540948 -0.27609172 0.16095318
0000e0 38 c5 d7 be 58 99 93 bf 70 e5 84 bf 77 fd 9d bd
       -0.42142653 -1.1531172 -1.0382519 -0.0771436
0000f0 b6 0b 23 bf 5b 1d a3 3e 1e 81 93 bf d7 fc 19 bf
       -0.63689744 0.31858334 -1.1523778 -0.6015143
000100 98 29 ff bd 5d 2f 32 bf ad 0f bb bf e5 32 9c bf
       -0.12459105 -0.6960352 -1.4614159 -1.2203032
000110 83 22 5a bf fe 2e 60 bf 4b 9d 4e bf 64 91 ec bf
       -0.8520891 -0.87571704 -0.8070876 -1.848187
000120 30 28 39 bf 0e 03 a2 be 9f bd 23 bf 4f 59 03 be
       -0.72326946 -0.31642956 -0.63961214 -0.12827037
000130 11 ca 9a bf fa 3d e1 3e 4f a8 3a bf a8 dc 6c bf
       -1.2092916 0.43992597 -0.7291307 -0.92524195
000140 d1 32 f9 bf 5b 59 2e be ca 23 a0 bf cd a5 61 3e
       -1.9468633 -0.17026274 -1.2510922 0.22035904
000150 47 eb af bf 66 83 75 bf 17 a8 f5 be 2a 8a 0c c0
       -1.3743676 -0.95903623 -0.47979805 -2.1959329
000160 c6 b4 a5 bc bb 6b a9 bf d8 bf 57 bf a2 34 b2 be
       -0.020227801 -1.3236002 -0.84277105 -0.3480578
000170 7a b4 62 3f 11 16 05 c0 d4 75 b9 be a6 8b 39 bf
       0.88556635 -2.0794718 -0.36222708 -0.7247871
000180 fe cd 06 bf b4 28 af bf df 9b 5f bf 06 1b fd be
       -0.5265807 -1.3684297 -0.87347215 -0.4943468
000190 c2 5d f2 bf da 02 06 bf c9 73 15 bf 60 03 2d bf
       -1.8934863 -0.523481 -0.583798 -0.67583275
0001a0 df ed 07 bf 20 ee e7 bf f9 66 86 bf 22 f6 5b bf
       -0.5309734 -1.8119545 -1.0500175 -0.85922444
0001b0 95 f8 02 bf a8 b4 79 be 02 0c a0 3e f5 68 7a be
       -0.51160556 -0.24385321 0.3125916 -0.244541
0001c0 12 21 c2 be 06 68 76 be 72 1f ba bf a8 11 4e bb
       -0.37915856 -0.2406312 -1.4540846 -0.003144363
0001d0 7c 54 da bf d2 16 ae bf 55 64 88 3d 77 6f 88 bb
       -1.7057033 -1.3600714 0.06659762 -0.0041636783
0001e0 95 f7 13 c0 ae dd c7 bf 99 bf fc bc 0a e3 8b bd
       -2.3119862 -1.5614526 -0.03085308 -0.06830414
0001f0 79 92 84 bf 14 b1 b7 3e cb 95 23 bf 38 54 13 c0
       -1.03572 0.35877287 -0.6390044 -2.3020153

weight f4 [64, 128]
000000 50 b0 b9 be 5d 1c 8a c1 43 ef 7f 3e 96 2d ca be
       -0.36267328 -17.26385 0.24993615 -0.39487904
000010 7c 79 16 40 0f 3f 32 3d ed 78 4d 3e f2 ca 36 3e
       2.3511648 0.04351717 0.20065661 0.17850855
000020 57 ae 12 be 11 8b 80 c1 b1 b6 9f c0 b8 ab 93 c1
       -0.14324318 -16.067904 -4.991051 -18.458847
000030 46 94 c0 3d f6 06 df be 79 ae 5d bc e5 01 d0 c0
       0.09403281 -0.43559998 -0.013530367 -6.5002313
000040 7d 96 33 be 97 65 3f 40 1c 93 94 be c0 e3 f3 3d
       -0.17537875 2.9905756 -0.29018486 0.11908674
000050 70 09 39 be ff 8a e9 3d 18 2f fd bd 0f e8 98 c1
       -0.18070006 0.114034645 -0.12362498 -19.11331
000060 91 fa 81 be 57 85 69 c0 67 fc 84 3e 19 11 c5 3e
       -0.2538648 -3.6487634 0.25973818 0.38489607
000070 ef b5 2f c1 1f 1f 70 be cd 9b 3f be 10 a7 6c c1
       -10.981917 -0.23449372 -0.18711777 -14.790787
000080 e4 cf bf be bc 3a da 3f af 6d ca bb 54 66 92 3e
       -0.37463295 1.7049174 -0.006177626 0.28593695
000090 05 88 1b 3e fb 70 97 3f 1e 43 1b c1 af 5b 81 c1
       0.15188606 1.1831354 -9.703886 -16.169767
0000a0 cb 64 8e 3e ac ce 23 c1 6c 24 6a 3e 63 81 19 3e
       0.27811274 -10.237957 0.22865456 0.14990763
0000b0 e9 f3 18 3e ab ff a9 bd 49 e4 e4 3e 2d 95 61 c1
       0.14936794 -0.08300718 0.44705418 -14.09892
0000c0 83 f8 72 be a0 ee 06 3f 3b c3 53 3e ba 43 19 bf
       -0.23727612 0.5270786 0.20679943 -0.5986897
0000d0 1f ee 62 be 2c 83 ae c0 d4 09 67 3a 59 34 85 be
       -0.22161148 -5.453512 0.0008813415 -0.260165
0000e0 4a d8 ae bf 22 e2 5c c1 fe b9 1b c1 9d e0 82 be
       -1.3659756 -13.805208 -9.732908 -0.2556199
0000f0 76 1c e7 3e ac b9 bd be 3a b0 08 3e 23 2c 6a be
       0.451389 -0.3705572 0.13348475 -0.228684
000100 ef 90 08 bf f8 0d c8 3d b8 fc 8f c1 d5 a7 7a 3e
       -0.5334615 0.09768289 -17.998398 0.24478085
000110 a3 71 da be 00 cb 95 3e ed dd e3 c0 69 48 94 c1
       -0.42664823 0.2925644 -7.1208405 -18.535357
000120 d6 58 a6 be 31 b8 84 3e bb ba 71 3d ba 86 c8 3e
       -0.3248965 0.25921777 0.05901597 0.39165288
000130 e2 0d 75 c0 70 a9 23 be ed 4b 97 be 64 c4 8f be
       -3.8289723 -0.15982604 -0.29550114 -0.28079522
000140 c7 d2 2f c1 75 9f ea bd e7 c3 c7 3f 5c 4c f5 3d
       -10.988959 -0.11456195 1.560666 0.11977455
000150 87 0b 40 c1 1e 64 0f c1 1d 5e 9b 3d 03 a4 67 3f
       -12.002814 -8.961943 0.0758631 0.9048464
000160 77 56 eb 3d 59 39 82 c1 82 67 f9 be 81 f6 49 c1
       0.11491101 -16.278002 -0.48711783 -12.622682
000170 d9 45 14 3e 6e 69 5a c1 2e 6a 7e 3e f1 41 9f bd
       0.1447977 -13.65074 0.24845192 -0.07776249
000180 d7 68 26 3d fd 7d 22 c1 e8 dc f1 c0 20 07 32 c1
       0.040627327 -10.155759 -7.558216 -11.1267395
000190 3b 8e 52 c1 1f 65 59 3d 16 47 10 c1 ab 47 55 bd
       -13.159724 0.053074952 -9.017355 -0.0520703
0001a0 b8 c5 32 be 7a 6a 01 c1 ea 46 86 3d 72 c7 f3 c0
       -0.17458236 -8.088495 0.065564945 -7.6180964
0001b0 d2 a7 e4 3d 75 22 96 3e 64 39 a0 3c 34 92 8c bd
       0.11164822 0.29323164 0.019558616 -0.068638235
0001c0 de 6d 2e be 22 03 04 3e 3f 0c ff 3f 88 20 a0 3e
       -0.17034099 0.1289182 1.9925612 0.3127482
0001d0 66 32 9f c1 61 da 00 c1 c4 a9 eb 3d 37 93 45 3d
       -19.899609 -8.053315 0.115069896 0.0482361
0001e0 15 c7 c2 3f 7e 95 2d c1 44 20 10 3e a9 e2 e0 bd
       1.5217005 -10.848997 0.14074808 -0.10980732
0001f0 cf bf 9a bd 9d 48 fb 3d f2 67 84 3e 9c af 71 3f
       -0.07556116 0.12269709 0.25860554 0.94408584
000200 60 82 5b be 0a bd 8d c1 69 21 04 3e f5 75 8b 3e
       -0.21436453 -17.717304 0.1290337 0.27238432
000210 6a 38 10 40 18 8e 51 3d 4c b3 a1 3d 95 05 e0 3d
       2.2534432 0.0511609 0.07895526 0.10938565
000220 29 49 f4 3d 67 38 5c c1 9f c9 61 c0 93 8b 88 c1
       0.11928017 -13.76377 -3.527931 -17.068151
000230 07 a7 17 3e 90 39 8b be dd 37 9c bd 36 45 87 3e
       0.1480981 -0.27192354 -0.076278426 0.2641999
000240 fa eb 01 bf f5 ac 17 40 1a 57 4f be 09 2d 10 be
       -0.50750697 2.3699315 -0.2024807 -0.1407968
000250 93 f3 12 3e 28 46 08 3e 6d 58 6a 3e cc 56 98 c1
       0.14350729 0.13308012 0.22885294 -19.042381
000260 5a b7 8f 3e f1 0f 9b c0 c7 fe ed 3d 56 cd 93 3e
       0.28069574 -4.845696 0.116208605 0.28867596
000270 fa bf 8d c1 c7 d6 8e be 6b f6 a8 3e 9e c5 89 c1
       -17.718739 -0.27898237 0.33000502 -17.221493
000280 17 f4 da 3e 37 ea 70 3f 7d 27 cf 3d 3a 72 a1 3e
       0.4276435 0.94107383 0.10114954 0.3153246
000290 98 a3 20 3e bb e2 80 c1 0c 20 5f c0 d2 d1 ef 3f
       0.15687406 -16.110708 -3.486331 1.8735907
0002a0 f9 46 28 be e2 d5 15 c1 b5 39 3b 3e 12 ca 2e 3e
       -0.16433324 -9.3647175 0.18283732 0.17069271
0002b0 0f 65 53 3e 29 ae 10 bf 03 70 ec 3e 2d a8 73 c1
       0.2064402 -0.5651575 0.46179208 -15.228559
0002c0 f8 8f 15 be ba 6b 07 3f 4a 10 70 3d 69 d6 29 3d
       -0.14605701 0.5289875 0.058609284 0.041464243
0002d0 52 1b 95 bd f7 93 08 c0 f2 74 23 3e 5e ea b3 bd
       -0.072806016 -2.134031 0.1596258 -0.08784936
0002e0 2b 1c bc 3d 51 8c 7e c1 58 e7 01 c1 3b 61 ec 3e
       0.0918506 -15.909257 -8.11898 0.4616793
0002f0 d9 68 1f 3e 02 d1 2e be 0c 35 4f 3e e9 ef 70 be
       0.1556734 -0.17071918 0.2023508 -0.23529018
000300 1a bc 2f be 20 e9 96 bf c2 ad 6b c1 90 3e 8e 3e
       -0.17161599 -1.1789894 -14.729921 0.27782106
000310 d2 89 85 be b2 de b5 3e c1 5c 08 c1 2e 06 6f 3f
       -0.2608171 0.35521466 -8.522645 0.93368804
000320 31 b5 e0 3d 23 d4 8a 3e 1c c3 a0 bd 3a bc cb bd
       0.109720595 0.27114972 -0.07849714 -0.09948011
000330 08 df 89 3f f9 89 95 3d 6a fe eb be f3 6b ed be
       1.0771189 0.07301707 -0.4609254 -0.4637142
000340 21 f3 23 c1 88 11 c5 be 29 7e c1 3f 71 8a 65 3e
       -10.246858 -0.38489938 1.5116626 0.22416092
000350 c8 ef 0b c1 28 e2 2d c1 d8 b1 4c be fc c9 56 3f
       -8.74604 -10.867714 -0.19989717 0.83901954
000360 bc 32 83 be d7 ac 5d c1 29 9a 7d c0 1f 19 7a c1
       -0.25624645 -13.854697 -3.9625342 -15.631133
000370 0b e4 27 3e b4 fa 17 c1 1c 79 8a be 85 6d b6 3c
       0.16395585 -9.498707 -0.27045524 0.02226902
000380 8b 7a 84 3e 70 f4 cc c0 4d 2a 95 c0 97 8d fa c0
       0.25874743 -6.4048386 -4.6614137 -7.829784
000390 88 1c ec c0 d9 c0 3b 3e 3b 69 80 c1 fa ca 9f bd
       -7.378483 0.18335284 -16.051382 -0.078023866
0003a0 37 07 8c be 05 b1 45 c1 c3 9c 49 be 99 c4 63 c1
       -0.27349254 -12.355718 -0.19688706 -14.235497
0003b0 99 bf 86 3e 1e 73 a2 3c a4 c6 cc bc b0 4d f9 3e
       0.26318052 0.019830283 -0.024997063 0.48692083
0003c0 95 38 b2 3d fc e8 39 3e c7 35 36 c0 8c 2f 56 3e
       0.087021984 0.18155283 -2.8470323 0.20916575
0003d0 25 f7 b1 3f 72 86 c4 c0 30 05 b9 be bb ba 46 3e
       1.3903548 -6.141412 -0.3613677 0.1940717
0003e0 67 80 12 c2 bf ca 89 bf e7 ac 2d be 82 1c a1 bd
       -36.625393 -1.0764998 -0.16960488 -0.078667656
0003f0 99 6a 3e bd 47 e1 e7 3d f4 0c 65 3e d2 1d 6f 3f
       -0.04648838 0.11322265 0.22368222 0.9340488

bias f4 [64]
000000 5c 44 88 40 ac c1 32 40 85 fa 1f 40 ff f3 cf 3f
       4.2583447 2.7930708 2.4996655 1.6246337
000010 8c ec 81 40 78 e1 3f 40 bd 82 40 c0 f3 ce 49 c0
       4.0601254 2.9981365 -3.0079796 -3.1532562
000020 90 5e 9d c0 d8 53 14 c0 a1 62 21 40 48 bf b3 3f
       -4.9177933 -2.3176174 2.5216448 1.404275
000030 5b e6 3b 3d 60 f8 03 40 84 08 7d 40 7c 1a bf 40
       0.04587398 2.0620346 3.9536448 5.971983
000040 a8 2b 09 40 92 26 a9 bf c3 a6 4b 40 b7 94 9c 40
       2.1432896 -1.3214896 3.1820533 4.8931537
000050 99 26 52 3e e6 02 ab 40 d3 1e a3 40 9c 07 84 3f
       0.20522536 5.344104 5.0975127 1.0314822
000060 2c 2e 6c 3f c6 fb f4 3f 98 7b 1f 40 df 5f b3 c0
       0.9225795 1.9139335 2.4919186 -5.605453
000070 55 5a b3 c0 89 25 0f c1 4a 43 84 c0 9e 9d 27 3f
       -5.604777 -8.946664 -4.133214 0.6547488
000080 ee 7b d1 3f 2a 42 6b 40 da c1 ac 40 bf a7 b4 c0
       1.6365945 3.6759133 5.3986635 -5.645477
000090 2e e4 b2 c0 05 67 05 c1 f1 05 b7 40 4a ac 92 3f
       -5.590354 -8.337651 5.7194753 1.1458828
0000a0 7a 32 37 3f bb 17 02 3e de d2 38 40 3c d0 b2 40
       0.71561396 0.12704365 2.8878703 5.587919
0000b0 bf 96 b7 c0 69 5f 0d c1 ad 9f f9 3b 3a 51 f5 3f
       -5.7371516 -8.8357935 0.007617912 1.9165413
0000c0 ac 92 09 c1 b2 b9 0d 40 f7 fc a9 40 16 18 86 40
       -8.598309 2.214459 5.3121295 4.19044
0000d0 63 e1 81 40 1b 4b ea 3f 8a 9e 3c 40 2d 3d 9e 40
       4.058763 1.830417 2.9471765 4.9449677
0000e0 aa 4f 68 c0 a8 51 8c c0 ab 75 11 40 b0 ce 9c 40
       -3.6298623 -4.384968 2.272807 4.9002304
0000f0 af 9c 10 40 aa 68 43 40 a4 8a 92 40 7b 6e 44 3f
       2.2595632 3.0532632 4.579424 0.7673108
