pth/takada_model_55.pth (torch, 168856 bytes, 6 tensors)

weight f4 [128, 128]
-0.09814267 0.30646843 0.21475555 0.03387112 0.18989697 0.11781601 -0.11146071 -0.25888756
0.2734595 -0.01893116 -0.16868512 -0.12554492 0.20096277 -0.19806138 0.0034935572 0.077395104
-0.01810865 0.25414774 0.13777566 0.035930686 0.26790422 0.0015764178 0.17203413 -0.196711
0.09395894 -0.06564827 -0.053588223 0.0888872 0.18067217 -0.12556738 0.0041966992 -0.13814823
0.32003036 0.2209592 0.05541878 -0.20034578 -0.2117908 0.16979301 0.109426975 0.15015773
-0.10579724 -0.07875843 -0.15969162 0.15087068 -0.033770077 0.23361209 -0.04363444 -0.28943342
0.17396083 -0.1420358 0.0108555965 0.105417326 0.1633406 0.028017214 0.18127002 -0.14699818
0.043380562 0.15590276 -0.2697937 0.08930082 0.18460044 0.0524519 0.08423467 -0.13480029
0.044614412 0.1776563 0.1821621 0.06864676 0.27468324 0.1859378 -0.035025697 -0.163653
0.22145885 -0.047068566 -0.15792689 -0.10303927 0.23378272 -0.12616856 0.059030343 0.0039892136
-0.2067704 0.2569696 0.041195378 0.1754587 0.094303206 0.0395902 0.22567634 -0.2074872
0.1135839 -0.036187194 -0.09107104 -0.09050706 -0.14252153 0.020591237 0.06906176 -0.17264293
0.29007316 0.28692546 -0.010475033 0.11762451 0.074199565 0.048760813 0.18837035 0.18183292
-0.17478308 -0.21778904 -0.22779489 0.10535147 0.103441164 0.24872734 -0.03544567 -0.2518693
0.2697845 -0.2675893 0.015188724 0.24350634 0.28272828 0.04847302 0.29882947 -0.16264059
0.09965548 0.024083009 -0.19155549 0.09451842 0.13420093 0.081947014 -0.020115336 -0.20182922
-0.24733041 0.11347499 -0.04750666 0.14343709 -0.16004904 -0.27711743 0.25938252 0.29727975
-0.08126123 0.14321347 -0.0029243743 -0.17085421 0.27022138 -0.16180252 0.27213246 -0.1715411
-0.19679013 0.10574573 0.25755668 -0.12605383 0.035490286 0.04613239 0.027226932 -0.22229545
0.09890766 0.12756737 -0.14705753 0.05484583 0.21299586 0.080626614 0.2417306 -0.2676438
0.13029057 -0.10433244 0.2219175 0.24161798 0.08116934 -0.1892581 -0.059536893 -0.039847203
0.11455616 0.05567605 0.15012242 -0.1313229 0.0932624 -0.06970982 -0.02944137 0.18461604
0.24690762 -0.06252809 -0.06031683 0.24469465 0.11378855 0.019642418 0.10034874 0.17423747
0.0046774684 -0.14224343 -0.28241903 -0.21865582 0.096676886 0.08134872 0.034734216 0.029933963
-0.22409853 0.06091694 0.0030412206 0.2105267 -0.19210295 -0.16901113 0.20840588 0.20432663
-0.024495985 0.08960711 -0.229826 -0.2675274 0.28198573 -0.24443458 0.06619878 -0.17817207
-0.11968412 0.07183856 0.10880562 -0.09220301 0.20800993 0.053390753 0.10484131 -0.14311013
0.014186778 0.034954853 -0.11246769 0.13669977 0.12930024 0.08564453 0.21531266 -0.27262044
0.15486987 -0.2836402 0.27337483 0.00897506 0.104140185 -0.24015309 -0.14631143 -0.073583536
-0.03318996 -0.25959376 0.2191845 -0.10687491 0.060161304 0.084163904 -0.16673309 0.10445596
0.28342903 -0.008253945 -0.05053363 0.33417404 0.16062374 0.037147947 0.11160458 0.092793025
-0.04180303 0.10169129 -0.18732917 -0.236738 -0.025107056 -0.028305706 0.13421261 -0.13232242
00000000: 06ff c8bd 6ee9 9c3e e1e8 5b3e 72bc 0a3d
00000010: 5a74 423e 8549 f13d 8345 e4bd e98c 84be
00000020: e202 8c3e 8515 9bbc cbbb 2cbe d98e 00be
00000030: 2fc9 4d3e 9ad0 4abe 2af4 643b 5381 9e3d
00000040: 9758 94bc a71f 823e 1015 0d3e 0e2c 133d
00000050: be2a 893e ce9f ce3a b729 303e 9c6e 49be
00000060: 8b6d c03d 9a72 86bd 537f 5bbd 7e0a b63d
00000070: 2002 393e bc94 00be 7784 893b bb76 0dbe
00000080: 05db a33e 2143 623e cdfe 623d 7227 4dbe
00000090: b0df 58be 38de 2d3e 401b e03d f3c2 193e
000000a0: 39ac d8bd 1a4c a1bd 3386 23be d87d 1a3e
000000b0: 7e52 0abd 0238 6f3e 07ba 32bd 9e30 94be
000000c0: ca22 323e d571 11be acdb 313c 0ae5 d73d
000000d0: c242 273e 5b84 e53c d99e 393e b186 16be
000000e0: d1af 313d f9a4 1f3e 6622 8abe 59e3 b63d
000000f0: e607 3d3e ced7 563d 3a83 ac3d 1609 0abe
00000100: 9abd 363d 88eb 353e b488 3a3e ac96 8c3d
00000110: 48a3 8c3e 7b66 3e3e 1b77 0fbd a794 27be
00000120: 1cc6 623e f8ca 40bd 96b7 21be 4106 d3bd
00000130: bd64 6f3e 5532 01be cdc9 713d f3b7 823b
00000140: 9fbb 53be 8591 833e 7cbc 283d 72ab 333e
00000150: 0a22 c13d 5529 223d b317 673e 8677 54be
00000160: ad9e e83d 0639 14bd 7483 babd c45b b9bd
00000170: 2af1 11be f4ae a83c 4170 8d3d 4fc9 30be
00000180: 7884 943e e5e7 923e 799f 2bbc 1ee5 f03d
00000190: f1f5 973d 6bb9 473d 28e4 403e 6932 3a3e
000001a0: 56fa 32be 1704 5fbe 1043 69be 83c2 d73d
000001b0: f6d8 d33d 61b2 7e3e 7b2f 11bd 03f5 80be
000001c0: 3221 8a3e 7701 89be 20da 783c ba59 793e
000001d0: c3c1 903e a58b 463d 2d00 993e 418b 26be
000001e0: 2c18 cc3d bb49 c53c 1f27 44be e092 c13d
000001f0: f86b 093e d6d3 a73d ebc8 a4bc 52ac 4ebe
00000200: 2f44 7dbe 9365 e83d 5896 42bd 2ce1 123e
00000210: e5e3 23be 56e2 8dbe c9cd 843e 0d35 983e
00000220: 4a6c a6bd 8da6 123e dca6 3fbb 68f4 2ebe
00000230: 755a 8a3e 8faf 25be f254 8b3e 78a8 2fbe
00000240: 5a83 49be 3891 d83d 78de 833e 4114 01be
00000250: 435e 113d 51f5 3c3d 040b df3c 6ba1 63be
00000260: 1990 ca3d 05a1 023e 4096 16be 05a6 603d
00000270: 961b 5a3e 911f a53d 3a88 773e 9c08 89be
00000280: e46a 053e 3fac d5bd 573e 633e b46a 773e
00000290: 1c3c a63d e0cc 41be f5dc 73bd d236 23bd
000002a0: 6c9c ea3d 920c 643d b1b9 193e 8379 06be
000002b0: 5b00 bf3d 06c4 8ebd 072f f1bc fd0b 3d3e
000002c0: 5ad5 7c3e ba0e 80bd c80e 77bd 3c91 7a3e
000002d0: f909 e93d 23e9 a03c a483 cd3d 4f6b 323e
000002e0: 7345 993b 43a8 11be 3a99 90be 50e7 5fbe
000002f0: 88fe c53d 289a a63d 7745 0e3d 1238 f53c
00000300: 167a 65be 0b84 793d 374f 473b 5094 573e
00000310: a3b6 44be 4111 2dbe 5a68 553e 003b 513e
00000320: ceab c8bc ef83 b73d 8257 6bbe 5af9 88be
00000330: 6f60 903e 0f4d 7abe 3a93 873d bd72 36be
00000340: f31c f5bd 1820 933d 7bd5 de3d efd4 bcbd
00000350: 8e00 553e 43b0 5a3d 0ab7 d63d 768b 12be
00000360: a96f 683c d22c 0f3d 7655 e6bd 06fb 0b3e
00000370: 4867 043e 6666 af3d ec7a 5c3e e894 8bbe
00000380: 3596 1e3e 4a39 91be c9f7 8b3e 210c 133c
00000390: 7347 d53d b1ea 75be aad2 15be f7b2 96bd
000003a0: 32f2 07bd 79e9 84be e771 603e 3ce1 dabd
000003b0: b36b 763d 205e ac3d 14bc 2abe 02ed d53d
000003c0: 9c1d 913e 8e3b 07bc 5afc 4ebd dc18 ab3e
000003d0: 8d7a 243e 7228 183d f190 e43d 450a be3d
000003e0: a739 2bbd 8643 d03d 38d3 3fbe 726b 72be
000003f0: 50ad cdbc 5ee1 e7bc 086f 093e 877f 07be

bias f4 [128]
0.061760504 0.109085895 -0.21521664 0.19517472 -0.08210879 0.08705251 -0.17887104 -0.00065928913
0.122730464 0.08639645 0.20885593 0.005519735 -0.14662275 0.045069236 -0.113202766 -0.07293782
-0.16928256 -0.024971072 0.026846016 0.068141736 0.05500383 0.14405142 -0.19999638 -0.07896562
0.14804104 0.06818663 0.056254398 0.025407191 0.1880681 -0.119384706 -0.17726246 0.13519058
-0.13175352 -0.0068621063 -0.060937423 0.022894785 0.035284765 0.014344314 -0.13973776 -0.01213351
0.12560484 0.1403584 0.17738077 0.11633011 0.11078579 -0.013791017 -0.065435514 0.15816689
0.04422441 0.21255983 0.253975 0.08757926 0.025594959 -0.048128817 0.1895926 -0.20185527
-0.11405399 -0.001620297 0.18174702 -0.054480813 -0.04646969 -0.11911288 -0.032197706 -0.09246093
0.12160453 0.12588885 0.017918333 -0.16161649 -0.08347333 0.15674657 -0.14407125 -0.103264816
-0.108676754 0.062213417 0.1849395 -0.05004467 0.024060033 0.028781768 -0.08483252 -0.13855727
0.19929494 -0.0962148 -0.08953391 -0.057291128 -0.12915523 0.11735655 -0.0946672 -0.005169721
0.18191913 -0.06324566 0.036574535 0.16849694 0.13833867 0.19022061 0.10951274 -0.08456273
-0.018559461 -0.20368513 0.07698769 -0.056052092 -0.17479888 0.17740889 0.09747354 0.09197392
-0.0932351 0.0038650152 -0.13405403 0.08661612 0.16353802 0.19857825 0.10558167 0.1242126
0.14816734 -0.08831799 0.03711773 0.024898803 -0.019600704 0.006689369 -0.007282206 0.06502311
-0.21786135 -0.0699853 -0.12246 0.16366945 0.0828947 -0.12623003 0.053045604 -0.17706604
00000000: 95f8 7c3d 6d68 df3d c061 5cbe e2db 473e
00000010: a728 a8bd 9648 b23d f829 37be 25d4 2cba
00000020: 1c5a fb3d 9ff0 b03d 54de 553e e5de b43b
00000030: 4624 16be 859a 383d dad6 e7bd 6c60 95bd
00000040: 6858 2dbe 2290 ccbc 2dec db3c e58d 8b3d
00000050: b24b 613d 3782 133e dacb 4cbe bab8 a1bd
00000060: 1298 173e 6fa5 8b3d 036b 663d be22 d03c
00000070: ed94 403e f87f f4bd 4a84 35be 666f 0a3e
00000080: 65ea 06be 85db e0bb 8599 79bd d88d bb3c
00000090: c286 103d 6a04 6b3c 6a17 0fbe a1cb 46bc
000000a0: 8e9e 003e 1dba 0f3e 4ea3 353e 7b3e ee3d
000000b0: a9e3 e23d b8f3 61bc 0e03 86bd 80f6 213e
000000c0: a824 353d 49a9 593e 0309 823e c15c b33d
000000d0: 85ac d13c b922 45bd 9024 423e 26b3 4ebe
000000e0: 2395 e9bd 2560 d4ba e41b 3a3e 4627 5fbd
000000f0: 0057 3ebd 74f1 f3bd bee1 03bd 285c bdbd
00000100: cc0b f93d 02e9 003e 78c9 923c cb7e 25be
00000110: 11f4 aabd 2c82 203e 6a87 13be 817c d3bd
00000120: eb91 debd 7fd3 7e3d c860 3d3e a4fb 4cbd
00000130: 8c19 c53c bec7 eb3c acbc adbd f5e1 0dbe
00000140: f913 4c3e 440c c5bd 8e5d b7bd 1aaa 6abd
00000150: 4541 04be a258 f03d e1e0 c1bd c366 a9bb
00000160: 0249 3a3e f186 81bd 2ecf 153d 768a 2c3e
00000170: a7a8 0d3e 31c9 423e 3748 e03d 392f adbd
00000180: 030a 98bc d692 50be b9ab 9d3d e196 65bd
00000190: 7afe 32be adaa 353e 35a0 c73d d35c bc3d
000001a0: 0bf2 bebd 324c 7d3b 7645 09be cb63 b13d
000001b0: 8376 273e 1958 4b3e 343b d83d 2d63 fe3d
000001c0: 2eb9 173e 10e0 b4bd c308 183d 93f8 cb3c
000001d0: a891 a0bc 7f32 db3b 929f eebb d62a 853d
000001e0: 0c17 5fbe 7454 8fbd 4fcc fabd f798 273e
000001f0: b2c4 a93d 7242 01be 5946 593d cd50 35be

weight f4 [128, 128]
0.13826784 -0.020464065 -0.2323856 0.052835375 0.10357802 0.20240779 -0.1773226 -0.06809469
-0.11390115 0.2457295 -0.21089005 0.13484873 -0.15649171 0.31870973 -0.2002631 -0.25081724
-0.23972724 -0.2857896 0.27586597 -0.16250825 0.30193922 -0.029115425 -0.21612483 0.30342847
0.09513702 -0.18356678 -0.21323775 -0.022470204 0.33225864 -0.15970238 -0.259761 0.08440277
-0.0903181 -0.0763394 -0.26722217 -0.12651919 -0.32190436 -0.12621123 0.11624587 0.19146612
0.21713534 0.05529693 0.2049446 0.19319592 0.12805408 -0.18826729 -0.15401724 -0.17634301
0.34233978 0.14993687 -0.10983775 0.032798532 -0.12541026 -0.31748173 0.09133193 -0.23746811
0.035188075 -0.016190797 0.066286325 -0.15569179 0.14283095 -0.13896091 0.12266437 -0.1333599
-0.017183658 0.20747261 -0.08787505 -0.16450131 -0.29184857 0.11681028 0.34523812 -0.089369476
0.0054255216 -0.018986756 -0.18962675 -0.050928775 -0.16306435 0.22684765 0.07805159 -0.1646301
-0.18150513 -0.22769198 -0.1046048 -0.11948688 -0.14864697 0.09395412 -0.19308726 -0.01990367
0.16040008 -0.32182866 0.095348775 0.08905669 0.21847896 0.13456503 0.22521153 0.02416714
-0.14558347 -0.24734873 0.24922544 0.28448692 0.039436575 0.17022148 0.30221984 0.21803427
0.22259998 -0.2854768 -0.17685048 0.30448318 -0.042584985 0.33954096 0.05671003 -0.16182764
-0.25496423 0.011522479 -0.21691996 0.24410127 0.30221137 -0.2209892 -0.2040268 0.17000858
0.26454857 -0.039182086 -0.25170892 0.24295093 0.030821523 -0.0034875032 0.07156995 -0.0854113
0.3120276 0.2133281 0.26819712 -0.07694319 -0.27725834 0.30040586 0.20961836 0.21192269
0.16677466 0.08483555 -0.02448035 0.23728284 0.018676814 0.22678018 0.24181427 0.2852909
0.22112331 0.10238871 0.19610237 -0.23317328 0.11834195 0.072803125 -0.18007706 0.06195943
0.21039216 -0.17794392 0.30748853 0.26272336 0.0194677 -0.06655792 -0.12017275 0.2236335
0.08589332 -0.23713848 0.09156194 0.14102899 0.041456185 0.2609131 -0.1389532 0.29907185
0.0020017712 0.054376677 0.1392168 0.017838746 0.15791479 -0.17405552 0.2962449 0.039537594
0.051795557 -0.11506971 0.21659575 0.21562596 -0.19010593 0.27650157 -0.23674479 0.18524839
-0.19090502 -0.21614921 0.21008727 -0.1379659 -0.26012963 0.30777755 -0.3161204 0.24132757
-0.052759238 0.0032491824 -0.076064534 0.11398078 0.23858966 -0.18799329 0.19820587 -0.2873212
-0.14013198 0.0907186 -0.29444876 -0.09953239 0.12316888 0.12730828 0.17198378 -0.009312908
-0.21410023 -0.07850643 -0.29117653 0.05773631 -0.02788799 -0.03537082 -0.07633941 0.21168841
-0.22822876 -0.22125353 0.18820955 0.15267943 0.27219164 0.12123098 -0.19434345 0.16077083
0.20185085 -0.109846026 0.15803486 -0.10418967 -0.10518079 -0.08173307 -0.14645046 0.20405313
-0.021573853 0.05171152 0.12751912 0.22677936 0.09664446 -0.10998987 -0.14293538 0.16514856
0.04213549 0.09986235 -0.10298771 -0.23775344 0.2487433 -0.15588114 0.32055923 0.13013405
-0.028175881 0.05956681 0.10277634 -0.035488605 0.20534539 -0.06068703 0.2053975 0.06265122
00000000: 1696 0d3e 41a4 a7bc 7ef6 6dbe e869 583d
00000010: b720 d43d fd43 4f3e 0e94 35be 3b75 8bbd
00000020: 0245 e9bd 84a0 7b3e 90f3 57be c915 0a3e
00000030: 5d3f 20be ec2d a33e c511 4dbe 1e6b 80be
00000040: 0f7b 75be 0453 92be 4e3e 8d3e 9068 26be
00000050: c797 9a3e 7983 eebc d44f 5dbe fa5a 9b3e
00000060: 33d7 c23d eef8 3bbe ff5a 5abe 6f13 b8bc
00000070: ce1d aa3e 0589 23be 65ff 84be 5cdb ac3d
00000080: b2f8 b8bd d557 9cbd 58d1 88be 3f8e 01be
00000090: a6d0 a4be 843d 01be 5112 ee3d b20f 443e
000000a0: ba58 5e3e 097f 623d ffdc 513e 27d5 453e
000000b0: 9c20 033e 24c9 40be b2b6 1dbe 4393 34be
000000c0: 2947 af3e 0d89 193e 9df2 e0bd c157 063d
000000d0: 8c6b 00be f78c a2be 3c0c bb3d d72a 73be
000000e0: 5f21 103d 90a2 84bc 20c1 873d ab6d 1fbe
000000f0: 4742 123e c54b 0ebe 7537 fb3d 7f8f 08be
00000100: bec4 8cbc b373 543e d6f7 b3bd 0873 28be
00000110: 2d6d 95be 3a3a ef3d 0dc3 b03e 5807 b7bd
00000120: 93c8 b13b 1d8a 9bbc 842d 42be b19a 50bd
00000130: 57fa 26be c04a 683e 83d9 9f3d cb94 28be
00000140: 7bdc 39be 1628 69be 0b3b d6bd 8ab5 f4bd
00000150: e936 18be 056b c03d abb8 45be 050d a3bc
00000160: eb3f 243e bac6 a4be 3846 c33d 5b63 b63d
00000170: f3b8 5f3e 6acb 093e da9d 663e 2afa c53c
00000180: d513 15be fc48 7dbe f434 7f3e 45a8 913e
00000190: 3f88 213d 8a4e 2e3e 8fbc 9a3e 6044 5f3e
000001a0: 40f1 633e 042a 92be 4b18 35be 38e5 9b3e
000001b0: 986d 2ebd 50d8 ad3e c748 683d 25b6 25be
000001c0: ac8a 82be c8c8 3c3c 4420 5ebe aff5 793e
000001d0: 73bb 9a3e fe4a 62be 67ec 50be bb16 2e3e
000001e0: e972 873e 657d 20bd fedf 80be 21c8 783e
000001f0: 6b7d fc3c 988e 64bb 4493 923d 1fec aebd
00000200: 15c2 9f3e ae72 5a3e 2251 893e 6494 9dbd
00000210: cef4 8dbe ccce 993e 32a6 563e 4302 593e
00000220: fac6 2a3e 43be ad3d 048b c8bc 46fa 723e
00000230: 1e00 993c 1039 683e 299e 773e a611 923e
00000240: 266e 623e 2cb1 d13d 0fcf 483e fac4 6ebe
00000250: 445d f23d ce19 953d 1f66 38be 2cc9 7d3d
00000260: 0b71 573e ee36 36be 236f 9d3e ad83 863e
00000270: ba7a 9f3c 854f 88bd 211d f6bd 2e00 653e
00000280: d6e8 af3d 6ed4 72be d484 bb3d e769 103e
00000290: f6cd 293d 6796 853e bf49 0ebe f21f 993e
000002a0: 2630 033b 14ba 5e3d d98e 0e3e 9022 923c
000002b0: 6ab4 213e 9c3b 32be 69ad 973e 2cf2 213d
000002c0: 9427 543d aba9 ebbd 47cb 5d3e 0dcd 5c3e
000002d0: 21ab 42be 9d91 8d3e 3a6d 72be c1b1 3d3e
000002e0: 9b7c 43be 3856 5dbe 1e21 573e ef46 0dbe
000002f0: b62f 85be 0595 9d3e 88da a1be 931e 773e
00000300: 121a 58bd 3cf0 543b b9c7 9bbd c16e e93d
00000310: d950 743e 5081 40be 7bf6 4a3e c41b 93be
00000320: c27e 0fbe acca b93d fdc1 96be a3d7 cbbd
00000330: f73f fc3d 1a5d 023e 841c 303e 2b95 18bc
00000340: 173d 5bbe fbc7 a0bd 1715 95be e97c 6c3d
00000350: 5b75 e4bc fee0 10bd d657 9cbd d9c4 583e
00000360: cdb4 69be 4990 62be 01ba 403e ff57 1c3e
00000370: b45c 8b3e f347 f83d f801 47be 1ca1 243e
00000380: fdb1 4e3e f4f6 e0bd e4d3 213e 6561 d5bd
00000390: 0769 d7bd ab63 a7bd 1cf7 15be 4ef3 503e
000003a0: a6bb b0bc 75cf 533d 5f94 023e d938 683e
000003b0: 88ed c53d 5e42 e1bd a75d 12be b41c 293e
000003c0: 4396 2c3d a284 cc3d 38eb d2bd a375 73be
000003d0: 90b6 7e3e 4e9f 1fbe 5720 a43e dc41 053e
000003e0: 1bd1 e6bc 54fc 733d 677c d23d 805c 11bd
000003f0: 1046 523e f792 78bd b953 523e 484f 803d

bias f4 [128]
0.16125126 -0.045177564 0.18138477 -0.10301934 -0.025927152 0.16454758 0.05001722 -0.025638768
-0.04935525 0.030334337 0.11325305 -0.011636649 0.14088999 0.07993078 0.094471045 -0.11852104
-0.11737249 -0.03379074 0.1959159 0.12919728 -0.010826689 -0.01383411 0.22336695 0.19543648
0.14139058 -0.029446011 0.009424394 -0.032289978 0.033310827 0.09940162 0.027590573 0.14310703
0.056239218 0.08377093 -0.15076295 -0.08895877 0.05961845 0.04231153 0.035355333 0.05446592
-0.16058555 -0.009608641 0.0059735714 0.16639858 -0.08883141 -0.05165202 0.19111115 -0.0892238
-0.09025015 -0.1297895 0.10174 0.20503579 0.2809873 0.008666699 0.25806546 0.107875645
-0.035892766 -0.019779436 0.042065565 -0.12476901 0.11607102 0.1321268 0.1329001 0.19718522
0.006071321 -0.044507597 0.120523736 0.04369741 -0.1352719 0.12812528 -0.09343137 -0.0052246875
0.08105333 0.12400997 0.0973495 0.08342208 0.16287102 -0.038108427 -0.18604238 0.018384388
0.115710005 -0.0019790747 -0.07867426 0.09531472 0.08951233 -0.10584511 0.25337985 0.032740265
0.040574823 -0.1138152 0.13663703 -0.016155837 0.05973456 -0.016703777 -0.012035762 -0.17453654
0.12539983 -0.02381603 -0.0017608709 -0.031660948 -0.019902589 0.009404258 -0.021012854 -0.0736073
0.0584856 0.049794346 -0.01905308 0.07196414 -0.04166002 0.058864504 -0.16251402 0.065229625
0.08235276 0.11685867 -0.11554246 0.09126512 0.0041935444 0.10878705 0.06025267 -0.12312408
0.28313592 0.048525814 -0.045009244 0.1617262 -0.12726507 -0.046618983 0.22328568 -0.12203307
00000000: 0d1f 253e 1c0c 39bd eebc 393e cefb d2bd
00000010: 2e65 d4bc 297f 283e dbde 4c3d 6508 d2bc
00000020: bb28 4abd b77f f83c 37f1 e73d a5a7 3ebc
00000030: 7745 103e c0b2 a33d 097a c13d 29bb f2bd
00000040: fd60 f0bd 2968 0abd 2d9e 483e 4b4c 043e
00000050: 6d62 31bc 77a8 62bc 4eba 643e 8020 483e
00000060: b1c8 103e c338 f1bc c668 1a3c 7f42 04bd
00000070: ef70 083d 1493 cb3d a005 e23c a68a 123e
00000080: 185b 663d 1890 ab3d 9a61 1abe 0430 b6bd
00000090: 7a32 743d db4e 2d3d c1d0 103d a817 5f3d
000000a0: 8a70 24be 906d 1dbc f3bd c33b 6464 2a3e
000000b0: 3eed b5bd 1291 53bd a4b2 433e f8ba b6bd
000000c0: 12d5 b8bd 8ae7 04be 105d d03d e7f4 513e
000000d0: 91dd 8f3e c5fe 0d3c 2821 843e e8ed dc3d
000000e0: 4b04 13bd 7c08 a2bc f14c 2c3d e586 ffbd
000000f0: a5b6 ed3d 3f4c 073e f716 083e ecea 493e
00000100: eff1 c63b 994d 36bd 26d5 f63d 0efc 323d
00000110: b884 0abe 4633 033e f258 bfbd db33 abbb
00000120: 4aff a53d f0f8 fd3d 2d5f c73d 32d9 aa3d
00000130: a9c7 263e 9517 1cbd e581 3ebe db9a 963c
00000140: 5ef9 ec3d 5db3 01bb f81f a1bd 5d34 c33d
00000150: 3e52 b73d 52c5 d8bd 01bb 813e a81a 063d
00000160: c931 263d f217 e9bd 94ea 0b3e 3f59 84bc
00000170: 3aac 743d 5cd6 88bc a531 45bc b5b9 32be
00000180: d068 003e d619 c3bc 06cd e6ba e9ae 01bd
00000190: c10a a3bc 5114 1a3c 2623 acbc 6dbf 96bd
000001a0: 998e 6f3d 28f5 4b3d 3415 9cbc ef61 933d
000001b0: b2a3 2abd e81b 713d 136a 26be 1c97 853d
000001c0: 90a8 a83d 9953 ef3d 86a1 ecbd 35e9 ba3d
000001d0: 006a 893b bfcb de3d 81cb 763d 7a28 fcbd
000001e0: 31f7 903e 01c3 463d 9d5b 38bd 8e9b 253e
000001f0: c651 02be 8cf3 3ebd 00a5 643e 79ec f9bd

weight f4 [64, 128]
-0.10446869 -0.06647308 0.25314048 -0.06589257 0.16471122 -0.3332615 0.19914752 -0.10308275
0.0595359 -0.14385217 -0.18027766 0.0016114421 0.1886883 0.018224468 -0.10575877 -0.21518275
-0.034154844 -0.15252908 -0.035800803 0.037143063 0.2215662 0.2571991 -0.09908044 -0.23565316
0.13192815 0.015260278 0.17984724 0.01732872 0.15346533 0.12085773 -0.15233847 -0.106357776
-0.15906407 0.055445544 -0.048964527 -0.012139633 0.21125038 0.1545073 0.2007937 0.044697784
-0.255817 0.07408536 0.07428602 0.031240975 0.250927 -0.05626741 -0.12127185 0.18213063
0.026966143 0.25117388 -0.17460081 -0.13697307 -0.24048896 -0.0877357 -0.18148091 0.030326318
0.122127585 -0.030812692 0.17340451 0.19025724 0.19324361 0.12825242 0.0057245144 0.060289167
0.105840884 0.0005838194 0.060744025 0.005011832 0.23561046 -0.2028171 -0.010836898 -0.287518
0.030126551 -0.115466945 -0.26765317 0.21317963 -0.035922047 0.16659297 -0.12087571 -0.1499402
0.14927956 -0.27082554 0.09894671 -0.040941235 -0.057243355 -0.107971266 0.005226781 -0.16581112
-0.21084015 0.26365748 0.08470927 0.006226771 -0.06826069 0.11563436 -0.20945516 -0.19079006
0.055929463 0.16749786 0.22743464 -0.23626567 0.062549956 0.041115258 -0.15571465 -0.23788694
-0.026309924 0.0021115863 0.08110965 0.040423084 -0.17187048 0.0698006 0.07219267 0.106741786
-0.09103634 -0.14302546 0.05617658 -0.31257263 -0.14429379 0.11042552 -0.02740893 0.036516145
0.26320702 0.2547468 -0.14910358 0.18164179 -0.059848487 -0.13730559 -0.06357198 0.23737063
0.20013379 0.060590878 -0.024205195 0.19636236 0.06809673 -0.1985593 0.12667637 -0.17696317
-0.036024068 0.03806639 -0.19702452 -0.10777703 0.13941549 0.25227827 0.049536746 0.063960314
-0.01846053 0.22529112 -0.08050667 0.12263959 -0.0954353 0.088383004 -0.180993 0.16237609
0.19118713 0.0174918 0.040750206 -0.19852537 0.2487035 -0.17408219 0.25059468 -0.22802156
-0.261895 -0.1802576 -0.045276772 -0.29936302 -0.14259355 -0.11835288 0.24206328 0.008400376
0.018415669 -0.203006 0.0322778 0.06575261 -0.24381149 -0.14573772 -0.18696637 0.085254356
0.22603318 0.21445878 -0.1525074 -0.30250034 -0.15242274 -0.09023458 -0.20433497 0.10804813
-0.2804911 -0.1742557 0.10620419 0.055691104 -0.29046676 0.15503028 0.07085717 -0.15940773
0.18160455 -0.048874192 -0.11038856 0.22375855 -0.21995457 -0.043661457 0.23847777 0.17547356
0.108010285 -0.20692155 0.18006624 0.25388384 -0.25699562 -0.037388295 -0.007408051 0.22458096
-0.17347607 0.09541457 -0.15218228 0.16533835 -0.09713265 -0.00088010525 -0.01799773 0.2672669
0.0051934137 -0.22402348 0.13780104 -0.031888984 0.16870508 -0.13406031 -0.1593023 -0.24473812
-0.12287386 -0.27632636 -0.14944439 -0.16154674 -0.23649001 -0.1187169 0.14487101 0.29348183
-0.05247168 -0.12801215 0.17551 0.24226382 0.16636832 -0.15379462 -0.15908208 -0.14313756
0.23192933 -0.009571412 0.12970363 -0.12464111 0.05263294 -0.05063218 0.0019432461 0.21601298
0.22746438 -0.1904731 -0.2934902 0.20292024 0.14271493 -0.16192307 -0.2684791 -0.25836596
00000000: aef3 d5bd 0a23 88bd a19b 813e aff2 86bd
00000010: 0faa 283e 40a1 aabe 54ed 4b3e 0d1d d3bd
00000020: eadb 733d fc4d 13be b59a 38be 0637 d33a
00000030: 8137 413e 7b4b 953c 0e98 d8bd de58 5cbe
00000040: f3e5 0bbd 9530 1cbe dda3 12bd 5323 183d
00000050: 40e2 623e 9aaf 833e b0ea cabd 104f 71be
00000060: 2c18 073e 3f06 7a3c e029 383e f6f4 8d3c
00000070: 0426 1d3e 4284 f73d 9efe 1bbe 1bd2 d9bd
00000080: b1e1 22be de1a 633d 078f 48bd 50e5 46bc
00000090: 0552 583e 2937 1e3e dd9c 4d3e 0615 373d
000000a0: 72fa 82be 11ba 973d 4523 983d 13ed ff3c
000000b0: 8179 803e a878 66bd 605d f8bd 7480 3a3e
000000c0: 1ae8 dc3c dd99 803e 8eca 32be ab42 0cbe
000000d0: bd42 76be c6ae b3bd 22d6 39be e66e f83c
000000e0: 071e fa3d e66a fcbc f490 313e cbd2 423e
000000f0: a7e1 453e 9a54 033e b594 bb3b c6f1 763d
00000100: 1bc3 d83d 750b 193a bace 783d 4b3a a43b
00000110: de43 713e 49af 4fbe 3f8d 31bc 8f35 93be
00000120: f5cb f63c ef79 ecbd d609 89be c34b 5a3e
00000130: ff22 13bd 5997 2a3e af8d f7bd ec89 19be
00000140: bedc 183e a5a9 8abe 93a4 ca3d ffb1 27bd
00000150: 0278 6abd 0a20 ddbd 6b45 ab3b 64ca 29be
00000160: 7be6 57be 1dfe 863e 0e7c ad3d f109 cc3b
00000170: 43cc 8bbd b5d1 ec3d 6a7b 56be 785e 43be
00000180: 4b16 653d 8f84 2b3e a0e4 683e a1ef 71be
00000190: 311a 803d 7968 283d a973 1fbe a298 73be
000001a0: e987 d7bc 8a62 0a3b d11c a63d ad92 253d
000001b0: d1fe 2fbe 9ef3 8e3d c0d9 933d 709b da3d
000001c0: 4371 babd 4475 12be 6a19 663d 8509 a0be
000001d0: c0c1 13be c626 e23d b188 e0bc f491 153d
000001e0: 12c3 863e 2c6e 823e 9cae 18be 4e00 3a3e
000001f0: b023 75bd d699 0cbe 0732 82bd 4911 733e
00000200: dfef 4c3e 242e 783d f949 c6bc 3713 493e
00000210: 4c76 8b3d 2153 4bbe 73b7 013e d535 35be
00000220: f98d 13bd 81eb 1b3d ccc0 49be 34ba dcbd
00000230: efc2 0e3e 9e2a 813e 0be7 4a3d a0fd 823d
00000240: 8a3a 97bc b7b2 663e aee0 a4bd 772a fb3d
00000250: 9573 c3bd 2602 b53d 3b56 39be eb45 263e
00000260: 8fc6 433e f74a 8f3c b0e9 263d 3c4a 4bbe
00000270: 21ac 7e3e 9a42 32be f24d 803e 7c7e 69be
00000280: 1a17 86be 7395 38be 2374 39bd 1c46 99be
00000290: 0b04 12be ff62 f2bd 70df 773e bba1 093c
000002a0: 75dc 963c cee0 4fbe ba35 043d 4ea9 863d
000002b0: b8a9 79be 453c 15be 1d74 3fbe d699 ae3d
000002c0: 3e75 673e 159b 5b3e e62a 1cbe 53e1 9abe
000002d0: b514 1cbe e8cc b8bd 303d 51be 5748 dd3d
000002e0: 889c 8fbe 1670 32be 9581 d93d 5b1c 643d
000002f0: 0fb8 94be 42c0 1e3e 901d 913d c83b 23be
00000300: 8bf6 393e 4e30 48bd 6613 e2bd f620 653e
00000310: c53b 61be 5bd6 32bd 8433 743e 57af 333e
00000320: 7f34 dd3d 3ee3 53be 4963 383e 10fd 813e
00000330: ee94 83be 7824 19bd 3cbf f2bb 8df8 653e
00000340: b6a3 31be b768 c33d acd5 1bbe 754e 293e
00000350: 7ced c6bd ddb6 66ba fa6f 93bc 35d7 883e
00000360: 832d aa3b 6966 65be b71b 0d3e 069e 02bd
00000370: 06c1 2c3e 1b47 09be 2420 23be a19c 7abe
00000380: 4aa5 fbbd a67a 8dbe f307 19be 826c 25be
00000390: 702a 72be d921 f3bd 1159 143e 4043 963e
000003a0: 8bec 56bd 9e15 03be e5b8 333e 0214 783e
000003b0: 755c 2a3e 567c 1dbe 6ae6 22be a792 12be
000003c0: e27e 6d3e 69d1 1cbc 07d1 043e d743 ffbd
000003d0: a395 573d b063 4fbd 85b4 fe3a 8232 5d3e
000003e0: 6cec 683e 610b 43be 5944 96be 53ca 4f3e
000003f0: dd23 123e 29cf 25be 1876 89be 8b48 84be

bias f4 [64]
0.1024499 0.11219456 -0.20493843 0.011648734 -0.12709284 -0.123774715 0.17705156 0.17777717
-0.10433164 -0.05396261 -0.13061918 0.11604687 -0.048020925 0.1120149 -0.14118578 0.10567503
-0.11640379 0.060152166 -0.014804255 0.24169141 -0.0504052 -0.06627611 0.08394073 -0.2346717
0.073642075 -0.11059875 -0.04032955 -0.012129222 -0.043895 0.19014724 0.060369693 0.12871526
-0.08508074 -0.13429564 0.21808203 -0.038858734 -0.070975676 -0.111815885 -0.15400334 -0.0942102
0.16570939 -0.2447402 -0.0057566157 0.074859984 0.13634375 0.18108748 -0.040609695 -0.2701671
-0.23413411 0.0034245094 0.013599105 -0.043483425 0.15349442 -0.26647547 -0.074610695 -0.04741629
0.06609705 0.13667163 -0.17334664 -0.032638717 0.054933704 -0.0990474 -0.08715773 -0.018195799
00000000: 41d1 d13d 43c6 e53d 61db 51be 55da 3e3c
00000010: a024 02be 997d fdbd 014d 353e 380b 363e
00000020: d4ab d5bd e607 5dbd 09c1 05be fba9 ed3d
00000030: 97b1 44bd 1168 e53d 0193 10be 266c d83d
00000040: 1c65 eebd 1e62 763d 8c8d 72bc f47d 773e
00000050: af75 4ebd c5bb 87bd 1ee9 ab3d c74d 70be
00000060: a8d1 963d 9981 e2bd 9930 25bd a5b9 46bc
00000070: 3ecb 33bd f5b5 423e 3646 773d efcd 033e
00000080: d03e aebd cc84 09be e550 5f3e 562a 1fbd
00000090: b25b 91bd baff e4bd 0db3 1dbe 47f1 c0bd
000000a0: b9af 293e 2d9d 7abe fea1 bcbb 3150 993d
000000b0: b29d 0b3e ff6e 393e 5a56 26bd 5853 8abe
000000c0: dac0 6fbe bc6d 603b c8ce 5e3c ad1b 32bd
000000d0: a42d 1d3e 796f 88be 7ecd 98bd 9537 42bd
000000e0: e45d 873d a6f3 0b3e c881 31be 2db0 05bd
000000f0: 2a02 613d 5dd9 cabd c07f b2bd 5b0f 95bc
