pth/takada_model_10.pth (torch, 119448 bytes, 6 tensors)

weight f4 [128, 128]
00000000: 949a 98c0 ed3d 67be 9bca 18bf f8e7 993f
00000010: 0494 03c0 3280 c73d 5e03 69bf a562 77be
00000020: 098c 7c3f 6b4a 1640 b189 723f 708f 3fbf
00000030: d091 0240 3936 28bf a17d 4440 4ac3 6bbf
00000040: f0fb 27bf a956 aabd f61b 0abf fcf4 3abf
00000050: 239c 433e d5ad a83f 1680 723f a94a 1dbf
00000060: 053c 33be 3c1d 8d3f c174 86bf 3e8a 983e
00000070: 2933 06be 3558 ae3e 0832 a4bf 2b7c 0dbf
00000080: 38d6 2b3e 509e 42bf 61ad b3bf 91ca 9c3d
00000090: c605 cfbe fe24 ccbf ec1c 55be 6994 9e3f
000000a0: 48c4 8abf 1b54 8c3e 2a17 74bf 6f22 573f
000000b0: 14f1 283f dd5c 23bf b1fa 85be 24e0 7cbf
000000c0: 973b 6e3f d026 80bf 0d0f 8cbe e75c e03f
000000d0: 3f59 19c0 c8dd 42be ec5e b03e 8c46 adbd
000000e0: dc50 c33b cb6b cf3e 0417 7c3f a4e3 ba3f
000000f0: 2bb3 ce3f a419 05be 24fc b0bf d2da b23d
00000100: 5e22 1fc0 8f10 0abf 9b5a 48bf d972 6ebf
00000110: ca8b f13e 136a f7be 6ce9 a0be 571b 58c0
00000120: d73e 6340 ae67 5140 0898 81be fd7e 80be
00000130: d2cf 403e 71d4 75be 6e62 3140 be4b 77bf
00000140: bd7b 0cc0 30ee 983f 9b16 b7be 0501 563f
00000150: aec2 813e e4fe 8d3f 58ca 6c3f 3d67 1f3e
00000160: eef0 c9be 310c 8a3f 2c42 0ebf ba61 7dbd
00000170: 5a3a af3e 7881 c8bd 1634 9dbf 1096 4d3f
00000180: b0e8 b2bf 021b b93e 66a7 70bf 0bc3 3d3e
00000190: a125 fd3e 4a5a 403e 288d 78bd eeef 8fbe
000001a0: e28b 56bf 41c0 853f bd46 ee3e 010d e73e
000001b0: e26c d2be d2a6 113e 8cf9 a6bf 8c99 a23e
000001c0: ca08 22bf 9651 d7be cca5 97be 7e72 493f
000001d0: 65a4 7dbf 05c7 843e 7361 a73f 7c16 a2bf
000001e0: a942 183c e7f5 3dbf 4888 f33f d206 0e3f
000001f0: 8b51 323f da0a 60be 709d 90bb 9fc2 87be
00000200: 13a3 b83f 21a2 d8be 08e8 8dbd 9dec 09bf
00000210: 433b 7cbf f40b 6e3f 8f0f 9dbe 82c7 c93e
00000220: be2c 14bf 7cb3 1ebf 069b b73e f0af 16bf
00000230: deb1 4abf 49c0 2d3e 844b c93d bb16 403e
00000240: 723f 3ebf 729f 913e 6063 d73e cdaa 1c3f
00000250: 2dd6 2f3f b194 d1bf 6825 25bf 02e4 afbf
00000260: dab2 de3f 6f01 5c3e 843c cf3e 95f0 42bf
00000270: ea1b 09bf f364 053f 671f a93f 4bb4 963f
00000280: faeb df3e cf22 23bf b712 e33f e480 1ebc
00000290: 73df bdbd 90fa 273e 4d66 883f 9549 843e
000002a0: 593e bb3e dc7a d5be f9b2 87be 0ba4 2bbf
000002b0: 7d67 ecbd d522 94bd 34bf 20bf effe 27be
000002c0: 230a 0e3f fe87 2e3f 5984 663f c98c 77bf
000002d0: 20c0 43bd 10cd f7bf 0627 6e3f d5ff c63e
000002e0: 7ab9 42c0 b4eb 0b3e e305 bfbd 7da1 9a3f
000002f0: e85e be3d 263f 2ebe eec4 753f a5db abbf
00000300: c63b 3d3f 0496 69bf 2b6b 22bf 51dd d83e
00000310: 7d9f 02bf 337e 07bf 23cc ae3f b686 133e
00000320: e241 3dbe 2faa 87bf a52c 893f fe1f 9cbf
00000330: cbee 60bf f2fd 72bf 039c 1f3e 8784 91bf
00000340: f498 7b3e 2478 c4be 917c 393f bc9a f53e
00000350: 38d3 e2bc 9a8e a0bf 8828 a7bb 3d8a 8fbd
00000360: 46b8 de3f 7260 3a3f 3982 8b3f 1e03 6e3e
00000370: ebce 1e3e a51e 563f 0ea6 923f 291c 6d3f
00000380: 675b ed3c 63a9 64bf fee5 953f 9964 a6be
00000390: 4504 59be 3681 6fbf e61d f53e 075e f53e
000003a0: dc7f 4d3f 0889 863e e2c7 54be 39b5 0cbf
000003b0: d309 2bbf f553 bfbe ea75 4fbf 0540 b23e
000003c0: 4c9d 3d3f 32bb 7d3f a306 a93e 1689 48bf
000003d0: 898c f23d 6ece 5ebf e675 14bf 6981 30bf
000003e0: a82e 32c0 df46 19bf e52a 5a3f 695d b53f
000003f0: 7402 2b3e f2cd b7bf 457c ae3f a044 31bf
-4.7688694 -0.22582217 -0.5968415 1.2023916 -2.0559092 0.09741248 -0.9102076 -0.24158724
0.98651177 2.348292 0.9474135 -0.74828243 2.0401497 -0.6570774 3.0701678 -0.9209486
-0.656188 -0.0831731 -0.53948915 -0.73030066 0.1910253 1.3178049 0.94726694 -0.6144205
-0.17503364 1.1024547 -1.050438 0.2979297 -0.13105454 0.34051672 -1.2827768 -0.5526759
0.16780937 -0.76022816 -1.4037286 0.07655824 -0.40434092 -1.5948789 -0.20811814 1.2389041
-1.084115 0.27407917 -0.95347846 0.84036916 0.65992856 -0.63813573 -0.26167825 -0.9877951
0.93059677 -1.0011845 -0.27355233 1.7528352 -2.3960721 -0.19029915 0.3444742 -0.084607214
0.005960567 0.40511927 0.9847262 1.460072 1.6148428 -0.12998062 -1.3826947 0.08733143
-2.4864726 -0.53931516 -0.7826325 -0.93143994 0.47176963 -0.48323116 -0.31428087 -3.3766687
3.5507104 3.271953 -0.25311303 -0.25096884 0.18829277 -0.24006821 2.7716327 -0.9659995
-2.1950524 1.1947689 -0.35759434 0.83595306 0.2534384 1.1093411 0.9249625 0.15566726
-0.39441627 1.078497 -0.5556972 -0.061860777 0.34224206 -0.09790319 -1.228152 0.803071
-1.397726 0.36153418 -0.9400543 0.18531434 0.4944277 0.18784443 -0.060681492 -0.2811274
-0.83807194 1.0449296 0.46538344 0.4512711 -0.41098696 0.14223793 -1.3044906 0.31757772
-0.6329466 -0.42054433 -0.2961868 0.78690326 -0.9907897 0.2593309 1.3076614 -1.2663112
0.009293237 -0.7420334 1.9025965 0.55479157 0.69655675 -0.2187914 -0.0044132993 -0.26515672
1.4424766 -0.42311195 -0.06929022 -0.5387667 -0.98527926 0.9298699 -0.30675933 0.39410025
-0.5788077 -0.6199262 0.3586046 -0.5886221 -0.79177654 0.16967882 0.098288566 0.18758671
-0.7431556 0.2844196 0.42068005 0.6119812 0.6868618 -1.6373502 -0.645102 -1.3741457
1.7398331 0.21484922 0.40475857 -0.7614835 -0.5355822 0.5210716 1.3212708 1.1773771
0.43734723 -0.6372499 1.7740086 -0.009674285 -0.09271135 0.16404176 1.065622 0.2583739
0.36571005 -0.41695297 -0.26503733 -0.67047185 -0.11543176 -0.07233206 -0.6279175 -0.16405843
0.5548422 0.6817626 0.90045696 -0.96699196 -0.047790647 -1.9359455 0.93028295 0.3886706
-3.0425706 0.13664132 -0.09327295 1.2080532 0.09295446 -0.17016277 0.96003616 -1.3426405
0.7391933 -0.9124453 -0.63444775 0.4235635 -0.5102461 -0.5292694 1.3656048 0.14406857
-0.18482164 -1.0598811 1.071675 -1.2197263 -0.8786437 -0.9491874 0.15586857 -1.1368569
0.24570066 -0.3837291 0.724557 0.47969615 -0.027688608 -1.2543519 -0.0051012672 -0.07008789
1.7399986 0.72803414 1.0899116 0.23243377 0.1550862 0.8364051 1.1456926 0.92621094
0.028974248 -0.89320964 1.1710813 -0.32498625 -0.21193035 -0.93556535 0.47874373 0.479233
0.8027322 0.26276422 -0.20779374 -0.54964024 -0.66811866 -0.37368742 -0.810393 0.34814468
0.7406814 0.9911376 0.33012876 -0.78334177 0.11843211 -0.87033737 -0.579924 -0.68947464
-2.7840977 -0.59873766 0.852217 1.4169132 0.16700155 -1.4359725 1.3631674 -0.6924534

bias f4 [128]
00000000: ad8d 853e 20bb e4bd 41ca 0fbf b055 52bd
00000010: ad77 59be 4122 28be 6197 213f 0cd2 25bf
00000020: af6b 4d3e 771e 603d 54ef 24bf 8850 853e
00000030: 5da6 6e3f bd2c 013d 256c 3bbd 8293 45be
00000040: 0598 153e f611 b33e 3527 febe 2258 44bf
00000050: 3f95 e13c 9841 903d 2185 47bf 95d5 e53e
00000060: 2104 803d c78e cdbf 04ac b0be 859f a5bd
00000070: f3d9 c93e a115 623d 9dec d83d 6b1e 4e3f
00000080: 94b0 093f aa2a 7e3f dfb5 b8bd af6f 92bd
00000090: 2c3a 1a3d 3659 53be a25b a63c f992 d7bb
000000a0: c886 b0bc 2061 863e 38ba 5abf afa7 8bbf
000000b0: 0c89 46bf 880c 433e 3171 033f c42e 093f
000000c0: cc20 a3bc 42a1 333e ac01 c13e 8c84 98bc
000000d0: a7d9 88be 6d1d e23d 0abb ce3f 514b d63d
000000e0: 9970 9f3d f7de 203f a94b b5bd ba5d d93e
000000f0: bf7e f33c 9c74 a13e 0bea b4bd beb7 e0be
00000100: 98ef 13c0 3717 8b3e 1fc9 79bc ecef b03d
00000110: 56a1 4e3e 1ce2 03be 6d75 a43e a2da c33e
00000120: eb68 4c3c 3548 863f 552e abbe 38ee bd3f
00000130: 77e5 4abd 08f3 f2bd a3ea 94bd a46c 6abb
00000140: fd6c 8ebe 59fd 83be 2c77 84be dc8c 413e
00000150: a9b4 5abe 5f11 32be 3822 04be 705b 2abd
00000160: b8f8 b23e e803 ebbd f99c b7be 7c60 fa3e
00000170: ab71 80bf f21e b23f a807 4e3e 46ec 81be
00000180: 8520 d8bc 1c86 00bf c600 213e 6de0 5c3e
00000190: ec81 fabe bb23 d8be 29ae 48bc 3743 8bbe
000001a0: e29b e83d 3662 cb3e 77fe 083e 790a aabe
000001b0: 692a e9bd 95f3 0ac0 ad09 7cbe 925d a43d
000001c0: ff10 5abf 13e6 063f 3279 8fbe 90dc bb3d
000001d0: f4f5 01be 66ba 9abe 909d febe 8329 b03c
000001e0: a9bb 05be 903b 813d 6de5 ecbe 50cf 273d
000001f0: 21e2 da3e 1cd1 a03e 6a53 26bf f1f9 873e
0.26084653 -0.11168504 -0.5616799 -0.05135125 -0.21237059 -0.16419317 0.6312161 -0.6477363
0.2006061 0.054716554 -0.64427686 0.26038003 0.932226 0.031536806 -0.04575743 -0.19294551
0.14608772 0.3497464 -0.49639288 -0.7669698 0.027536986 0.07043761 -0.77937514 0.44889513
0.062507875 -1.6059197 -0.34506238 -0.080870666 0.39424095 0.05519641 0.105920054 0.80515164
0.5378506 0.9928385 -0.09019064 -0.07150208 0.037653133 -0.206395 0.020307366 -0.0065788
-0.021548644 0.26245975 -0.854404 -1.0910548 -0.77552867 0.19047749 0.5134459 0.53586984
-0.0199131 0.17541984 0.37696588 -0.01861789 -0.26728556 0.11040769 1.615083 0.10463584
0.07785148 0.6284022 -0.08852322 0.4245432 0.029723523 0.31534278 -0.08833703 -0.43890184
-2.3114986 0.2716615 -0.015245705 0.086395115 0.20178732 -0.12879223 0.3212084 0.3825274
0.012476186 1.0490786 -0.33433786 1.4838324 -0.04953524 -0.11862761 -0.07271316 -0.0035770321
-0.27817526 -0.25779226 -0.2587217 0.1890139 -0.21357979 -0.17389439 -0.12903678 -0.041591108
0.34955382 -0.114753544 -0.35861948 0.48901737 -1.0034689 1.3915694 0.20120108 -0.25375575
-0.026382694 -0.50204635 0.15722951 0.21569987 -0.48927248 -0.4221476 -0.012248554 -0.27199718
0.11357857 0.39723366 0.1337832 -0.33211115 -0.11385042 -2.171117 -0.24613066 0.080256596
-0.85182184 0.52694815 -0.28022152 0.09172928 -0.1269148 -0.30220336 -0.49729586 0.02150417
-0.13059868 0.06310189 -0.46268788 0.040969193 0.42750648 0.31409538 -0.6497103 0.26557878

weight f4 [64, 128]
00000000: 1fd3 1d3f 7c4c 13bf fe6c 5ebf b174 953f
00000010: 21c6 bbbf 597b 993f 6299 e3bf 735b 44bf
00000020: 0caa aabf 33fa d9bc 5e25 0440 c255 1abf
00000030: 3ee2 1740 3a93 fe3e fdb9 b93f 8262 92bf
00000040: 1076 15c0 a8dd 3bc0 b77c 22bf 3fbf a3bf
00000050: f70e e4be 76fb 8d3b 2fdc ee3e 8be1 9c3f
00000060: f212 f83f 5ad6 17be 316d 403f dd6a ef3f
00000070: 896e 3bbf f3dc 20bf 2dd7 24be 40e3 1bbf
00000080: 90f7 80bf 87fc 253e c35f aa3f fa1c 223f
00000090: d02a eabe 37a5 dc3e 2523 6dbf 7e7e debf
000000a0: d932 2e3e ddb1 b0bf ac49 3740 03e9 783f
000000b0: 3184 10c0 918e 83bf 60f1 23c0 fae2 18bf
000000c0: 10ec 04bd bebe 6cbe 2026 3fbf 5f67 e73f
000000d0: c5f2 f6be a6d4 2d40 56e2 8abf dea1 b6bf
000000e0: 3884 463c 8c4d 223e c376 ecbe 2027 f83f
000000f0: 1faf 7ebc bfdf 5640 6c42 b63f 0fe5 9e3f
00000100: a34b 01bf c626 173f 9e1e b13f fc7f 27c0
00000110: 31ce 38be 95e0 adbf 99f5 0440 f934 2440
00000120: 7b41 3140 10ca 4bbf 334b 1940 76f5 e1be
00000130: 5d5e 12c0 ab77 223f e2dc 47c0 f458 7540
00000140: 6b0d 873d 1df4 1a3f 6d94 d3c0 cf23 2c3e
00000150: 82c4 afbf 5113 70bf af1a 9a3f 7e33 c0bf
00000160: 4f27 533f bd81 8bbf 1072 383f 3e79 e2bf
00000170: 472d 08c0 af17 3340 24c3 afbf 22f3 803f
00000180: 9a46 923f 9e77 2940 fbaf 913f 9904 9b3f
00000190: e759 b43f ba68 ff3f 7234 be3f 2dbd 7bbf
000001a0: 5bd8 86be 9f1a 72be 53af b13d ae00 8cbf
000001b0: 1df2 373f 0524 c4bd cf39 893f d706 7f3f
000001c0: b14a 9640 9a94 ee3d 060c 3bc0 2fda 48bf
000001d0: 8bb0 ca3f e257 1fbe fdc7 5e3f 0bd9 443e
000001e0: ae7b 823f cfe8 d4bf 6840 08c0 9ebe b43e
000001f0: 53ce a83f 1db8 71be 2316 5740 cb79 733f
00000200: f562 2ebf 6beb b23e a536 b7bd a6a2 a43f
00000210: 1eaa 393f 5b73 9ebf e354 9abe 7c0c 96bf
00000220: 5eaa 683f 08c0 d5bf d48f 0c40 6f3e b13c
00000230: 2ec8 acbf 76ad a83f 191a 54bf db4e 8bbf
00000240: 4080 7c3f 91d4 bebf 489f c93e 1aa3 4c40
00000250: 8062 e23e 7fb9 10bf ad2f b3be 2583 7cbe
00000260: 8c36 a73f 2d11 f73e ef62 a53f ff43 2fc0
00000270: d17e bebe 1714 203f d95b 76be ffb1 3dbf
00000280: 3564 8c3e 1003 02bf b11f 773f b8cf de3f
00000290: 8a01 3e3f 561a 46bf c5e0 2140 edc0 dabf
000002a0: 937c 8b3f c86c 7ec0 3ff5 0540 1e35 963f
000002b0: 9241 c23e 5b71 89c0 e0ea 44be a4b0 b73e
000002c0: c1cd 813f c154 b43e 1fdb eabf 6745 d9be
000002d0: 006f 39bf 4b21 8a3f 77ef 7c3f 4e95 dcbf
000002e0: 3166 b9bf 5824 6fbf 1062 303e 9668 983f
000002f0: cc51 02bf ac70 d2bf 1084 d9bf f142 c73f
00000300: 0468 aa3f f978 adbd e4d2 49bf 296a 73bf
00000310: c270 7e3f 8de4 0d3f 8a64 17bd 834a 953f
00000320: 0e3d 0140 e13a 9fbf d3b2 b23f 23a9 b5bf
00000330: 1eb8 cbbf 4e4d ad3d 7539 0cbf 5e5d 3c40
00000340: fb2b 8cbe f501 3b40 733f b5c0 fac4 d23e
00000350: b859 863f 34ef 153e a91e 373f 3386 d0bf
00000360: 7817 76bf 2b61 30c0 e397 f43c cf61 55c0
00000370: 0c76 8a3f c3e3 95be f901 2ebf eb4f 953e
00000380: 606c c03b 5ef1 ecbe ced1 083e 5fdb d2bd
00000390: 0cf0 84bd 8558 293f 5527 a33f 1560 44c0
000003a0: e0c7 f5bf 0810 023f 85bd 2a40 3bdc 18be
000003b0: 2e87 913f 7936 4a3f d807 a5bf bb6c e63f
000003c0: 64a3 07bf 53d3 dfbe 54ab d03e 94e5 473f
000003d0: cbf3 823e 6c14 3c3f cfaa e7be 2d6e 65bd
000003e0: dff9 8c3e 2e1b e0bf 7216 ff3e 6dd5 7ebf
000003f0: 5272 dfbe 9e32 613e ed88 e5be e938 493f
0.6165027 -0.5753858 -0.8688506 1.1676236 -1.4669839 1.1990768 -1.7781184 -0.7670204
-1.3333144 -0.026608562 2.0647807 -0.60287106 2.3731837 0.497217 1.4509884 -1.1436312
-2.335331 -2.9354038 -0.6347155 -1.2792739 -0.44542667 0.004332955 0.46652362 1.225633
1.9380782 -0.14827862 0.7516661 1.8704487 -0.7321554 -0.6283714 -0.16097708 -0.6089363
-1.007555 0.16209613 1.3310474 0.63325465 -0.45735788 0.430948 -0.9263175 -1.7382352
0.17011584 -1.380428 2.8638716 0.9723055 -2.2580683 -1.0277883 -2.5616074 -0.5972134
-0.03245169 -0.23119637 -0.7466755 1.8078421 -0.48232093 2.716104 -1.0850322 -1.4268148
0.012116484 0.15849894 -0.46184358 1.938694 -0.015544682 3.3574064 1.423902 1.2413653
-0.5050604 0.5904354 1.3837469 -2.6171865 -0.18047406 -1.3584162 2.07749 2.5657332
2.7696216 -0.796052 2.3952148 -0.44132584 -2.2870095 0.6346385 -3.1228566 3.8335543
0.06594356 0.6052874 -6.6118684 0.16810535 -1.3731844 -0.93779474 1.2039393 -1.5015714
0.82481855 -1.0898968 0.72049046 -1.769325 -2.1277635 2.7983205 -1.3731427 1.0074198
1.1427796 2.6479259 1.138183 1.2110778 1.4089936 1.9953835 1.4859755 -0.98335534
-0.2633694 -0.23642968 0.086760186 -1.0937707 0.7185381 -0.09577183 1.0720767 0.9961981
4.6966176 0.11649437 -2.9226089 -0.7845792 1.5835127 -0.15560868 0.8702391 0.1922342
1.0193994 -1.6633548 -2.128931 0.3530168 1.3187965 -0.2360539 3.360726 0.95107716
-0.68119746 0.34945235 -0.089459695 1.2862136 0.72525203 -1.2378954 -0.30142888 -1.172256
0.9088496 -1.6699228 2.1962786 0.021636216 -1.349859 1.3177936 -0.8285232 -1.088344
0.98633194 -1.490862 0.39379334 3.197455 0.44215775 -0.56533045 -0.3499731 -0.24659403
1.3063521 0.48255292 1.2920817 -2.7385252 -0.37206128 0.62530655 -0.24058475 -0.74099725
0.27420202 -0.50785923 0.9653273 1.7407141 0.742211 -0.77383935 2.5293438 -1.7090126
1.0897392 -3.9753895 2.0930936 1.173496 0.3794065 -4.2950873 -0.19230223 0.35876954
1.0140916 0.35220912 -1.834812 -0.42435762 -0.72435 1.079141 0.98802894 -1.7233064
-1.4484311 -0.9341483 0.17224908 1.1906917 -0.5090606 -1.6440635 -1.6993427 1.5567304
1.3312993 -0.08470339 -0.7883742 -0.9508386 0.99390805 0.55426866 -0.036961116 1.1663364
2.0193515 -1.2439843 1.3960823 -1.4192241 -1.5915563 0.0846201 -0.5477517 2.9431987
-0.27377304 2.9219944 -5.6639953 0.41165906 1.049613 0.1464203 0.7153116 -1.6290954
-0.9612956 -2.7559307 0.029857581 -3.3340948 1.0817275 -0.2927533 -0.6797176 0.29162535
0.0058722943 -0.462779 0.13361284 -0.10295748 -0.06491098 0.66150695 1.2746378 -3.0683644
-1.9201622 0.5080571 2.6678174 -0.14927761 1.1369379 0.7898937 -1.2893019 1.8001932
-0.5298369 -0.43715915 0.40755713 0.78084683 0.25576624 0.7346866 -0.45247504 -0.056013275
0.27534387 -1.7508295 0.49821812 -0.9954441 -0.43641907 0.21991965 -0.4483103 0.78602463

bias f4 [64]
00000000: 203c 0dc0 d560 2ec0 4556 19bf db42 c7bd
00000010: fbef 31bf 885f 193e c042 86bd 2bda 3bbf
00000020: c97d 26bf f316 a4bf c61a 213f e040 54bf
00000030: f5f0 7e3d 0ab9 08c0 71fe 99bf 3363 12bf
00000040: 1ab6 a4c0 126e 2bbf 4ba4 d1bf de3b 6fbf
00000050: 6dae 9ebf 368f 3fbf 2d72 d2be e0ca a8bf
00000060: a8f9 93be b29b 063f 9455 9bbe f356 c2bf
00000070: 61c1 9fbe 21c7 73be e5c8 a0be 6984 02bf
00000080: 2ec0 efbe 2471 9abf 3522 a9bf 9b11 51bf
00000090: 5953 00c0 9574 9bbf 71cc 25bf 51be 1b3f
000000a0: cf84 07bf 6b7e d3bd acaa 003f ec2f 79bf
000000b0: 06c8 a7be 9b2e a3be c498 6abf d622 313f
000000c0: b7f9 aebf efea 41be 6af1 17bf d14d c6be
000000d0: d636 97bf dfc5 25bd db1b 90bf 0a4d 83bf
000000e0: 98a0 1bc0 83b2 27bf 8985 a5bf 58e3 c7bf
000000f0: 1dea 57be 99ad a9bf 5e60 06bd 5889 9fbf
-2.2067947 -2.7246602 -0.5989726 -0.097295485 -0.69506806 0.14977849 -0.065557 -0.7337977
-0.6503568 -1.2819504 0.6293148 -0.8291149 0.062241513 -2.136294 -1.2030774 -0.57182616
-5.147229 -0.6696483 -1.6378263 -0.93450725 -1.239698 -0.748279 -0.41102734 -1.3186913
-0.2890141 0.5258132 -0.30338728 -1.5182785 -0.31202224 -0.2380643 -0.3140327 -0.5098329
-0.4682631 -1.2065778 -1.3213564 -0.8166749 -2.0050871 -1.2144953 -0.6476508 0.60837275
-0.52937025 -0.10326847 0.50260425 -0.9733875 -0.32769793 -0.31871495 -0.9163935 0.6919378
-1.3669957 -0.18937276 -0.59352744 -0.38731244 -1.181361 -0.040471908 -1.1258501 -1.0257885
-2.4316769 -0.6550676 -1.2931377 -1.5616255 -0.21085401 -1.3256103 -0.032806747 -1.2463789

weight f4 [64, 64]
00000000: e8a4 fb3f 5002 a940 a83a 44c1 6ba9 263e
00000010: e80b 84c1 b89e 863e 50d4 923d fcea 23c1
00000020: cd97 7cc0 2b50 13c1 8850 913c e8bd 9cc0
00000030: f3fa bfc1 2aa0 6c3e dbf4 0a40 02f6 ec3d
00000040: 405a a3c0 b347 013f 37e6 2d3f 98f8 dcc0
00000050: fe8f 53c0 a493 843f 6991 ae3e da8f ecc0
00000060: 43fc 9d3f 87dd 89bf 449d 563e 2842 b63f
00000070: 85e4 12c2 c2be b73e 4ab3 8ac0 e5b2 2bbd
00000080: 447c 0b3e 31eb 0c40 7ad3 02c1 91bd 4ac1
00000090: f938 85c1 9454 573e 59a1 8fc1 25ab b43e
000000a0: 3505 85c0 eecb 84c1 482b 453e 0d4f 24c1
000000b0: 6b4e 933e b626 603e fc2d ddbe 0eeb d33e
000000c0: fa5e 7c3e 3934 4f3e bfc9 923f 213d 193f
000000d0: 31c8 ec3d 54ac 66c1 9b2b af3e ae1a 2ec1
000000e0: ee72 2940 6c34 46c1 eccf 53c1 6dce b1c1
000000f0: b74d 20c1 578d 0340 c8d3 3e3f cf6a 32c0
00000100: 07c2 1ac1 3c20 86c1 829f 44c0 fe92 aa3e
00000110: 324f 7dc1 8163 893e 8446 4b3d b7ce 9f40
00000120: c7c0 323f 6c74 a7c0 d54f 12be 57d1 613d
00000130: 870a b3c1 8a64 843f 4388 ec3f d1d8 f53d
00000140: 2f3c 5640 c7a1 093f 9db3 323f 55ca 36c1
00000150: 26a4 bec0 54a6 19c0 d375 3a3e f982 06c1
00000160: 30e3 d3bf 1ab5 133f b12b 5c3e 608f b33f
00000170: 922b 96bd 14e8 7f3e 0c56 acbf 2a1a 203e
00000180: d7bc 5b3e a3a7 83c0 c4d7 2ec1 cee0 10c1
00000190: 7000 e7c1 44dd 473e 7a07 a63f 9389 7b3e
000001a0: 3741 21c1 f003 f9c1 9d95 463e 5674 35c1
000001b0: ab46 883e dfa5 843e c57a e23f 4893 a3be
000001c0: 8aca 833e 4740 323e 28db 62c1 24b4 9dbe
000001d0: d629 913e 62a2 973f 02ea e93f b374 b0c0
000001e0: 5887 1ec0 033b 81c1 83f7 a4c1 2f49 8ebf
000001f0: 01be 19c1 4b38 0540 6a22 b5c0 a0d5 8dbf
00000200: 6fc0 e23f 7075 fbc0 3def 12c1 33db 683e
00000210: 0fc8 01c2 70d2 a13e a378 423d b548 e7c0
00000220: e9e0 683f c9bc 323f 1f83 bbbe 7af1 a2bd
00000230: 9d08 1cc2 8680 19c2 7fca 00c2 a101 fc3d
00000240: 8caa c3c1 054f 143f 17c3 f0be b058 93c1
00000250: 54be f2c0 eeb1 843f 9334 203e 1408 2840
00000260: a307 cd3e d1ee 103f cb4b 463e 9dc8 b33f
00000270: 4c1a e2c0 da9a 9abd 1cd3 25c0 f031 bf3d
00000280: 36e3 903e ad02 66bf ec8e 3740 1251 ebc0
00000290: 51eb 0fc2 3902 323e 7416 d0c1 8cf4 abbd
000002a0: 46a6 6540 d8ad 43c2 08a9 3e3e 4094 c5c1
000002b0: b781 8b3e 84c9 143d 7f4a c53f 51f4 8c3e
000002c0: a9d3 903e 8cb9 3b3e c9a9 483f 2796 e4be
000002d0: 6fe9 f03d 1d64 d0bf 1a40 f03f e87e 1dc1
000002e0: 5ad1 0c40 98d0 4840 8491 dfc1 f956 30c2
000002f0: 9964 6bc1 ad01 09c1 e59e 7cc0 92b6 2bc0
00000300: 8199 f6c0 a66f 0dc1 03b3 17c1 7875 8a3d
00000310: c353 9cc1 bb5a 823e 412c 143d 74e1 9fc0
00000320: c996 5a3f 6b9d 893f 931c c8be 5934 4cbe
00000330: bcb4 26c2 9864 83c0 55d4 fc3f b943 043e
00000340: ccb7 5740 8261 0e3f 3104 2b3f 9a38 bac1
00000350: ab89 83bf 9e9c 57c0 9013 db3d a705 95c0
00000360: c9e0 31c1 41b5 0b3f 5c2d 453e e966 b43f
00000370: 6d51 513f 7780 fbb9 5e47 5ac0 eb90 0a3d
00000380: 4092 883e c4d5 f0bb 185a 3040 ce64 17c1
00000390: 2581 ecc1 5093 2e3e f026 12c2 4632 8f3e
000003a0: 814d 093f 0562 d7c1 ab70 383e 2fce da3f
000003b0: 9134 8e3e 6cb6 65be 2fb4 d43f 3eb1 9abe
000003c0: b324 863e 42e1 4c3e eb3f 8a3f 3198 bd3e
000003d0: c2d4 a5bd eedc 6a3f c8d8 56c1 f9f0 4ec1
000003e0: fc43 17c1 4c75 52c0 25fe bb3f 3a89 2cc2
000003f0: f936 84c0 b07d 46c1 3af2 463f 1681 c4bf
1.96597 5.2815323 -12.26432 0.16275565 -16.505814 0.26292968 0.07169402 -10.244869
-3.9467652 -9.207072 0.017738596 -4.898182 -23.997534 0.23107973 2.1711948 0.1157036
-5.104767 0.5050003 0.67929405 -6.905346 -3.3056636 1.0357556 0.34095314 -7.39256
1.2342609 -1.077073 0.2095843 1.4238939 -36.723164 0.35887724 -4.334386 -0.041918654
0.13621622 2.201855 -8.17663 -12.671281 -16.652819 0.21028358 -17.953783 0.35286823
-4.1568856 -16.599575 0.19254792 -10.2692995 0.28770766 0.21889767 -0.43199146 0.4139027
0.24645606 0.20234765 1.1467818 0.598589 0.11561621 -14.417072 0.34212956 -10.881514
2.6476398 -12.387798 -13.238262 -22.225794 -10.018973 2.0555017 0.745419 -2.787769
-9.67237 -16.76574 -3.0722356 0.3331527 -15.831835 0.26833728 0.049627796 4.9939837
0.69825405 -5.2329617 -0.14288266 0.055131283 -22.38014 1.0343182 1.8479084 0.12004245
3.3474233 0.5376248 0.6980532 -11.424397 -5.9575377 -2.4007769 0.18209009 -8.406976
-1.6553707 0.57698214 0.21501042 1.402813 -0.07332529 0.24990875 -1.346376 0.15634981
0.21458755 -4.1142135 -10.927677 -9.054884 -28.875214 0.19518 1.2971032 0.24564199
-10.078422 -31.126923 0.1939301 -11.340902 0.26616415 0.259078 1.7693716 -0.31948304
0.25740463 0.17407332 -14.178505 -0.308015 0.2835223 1.184643 1.8274539 -5.5142455
-2.4770107 -16.153814 -20.620855 -1.1116084 -9.608888 2.0815609 -5.660451 -1.1080818
1.7714976 -7.8580856 -9.183408 0.22739868 -32.44537 0.31605864 0.04747833 -7.2276254
0.90968186 0.69819313 -0.36623475 -0.07956214 -39.00841 -38.37551 -32.19775 0.12304998
-24.458275 0.57933074 -0.47023842 -18.418304 -7.5857334 1.03668 0.15645055 2.625493
0.4004489 0.56614405 0.1936485 1.4045597 -7.06571 -0.07549067 -2.59101 0.09335697
0.28298348 -0.8984783 2.8680983 -7.3536463 -35.9798 0.1738366 -26.010963 -0.08396253
3.5882735 -48.91977 0.18619168 -24.697388 0.27247402 0.036324993 1.5413359 0.2753015
0.28286484 0.183325 0.7838407 -0.44645807 0.11763274 -1.6280552 1.8769562 -9.843483
2.2002778 3.1377316 -27.946053 -44.084934 -14.71206 -8.562909 -3.9471982 -2.6830182
-7.7062383 -8.839758 -9.481204 0.06760687 -19.5409 0.25459847 0.036175016 -4.996271
0.8538633 1.0751165 -0.390843 -0.19941844 -41.6765 -4.1060295 1.9752299 0.12916459
3.370593 0.55617535 0.6680327 -23.277637 -1.0276388 -3.3689342 0.106970906 -4.65694
-11.117379 0.54573447 0.19255584 1.4093906 0.8176487 -0.00047970164 -3.410606 0.03382961
0.2667408 -0.0073497016 2.755499 -9.4621105 -29.563059 0.17048383 -36.538025 0.27968043
0.53633887 -26.922861 0.1801173 1.7094172 0.2777448 -0.2243287 1.6617488 -0.3021335
0.26199874 0.20007804 1.0800756 0.37030175 -0.08097221 0.9174336 -13.427925 -12.933831
-9.454098 -3.2884092 1.4686934 -43.13401 -4.1317105 -12.405685 0.7771336 -1.5351894

bias f4 [64]
00000000: 6918 96c0 26f6 5ec0 a7fb fb3f 6c8d d33f
00000010: f0a7 ab3f 084a 3e40 12c2 54c0 8cb2 b1c0
00000020: b1b5 e3bf 8949 e1bf 4878 7d3f 748f 2840
00000030: cc2a 2240 ed1a 873f 2298 24c0 f9b1 8ec0
00000040: 0082 b2ba 5554 ac3e 8c2f 4240 d85b 44c0
00000050: d698 abbf 9d75 4140 6faf 0540 a5be bb3f
00000060: c1f5 873f 6ad2 da3f 1fcf 8b40 0b1e a7c0
00000070: 5b58 a5c0 77c1 4240 d6fc fb3f b167 8b3f
00000080: 16fb 923f 2706 a53f 717b 223f 8d3b a5c0
00000090: bb5a a3c0 b881 1c3f 7ac3 68be 74a8 0a40
000000a0: 13b7 3b3f a530 943f a222 4c40 74a6 7f40
000000b0: bcf6 8fc0 aaee 2d40 5261 d73f b271 8e3f
000000c0: 8559 b2c0 b25a 45c0 1b5a 7ebf c45e 0e40
000000d0: 1c34 633f 652c 59be bbb1 f4bf bc3e 09bf
000000e0: bacf 45bf 9204 0ec0 c38d 91be 4605 c23e
000000f0: 3961 393f 56e9 673f aa1d 07c0 59e0 c8c0
-4.6904798 -3.4837737 1.9686173 1.6527534 1.3410625 2.9732685 -3.324345 -5.5530453
-1.7789823 -1.7600566 0.9901166 2.6337557 2.533862 1.0555092 -2.5717854 -4.459225
-0.0013619065 0.3365809 3.034152 -3.0681057 -1.3406017 3.0228035 2.0888326 1.4667555
1.0621873 1.7095463 4.3690333 -5.2224174 -5.1670356 3.0430582 1.9686534 1.0891019
1.1482875 1.2892503 0.63469607 -5.1635194 -5.1048255 0.61135435 -0.22730818 2.1665316
0.73326224 1.1577345 3.1896138 3.9945345 -4.498869 2.717692 1.6826575 1.1128447
-5.5734277 -3.0836606 -0.9935624 2.224534 0.8875139 -0.21208341 -1.9116739 -0.5361135
-0.7727009 -2.219029 -0.28428468 0.37894648 0.72413975 0.9059042 -2.1111856 -6.277386
