pth/takada_model_15.pth (torch, 119448 bytes, 6 tensors)

weight f4 [128, 128]
000000 fb 5b 6b 3e 9f 90 3e be bd c3 7b be a4 b1 03 3e
       0.22984307 -0.18609856 -0.24586387 0.12860733
000010 0f ca 3e 3c b7 bb 5b 3e fb 03 67 bf bc f3 2b 3f
       0.011644854 0.21458326 -0.9024045 0.67168784
000020 32 56 2a be 77 d5 1e bf 8b 42 8f be da fe 10 bf
       -0.16634443 -0.6204447 -0.27980456 -0.5663887
000030 85 1e da bc 3d 27 d4 be 83 82 98 be c4 34 12 3e
       -0.026625881 -0.41436186 -0.29787073 0.14277941
000040 07 c2 04 3e d2 d1 6e be d0 44 20 3e ae 1c 53 3e
       0.1296464 -0.23322228 0.1565125 0.20616409
000050 3e c1 68 bd a9 99 f3 bd 59 09 06 bf 3e 9d d9 3e
       -0.056824915 -0.11894543 -0.52358013 0.4250278
000060 da 6a e0 be a7 26 42 3e ff d2 9e be e0 93 38 be
       -0.4383152 0.18960057 -0.31020352 -0.1802516
000070 a8 2d 49 bb 0d 4b 83 3d 8f ff 6d 3d 9e d4 d5 bd
       -0.003069738 0.06410799 0.058105048 -0.10440944
000080 7c 6f 81 bd da 74 44 3e 63 9b 2b bd a8 6c 98 bd
       -0.06320092 0.191852 -0.041896235 -0.074425995
000090 a7 d2 49 be 71 23 09 bf 10 b8 14 3f 93 26 6d be
       -0.19709264 -0.53569704 0.5809336 -0.23159246
0000a0 31 05 d6 bc c8 e5 90 be 95 23 ca 3e ba fd ae be
       -0.026125522 -0.2830031 0.39480272 -0.34177953
0000b0 ab 28 7b be 64 b7 47 be 4f d3 fa be 1a 4d a5 3e
       -0.24527232 -0.19503552 -0.4898934 0.32285386
0000c0 10 0a e6 3d ca c4 e2 3d 0a 65 78 bd 5e f0 c1 bd
       0.11232388 0.11072691 -0.060643233 -0.094696745
0000d0 ab 7f 2b 3e a1 0d 9b be 34 b2 3b 3f 0d 1f db be
       0.1674792 -0.30283836 0.7331879 -0.42797127
0000e0 4c a4 d9 3d 72 f5 93 be d1 50 5b be 03 6f a1 3c
       0.1062704 -0.28898197 -0.21417548 0.019706255
0000f0 c5 85 bc 3c 64 89 54 bd 5e 88 30 be 0b 73 85 be
       0.023013005 -0.05188884 -0.1723952 -0.26064333
000100 2e 0c ec 3d 8a e2 b2 be 21 59 03 be cc fd 91 3e
       0.115257606 -0.3493846 -0.12826969 0.28513944
000110 72 61 56 3e 21 9c 17 3f 73 1b 58 bf a3 6d 7a 3e
       0.2093561 0.5922261 -0.84416884 0.24455886
000120 36 b0 21 3d 94 2f 9d be 9d 9c 2b be 90 cb cc bd
       0.03947469 -0.30700362 -0.16758962 -0.09999764
000130 3c 2d a7 bd 8b fc 93 be 9d de 74 be 17 57 78 be
       -0.08162925 -0.28903612 -0.23913045 -0.24251972
000140 2f b9 96 3e 9a fd 86 be 8f bc e8 3e 22 22 97 3e
       0.2943816 -0.26365358 0.4545636 0.2951823
000150 75 3f 29 be 22 b1 4b 37 87 49 42 bf 52 e3 dd 3e
       -0.16528113 1.2140985e-05 -0.75893444 0.43337494
000160 ee 06 16 bf 8f 63 d0 3d 85 5b e5 be ad e6 96 3c
       -0.58604324 0.10175239 -0.44796386 0.018420542
000170 d6 2a 75 bd 52 31 9d 3c 15 53 0c 3d f0 59 e1 bd
       -0.059855305 0.019188557 0.03425892 -0.11003482
000180 17 86 fc bd 3b f1 9f 3e 0e b8 9a bd be f9 33 3d
       -0.12330263 0.31238732 -0.07554637 0.043939345
000190 62 7c 58 bc b5 71 e2 be be 83 1b 3e ff 60 b2 be
       -0.013213249 -0.44227377 0.15186974 -0.34839627
0001a0 44 d4 03 3e 49 2e ec be d6 df 7c 3e 55 2d 1b bf
       0.12873942 -0.46129063 0.24694762 -0.60616046
0001b0 e7 a9 09 be 3b eb 61 be 0d 55 c0 be cf 95 9b 3e
       -0.13443719 -0.2206239 -0.3756489 0.30387732
0001c0 b5 ad a0 3d 04 4e 83 bd 2f 81 09 bd a6 3e 8a bd
       0.07845632 -0.06411365 -0.033570465 -0.067502305
0001d0 0a 64 01 3a 9d f7 c0 be 6d d9 1c 3f 6f 1c 31 bf
       0.00049358665 -0.37688914 0.61269265 -0.6918401
0001e0 41 e2 28 be 62 00 ce be cf 2c e0 bd 6e 0e 39 3d
       -0.16492559 -0.40234667 -0.109460466 0.045179777
0001f0 9f 92 35 3e 32 71 f5 3d ff 82 51 bd 40 38 dd bd
       0.17731713 0.11984481 -0.05115032 -0.108017445
000200 39 ef dc be 90 7f c5 3e 10 8b f7 be 08 6d 9f be
       -0.43151262 0.38573885 -0.48348284 -0.31137872
000210 13 0d 1e 3f 4f 95 10 bd 47 0b 2c be fa 82 38 3f
       0.617387 -0.03529864 -0.16801177 0.72074854
000220 83 cc 1b be 62 2c d4 be b4 b2 50 3e 7c 81 c1 3e
       -0.15214734 -0.4144011 0.2038067 0.377941
000230 ba 4a a1 be a9 8f 8b be 7f c6 4f be 51 ae 0f 3e
       -0.31502324 -0.27258042 -0.20290564 0.1403134
000240 9e ae 2a 3f 15 20 f6 be ee 4e 2d be fd e0 a3 be
       0.66672695 -0.48071352 -0.1692464 -0.3200759
000250 af ea 50 be 60 5f 0c bf 31 08 c5 3e f7 b1 9f 3d
       -0.20402025 -0.5483303 0.38482812 0.07797616
000260 9c b8 a8 3e 32 35 2c 3e 66 d4 72 3e 3f f7 a3 be
       0.32953346 0.16817167 0.23713836 -0.3202457
000270 91 a2 e4 bd c9 b4 b7 be 79 7f 4b be 4f 63 1e bd
       -0.111638196 -0.35880116 -0.19872846 -0.038668927
000280 c8 4d 56 be b4 9e 5b be 64 50 19 bf c8 0f 90 be
       -0.20928109 -0.21447259 -0.5988829 -0.2813704
000290 3d 7d 91 be 2e 1a 0c 3e 65 65 c2 bd bc 14 4b 3d
       -0.28415862 0.13681862 -0.09491996 0.04958032
0002a0 c7 f0 29 bd b4 52 35 3e 46 f4 44 bd e0 d9 32 be
       -0.04148939 0.1770733 -0.04808452 -0.17465925
0002b0 0a 95 1f bd c3 ac 06 3d 92 6a 05 be bc e3 29 bf
       -0.038960494 0.032879602 -0.13028935 -0.6636312
0002c0 56 13 bf be b5 92 1a 3e c5 4f c5 be 4e a0 5e be
       -0.3731944 0.15095027 -0.38537422 -0.21740839
0002d0 13 d3 a8 3e 63 80 bc 3e 7b ce 25 3e 58 0b 71 3e
       0.32973537 0.368167 0.16192047 0.23539484
0002e0 67 7f f3 3e 5c 46 10 3f 55 8e 58 3d 8c 5c 2f be
       0.47558138 0.5635736 0.052870113 -0.17125148
0002f0 4e 0d 4b bd d5 c9 78 be 48 a5 57 be 00 6c 7d bf
       -0.049573235 -0.24295743 -0.21059144 -0.9899292
000300 03 d5 a8 be c0 a7 33 be 40 76 69 be cb ad 6a be
       -0.32975015 -0.1754446 -0.22799015 -0.2291786
000310 4c 44 fe 3e 6c 64 3d 3e 25 e4 37 bf 29 78 13 3f
       0.4966148 0.18495339 -0.71832496 0.57605225
000320 ea e5 5d 3e da 46 d9 be b5 36 cf 3d ba bc 8f bd
       0.21669737 -0.42436868 0.101178564 -0.070184186
000330 22 a2 8a be 32 e2 1f bf c4 3d 22 3e ab 49 77 be
       -0.27076823 -0.6245452 0.15843874 -0.24149196
000340 7b 04 d9 3d 0b 6a 02 bf 8a ca a5 bd 0b e4 b7 be
       0.10596558 -0.5094306 -0.08095272 -0.3591617
000350 5e e0 c7 bd a4 cd 13 bf 42 e6 e5 3e be 1a 50 3e
       -0.097595915 -0.5773566 0.44902235 0.20322701
000360 e3 ce 81 3d b7 ca 86 3d 11 c0 98 bc 70 f0 e2 bd
       0.06338289 0.065816335 -0.018646272 -0.11081016
000370 2a 13 18 be b6 0f a8 be cf 34 cc be 4c 16 aa 3e
       -0.1485106 -0.32824486 -0.3988404 0.33220136
000380 23 5f f8 be 30 73 28 bf f9 b5 e4 be c1 ea 06 bc
       -0.48510084 -0.6580076 -0.44670084 -0.008234681
000390 9a d1 20 be b9 8c 96 3e 3b bd 02 be 84 24 e6 3c
       -0.15704957 0.29404238 -0.12767498 0.028093584
0003a0 d1 9f d0 3d 8b 70 b8 3d d6 be 37 be ef 64 b2 be
       0.101867326 0.09005841 -0.17943892 -0.3484263
0003b0 28 fe 6c be 1d 6a a2 be 4b 13 32 3e 10 d6 a5 be
       -0.23143828 -0.31721583 0.17390172 -0.3238988
0003c0 32 2d 42 bf e7 8e 02 be b0 58 28 bf c8 e4 17 bf
       -0.7585021 -0.12749825 -0.65760326 -0.5933347
0003d0 e5 79 70 3d 83 e7 b5 3e 33 49 14 3f b6 7d ce be
       0.058709998 0.35528192 0.57924193 -0.40330285
0003e0 08 35 3e be 41 eb 4a be f7 27 eb bc 54 58 87 be
       -0.18574917 -0.19816305 -0.02870558 -0.26434577
0003f0 e0 4a c2 3c 98 9e a7 be 67 35 4e be 7b 76 02 bf
       0.023717344 -0.32738185 -0.20137559 -0.50962037

bias f4 [128]
000000 37 4b 08 be b5 44 f3 bd 52 8f 1c 3e 20 75 5e be
       -0.13309942 -0.11878339 0.15289047 -0.21724367
000010 25 57 c0 bb af f0 95 3e df 02 e9 bc 2d 27 08 3e
       -0.0058697634 0.2928519 -0.028443752 0.13296194
000020 a5 0d 59 3e 36 63 de 3d d1 0e c8 3d b0 35 90 bc
       0.21196611 0.10858767 0.09768451 -0.017603725
000030 dd c2 65 3d 9e e4 98 bc 58 fb 50 bd ef d1 29 bd
       0.05609404 -0.0186637 -0.05102095 -0.041459974
000040 a1 3f 08 3e 2e 2d 1d be 31 56 0c be 05 86 a1 bc
       0.13305523 -0.15349266 -0.13704754 -0.019717226
000050 55 83 19 be 4d ca bb bc 45 78 4d be bb db 1e be
       -0.14991505 -0.022923613 -0.2006541 -0.15513508
000060 13 68 24 be 84 73 14 be 53 f9 e6 3d dd 03 76 be
       -0.16055326 -0.1449719 0.112780236 -0.24024911
000070 c9 e8 a0 3d ef 6d c7 3d 96 3e 17 be 3e 17 49 3e
       0.078569 0.09737765 -0.14769968 0.19637772
000080 d2 63 aa 3d 71 2a 1e be 4a e6 0d be 3c 56 0d bd
       0.083198205 -0.15445878 -0.1385738 -0.034506068
000090 33 0d 34 3e 4f 6f 9c bd f4 f2 2c be d6 55 35 bd
       0.1758316 -0.07638418 -0.16889554 -0.044271313
0000a0 36 67 78 3e 3f e0 47 3d bf 0b c7 bd 66 25 c2 3d
       0.24258122 0.048797842 -0.09719037 0.094797894
0000b0 05 f8 2c 3e fb 68 9d bc 23 ed 97 bd d2 0f 2c be
       0.16891487 -0.019215098 -0.07418277 -0.1680291
0000c0 a0 ff 53 3d d3 6d e2 3d 26 b3 cc bd da c4 55 3d
       0.051757455 0.110561036 -0.09995107 0.052189685
0000d0 fa e3 d5 bc 42 bc 55 3e 46 6b 3c be fb 4e 35 bd
       -0.026109684 0.20872596 -0.18400297 -0.044264775
0000e0 cc f3 69 3b e2 88 7b bd 24 d8 78 bc 83 ca 81 bd
       0.0035698293 -0.06140984 -0.015188251 -0.06337454
0000f0 0e b2 0d 3e 96 8a 43 3e cd 2e cc 3d 1a 6c 87 3d
       0.13837454 0.19095835 0.09969864 0.066124156
000100 15 8a ac bd 56 f5 2f bd be cb 09 3e 77 1d 26 be
       -0.084247746 -0.04295858 0.13456628 -0.16222177
000110 88 ca 8a bd 93 9c 42 be d5 51 27 be 39 de 57 be
       -0.06776911 -0.19005041 -0.1633981 -0.21080865
000120 8a ee 27 be ed 67 08 3e 24 37 77 bc 73 dc 3b 3e
       -0.16399589 0.13320895 -0.01508883 0.18345813
000130 64 1b 01 be 09 21 9a bd 63 94 73 be 58 60 62 3e
       -0.12608105 -0.07525832 -0.23787074 0.22107065
000140 7f e9 75 bd b3 bd 01 3e d9 44 0f 3e e5 d6 99 3c
       -0.060037132 0.12670021 0.13991107 0.018779228
000150 51 57 06 3d bb 58 ca bd f6 7d c1 3d 40 4c ea 3c
       0.032798115 -0.09880205 0.09447853 0.028600812
000160 b1 89 f5 bd c0 7d 49 bc f9 90 e4 bd 35 0a 47 3d
       -0.11989153 -0.012298048 -0.11160464 0.04859372
000170 4c 74 3a bd d4 09 6e be 45 9d 42 bd 70 9b 66 3d
       -0.045521066 -0.23245937 -0.047513265 0.05630058
000180 c7 03 18 3e 1c da 44 3e 9a 5f e1 3d 72 6d 54 3d
       0.14845191 0.19223827 0.11004563 0.051862188
000190 36 8a 2c be 86 90 e1 bc c4 39 a9 3d cb 33 73 3d
       -0.16849598 -0.027534734 0.08262971 0.059375565
0001a0 17 55 63 3d f5 91 9d bd 48 60 68 bd d6 4c 2e be
       0.05550107 -0.07693855 -0.056732446 -0.17021498
0001b0 87 46 04 3e 62 20 a7 bd 00 06 a0 3c a2 2a 0b be
       0.12917529 -0.081604734 0.019534111 -0.13590482
0001c0 ac 22 20 be 15 65 25 3e c5 09 5b 3e ff 47 6d bc
       -0.15638226 0.16151841 0.21390446 -0.014482497
0001d0 a3 8b c3 bc a2 ee 46 be 96 78 6e 3d 7e 16 63 bd
       -0.023870295 -0.19426969 0.05822047 -0.055441372
0001e0 63 7a c6 bd cc 56 86 bd 25 bd 30 3e 2f 4b dd 3d
       -0.09691312 -0.06559524 0.17259653 0.10805356
0001f0 60 91 0a bc fb 99 8d bc d5 a7 97 3e a8 05 81 be
       -0.008457512 -0.017285338 0.29620233 -0.25199628

weight f4 [64, 128]
000000 f0 c0 f1 bd 57 1c 69 bd 58 67 5b bc 51 c0 9c 3f
       -0.11804378 -0.056911793 -0.013391338 1.224619
000010 c6 37 38 3e 81 52 df be dc d0 ac bd 6a 71 59 3e
       0.17990026 -0.43617633 -0.08438274 0.2123467
000020 f1 8e 12 bf 84 a1 9f 3d d0 96 30 3d fe 78 03 bf
       -0.5724936 0.077944785 0.043112576 -0.51356494
000030 9a 42 4f 3e 81 dd 5f be d4 41 ed 3e 56 ec df 3e
       0.2024025 -0.21861841 0.46339285 0.43734998
000040 54 39 ee 3e e4 0d 0c 3e 98 e9 f7 3d eb d7 d4 bf
       0.46528113 0.13677174 0.12105101 -1.6628393
000050 53 1c 09 bf 12 ea 0b 3f b9 10 50 be a7 09 aa bc
       -0.53558844 0.5465404 -0.20318879 -0.020756556
000060 ac 5f 23 3f ab 5c 47 be 31 dd 6b 3e 14 08 85 3e
       0.6381786 -0.19468944 0.23033597 0.25982726
000070 5f 1d 0c be 32 ed 00 3e a4 6c 22 be 0b a7 68 be
       -0.13683079 0.12590483 -0.15861756 -0.22719972
000080 7d 86 17 3e 5d 5f 1f bf ef b3 d5 3e 5e 24 01 3f
       0.14797397 -0.6225489 0.4173884 0.50446117
000090 f4 3b a8 be 30 30 2e be 07 11 ba be 75 99 02 bd
       -0.3285824 -0.1701057 -0.36341116 -0.03188463
0000a0 a6 53 83 be e0 36 30 3d 0b d8 13 bf 9f 99 fc ba
       -0.25649756 0.043021083 -0.5775153 -0.0019271857
0000b0 67 58 2d be a4 ed 67 3e f4 c8 e2 be 7d d4 83 be
       -0.16928254 0.22649246 -0.4429394 -0.25748053
0000c0 9a 59 6e 3e f7 fe ae bd 04 6f 8b 3d 3a 53 d4 be
       0.23276368 -0.085447244 0.06808284 -0.41469747
0000d0 7c 51 3f 3e 61 5b 8b 3e 2a 7e 8c bd 60 2c 82 3e
       0.18683428 0.27218154 -0.068600014 0.2542448
0000e0 2a 0a a1 be 1c 47 06 3e 0e c3 c6 bd 6a 05 15 3f
       -0.31453067 0.13113064 -0.097051725 0.58211386
0000f0 b6 94 08 bf b3 b0 c4 3d 33 6f 03 3e 45 5f 21 3e
       -0.53351915 0.09604015 0.12835388 0.15758999
000100 48 e8 1d be 71 e8 50 be 99 7b 65 bd d4 39 a1 3e
       -0.1542064 -0.2040117 -0.056026075 0.31489432
000110 6c 7b 22 be 4b ea 52 bd c0 19 e2 bd ce 09 22 3f
       -0.15867394 -0.05149297 -0.11040068 0.6329621
000120 6b 43 50 bd c3 9d 6a 3e 7c 35 a7 be 38 87 26 be
       -0.050845545 0.22911744 -0.32657993 -0.1626252
000130 73 6d 6c 3e da 2d 0d be e6 a0 86 be 1a 96 2e 3e
       0.23088627 -0.13787022 -0.2629463 0.17049447
000140 1f 48 6d 3e 21 db 52 be 8c 6c de be e5 8e 65 be
       0.23172043 -0.20591404 -0.4344219 -0.22417791
000150 61 1c bb be fc 5d bf 3e 4c 7c 97 be 9f e4 2b be
       -0.3654509 0.37376392 -0.29587018 -0.16786431
000160 d7 d4 96 be d8 1c cb 3e 22 85 b1 bd 7c 7b fb 3e
       -0.2945926 0.39670444 -0.08667971 0.4911765
000170 14 c0 24 3d 07 38 96 3e 4c d9 b1 3b 01 91 b5 3d
       0.040222242 0.2933962 0.005427515 0.08865548
000180 48 99 c7 3e ae f4 2d 3e d8 41 ef 3c 86 ea b1 3e
       0.38984132 0.16987869 0.029206201 0.3474924
000190 05 ba 2a 3e 31 bf a6 be f0 07 0d bf 31 72 c8 be
       0.16672523 -0.32567742 -0.55090237 -0.3914962
0001a0 6e b3 86 3e 29 de ac bd bf 10 9b be c8 5e 92 be
       0.2630877 -0.08440811 -0.30286214 -0.28587937
0001b0 d8 ca 1c 3f 02 d3 87 be f9 17 03 3e 16 52 8e be
       0.61247015 -0.26528174 0.12802114 -0.27797002
0001c0 92 14 91 3e f8 40 59 3e 4b c5 3b 3f 48 aa 80 be
       0.28336006 0.2121619 0.7334792 -0.25129914
0001d0 84 df f0 be 06 24 7b 3e b5 9d bf 3e 5d e2 61 be
       -0.4704553 0.2452546 0.37425008 -0.22059007
0001e0 07 df 1e bf 45 22 8f bc 42 a2 c6 be 47 30 de 3e
       -0.6205906 -0.017472396 -0.38795668 0.43396208
0001f0 8b 45 4d 3f 31 c6 7f 3e 3b 41 4e bf a4 c5 23 3e
       0.8018424 0.24977948 -0.80568284 0.15993363
000200 70 fc c8 3c 1f 83 a1 be fc ff 10 3e 5e 4e 5a be
       0.024534434 -0.3154535 0.1416015 -0.21318957
000210 63 c0 8c bd 83 f8 16 be 96 63 0b bf 9f 08 c4 be
       -0.06872632 -0.14743237 -0.5444883 -0.38287827
000220 88 fe 83 be d2 24 cc 3d f9 02 3c 3e 07 9f 08 3f
       -0.2578013 0.099679604 0.18360509 0.53367656
000230 71 95 8c be b7 9d 00 3e 8f 8b 9e bd e1 9f 7b 3d
       -0.27457765 0.12560163 -0.077414624 0.06143177
000240 a4 84 a7 be 72 66 39 bd 51 f2 f6 3e 86 6a 93 3f
       -0.32718384 -0.045263715 0.48231748 1.1516883
000250 ce 96 56 3f 00 5a d4 bd 35 87 a4 be af 91 44 be
       0.8382386 -0.10368729 -0.32134405 -0.19196199
000260 c9 06 7f bf 76 0e 0d 3f e2 7b 43 3e 1a 5a a6 be
       -0.9961973 0.5510019 0.19090226 -0.32490617
000270 f4 66 1a c0 0b 83 af be 28 f4 0f 3f 65 2d 95 3d
       -2.4125338 -0.34279665 0.5623193 0.07284049
000280 c9 b0 93 be 27 18 a6 be 67 80 04 3f 18 56 78 3f
       -0.28845814 -0.32440302 0.51758426 0.9700637
000290 bf bb 48 be 06 38 06 3e 78 4f e2 be 53 5f 67 be
       -0.1960287 0.13107309 -0.44201255 -0.22594957
0002a0 4f 05 23 3f 63 55 da be d2 27 37 be 97 fe 37 bf
       0.63679975 -0.4264327 -0.17886284 -0.7187285
0002b0 6a 35 c8 be 6c 8a 99 3f 5e 2e bf be 3f e8 e0 be
       -0.39103252 1.1995368 -0.37340063 -0.4392719
0002c0 34 13 a0 3e 69 ef 7b 3e 3c 27 98 3d 30 8f 44 3f
       0.3126465 0.24603046 0.07429358 0.76780987
0002d0 a6 24 04 3e 95 90 8b 3e 89 57 5f 3e af b8 88 be
       0.12904605 0.27258745 0.21810736 -0.26703402
0002e0 e7 12 79 3f 8b 95 9c 3e 9f 88 a8 bd 0f c4 a5 3d
       0.9729447 0.30582842 -0.082291834 0.08094036
0002f0 0f 90 6b bf 4a 60 c0 3e 30 c2 8d bd 3f 7a 11 3e
       -0.9201669 0.37573463 -0.06921804 0.1420679
000300 05 b7 51 3e 1f ed 0d 3f de c1 c0 3e fb 61 6e bf
       0.20479973 0.55439943 0.3764791 -0.93118256
000310 61 9c a8 be 79 73 93 3e f9 1d 86 be 0e fe 9f 3e
       -0.32931808 0.28799036 -0.26194742 0.31248516
000320 b4 ad 61 3e 6b b3 90 3e b6 6f 9b bd 81 a1 ac be
       0.22038919 0.28261885 -0.075896665 -0.33716968
000330 45 24 ca be 11 8f 6b be 3f 88 c1 3e 6f 71 40 be
       -0.39480796 -0.23003794 0.3779926 -0.18793271
000340 95 45 d1 bc a0 56 d9 bd 78 fe a8 be af 3c 56 be
       -0.025545875 -0.106122255 -0.33006644 -0.20921586
000350 ff e6 49 3f 11 ca 64 be 41 80 5d bf c8 c1 4c be
       0.788681 -0.22342707 -0.86523825 -0.19995797
000360 7e fc 6f be 7f 87 9f bd 4b d8 5e bf b0 22 91 3e
       -0.23436162 -0.07789516 -0.87048787 0.28346777
000370 db 0e 41 bd e9 c1 1d 3e bf ad 02 bf 5b 67 7e 3e
       -0.047133308 0.15406002 -0.51046365 0.24844114
000380 3e dc 1d be b4 07 f9 be 7c 05 89 bd 4c fe b2 3e
       -0.15416047 -0.4863869 -0.06690499 0.34959638
000390 c3 60 12 3e d6 ae 51 be 6b 17 d6 3e bf d1 98 be
       0.14294724 -0.20476851 0.41814741 -0.29847524
0003a0 b7 30 49 be d1 ba 92 be 75 70 bb be af 3b 5c be
       -0.1964749 -0.28658155 -0.36609235 -0.21507142
0003b0 bb 82 57 3d 2c 41 64 be 07 26 22 3f e6 b6 13 3f
       0.05261491 -0.22290486 0.63339275 0.57700956
0003c0 dd a4 f9 3e c9 9d b6 be 6e 58 ee be 9a b6 ac be
       0.48758593 -0.35667256 -0.46551841 -0.33733064
0003d0 7f e9 ae bd 32 66 d1 3d b1 6c 46 bf 9b 0a 42 3e
       -0.085406296 0.1022457 -0.775096 0.18949358
0003e0 e3 de a7 3e 64 3c aa bd 3c 80 94 3d f9 c3 0a 3f
       0.32787237 -0.083123 0.07251021 0.5420528
0003f0 7c 1c 33 3f b0 13 0e 3e 12 23 14 3e 71 5b 8b be
       0.6996534 0.13874698 0.14466503 -0.27218202

bias f4 [64]
000000 cc 2b 48 3d f0 c7 ce 3c 1c 6e 18 3e bf 29 87 3d
       0.048869893 0.025241822 0.14885753 0.06599759
000010 d1 34 a8 3d 5e 0b 7f 3a 16 33 88 3d 18 42 df 3d
       0.08213199 0.0009729172 0.06650369 0.10901278
000020 49 1b 19 3c 58 4b 86 bd df 64 be 3d 30 c0 34 3e
       0.009344884 -0.065573394 0.092965834 0.17651439
000030 83 9a 76 3c 24 ad 77 3c dd ea 2b 3e 30 83 12 bd
       0.015051487 0.015116964 0.16788812 -0.03576964
000040 ac 54 dc 3d 5f f9 88 bd c7 09 3a 3d 5a e6 6f bd
       0.107583374 -0.06688189 0.04541948 -0.05856929
000050 ab 54 19 3e b0 41 74 3e 5d b7 0c 3e 1b cb 6d bc
       0.14973705 0.23853183 0.13741823 -0.014513756
000060 b3 86 bd 3d e3 2d 13 3d 56 aa a6 3d 41 63 b2 3d
       0.092542075 0.035932433 0.08137958 0.087103374
000070 21 3c d1 3d 6c 0f 21 bd c6 da fe 3c df d1 a6 3c
       0.10216547 -0.039321348 0.031110179 0.020363746
000080 0d 55 28 3e 18 d5 de 3d 88 f7 69 3d b0 e6 f0 3d
       0.16438694 0.10880488 0.05712083 0.1176275
000090 2e 86 75 3d 0d 46 15 3e f8 0c 5b 3e d3 51 1e 3e
       0.059942417 0.14577504 0.21391666 0.15460901
0000a0 a5 e8 56 bd 9c 15 55 bd 1e 75 28 3e 97 7d 07 3e
       -0.05246796 -0.05202256 0.16450927 0.13231502
0000b0 6d 6a 27 3e 27 17 9e 3d e9 06 56 3c 6f ab f1 bd
       0.16349192 0.0771926 0.013063171 -0.118002765
0000c0 c0 f5 cc 3d a1 95 d0 3d c8 ba bc 3b 79 26 a6 3d
       0.100078106 0.101847894 0.0057595707 0.08112807
0000d0 4f e0 5d bd be 29 e8 3d c6 fb 75 bc 35 1d 14 3d
       -0.054168995 0.11336087 -0.015013641 0.036160666
0000e0 a8 70 54 3d a5 3c 4e 3e 4e 8c 94 3d d1 50 3a 3d
       0.05186525 0.20140322 0.072533235 0.04548723
0000f0 05 13 ff 3d 6f 4c 21 3e b2 e5 40 bd a9 a9 bb 3d
       0.124547996 0.15751813 -0.047094055 0.091632195

weight f4 [64, 64]
000000 fd 55 af be 34 b6 6a 3e 57 5d 9b 3d d0 7f cc bc
       -0.3424529 0.22921067 0.075861625 -0.02496329
000010 86 47 9f bd 2e 1f 55 3e 6b fd ba be 83 8b a6 be
       -0.07777314 0.20812675 -0.36521468 -0.32528314
000020 52 43 94 3e fc 60 27 3e 53 ba 36 3c fc 3f 75 bd
       0.2895761 0.1634559 0.011152822 -0.059875473
000030 2f af 48 3b 41 66 27 bd 2b 69 57 be 31 3c b6 3d
       0.0030621996 -0.040869 -0.21036212 0.08898199
000040 1a a6 21 be cb 4a 5e 3e 80 39 0e 3e 19 3b fd 3d
       -0.15786019 0.21708219 0.13889122 0.123647876
000050 01 25 81 3e 6a 37 97 3b fa 38 70 3d 7b b5 e9 bd
       0.25223544 0.00461476 0.058648087 -0.11411568
000060 76 73 bf 3d 7e e2 9d bd 96 9c 64 3e 07 eb 18 3f
       0.09348194 -0.077092156 0.22325358 0.59733623
000070 9a bc 89 3d a4 c5 a0 bd 33 b1 8b be 0b fd 0f c2
       0.06725426 -0.07850197 -0.2728363 -35.997112
000080 df a8 36 be 4c 97 1c 3c f9 ca db bd 97 3d f7 3d
       -0.17837857 0.009557556 -0.10732073 0.12072294
000090 ff 03 83 3e c3 d1 1b be 55 bc 3b c2 15 11 a3 bd
       0.25588986 -0.15216736 -46.933918 -0.079622425
0000a0 97 e4 81 bd dd e3 aa 3d 67 b5 bd be 37 fb 9a 3d
       -0.06342428 0.08344243 -0.37052462 0.07567447
0000b0 8d 36 52 be f5 10 ee 3d de 05 22 bd 0b bd ed bd
       -0.20528622 0.11624328 -0.039556377 -0.11608323
0000c0 17 4f 81 3e 6e 6f be bc dc e7 e2 3d 02 76 5f be
       0.25255653 -0.023246493 0.1107938 -0.2182236
0000d0 d8 59 a6 3c a2 f0 2a 3e ec ad 94 3d a3 e5 42 3e
       0.020306513 0.16693357 0.072597355 0.19032912
0000e0 57 6b 6c 3e de a1 20 3e 5d 68 d7 ba 1e 51 88 be
       0.23087822 0.15686747 -0.0016434301 -0.26624388
0000f0 1b 39 05 3e eb ca 39 3e 17 29 1b be 09 99 4a 3e
       0.13010065 0.18143813 -0.15152393 0.19784941
000100 d1 27 ba bd 76 4c 0a bd 3d 8b a1 bd d7 69 ac 3d
       -0.090896256 -0.033764325 -0.07887886 0.08418625
000110 33 0d bb be c2 e5 54 bd ae 24 10 bf de 07 10 be
       -0.36533508 -0.051976927 -0.5630597 -0.14065501
000120 c8 5a 12 3e 65 9d 0b 3e 36 49 69 3e ac d8 e2 bd
       0.14292443 0.1363426 0.22781834 -0.11076483
000130 bc 9a 45 3d e2 4b 88 be 3f dd 75 3e 34 99 f2 3d
       0.04824327 -0.26620394 0.2401018 0.118456274
000140 3a 9a 00 be a9 74 8c 3e 65 55 77 3d 38 eb b8 3e
       -0.12558833 0.27432755 0.060384173 0.36116958
000150 0e 70 63 3e bc fd 04 3d ba b9 07 3e bc 31 fa 3d
       0.22210714 0.032468542 0.13254443 0.12216517
000160 13 ae 20 be e0 da 0a 3e be cc 6a 3e 4f 88 cd 3e
       -0.15691404 0.13560057 0.22929665 0.40143058
000170 6a da 8c 3e 04 2b d5 bc 8b cb 8c be 2a a7 7a c2
       0.27510387 -0.026021488 -0.2749904 -62.663246
000180 d7 83 14 bd 69 99 81 be 7f c7 07 bd 9a 90 15 be
       -0.036258545 -0.25312355 -0.03314924 -0.14605942
000190 7e 69 80 3e 47 49 8a 3e d3 e3 b3 3e e0 08 8e be
       0.25080484 0.2700903 0.35134754 -0.27741146
0001a0 03 d1 02 bf 15 7c f2 3d 31 22 b7 3e 27 39 17 be
       -0.51100177 0.11840073 0.35768273 -0.14767896
0001b0 f4 b0 6a be 1b 1f 81 bb aa 69 9b be 13 44 dc be
       -0.22919065 -0.0039404756 -0.30354053 -0.43020687
0001c0 7c 4c 06 3e 22 46 70 bd cd 72 45 be e0 78 d7 3d
       0.13115114 -0.058660634 -0.19282074 0.10521102
0001d0 4e 7c 76 3d b4 c5 79 be 10 49 4d bd 0d 59 50 be
       0.06017714 -0.24391824 -0.050118506 -0.2034647
0001e0 d2 26 5f bd a6 63 22 3e f1 28 07 3e 9e 53 2f 3e
       -0.05448038 0.15858325 0.13199212 0.17121741
0001f0 d1 b6 03 3e a8 1b c6 bd c4 96 7c be 2d 11 c7 3e
       0.12862708 -0.09673244 -0.24666888 0.38880292
000200 37 f9 82 3e 98 f6 83 3e f9 d9 d0 bd 77 fe bc 3c
       0.2558076 0.25774074 -0.10197825 0.023070557
000210 8d 07 53 be fc 47 a8 3e 14 0e 5d be 9b 13 b9 bd
       -0.20608349 0.3286742 -0.21587402 -0.090369426
000220 7d 07 e9 3c 72 35 09 3e 27 23 57 3d 24 0b 97 3e
       0.028445954 0.13399294 0.05252376 0.29500687
000230 38 12 de 3d 5a bd 05 bd b0 e4 e4 bc 9f f7 2c 3e
       0.10843319 -0.032651283 -0.027941078 0.16891335
000240 68 39 6e 3e 9a 9b 4b be 2c 22 01 bf 81 5b 04 be
       0.23264086 -0.19883576 -0.5044277 -0.12925531
000250 65 19 48 3d 6f ef 7f bd 5b b3 85 be ee c4 4a 3d
       0.048852343 -0.0624842 -0.261134 0.049504213
000260 d1 c3 b7 be 50 95 71 be 7a 88 96 3e 07 4b 15 3f
       -0.35891584 -0.23592114 0.29400998 0.5831761
000270 39 e4 ca be 27 29 19 be 35 7c e3 3d 2f dc aa bf
       -0.39627245 -0.14957105 0.11107675 -1.3348445
000280 42 e8 b6 be 33 a4 89 3e 0e 93 8f 3d 9d f7 fc be
       -0.35724074 0.26883087 0.0701047 -0.49407664
000290 59 56 3a be c8 f2 61 be 56 ba 07 3e 5c 75 22 be
       -0.18197002 -0.2206527 0.13254675 -0.15865082
0002a0 0c 0c 0c 3e e4 cc 34 be ef bd 0c 3e 9f 4f 82 be
       0.1367647 -0.17656285 0.13744329 -0.2545137
0002b0 22 55 07 3e 4c 00 96 3e 6a 62 8c 3e ec 89 a8 bc
       0.1321607 0.29297101 0.27418834 -0.020573579
0002c0 b3 6c b1 3e 7a aa d7 3d 12 cd 9d bc 86 bf 4d 3e
       0.34653243 0.10530563 -0.019262824 0.20092592
0002d0 7f 9a ca 3c 89 8b 6a be ab a0 4f be bf f2 ae be
       0.024731873 -0.22904791 -0.20276134 -0.34169576
0002e0 fc f4 3b be 4c 53 8d 3e a0 3c f7 3c 59 2f f8 3e
       -0.18355173 0.27602613 0.030180275 0.48473623
0002f0 2e a6 01 3e 60 a3 cf 3e 2f ae 48 3e 63 81 da bd
       0.12661049 0.40554333 0.19597696 -0.1066921
000300 e4 db ce 3e 21 8d 8c be f5 3b 49 3d 7d d6 f1 be
       0.40402138 -0.27451423 0.049129445 -0.47233954
000310 cc 9b f5 be 8f 3a 26 bd 34 63 de 3a ea 84 b7 be
       -0.47970426 -0.04058319 0.0016966821 -0.35843593
000320 5b e3 31 bd 72 23 ca 3d 73 99 da 3d af 58 3a bd
       -0.043429714 0.09870042 0.10673799 -0.04549473
000330 0c 61 e7 3c fc 25 3b 3e c5 12 c0 3d 52 5a f3 be
       0.028244518 0.18276209 0.0937858 -0.47529846
000340 d6 05 a6 bc c0 22 0a 3e 90 0a 26 3e 07 94 2b 3d
       -0.020266455 0.13489819 0.16214967 0.041889217
000350 6c 35 b7 3e 17 e6 0f 3e 8d 1f d3 bd 13 5b be 3e
       0.35782945 0.14052616 -0.10308752 0.3717886
000360 49 d7 43 bf 1c 5f ba 3d b0 a4 2c be 2d de bb 3e
       -0.76500374 0.09100172 -0.16859698 0.36692944
000370 19 7d 91 be 83 23 aa bd 40 36 55 3e c7 af 0e be
       -0.28415754 -0.083075546 0.20821476 -0.13934241
000380 69 09 d1 be 15 86 9f be 34 d5 54 3e bb 15 23 be
       -0.40827492 -0.31156984 0.20784456 -0.15926258
000390 fc 63 d8 be 61 c4 5a 3f 57 5d a1 c1 4e 55 0d bf
       -0.42263782 0.854559 -20.170576 -0.5520829
0003a0 52 ad ee 3d 41 ea 3f be eb 78 db 3e 97 ad e3 bc
       0.11654152 -0.18741705 0.4286569 -0.027792735
0003b0 66 6c cc be bc 2a 15 bf 9f 26 b9 be 85 97 20 be
       -0.3992645 -0.5826833 -0.36162278 -0.156828
0003c0 67 56 7e 3e 76 55 65 be a9 da 3a 3f 3d 1b 99 be
       0.24837647 -0.22395882 0.729899 -0.29903594
0003d0 dd e1 3d 3e d1 7c 75 bc 51 78 80 3e 8d b5 c3 3d
       0.18543191 -0.014983372 0.25091794 0.095561124
0003e0 84 ea e5 3e 15 9e 46 be ec 63 03 bd db 25 db 3d
       0.44905484 -0.19396241 -0.032077715 0.1070058
0003f0 d2 1e f6 3d 9c 8a 0c 3f f4 d3 cb 3d dc 79 4f 3e
       0.12017597 0.54899 0.09952536 0.2026133

bias f4 [64]
000000 84 7a 7d bf 7c 1c ce 3e a0 f3 29 bf 69 4d 0d 3e
       -0.9901507 0.40256107 -0.6638737 0.13799061
000010 cb 95 e5 be cd e6 71 3f 6f cb 44 3f 7e 66 c9 3f
       -0.44840845 0.944928 0.76872915 1.5734403
000020 6a 5a a0 3e 8a 8d c4 bf f3 d5 a6 be 77 6d b7 3d
       0.3131898 -1.5355694 -0.32585105 0.08956426
000030 31 f2 21 be 4b 30 2a bd ad 24 9f bf d7 cd db bd
       -0.15815045 -0.041549962 -1.2433068 -0.1073262
000040 57 b5 0d be ce 89 4d 3e 8a ca 2f 3f 99 d9 b8 3f
       -0.13838707 0.200721 0.68668425 1.4441406
000050 68 c7 ed be e5 76 b1 3f 6f a7 61 be 00 e8 dd be
       -0.46441197 1.3864409 -0.22036527 -0.43341064
000060 4c 40 57 3f 9b a3 32 3f 3e 73 27 bc f1 57 88 bd
       0.84082484 0.6978089 -0.010220347 -0.066573985
000070 5f be c7 bc 59 36 4d 3f c3 9e 99 3f cc ed 5e bf
       -0.024382768 0.8016105 1.2001575 -0.870816
000080 c9 7f ab 3f 14 ea 7f 3f 9a 94 64 3f b8 fa 83 3b
       1.3398372 0.9996655 0.8928925 0.0040276907
000090 67 c7 49 bd 1e 0c 79 bf 02 26 67 bf bd b8 0c be
       -0.04926243 -0.97284114 -0.9029237 -0.13742347
0000a0 38 86 97 be d3 67 53 bd 8f 79 c5 be 97 9b 61 c0
       -0.29594588 -0.051612686 -0.38569304 -3.5251215
0000b0 14 75 79 3e ad 74 8c 40 73 6c 85 bf 9a eb 0a c0
       0.24361068 4.3892426 -1.0423721 -2.17063
0000c0 26 af 48 3e cd a4 5d 3f 11 4c 6a bf 1c 89 d7 be
       0.19598064 0.8657959 -0.9152232 -0.42096794
0000d0 32 e4 03 3f d6 68 b1 be 35 ec bc bf c1 73 1d 3e
       0.51520073 -0.34650296 -1.4759585 0.15376188
0000e0 5e 2c ee bf 46 89 53 bf 40 63 97 3f 27 e7 9e 3f
       -1.860729 -0.8263134 1.1827164 1.2414292
0000f0 93 08 56 be bb 4c 6d bf fb 28 86 3f 40 87 0e bf
       -0.20901708 -0.92695206 1.0481256 -0.55675125
