pth/takada_model_40.pth (torch, 168856 bytes, 6 tensors)

weight f4 [128, 128]
0.5230099 0.13101198 -1.0061964 1.6851047 -0.4756291 -0.17686751 -0.66934115 0.69779634
-0.4386048 0.1475895 0.4346793 -0.48346817 0.19561268 -0.10003609 -0.98558843 -0.21189566
-0.7851328 0.13613631 -0.17027327 0.33506405 -0.0077092573 -0.82318306 -0.08736022 0.49541083
0.5823187 -0.518737 -0.7637042 -0.21545836 0.2795052 0.05807216 -0.16886295 0.31748214
-0.4883462 0.2740644 1.5094163 -0.036212087 -0.25873753 -1.1017087 0.17834693 0.19152145
-0.21684214 0.43868414 0.17112279 0.07193739 0.11308121 0.63261217 0.47572243 -0.25794777
0.032080077 -0.31948426 -0.512577 -0.27281928 -0.37269115 -0.47223386 0.010782448 -0.14739461
1.366654 1.0104512 -0.25482562 0.8869061 -0.004358127 0.15972085 -1.3554665 -0.6120366
-1.0293564 -0.15985498 -1.3821458 -0.13959746 0.22307168 -0.45739126 -0.3500972 3.4909792
-0.88742006 0.44367695 1.129888 -0.052429996 0.38842604 -0.4205825 0.08899153 0.064394414
0.07746404 -0.19681647 -0.29719478 0.3921278 -0.656177 -0.14875929 0.61511225 1.8080109
0.3880138 -0.16203086 -0.09281701 0.1266751 -0.20227751 -0.19478886 0.24852958 -0.72731197
-0.40044484 0.42814353 0.7555823 -0.030593133 0.170092 -0.62938017 -0.10218604 -0.9309821
-0.29056656 0.73333967 0.16524181 0.008040468 -0.015688514 0.646306 0.7668345 -0.40494233
-0.48448142 -0.9392271 -0.40871343 -0.050043434 -0.27462152 -0.59773964 -0.68472284 -0.01936205
0.9110123 1.3013752 -0.34415448 0.58339447 0.030921735 -0.3881214 0.11460447 -0.2892058
-0.7705479 0.7348349 -0.41772556 -0.51748204 0.6409401 -0.7725408 0.73442465 -0.2748794
-0.14956272 0.5480685 1.02648 -0.63325703 0.07082219 0.76684356 -0.6518679 0.14591643
1.6411389 -0.67848235 0.197747 -0.19041102 -0.080713004 -1.3697842 1.1381925 -0.3533634
-0.1794927 -0.8535055 -0.2649486 0.18569762 0.28268656 -0.20357054 -0.35963067 0.4078985
-0.43805584 -0.1962044 0.5165228 0.10220156 -0.19464721 0.4015812 0.47483072 -0.36796767
-0.82070416 0.22377782 1.0012937 -0.27813983 0.16921893 -0.5729924 0.55300057 -1.1896139
-0.12003367 1.7494695 0.72588474 -0.9528049 0.19127417 -0.043954577 0.7472142 -0.9634516
-0.14805858 1.5820073 -0.61144364 0.053231515 -0.20829713 -0.7334905 0.7251139 0.29234976
-1.7436861 0.6260819 0.5658363 -0.12262784 0.45377085 0.51547843 -1.489782 -1.0126046
0.28762874 0.45332903 0.24320744 -0.03293267 -0.48777196 1.0715575 -0.34376967 -2.0635197
0.6604805 -0.5185844 0.09002504 -0.011536011 0.28535727 -1.3739 1.0344635 0.2826955
-0.122578755 0.1974713 -0.037475232 -0.06277858 -0.08881734 -0.18002246 -0.49868733 0.1699277
-0.3599663 -0.5154876 0.38270426 0.18409297 0.3523014 0.1348111 -0.005397653 -0.1294852
-0.7112309 0.37455845 0.42387322 -0.012769349 -0.10417881 -0.20225382 0.57009166 -0.76163894
-0.41061553 -0.09534968 0.27716926 -0.6202134 0.1705171 0.2723868 -0.685743 -0.014293876
-0.08400273 1.0979536 -1.0191227 0.35591877 0.16980305 0.5134521 0.5648126 0.97589016
00000000: fae3 053f 0128 063e 0bcb 80bf 83b1 d73f
00000010: a885 f3be c21c 35be f159 2bbf c8a2 323f
00000020: cf90 e0be b421 173e 498e de3e 2489 f7be
00000030: b14e 483e b9df ccbd 864f 7cbf 2dfb 58be
00000040: 77fe 48bf 5167 0b3e 1e5c 2ebe 848d ab3e
00000050: f09d fcbb 20bc 52bf eae9 b2bd 7da6 fd3e
00000060: d712 153f f3cb 04bf 1e82 43bf 1ea1 5cbe
00000070: 4e1b 8f3e 13dd 6d3d 69ea 2cbe 058d a23e
00000080: 8308 fabe 2b52 8c3e 8e34 c13f 2053 14bd
00000090: 3f79 84be ca04 8dbf 94a0 363e 331e 443e
000000a0: de0b 5ebe 359b e03e d03a 2f3e e953 933d
000000b0: 1f97 e73d dff2 213f e491 f33e bb11 84be
000000c0: 6666 033d 7193 a3be 3f38 03bf f8ae 8bbe
000000d0: 60d1 bebe a3c8 f1be dda8 303c 9dee 16be
000000e0: 85ee ae3f 7756 813f 8178 82be 470c 633f
000000f0: 9ece 8ebb dd8d 233e ed7f adbf 6eae 1cbf
00000100: f3c1 83bf 06b1 23be 27ea b0bf a3f2 0ebe
00000110: e76c 643e 302f eabe f13f b3be 346c 5f40
00000120: f62d 63bf a029 e33e 2ca0 903f d6c0 56bd
00000130: c7df c63e 9756 d7be 3141 b63d 38e1 833d
00000140: 77a5 9e3d 428a 49be ea29 98be fac4 c83e
00000150: 37fb 27bf 5b54 18be ff77 1d3f e76c e73f
00000160: bfa9 c63e 6beb 25be d816 bebd 1eb7 013e
00000170: d621 4fbe bb76 47be 8a7e 7e3e 1e31 3abf
00000180: 1b07 cdbe a135 db3e d76d 413f 739e fabc
00000190: 992c 2e3e 0f1f 21bf ea46 d1bd d854 6ebf
000001a0: 24c5 94be 26bc 3b3f 2635 293e 2bbc 033c
000001b0: 3385 80bc 4f74 253f 444f 443f 9a54 cfbe
000001c0: f30d f8be 3071 70bf e342 d1be 58fa 4cbd
000001d0: 319b 8cbe 7705 19bf ff49 2fbf 299d 9ebc
000001e0: 1a38 693f 7693 a63f 0435 b0be 5759 153f
000001f0: 944f fd3c d9b7 c6be c0b5 ea3d c812 94be
00000200: a142 45bf 241e 3c3f 20e0 d5be b479 04bf
00000210: a714 243f 3cc5 45bf 4103 3c3f febc 8cbe
00000220: f826 19be 384e 0c3f b263 833f 221d 22bf
00000230: 390b 913d dc4f 443f d1e0 26bf 1e6b 153e
00000240: d710 d23f 05b1 2dbf 317e 4a3e 1bfb 42be
00000250: dc4c a5bd 1755 afbf 4bb0 913f 0cec b4be
00000260: efcc 37be 567f 5abf 58a7 87be 8427 3e3e
00000270: 4bbc 903e cc74 50be 8321 b8be 12d8 d03e
00000280: db48 e0be cee9 48be d73a 043f 0d4f d13d
00000290: 9951 47be 0d9c cd3e 031d f33e 4266 bcbe
000002a0: ab19 52bf 0326 653e 642a 803f 5868 8ebe
000002b0: ba47 2d3e a1af 12bf 7291 0d3f 4545 98bf
000002c0: 36d4 f5bd 9eee df3f 95d3 393f 06eb 73bf
000002d0: 60dd 433e b709 34bd 6e49 3f3f c4a4 76bf
000002e0: ab9c 17be 377f ca3f 9287 1cbf 4a09 5a3d
000002f0: d84b 55be 09c6 3bbf 11a1 393f deae 953e
00000300: 1b31 dfbf e746 203f a6da 103f 4e24 fbbd
00000310: a754 e83e 65f6 033f 2db1 bebf 079d 81bf
00000320: 1344 933e be1a e83e 5f0b 793e 68e4 06bd
00000330: 3fbd f9be cc28 893f 9402 b0be b510 04c0
00000340: 4015 293f f2c1 04bf 0c5f b83d 8901 3dbc
00000350: 591a 923e f5db afbf 4d69 843f 77bd 903e
00000360: 920a fbbd eb35 4a3e a17f 19bd 0e92 80bd
00000370: dee5 b5bd cf57 38be f253 ffbe 8701 2e3e
00000380: 814d b8be fff6 03bf d0f1 c33e de82 3c3e
00000390: d960 b43e ec0b 0a3e ccde b0bb c597 04be
000003a0: 3a13 36bf 20c6 bf3e e905 d93e 8836 51bc
000003b0: b35b d5bd a01b 4fbe 87f1 113f c5fa 42bf
000003c0: 333c d2be b146 c3bd 21e9 8d3e 4ec6 1ebf
000003d0: 099c 2e3e 4876 8b3e da8c 2fbf dc30 6abc
000003e0: a009 acbd be89 8c3f 9d72 82bf fc3a b63e
000003f0: dae0 2d3e 9971 033f 8f97 103f f0d3 793f

bias f4 [128]
0.07933508 0.07709269 0.53534585 0.082179464 0.011359125 0.017956665 0.22219804 -0.03752589
-0.05279805 -0.053674653 0.6595156 0.13918813 0.031335413 -0.037794635 0.30210155 0.28022638
0.08917833 0.117911644 -0.018830117 -0.099439606 0.02665833 -0.008304704 -0.008821005 0.15974458
0.061506502 -0.034385324 -0.052518193 0.058163624 -0.032491375 0.059010714 -0.022843197 0.088368684
-0.1706471 0.0020816892 -0.075312674 0.021529736 0.0015880651 -0.091841735 0.086678654 0.05608079
-0.28732336 0.06806683 -0.09727479 -0.14550322 0.09255495 0.5723673 0.28194976 -0.42171398
0.011162415 -0.1711815 -0.11267947 0.6206259 -0.09111155 0.118659 -0.07365772 -0.023368232
0.5169706 -0.107240975 0.055301547 -0.13648205 -0.11850482 -0.10512262 -0.11735716 0.07408969
0.03085103 -0.12668307 0.074300714 0.13456883 -0.09359198 -0.009571444 0.27056196 -0.013760569
-0.12436102 0.16583955 -0.24548624 0.103205316 0.13682374 0.19867653 0.095133685 -0.109573
-0.023840232 -0.14034563 0.012751525 0.014180599 -0.10223448 -0.100885294 0.014626678 0.0006963587
-0.005863675 0.1063317 -0.033300567 -0.014076745 0.085055694 0.21302736 -0.4223614 0.29686454
0.0062877974 0.69008225 0.022020329 -0.009619469 -0.13506548 0.08660925 -0.3562229 0.052092295
-0.07169074 -0.068077564 -0.03268176 -0.09620887 -0.05469702 -0.023878893 0.0016803604 -0.4349398
-0.6156049 -0.25338188 0.0014412014 -0.07225528 -0.04093132 0.037178908 0.061036836 0.026819225
0.13716745 -0.0026957071 -0.0139647685 0.043864187 0.4234494 0.018272655 0.15647173 0.26944372
00000000: 6e7a a23d c6e2 9d3d 6d0c 093f b54d a83d
00000010: a01b 3a3c db19 933c e287 633e bfb4 19bd
00000020: c542 58bd f4d9 5bbd 04d6 283f 5587 0e3e
00000030: 9059 003d 8cce 1abd 0ead 9a3e d579 8f3e
00000040: 21a3 b63d a97b f13d 9e41 9abc fea6 cbbd
00000050: 9262 da3c 7410 08bc fa85 10bc 1594 233e
00000060: 3eee 7b3d a0d7 0cbd 511d 57bd fb3c 6e3d
00000070: ad15 05bd 38b5 713d a821 bbbc a4fa b43d
00000080: 1dbe 2ebe f36c 083b 883d 9abd 215f b03c
00000090: 9f26 d03a 8517 bcbd 9484 b13d f8b4 653d
000000a0: 0c1c 93be 9f66 8b3d 0138 c7bd ccfe 14be
000000b0: 738d bd3d aa86 123f b85b 903e e5ea d7be
000000c0: 90e2 363c 344a 2fbe 7ec4 e6bd 57e1 1e3f
000000d0: b198 babd 7d03 f33d dcd9 96bd bc6e bfbc
000000e0: 2f58 043f 28a1 dbbd e083 623d f3c1 0bbe
000000f0: a8b2 f2bd 874a d7bd f358 f0bd 56bc 973d
00000100: 4dbb fc3c 35b9 01be f92a 983d 69cc 093e
00000110: 27ad bfbd 8cd1 1cbc 1987 8a3e 0274 61bc
00000120: feb0 febd d8d1 293e bf60 7bbe 4f5d d33d
00000130: 861b 0c3e dc71 4b3e 73d5 c23d cf67 e0bd
00000140: 974c c3bc c4b6 0fbe c6eb 503c be55 683c
00000150: 5060 d1bd f39c cebd bca4 6f3c d78b 363a
00000160: 1224 c0bb 6fc4 d93d 2d66 08bd 26a2 66bc
00000170: ae31 ae3d d823 5a3e c13f d8be a1fe 973e
00000180: de09 ce3b 3ba9 303f fa63 b43c fa9a 1dbc
00000190: 9b4e 0abe 3160 b13d d962 b6be bb5e 553d
000001a0: 98d2 92bd 406c 8bbd 4fdd 05bd 2809 c5bd
000001b0: fc09 60bd ab9d c3bc 8a3f dc3a 6eb0 debe
000001c0: 4898 1dbf 45bb 81be b2e6 bc3a 94fa 93bd
000001d0: 9aa7 27bd e948 183d c301 7a3d feb3 db3c
000001e0: a075 0c3e 76aa 30bb 7ccc 64bc efaa 333d
000001f0: 5cce d83e 89b0 953c 203a 203e 87f4 893e

weight f4 [128, 128]
-0.26126358 -0.20559482 -0.2516074 -0.13146545 -0.010211486 -0.19192512 0.38027447 -0.1381111
-0.42595124 -0.028923692 0.1291514 0.10721072 0.018050956 0.13221797 -0.11230326 -0.24018183
0.044298906 -0.029347582 -0.19893529 -0.2907898 -0.024861354 -0.070843466 0.041183412 -0.29995427
-0.13439223 0.23883514 0.028391689 0.1566241 0.001234341 0.16377582 0.011367664 -0.08595749
-0.55776167 0.13869491 -0.09628445 0.040265024 -0.10299882 -0.24325448 0.18274033 0.13019866
-0.51868224 0.028968101 -0.1753124 0.2190988 0.07546486 -0.23457572 -0.24650872 0.07344142
-0.015888538 -0.02366521 -0.086637564 0.14111044 0.16708353 -0.24821198 0.2267455 0.043747928
-0.11592895 -0.008317002 0.026769478 0.081375115 -0.06259914 0.26930237 -0.26037994 0.06180796
0.12260974 -0.0017845199 0.016186442 -0.0048505357 -0.34244648 -0.07790866 -0.19779558 0.21706268
0.025485018 -0.12378319 0.33335936 -0.0011647267 -0.13558729 -0.26047003 -0.031483628 0.042722188
-0.057732735 0.46840602 -0.045340125 0.13547882 0.0080714775 -0.5297849 -0.124269255 -0.044243954
-0.07989789 -0.0085861655 0.031976484 0.14961565 0.13017829 -0.13949355 -0.25943324 -0.082590185
0.1246938 -0.5007958 -0.13738902 0.106422886 -0.14117138 0.14799601 0.007861095 0.0093203215
-0.0046459045 0.2602914 -0.09059166 0.009848092 0.19358982 -0.050460737 0.10720999 0.14893393
0.31034485 0.120232634 -0.11019861 0.13972923 0.08796048 0.062753536 -0.044380717 -0.020407978
-0.07584802 0.061066337 -0.14958706 -0.10733547 0.1967237 -0.17071629 -0.045434657 0.11229286
3.2720855e-06 -0.037252214 -0.32386267 0.22720774 0.13125756 -0.13018098 -0.13569702 0.41169724
-0.13675012 -0.10667716 -0.24026279 0.084898375 -0.011802667 0.012798444 -0.08878088 0.0126127
0.19416259 -0.20781523 -0.24294858 0.110710084 -0.1308911 0.18480809 -0.041624088 -0.11713534
-0.003796403 -0.21819213 -0.07087957 0.032171678 0.121454 0.052868154 -0.2234233 -0.18174359
-0.26630852 -0.26856142 -0.30978113 -0.19350047 0.17305574 0.029763995 0.07448073 0.099072255
0.48757857 -0.22737221 -0.09787222 0.33378306 0.09778687 0.04604993 -0.006683001 -0.12674966
-0.036051277 -0.057079792 -0.348537 0.19601917 -0.50500226 0.1663325 0.21969214 -0.06769607
0.23469411 0.05242062 -0.18634166 -0.17563735 0.37854806 0.12580974 -0.18158653 -0.32679102
-0.17905048 0.16133513 0.016241034 0.1034643 0.0005674234 -0.08783974 -0.17385788 0.17819206
-0.20293748 0.22107157 -0.2307822 -0.016011845 -0.081766054 -0.3368283 0.16247116 -0.077873975
0.03910703 -0.019461388 0.035009958 -0.08834185 0.07798917 0.26962635 -0.004228916 0.03481898
0.05912481 0.33662528 -0.15782522 0.17986971 0.1950954 -0.16635136 -0.15540898 0.024672171
0.124834664 0.40075228 -0.21111216 0.030886076 -0.16153379 0.20807013 -0.35887817 -0.03312865
0.009534223 0.16344322 0.03519196 0.25914532 0.06511841 -0.029911371 0.31355435 0.23736244
0.3804618 0.104784705 -0.22117108 0.22434866 -0.29718783 -0.1558056 -0.008962153 0.059068486
-0.020000404 -0.19460565 -0.053640727 -0.088630505 0.31360066 0.07309953 0.04898122 0.06034282
00000000: 57c4 85be 7387 52be afd2 80be e19e 06be
00000010: 144e 27bc 0588 44be 56b3 c23e ff6c 0dbe
00000020: 4816 dabe 61f1 ecbc 4440 043e 4b91 db3d
00000030: 99df 933c 2664 073e 40ff e5bd 3af2 75be
00000040: c572 353d 576a f0bc b1b5 4bbe 67e2 94be
00000050: 0aaa cbbc 6116 91bd f0af 283d 9b93 99be
00000060: 1e9e 09be 3391 743e b095 e83c 1162 203e
00000070: 9cc9 a13a d9b4 273e 703f 3a3c 7b0a b0bd
00000080: 78c9 0ebf 0a06 0e3e c830 c5bd f0ec 243d
00000090: 0cf1 d2bd b417 79be 4820 3b3e cc52 053e
000000a0: 5cc8 04bf 834e ed3c 1885 33be 705b 603e
000000b0: 528d 9a3d 9e34 70be c86c 7cbe 7568 963d
000000c0: ae28 82bc 8bdd c1bc 096f b1bd 417f 103e
000000d0: f217 2b3e 482b 7ebe f92f 683e 0731 333d
000000e0: 286c edbd 0944 08bc aa4b db3c ffa7 a63d
000000f0: fa33 80bd 00e2 893e 8550 85be 582a 7d3d
00000100: d11a fb3d 8de6 e9ba 6e99 843c 3ef1 9ebb
00000110: 2555 afbe 938e 9fbd ed8a 4abe ae45 5e3e
00000120: f5c5 d03c 0b82 fdbd 14ae aa3e bea9 98ba
00000130: 65d7 0abe 545c 85be faf4 00bd 76fd 2e3d
00000140: 2979 6cbd ead2 ef3e 91b6 39bd f6ba 0a3e
00000150: 3b3e 043c fc9f 07bf e180 febd 2639 35bd
00000160: 81a1 a3bd fdac 0cbc c6f9 023d d834 193e
00000170: 754d 053e 66d7 0ebe 6fd4 84be 0b25 a9bd
00000180: 775f ff3d 2734 00bf b5af 0cbe 3ef4 d93d
00000190: 3b8f 10be 448c 173e d2cb 003c 43b4 183c
000001a0: ac3c 98bb ea44 853e 1f88 b9bd e459 213c
000001b0: 693c 463e ebaf 4ebd e990 db3d 2382 183e
000001c0: 85e5 9e3e 873c f63d cfaf e1bd 2e15 0f3e
000001d0: a024 b43d ed84 803d 8ec8 35bd a22e a7bc
000001e0: 3556 9bbd b220 7a3d 5a2d 19be b3d2 dbbd
000001f0: f071 493e 40d0 2ebe b119 3abd cdf9 e53d
00000200: 0096 5b36 c795 18bd 54d1 a5be 25a9 683e
00000210: 6268 063e 2a4e 05be 29f4 0abe fbc9 d23e
00000220: 3908 0cbe 8e79 dabd 7307 76be 33df ad3d
00000230: f95f 41bc 91b0 513c c0d2 b5bd 80a5 4e3c
00000240: 8fd2 463e 84cd 54be 83c7 78be f8bb e23d
00000250: 5108 06be 553e 3d3e 057e 2abd a7e4 efbd
00000260: 13cd 78bb c26d 5fbe 4f29 91bd 73c6 033d
00000270: e0bc f83d 478c 583d 14c9 64be fe1a 3abe
00000280: 9759 88be e280 89be a29b 9ebe fd24 46be
00000290: 8635 313e 9fd3 f33c 5a89 983d 65e6 ca3d
000002a0: e6a3 f93e 43d4 68be 3b71 c8bd 9de5 aa3e
000002b0: 7c44 c83d da9e 3c3d 13fd dabb aaca 01be
000002c0: 81aa 13bd 80cc 69bd 7173 b2be 40b9 483e
000002d0: d447 01bf 1153 2a3e faf6 603e 3da4 8abd
000002e0: a753 703e 01b7 563d 59d0 3ebe 47da 33be
000002f0: 0dd1 c13e 45d4 003e d2f1 39be 2751 a7be
00000300: 0259 37be 0935 253e eb0b 853c 17e5 d33d
00000310: 24bf 143a 52e5 b3bd cd07 32be fb77 363e
00000320: d8ce 4fbe 9660 623e 2b52 6cbe 462b 83bc
00000330: f674 a7bd c274 acbe d75e 263e 647c 9fbd
00000340: b12e 203d 7d6d 9fbc 9a66 0f3d 92ec b4bd
00000350: c9b8 9f3d 770c 8a3e b892 8abb 599e 0e3d
00000360: db2c 723d 265a ac3e ef9c 21be c42f 383e
00000370: 17c7 473e 0358 2abe 8823 1fbe 4b1d ca3c
00000380: 51a9 ff3d 672f cd3e c92d 58be cc04 fd3c
00000390: 1d69 25be 5610 553e e1be b7be e8b1 07bd
000003a0: 6e35 1c3c a95d 273e 7225 103d b2ae 843e
000003b0: cd5c 853d b108 f5bc 328a a03e 240f 733e
000003c0: e4cb c23e 5d99 d63d ac7a 62be a8bb 653e
000003d0: 0129 98be 818b 1fbe ffd5 12bc ccf1 713d
000003e0: e3d7 a3bc b446 47be 61b6 5bbd e983 b5bd
000003f0: 4490 a03e 35b5 953d 88a0 483d 082a 773d

bias f4 [128]
0.9422388 -0.77287203 -0.61771613 -2.1937287 0.50099134 -2.3907356 -1.1484597 -0.77571565
0.001114965 -2.9800742 -2.7130094 0.6095393 -1.2110533 -0.5918975 -3.787602 1.4905694
0.46537805 0.45722505 -2.1279685 0.009631835 0.99656546 -3.351726 0.7583054 -0.051474955
-1.0732048 -3.7566223 -2.1806269 -0.5784536 -1.00119 0.35196623 -2.1788094 0.56088614
-0.4476094 0.7495442 -4.0026855 -1.9203498 -0.30453518 0.65360284 -0.76290447 0.5770803
-3.8775187 0.28335908 -0.087978646 -2.1290598 0.5886256 -3.2716634 -0.7508967 -2.500564
-0.48441523 -3.370937 0.072837554 1.3083683 -0.19469514 -1.4432957 -2.3742738 0.9673547
0.71506053 0.056754954 -0.185834 -2.775583 0.43307468 -2.1470165 0.9390495 1.098931
1.4705442 -1.927792 -1.1066701 0.35482636 -0.5053215 -2.4146 -0.99398935 1.5781877
0.3947932 0.6746523 1.4553745 -0.46871552 0.121921554 -0.689466 -0.7161794 0.5513051
-3.7422793 -3.328747 0.83284706 0.88662463 0.2678407 1.1169838 -1.8888776 0.25734952
2.0166645 -0.63727146 0.50724465 -1.4713899 -2.111621 -0.15727063 1.7536305 -0.844428
-2.7550673 -2.8233087 -1.2482861 -1.117936 0.43005657 -0.36385155 -1.2915549 1.6953983
-4.1663194 1.3274353 1.2165728 -0.20397015 1.1183271 -1.6820669 1.0236554 0.8805775
0.10702696 -3.1182487 0.97676414 -1.397204 0.056376852 -2.1403384 0.29203978 -1.5207257
-1.1067032 -3.0874712 -4.0956893 0.00019695355 -1.1714736 0.9838657 -0.27407658 0.11580838
00000000: 9036 713f f1da 45bf a522 1ebf 0d66 0cc0
00000010: f840 003f d001 19c0 ba00 93bf 4d95 46bf
00000020: 0424 923a 89b9 3ec0 f2a1 2dc0 c40a 1c3f
00000030: cb03 9bbf 9886 17bf 1268 72c0 faca be3f
00000040: 0846 ee3e 6719 ea3e a330 08c0 d8ce 1d3c
00000050: ea1e 7f3f ae82 56c0 4d20 423f 67d7 52bd
00000060: c65e 89bf 806c 70c0 648f 0bc0 8915 14bf
00000070: fe26 80bf eb34 b43e 9d71 0bc0 3c96 0f3f
00000080: 0f2d e5be 21e2 3f3f 0016 80c0 06ce f5bf
00000090: 09ec 9bbe 8452 273f b54d 43bf 89bb 133f
000000a0: 4429 78c0 7114 913e 262e b4bd 8442 08c0
000000b0: 2bb0 163f ef62 51c0 c43a 40bf 3e09 20c0
000000c0: 4605 f8be 6fbd 57c0 db2b 953d 9d78 a73f
000000d0: 2a5e 47be eabd b8bf 1af4 17c0 8fa4 773f
000000e0: 350e 373f e277 683d 454b 3ebe 27a3 31c0
000000f0: f7bb dd3e b868 09c0 8c65 703f c5a9 8c3f
00000100: cb3a bc3f e3c1 f6bf 5ea7 8dbf cdab b53e
00000110: c05c 01bf ce88 1ac0 1676 7ebf 0e02 ca3f
00000120: 5622 ca3e 03b6 2c3f b649 ba3f 7bfb efbe
00000130: 02b2 f93d d880 30bf 8857 37bf 5522 0d3f
00000140: 8181 6fc0 310a 55c0 7735 553f d5f9 623f
00000150: 6b22 893e 53f9 8e3f bec6 f1bf 51c3 833e
00000160: 0811 0140 3924 23bf c9da 013f 8156 bcbf
00000170: cc24 07c0 8d0b 21be f776 e03f 6f2c 58bf
00000180: 0653 30c0 17b1 34c0 d7c7 9fbf 8718 8fbf
00000190: 6030 dc3e c04a babe ac51 a5bf d002 d93f
000001a0: 7d52 85c0 66e9 a93f a8b8 9b3f 8ddd 50be
000001b0: 5825 8f3f f84d d7bf 2407 833f 876d 613f
000001c0: f330 db3d 6391 47c0 370d 7a3f 95d7 b2bf
000001d0: 6aeb 663d 4efb 08c0 3d86 953e 24a7 c2bf
000001e0: 73a8 8dbf 2199 45c0 e30f 83c0 5185 4e39
000001f0: d9f2 95bf 9fde 7b3f c453 8cbe f22c ed3d

weight f4 [64, 128]
0.13937028 0.04200512 0.055695266 0.22136512 0.037806932 -4.213706 0.11689193 0.056194797
0.063214116 0.58131355 0.59007114 -0.023260979 0.42726675 0.0015766175 1.2210974 -0.061519206
-0.014915678 0.09644021 -0.32345435 -0.965162 0.038621053 1.2757944 0.0185913 -0.06779516
-7.7258687 0.17669907 0.18464872 0.11754113 0.17342055 0.016768686 0.27756405 0.08305849
-0.05447195 -0.13239735 -8.136249 0.45909664 0.20407331 0.17055409 0.062986724 -0.017349763
0.066013366 0.27621874 0.44216537 0.24178396 0.20175652 0.13292289 0.04813409 0.6672631
0.12700485 -2.7823994 0.19092919 -0.1459957 0.09293656 0.19759358 -13.054966 0.41390967
0.11660504 -0.06568017 0.11005015 0.7297149 -0.106203236 0.37078053 0.09088114 0.10981006
0.06728777 -8.00048 0.18724503 0.045653965 -0.3396702 0.5940523 0.031321067 0.06064436
0.14212425 0.06360975 -0.12792559 0.116771735 0.0006494797 0.036117356 -0.662028 0.07223424
1.1238331 0.86508554 -0.07793649 -0.033799242 0.16575089 -0.28840205 -13.173286 -0.075814806
0.050891932 -5.70473 0.19584487 0.79233944 0.15467918 0.16134857 0.07030122 0.044691544
-6.5386477 0.23589006 0.12462834 0.049373608 0.06805456 0.2500931 -0.09167662 0.08918319
0.6004518 0.021764573 -0.18290277 0.22508101 0.1575412 -16.190287 0.050520644 0.14693137
0.13295211 0.21770799 -0.37911427 0.5130309 0.06671628 0.3056207 0.12905209 0.36136633
0.13348901 1.2295736 1.7246281 0.16667128 0.39049318 -0.3997953 0.24263978 -91.49022
-0.0016998643 -0.15895566 0.09863244 0.39416996 0.048980605 -20.06215 0.15181385 0.1979907
0.06759244 0.6384963 0.08742952 0.434202 0.33396554 0.039238404 1.1312218 0.054469526
-0.19110924 0.023740439 0.39216477 0.15057169 0.65103894 -5.0691695 -0.27838445 0.03644838
-49.86368 0.27525905 0.14635204 0.1507072 -0.16090713 0.011484573 0.18945615 0.10066206
0.057192296 -0.2658793 0.11486371 0.35255685 0.06372124 0.41213462 0.13094172 0.44685316
0.19419439 0.22913204 0.17163117 0.2981104 -0.08393759 -0.18369973 0.2920147 0.10373799
0.17329566 -3.4304721 -0.091506556 -0.23114946 0.082094125 0.19519518 -0.43589142 0.2071004
-0.10306813 0.02019711 0.08418175 0.71088856 -0.41395772 0.038312178 0.012738129 0.43465608
0.05954718 -20.963064 0.07557371 0.01611894 -0.8286651 0.65320605 0.13362929 0.026284074
-0.5014677 0.10747954 -0.16586667 0.12120529 0.25756487 0.014046849 -0.0059169335 0.04858829
1.054709 0.9846293 -0.026423668 0.42276764 -0.002269652 -0.14945379 0.49791858 0.061160065
0.12049741 0.36388314 -0.2675413 0.608314 -1.8916802 0.100493215 0.068002425 0.22562867
0.8764725 0.40477097 0.04179226 0.3063182 0.11282555 0.17607525 -2.7374158 0.14239062
0.44378194 0.18178718 -0.22640696 0.20659523 0.3840648 -5.8715906 -0.17293629 0.13799441
-62.310616 0.7244291 -0.33625615 -1.0573678 0.088082604 0.29902282 0.08944187 -33.102463
0.17146371 1.1916513 -16.386887 0.011599434 0.36912844 0.039292704 0.16760138 0.13506322
00000000: 15b7 0e3e 900d 2c3d b820 643d 8aad 623e
00000010: 71db 1a3d aed6 86c0 0965 ef3d 842c 663d
00000020: 6776 813d f7d0 143f e70e 173f cf8d bebc
00000030: b5c2 da3e 81a6 ce3a eb4c 9c3f 90fb 7bbd
00000040: e360 74bc 7282 c53d cf9b a5be db14 77bf
00000050: 1c31 1e3d 3b4d a33f c84c 983c 30d8 8abd
00000060: 513a f7c0 9af0 343e 8e14 3d3e 67b9 f03d
00000070: 2895 313e 7c5e 893c e01c 8e3e 921a aa3d
00000080: fb1d 5fbd 2c93 07be 132e 02c1 b70e eb3e
00000090: 98f8 503e bba5 2e3e 2fff 803d 1721 8ebc
000000a0: 0432 873d 8b6c 8d3e 8063 e23e 3796 773e
000000b0: 4399 4e3e f01c 083e 4028 453d c1d1 2a3f
000000c0: 8f0d 023e d512 32c0 f182 433e e67f 15be
000000d0: 8655 be3d f955 4a3e 24e1 50c1 f8eb d33e
000000e0: a0ce ee3d 5383 86bd f961 e13d 98ce 3a3f
000000f0: 1581 d9bd f2d6 bd3e e41f ba3d 19e4 e03d
00000100: 2cce 893d f701 00c1 29bd 3f3e a7ff 3a3d
00000110: 41e9 adbe d013 183f 854a 003d 3866 783d
00000120: 0589 113e d445 823d edfe 02be 0526 ef3d
00000130: d841 2a3a cbef 133d ab7a 29bf 8cef 933d
00000140: c3d9 8f3f 3f76 5d3f 2b9d 9fbd 1371 0abd
00000150: 9aba 293e 6fa9 93be c8c5 52c1 cb44 9bbd
00000160: 0f74 503d 268d b6c0 8f8b 483e c2d6 4a3f
00000170: 3864 1e3e 8f38 253e 16fa 8f3d 7b0e 373d
00000180: 9a3c d1c0 2a8d 713e 253d ff3d fb3b 4a3d
00000190: 3060 8b3d 340c 803e f4c0 bbbd ada5 b63d
000001a0: 36b7 193f 9e4b b23c dd4a 3bbe a37b 663e
000001b0: 7b52 213e b585 81c1 bcee 4e3d 2d75 163e
000001c0: 9924 083e d8ee 5e3e 441b c2be fe55 033f
000001d0: 8ca2 883d 517a 9c3e 3b26 043e 0205 b93e
000001e0: 58b1 083e ab62 9d3f 9dc0 dc3f e0ab 2a3e
000001f0: b9ee c73e f8b1 ccbe 9076 783e fefa b6c2
00000200: fbcd deba 46c5 22be ceff c93d a5d0 c93e
00000210: e39f 483d 487f a0c1 1775 1b3e 13be 4a3e
00000220: e86d 8a3d 7e74 233f 400e b33d b94f de3e
00000230: 88fd aa3e 73b8 203d e0cb 903f 701b 5f3d
00000240: 24b2 43be 4f7b c23c d2c9 c83e 772f 1a3e
00000250: 7daa 263f a336 a2c0 6888 8ebe e64a 153d
00000260: 6974 47c2 c1ee 8c3e 4fdd 153e fd52 1a3e
00000270: d7c4 24be ca29 3c3c cb00 423e e927 ce3d
00000280: 7842 6a3d 5521 88be aa3d eb3d 5582 b43e
00000290: 4880 823d 4f03 d33e 9615 063e f0c9 e43e
000002a0: e5da 463e 97a1 6a3e 15c0 2f3e eda1 983e
000002b0: 79e7 abbd c81b 3cbe f382 953e 9574 d43d
000002c0: 6b74 313e db8c 5bc0 ca67 bbbd 72b2 6cbe
000002d0: f720 a83d 3fe1 473e 292d dfbe 2112 543e
000002e0: 6215 d3bd 6974 a53c 7b67 ac3d cbfc 353f
000002f0: 44f2 d3be 3bed 1c3d 96b3 503c 3e8b de3e
00000300: bee7 733d 5bb4 a7c1 64c6 9a3d de0b 843c
00000310: 6523 54bf 8338 273f 1ed6 083e b351 d73c
00000320: 3060 00bf 3c1e dc3d f4d8 29be 7b3a f83d
00000330: 8bdf 833e c124 663c d6e2 c1bb 8404 473d
00000340: b400 873f aa10 7c3f 7376 d8bc 0075 d83e
00000350: 71be 14bb 6a0a 19be 2fef fe3e fa82 7a3d
00000360: 59c7 f63d e44e ba3e 2cfb 88be 77ba 1b3f
00000370: 9422 f2bf 63cf cd3d db44 8b3d 340b 673e
00000380: 8060 603f 243e cf3e 5c2e 2b3d bdd5 9c3e
00000390: 1511 e73d 124d 343e d231 2fc0 d9ce 113e
000003a0: 6337 e33e 6b26 3a3e 3ad7 67be b38d 533e
000003b0: 24a4 c43e 12e4 bbc0 3616 31be 684e 0d3e
000003c0: 123e 79c2 2f74 393f c429 acbe d457 87bf
000003d0: a764 b43d 8519 993e 4d2d b73d ec68 04c2
000003e0: 2f94 2f3e 0888 983f 5818 83c1 8d0b 3e3c
000003f0: 67fe bc3e 63f1 203d b29f 2b3e 034e 0a3e

bias f4 [64]
0.2061811 -2.5516407 4.249354 2.0102177 -0.4010745 1.3770411 2.9306285 2.0200188
2.5563917 -2.5555313 -0.52766883 3.3539283 -1.6473341 -2.8971412 -3.3998873 0.6253917
0.820966 -5.791392 0.84443295 -1.3136307 -1.8394691 4.140555 -1.8430371 2.4971354
2.7979019 4.4637723 2.3963802 -1.1604531 -1.143866 -1.1576807 0.40777925 -2.5061042
-0.9432528 4.984924 1.9371397 -1.0546709 -1.108978 -1.0798011 1.4758064 0.67459583
-3.5475 -1.0201367 -0.6518647 -1.6123041 -0.54106945 -0.37515166 -0.9440566 0.6966789
-0.20371537 -0.627829 0.8012021 -0.25230828 -0.6295887 1.6108904 -4.764199 -2.051202
3.734898 1.8774825 -1.879968 -2.9319375 0.96689487 -0.42181474 -3.6758199 0.70259434
00000000: 2321 533e 154e 23c0 b5fa 8740 68a7 0040
00000010: a359 cdbe e242 b03f 6b8f 3b40 fd47 0140
00000020: ec9b 2340 d38d 23c0 4e15 07bf c3a6 5640
00000030: d8db d2bf c36a 39c0 c197 59c0 ac19 203f
00000040: d42a 523f 1553 b9c0 c22c 583f 0d25 a8bf
00000050: b973 ebbf 6d7f 8440 a4e8 ebbf 11d1 1f40
00000060: d310 3340 39d7 8e40 4b5e 1940 ba89 94bf
00000070: 336a 92bf e22e 94bf 71c8 d03e 0364 20c0
00000080: 0479 71bf 7f84 9f40 32f4 f73f 75ff 86bf
00000090: fef2 8dbf ec36 8abf 39e7 bc3f 50b2 2c3f
000000a0: 3d0a 63c0 d793 82bf 9be0 26bf fb5f cebf
000000b0: 8783 0abf e113 c0be b1ad 71bf 8c59 323f
000000c0: c39a 50be 67b9 20bf 951b 4d3f 8d2e 81be
000000d0: ba2c 21bf a831 ce3f 5174 98c0 e546 03c0
000000e0: 9208 6f40 5951 f03f cba2 f0bf dda4 3bc0
000000f0: 6c86 773f 1af8 d7be a240 6bc0 39dd 333f
