pth/takada_model_100.pth (torch, 464802 bytes, 6 tensors)

weight f4 [256, 128]
0	0x4001291b	2.0181339
1	0x3df6b894	0.12046924
2	0xbf5f39f4	-0.87197804
3	0xbe956485	-0.29178253
4	0x3e5facc6	0.21843252
5	0x3ed68e80	0.41905594
6	0x3e9eecc2	0.31040007
7	0x3f7329b6	0.9498552
8	0xbf0be9c8	-0.54653597
9	0xbf49e905	-0.78871185
10	0xbe27c18b	-0.16382425
11	0xbe85d299	-0.26137236
12	0xbe45112e	-0.19244835
13	0x3e9c435f	0.3052015
14	0x3d057ef3	0.03259177
15	0x3f1efbce	0.62102973
16	0x3ee32a22	0.44368082
17	0xbe47e974	-0.19522649
18	0x3efdec94	0.49594557
19	0x3f139f82	0.57665265
20	0xbd49e5bb	-0.049291354
21	0xbe64e221	-0.22351886
22	0x3ec038e1	0.37543395
23	0xbe26ce75	-0.16289695
24	0x3ee478fb	0.4462355
25	0x3e387e47	0.18016921
26	0x3fa44660	1.2833977
27	0x3edce148	0.43140626
28	0x3f302543	0.68806857
29	0x3f931ac8	1.1492548
30	0x3e4a4521	0.19752933
31	0x3ea1bf5d	0.3159131
32	0xbd216b39	-0.039408896
33	0x3dc58e78	0.096463144
34	0x3e0fa797	0.14028774
35	0x3f69acbc	0.91279197
36	0x3fb8d36d	1.4439522
37	0xbecf88e9	-0.40534142
38	0xbd08da0e	-0.03341108
39	0xbec5c4ce	-0.38626713
40	0xbe89765c	-0.26848114
41	0x3ec20f2f	0.3790221
42	0xbeab1049	-0.33410862
43	0x3f1a555f	0.60286516
44	0x3fe9790e	1.8240068
45	0x3db525eb	0.08845123
46	0x3eed1ac9	0.46309498
47	0xbe0c0929	-0.1367537
48	0xbedd7eff	-0.43260953
49	0xbeeba752	-0.46026093
50	0x3ebc2a97	0.36751243
51	0x3d3a2c2b	0.045452278
52	0xbf0ae347	-0.5425305
53	0x3e3c8200	0.18408966
54	0x3ef2b519	0.47403792
55	0x3f15b4b9	0.58478886
56	0x3f355adf	0.70841783
57	0x3f7cc41d	0.98736745
58	0xbd3ffc66	-0.046871565
59	0x3f654ee2	0.8957349
60	0x3ec3ba28	0.38227963
61	0x3db60e33	0.08889427
62	0xbd8b523c	-0.06802794
63	0xbfd9bcd9	-1.7010757
64	0x400ee40b	2.2326686
65	0xbecd8d6c	-0.4014696
66	0xbf244d37	-0.6418032
67	0xbe19ce1f	-0.15020035
68	0xbf8e8e3a	-1.1137154
69	0x3d3ba066	0.045807265
70	0xbefdcafd	-0.4956893
71	0x3f53517a	0.825462
72	0xbf4cc8b1	-0.7999373
73	0xbf96fe15	-1.179629
74	0x3e726ed1	0.23675086
75	0xbe64c5e5	-0.22341116
76	0xbeb9dc19	-0.36300734
77	0xbd268a32	-0.040659137
78	0xbe5231e4	-0.20526844
79	0x3e64c3d3	0.22340326
80	0x3f0e8ffb	0.55688447
81	0xbed9129e	-0.42397016
82	0x3e58f886	0.21188554
83	0x3eebbc45	0.46042076
84	0x3ec611a5	0.38685337
85	0x3e124dda	0.1428751
86	0x3da155bb	0.0787768
87	0x3dfb5fa7	0.122741036
88	0x3f29660a	0.66171324
89	0x3c6d056c	0.014466625
90	0x4014d107	2.325258
91	0x3f7cf8fc	0.9881742
92	0x3f5dea2f	0.8668546
93	0x3fcc5b63	1.5965389
94	0x3e2004c4	0.15626818
95	0x3f056eda	0.5212227
96	0xbceafb24	-0.028684206
97	0x3eed5891	0.46356633
98	0x3d7bfb89	0.06151918
99	0x3f1fa891	0.62366587
100	0xbd331b7c	-0.043727383
101	0xbe92f5d0	-0.28703165
102	0xbdfa8446	-0.122322604
103	0xbf2356cb	-0.6380431
104	0x3d007d37	0.031369414
105	0x3e64e946	0.22354612
106	0xbd54477f	-0.051825996
107	0x3d02d5f3	0.03194232
108	0x3f45efae	0.7731885
109	0x3f1eda9f	0.6205234
110	0x3f05e2b3	0.5229904
111	0xbecab519	-0.39591292
112	0x3f4855a7	0.78255695
113	0x3f45a1f9	0.77200276
114	0x3e54e81a	0.20791665
115	0xbdf3b70b	-0.11900147
116	0x3d805add	0.06267331
117	0x3e617c7e	0.22020146
118	0x3faab01a	1.3334992
119	0x3f5202d9	0.82035595
120	0x3f03a943	0.5143015
121	0x3ea4e714	0.3220755
122	0x3ebf3beb	0.373504
123	0x3eef7a00	0.46772766
124	0x3f597abd	0.8495291
125	0x3f0275af	0.5096082
126	0x3ecb8f7f	0.39757916
127	0xbf52c15c	-0.82326293
128	0x3d915f17	0.07098215
129	0xbf5515d0	-0.8323641
130	0xbf4ef36c	-0.8084018
131	0xbf68b37b	-0.90898865
132	0xbf3c73c2	-0.7361413
133	0xbfa6411d	-1.2988621
134	0xbf3eff82	-0.74608624
135	0x3fbb69fb	1.4641718
136	0xbf13d3b7	-0.57744926
137	0x3e8bdb9c	0.27315986
138	0x3f15f196	0.58571756
139	0x3d194d15	0.037427027
140	0x3d051500	0.03249073
141	0x3ebd1444	0.36929524
142	0xbe0a8d89	-0.13530554
143	0x3d689844	0.056785837
144	0x3f06e3cf	0.5269136
145	0x3d0f30b2	0.03495855
146	0x3debe2bd	0.11517856
147	0xbe91a01d	-0.2844247
148	0x3f9455fa	1.1588738
149	0xbeb556fe	-0.35417932
150	0xbf822490	-1.0167408
151	0xbe073f14	-0.13207656
152	0xbe8ef31f	-0.27919862
153	0xbe07e400	-0.13270569
154	0xbf70d30b	-0.94072026
155	0x3f4b839f	0.7949771
156	0x3fa01536	1.2506473
157	0x3f3ad6f4	0.7298424
158	0xbd39b0f1	-0.04533476
159	0xbf9c9b6c	-1.2234931
160	0xbf306bd6	-0.68914545
161	0xbe88b265	-0.26698604
162	0x3ee35797	0.44402763
163	0x3eee2266	0.4651062
164	0x3f8545a9	1.0411884
165	0x3d3861d8	0.045015186
166	0xbeb8130f	-0.3595204
167	0xbf38f71f	-0.72252077
168	0xbf94b2c0	-1.161705
169	0x3d9a54c5	0.075357
170	0x3eccde4f	0.40013358
171	0xbf4b3f1b	-0.79393166
172	0x3fec1cce	1.844629
173	0xbf65d695	-0.8978055
174	0xbf372914	-0.71547055
175	0x3af6a2e8	0.001881686
176	0xbea8d24c	-0.32972944
177	0xbf85b191	-1.0444814
178	0xbe217604	-0.15767676
179	0xbe79cbc6	-0.2439414
180	0x3d0264ef	0.03183454
181	0xbe3e3046	-0.18573102
182	0xbf2d3390	-0.67656803
183	0xbd834df6	-0.06411354
184	0x3f2ac0b6	0.66700304
185	0xbecd2c9c	-0.40073097
186	0xbd8f02f4	-0.06982985
187	0x3e8f4e16	0.27989262
188	0xbf1b7c49	-0.6073652
189	0xbea92584	-0.33036435
190	0xbe6c0df0	-0.23052192
191	0x3ed61053	0.4180933
192	0x3e0f0c87	0.13969623
193	0xbe925870	-0.28583097
194	0x3df00772	0.1172017
195	0x3e1b622b	0.15174167
196	0x3fbb6b63	1.4642147
197	0xbf229df3	-0.6352226
198	0xbfb157a3	-1.385487
199	0x3f6ded92	0.9294063
200	0xbe847ac5	-0.25874916
201	0x3ec35b89	0.38155773
202	0x3f742eeb	0.9538409
203	0x3ef54936	0.47907418
204	0x3d944d2c	0.07241282
205	0x3ee828b0	0.45343542
206	0xbf690f17	-0.9103865
207	0xbf5ef448	-0.87091494
208	0x3f096c02	0.5368043
209	0xbec9d389	-0.394192
210	0x3e68a093	0.22717504
211	0xbf252968	-0.64516306
212	0x3f9f6e6f	1.2455577
213	0xbea94a6d	-0.33064595
214	0xbf1bc7e5	-0.6085189
215	0xbd8411da	-0.064487174
216	0xbe092b1d	-0.13395353
217	0xbe4759df	-0.19467877
218	0xbf2ded3b	-0.6794011
219	0x3f5dbb30	0.8661375
220	0x3f50131c	0.8127916
221	0x3f22665f	0.63437456
222	0xbe3aaa82	-0.18229106
223	0xbf2da9cb	-0.6783721
224	0xbe639d0f	-0.22227882
225	0x3df91dd7	0.121638946
226	0x3f6406e0	0.8907299
227	0x3fc020bf	1.5009993
228	0x3f5b1ff9	0.8559566
229	0x3e78aafb	0.24283974
230	0xbe368286	-0.17823228
231	0xbede4cee	-0.43418068
232	0xbf0da8d3	-0.5533573
233	0xbeb2c4a6	-0.34915656
234	0x3ee5c4b2	0.4487663
235	0xbeb44aff	-0.35213467
236	0x3ff3c272	1.9043715
237	0xbf443b74	-0.7665322
238	0xbf1a9455	-0.60382587
239	0xbe7af915	-0.2450908
240	0xbed5c291	-0.41750005
241	0xbe6ff21f	-0.23432206
242	0xbf154676	-0.5831064
243	0x3c415b01	0.011801482
244	0x3f008ece	0.502179
245	0xbc3ea2f5	-0.011635532
246	0xbec2764d	-0.3798088
247	0xbde879a9	-0.1135133
248	0x3ef2c23a	0.47413808
249	0xbf62c44a	-0.88580763
250	0xbd6ef9a9	-0.058343563
251	0xbe73d0d4	-0.2381013
252	0xbec14405	-0.37747207
253	0xbe526bd1	-0.20548941
254	0xbe0cae1c	-0.13738292
255	0x3f096d31	0.5368224

bias f4 [256]
0	0x3f4182b4	0.7559006
1	0x3f7ff41b	0.9998185
2	0xbf47aec0	-0.7800102
3	0x3e5b5a27	0.21421109
4	0xbccad738	-0.024760827
5	0xbed6b9e7	-0.41938707
6	0xbcd07174	-0.025444724
7	0x3fb95f58	1.4482222
8	0xbe043451	-0.12910582
9	0x3dc421eb	0.09576782
10	0xbe2cb325	-0.16865213
11	0x3f97891c	1.1838717
12	0x3e17923c	0.14801878
13	0x3fdb18d4	1.7116952
14	0xbfb1e187	-1.389695
15	0xbebe1ad6	-0.3712985
16	0xbe9b3651	-0.30314878
17	0xbe92587c	-0.28583133
18	0x3dd7c010	0.1053468
19	0x3ed370c1	0.41296962
20	0xbebe1202	-0.37123114
21	0xbe749639	-0.2388543
22	0x3e9b8e41	0.3038197
23	0xbfd6f227	-1.6792649
24	0x3f02ace5	0.51045066
25	0xbf5e5d21	-0.86860853
26	0xbe26aeb8	-0.16277587
27	0x3ea8ebf8	0.3299253
28	0x3e2a286e	0.16616985
29	0x3d9b7879	0.07591338
30	0x3e4acf2d	0.19805594
31	0x3e41f723	0.18941931
32	0x3e83d050	0.25744867
33	0x3e60a8e2	0.21939424
34	0xbe6636da	-0.22481862
35	0xbe8cd159	-0.2750347
36	0xbe1542c1	-0.14576246
37	0xbed611e0	-0.41810513
38	0xbdc228d1	-0.09480441
39	0x3fc19fb8	1.5126867
40	0x3f1b8e23	0.6076376
41	0xbfa269e1	-1.2688562
42	0x3f02d649	0.51108223
43	0x3ea6476d	0.3247637
44	0xbe21067a	-0.15725127
45	0xbf17db6d	-0.5931919
46	0x3d26c498	0.04071483
47	0xbdfef764	-0.1244953
48	0xbeb3c438	-0.3511064
49	0xbeec737b	-0.46181855
50	0xbe2f0a22	-0.17093709
51	0x3ea06da7	0.31333658
52	0xbea2028e	-0.31642574
53	0xbea90724	-0.3301326
54	0x3ddeb977	0.10875218
55	0x3e06b481	0.13154794
56	0x3ea3e304	0.32009137
57	0x3e1f9975	0.15585883
58	0xbe6e5b39	-0.23276986
59	0x3dc18f41	0.09451152
60	0xbe81c5d6	-0.2534625
61	0x3e12c297	0.14332043
62	0x3f046fda	0.5173317
63	0x3d4f8d8c	0.0506721
64	0x3eae0da1	0.33994773
65	0x3f1a218f	0.60207456
66	0x3ec308b0	0.38092566
67	0xbe8f7efa	-0.28026563
68	0xbf14299d	-0.57875997
69	0x3e5707e5	0.20999105
70	0xbe054faa	-0.1301867
71	0xbeaa0a4c	-0.3321098
72	0xbf473240	-0.7781105
73	0xbe231a37	-0.15927969
74	0xbdbb4d20	-0.0914557
75	0x3ef1540d	0.47134438
76	0x3d93d384	0.07218078
77	0xbe642251	-0.22278716
78	0x3e22ca14	0.15897399
79	0xbe3af930	-0.1825912
80	0xbed0572e	-0.40691513
81	0xbf647ec3	-0.89255923
82	0x3dc30e03	0.09524157
83	0x3e38abe8	0.18034327
84	0x3e37a6f5	0.17934783
85	0xbc804e70	-0.015662402
86	0x3d3a013b	0.04541133
87	0x3ce28b13	0.027654206
88	0x3e5b9cf9	0.21446599
89	0xbe5e80c7	-0.21728812
90	0x3e04f488	0.12983906
91	0x3f3696f9	0.71324116
92	0x3f3d0325	0.73832923
93	0x3e854b82	0.2603417
94	0xbe42f564	-0.19038922
95	0xbf38d25c	-0.7219598
96	0x3e8a2fc1	0.26989558
97	0x3f8cdf07	1.1005563
98	0x3d97cf8a	0.07412632
99	0x3d4bf0c9	0.049790177
100	0x3d94682a	0.0724643
101	0x3ed699bc	0.41914165
102	0x3ea721d8	0.32643008
103	0x3a9ffac3	0.001220547
104	0x3f2f24b4	0.6841538
105	0x3f18a4a4	0.5962622
106	0xbfcd66f2	-1.6047041
107	0x3eb8c4d5	0.3608767
108	0x3ebb4808	0.36578393
109	0x3f27f1fb	0.6560361
110	0xbc9c9fcd	-0.019119168
111	0xbeebe06e	-0.46069664
112	0xbed50e8b	-0.41612658
113	0xbf32da2c	-0.69864154
114	0xbe213839	-0.15744103
115	0x3e4d078c	0.2002241
116	0xbfe84621	-1.8146402
117	0x3ee45e1c	0.4460305
118	0xbf3d35e2	-0.73910344
119	0x3a3b4ac5	0.00071446254
120	0xbf1629ec	-0.5865772
121	0x3ed72359	0.42019156
122	0xbce39746	-0.027782094
123	0xbe44d217	-0.19220768
124	0xbe841bc7	-0.25802442
125	0xbe1ba2e5	-0.15198858
126	0xbead067b	-0.33794007
127	0x3f01f8ce	0.5077027
128	0x3f30c459	0.690496
129	0xbe43bac1	-0.1911421
130	0x3af90122	0.001899753
131	0x3d2f145f	0.042744037
132	0xbe287c7c	-0.16453737
133	0x3f464f02	0.77464306
134	0xbdbb8c49	-0.09157617
135	0x3d90db6e	0.07073103
136	0x3e1bdd33	0.152211
137	0xbcc4a7b4	-0.024005748
138	0xbea4aedb	-0.32164654
139	0x3e36eaab	0.17862956
140	0xbde4b256	-0.111668274
141	0xbdb935c4	-0.09043458
142	0xbe6a4f03	-0.22881703
143	0x3e155183	0.14581876
144	0xbeb99c92	-0.36252266
145	0x3da1ebc8	0.079063
146	0x3d96bff2	0.073608294
147	0x3e9ac823	0.30230817
148	0x3dbc063f	0.09180879
149	0x3ebcc441	0.3686848
150	0xbed16953	-0.40900669
151	0xbd67022a	-0.05639855
152	0xbd1aa030	-0.037750423
153	0x3ec5e3ca	0.38650352
154	0xbe91891a	-0.28424913
155	0xbf9db894	-1.2321954
156	0xbd11671e	-0.03549873
157	0x3f8a6687	1.0812539
158	0xbe9309ae	-0.28718323
159	0xbebedc99	-0.37277678
160	0xbed1ff4c	-0.4101509
161	0xbeb5f0c8	-0.35535264
162	0xbfd627a2	-1.6730845
163	0x3f119e08	0.5688176
164	0xbe24bc30	-0.16087413
165	0x3e7d8947	0.24759398
166	0x3da63aa6	0.08116655
167	0x3dcb7f70	0.09936416
168	0xbe4a41e5	-0.197517
169	0xbd96baff	-0.073598854
170	0x3e6bdb6f	0.23032926
171	0xbee2adea	-0.4427331
172	0xbe41dbfb	-0.18931572
173	0xbda7ba29	-0.08189804
174	0x3f4fb659	0.81137615
175	0x3e235255	0.15949376
176	0x3ed6197c	0.41816318
177	0x3e2c7daa	0.16844812
178	0x3e23ab43	0.159833
179	0xbf1d6402	-0.61480725
180	0x3ea78ad9	0.3272312
181	0x3ed4071d	0.41411677
182	0xbe5bfd9f	-0.21483468
183	0x3e062627	0.13100491
184	0xbde78a0f	-0.113056295
185	0xbeb8a4b5	-0.36063161
186	0x3ee0bd89	0.43894604
187	0x3c9193dc	0.0177707
188	0xbe344396	-0.17603907
189	0xbe619c38	-0.22032249
190	0xbe7a49b1	-0.24442174
191	0x3d81bb9b	0.06334611
192	0x3d80665a	0.06269522
193	0xbe063046	-0.13104352
194	0x3f074de1	0.5285321
195	0xbd4cd0ca	-0.050003804
196	0xbb7fc54f	-0.0039027517
197	0xbf0149b8	-0.5050311
198	0xbf1817d5	-0.59411365
199	0xbf13234c	-0.57475734
200	0x3eda99ce	0.4269547
201	0x3f258e80	0.6467056
202	0x3ea0ae19	0.31382826
203	0x3ee66b68	0.4500382
204	0xbe8a2f9a	-0.26989442
205	0x3e3b105e	0.18267962
206	0x3f0b0b23	0.5431387
207	0x3e1c0f5d	0.15240236
208	0x3e7bf770	0.24606109
209	0xbdae02f5	-0.08496658
210	0xbd304a84	-0.043039814
211	0xbed171c3	-0.40907106
212	0x3ede93b4	0.43472064
213	0x3e7d6a96	0.2474769
214	0x3d993562	0.07480885
215	0xbf446c63	-0.76727885
216	0xbe9c3cc9	-0.30515125
217	0x3d6853d0	0.056720555
218	0xbded3967	-0.11583214
219	0x3d827805	0.06370548
220	0x3dbbf097	0.09176748
221	0x3f1cc99f	0.6124515
222	0xbe022b7d	-0.12711902
223	0xbecfd3f5	-0.40591398
224	0xbd6a9098	-0.0572668
225	0x3e212c93	0.1573966
226	0x3dd0fe05	0.102047004
227	0xbe729de9	-0.2369305
228	0xbe1a159a	-0.15047303
229	0x3e0a1a52	0.13486603
230	0xbda639a4	-0.08116463
231	0x3df64885	0.12025551
232	0x3ea997b9	0.33123568
233	0x3f8b0608	1.0861216
234	0x3e26b309	0.16279234
235	0xbf098c40	-0.5372963
236	0x3eaa6916	0.332833
237	0xbe03fb08	-0.1288873
238	0xbe28e3b4	-0.16493112
239	0xbe4b512c	-0.19855183
240	0xbe756cd7	-0.239673
241	0xbf3b25d6	-0.7310461
242	0xbf04bcd0	-0.51850605
243	0x3f9766ab	1.1828207
244	0xbf898b50	-1.074564
245	0x3d0a4022	0.033752568
246	0x3e89274f	0.26787803
247	0x3e8b6d23	0.27231702
248	0x3e9d83eb	0.30764708
249	0xbcf28d7c	-0.02960848
250	0x3e0dd36a	0.1385018
251	0x3e2b704a	0.16742054
252	0x3ba4699e	0.0050174734
253	0x3f26c642	0.6514627
254	0xbdb15896	-0.086594746
255	0x3e2731ae	0.16327545

weight f4 [256, 256]
0	0xbf3e2aab	-0.74283856
1	0xbf1653d9	-0.5872169
2	0xbdf6db42	-0.12053539
3	0x3f901f5c	1.125957
4	0xbdeb010f	-0.11474811
5	0xbe84b470	-0.25918913
6	0xbec37c5b	-0.38180813
7	0xbe1ed3fa	-0.1551055
8	0xbe9e8b52	-0.30965668
9	0x3cf44124	0.029816218
10	0xbde12df7	-0.10995095
11	0xbe36bcfd	-0.17845531
12	0x3e08f518	0.13374746
13	0xbed12068	-0.40845037
14	0x3f2f6e5a	0.6852776
15	0xbd08afa7	-0.03337064
16	0x3ec846f8	0.39116645
17	0xbecdf76f	-0.4022784
18	0x3ef079a4	0.46967804
19	0x3e160341	0.14649679
20	0xbec01ea3	-0.37523374
21	0xbeeb2578	-0.45927024
22	0x3f0f8b1a	0.5607163
23	0x3f6aefbf	0.91772074
24	0x3e8727b3	0.26397476
25	0x3f5bb1c2	0.8581811
26	0xbdd27316	-0.10275857
27	0x3dab615f	0.083681814
28	0x3e0f06c9	0.13967432
29	0xbd50da4d	-0.050989438
30	0x3e8b2725	0.27178302
31	0xbf4ee351	-0.8081561
32	0xbf6cb0df	-0.92457384
33	0xbf978c40	-1.1839676
34	0xbe4ccac0	-0.19999218
35	0x3efa9f8c	0.4894985
36	0xbdfbe9dd	-0.12300465
37	0x3ecde32e	0.40212387
38	0xbe8e7718	-0.27825236
39	0xbf893e39	-1.0722114
40	0xbf930fd1	-1.1489202
41	0x3dd48730	0.103773475
42	0xbe17238b	-0.14759652
43	0xbf70200c	-0.937989
44	0xbdf87b56	-0.121328995
45	0x3f124e0f	0.5715036
46	0xbeaa44dc	-0.3325566
47	0x3e32eef8	0.17473972
48	0xbf4d79e5	-0.8026412
49	0x3fb7becb	1.43551
50	0xbee47ee4	-0.4462806
51	0xbdc97940	-0.0983758
52	0x3fb3a296	1.4033992
53	0xbd88f01d	-0.06686423
54	0x3f91bec0	1.1386337
55	0xbf133a21	-0.5751057
56	0xbf39858d	-0.7246941
57	0x3db58870	0.08863914
58	0x3f2f650e	0.6851357
59	0xbd7c37a6	-0.061576508
60	0xbef6c89d	-0.4819993
61	0xbef87514	-0.48526824
62	0xbc62b19a	-0.013836289
63	0x3d3007fb	0.04297636
64	0xbebcc2fc	-0.3686751
65	0xbe431711	-0.19051768
66	0xbebaf037	-0.36511394
67	0xbf6c9118	-0.92408895
68	0x3d8555b3	0.065104865
69	0x3f38c888	0.72180986
70	0xbcbf6df5	-0.023367861
71	0x3f05fb97	0.5233702
72	0x3f8bcec7	1.0922478
73	0x3e6436e1	0.2228656
74	0x3ea8d3b4	0.32974017
75	0xbf035e40	-0.5131569
76	0x3e0120c1	0.12610151
77	0x3e72f9e7	0.23728143
78	0xbd71a15c	-0.058991775
79	0xbe9c87f4	-0.30572474
80	0xbecda01e	-0.40161222
81	0xbf1a1a45	-0.60196334
82	0x3f43078b	0.76183385
83	0x3f2b8a43	0.67007846
84	0xbe985b82	-0.29757315
85	0x3ec4236e	0.3830828
86	0x3e1aa560	0.15102148
87	0x3d58d157	0.052934017
88	0x3ee2f9f7	0.44331333
89	0xbf116f19	-0.56810147
90	0x3e1d88bf	0.15384196
91	0x3f08ddda	0.5346352
92	0xbe48241a	-0.19545022
93	0xbe5ce4be	-0.21571633
94	0x3ea0cfdb	0.3140858
95	0xbdeb30fb	-0.11483952
96	0x3beca858	0.0072222166
97	0xbee7360a	-0.45158416
98	0xbe201798	-0.15634
99	0xbea519d1	-0.3224626
100	0x3e06dcd9	0.13170184
101	0xbdad8f96	-0.084746525
102	0xbe16fa11	-0.1474383
103	0xbe0ad475	-0.13557608
104	0x3f1d96d0	0.61558247
105	0x3d43a30f	0.047762927
106	0x3f61aca2	0.8815404
107	0xbf3442eb	-0.7041461
108	0x3d24824d	0.040163327
109	0xbf94200d	-1.1572281
110	0x3e17b254	0.1481412
111	0xbeb3e4a8	-0.35135388
112	0xbf112e71	-0.5671149
113	0xbe0660f9	-0.1312293
114	0x3e8a01d4	0.2695452
115	0xbda6083c	-0.08107039
116	0x3e1d4b38	0.15360725
117	0x3f0e93a5	0.5569404
118	0x3f8e7cf9	1.1131889
119	0x3f3fd820	0.74939156
120	0xbe252d15	-0.16130479
121	0x3eda9d58	0.4269817
122	0x3eecf96a	0.46284038
123	0xbe4f91ba	-0.20270434
124	0xbef3390d	-0.47504464
125	0xbe8dd295	-0.27699724
126	0x3f437d39	0.7636295
127	0x3ecd1406	0.4005434
128	0x3ec6651d	0.38749018
129	0xbe9d4125	-0.30713764
130	0x3f58fd73	0.8476173
131	0x3d4134bb	0.04716943
132	0x3ef783ed	0.4834284
133	0xbf1b5b21	-0.60685927
134	0xbf53c890	-0.8272791
135	0x3eeff078	0.4686315
136	0xbe54f630	-0.20797038
137	0xbe812401	-0.2522278
138	0xbda16cdf	-0.07882094
139	0x3ee111ee	0.43958992
140	0x3b778af5	0.0037772034
141	0xbe190c93	-0.14946203
142	0x3e882324	0.2658931
143	0x3e918fc4	0.28429997
144	0xbd21e57f	-0.039525505
145	0xbcafb499	-0.02144842
146	0x3f12bf6c	0.57323337
147	0xbdeae0b0	-0.11468637
148	0x3e5e1aa5	0.21689852
149	0xbe204a29	-0.1565329
150	0x3ef1eecc	0.472525
151	0xbf480913	-0.78138846
152	0x3e4dc985	0.20096405
153	0xbd9993cc	-0.07498893
154	0x3e0c7690	0.13717103
155	0x3f6d4929	0.9268976
156	0xbe387d38	-0.18016517
157	0xbf0b1e1b	-0.5434281
158	0x3f13a987	0.57680553
159	0xbe83da41	-0.25752452
160	0xbea9a8b1	-0.33136514
161	0xbf2ee4b0	-0.683177
162	0x3f2f1515	0.68391544
163	0x3eb3165d	0.34978
164	0xbee09603	-0.4386445
165	0xbf43dc17	-0.76507705
166	0xbdd04f8b	-0.101714216
167	0x3dda56f1	0.10661114
168	0xbe8d04d1	-0.27542737
169	0xbf6209a6	-0.8829597
170	0x3fab239c	1.3370242
171	0xbda75b82	-0.081717506
172	0xbf4bc0a5	-0.7959083
173	0xbf110a72	-0.56656563
174	0x3f0d4756	0.55186975
175	0x3e2bcd3e	0.16777512
176	0xbc4d46ad	-0.012529057
177	0x3ead7c9e	0.33884138
178	0x3fe33890	1.7751637
179	0xbec60069	-0.38672188
180	0x3f88f83c	1.0700755
181	0x3d86ecb8	0.06588119
182	0x3f9c313c	1.2202525
183	0xbf117299	-0.5681549
184	0xbe13a92c	-0.14420003
185	0xbf13cda2	-0.57735646
186	0xbef51469	-0.47867134
187	0xbeb77d0b	-0.35837588
188	0x3e8cfa55	0.27534738
189	0x3ecd784c	0.40130842
190	0x3f42eb29	0.76140076
191	0x3e92fc7f	0.28708264
192	0x3f1a5915	0.6029218
193	0x3e35413c	0.17700666
194	0xbe1e7cc6	-0.15477285
195	0xbef34151	-0.4751077
196	0x3e6bb026	0.23016414
197	0x3f8f4d78	1.1195517
198	0xbff22ab8	-1.8919287
199	0xbf0267e5	-0.5093978
200	0x3e007725	0.1254545
201	0x3ea7abd9	0.32748297
202	0xbe816321	-0.25270942
203	0xbe9174c6	-0.28409404
204	0xbe912405	-0.28347793
205	0xbeebe656	-0.4607417
206	0xbdf202de	-0.11816953
207	0x3eba12b4	0.36342394
208	0x3cb3108f	0.021858482
209	0x3ecde828	0.40216184
210	0xbe6470af	-0.2230861
211	0xbde55d62	-0.11199452
212	0x3cafe887	0.021473182
213	0x3f1ecba8	0.62029505
214	0xbf2c793a	-0.6737248
215	0xbeb6231c	-0.3557366
216	0x3e8b2c0f	0.27182052
217	0x3f2c62c8	0.6733823
218	0x3f774627	0.9659142
219	0x3eeac143	0.45850572
220	0x3d8c8a9b	0.068623744
221	0xbdc13fde	-0.0943601
222	0xbe41d388	-0.18928349
223	0xbee947c9	-0.4556258
224	0x3deed612	0.116619244
225	0x3eb5b39c	0.35488594
226	0x3f1af56d	0.6053074
227	0xbf0305d2	-0.51180756
228	0x3c427dac	0.011870783
229	0x3e93f31f	0.28896424
230	0xbeb9473e	-0.36187166
231	0xbe07ed7d	-0.13274188
232	0x3f8fcaf2	1.1233809
233	0xbe0369f8	-0.12833393
234	0xbf617939	-0.88075596
235	0x3ec5fecd	0.3867096
236	0xbf8a761c	-1.0817294
237	0x3ebca359	0.36843374
238	0x3f0ed585	0.55794555
239	0x3ebc413d	0.36768523
240	0xbf3d7413	-0.7400524
241	0xbe701dfa	-0.23448935
242	0xbfa6248d	-1.2979904
243	0x3f7b42bc	0.98148704
244	0x3b4b3718	0.003100818
245	0x3eb037fd	0.34417716
246	0x3f2fd0b1	0.6867781
247	0xbe4573bf	-0.19282435
248	0xbd932cdf	-0.07186293
249	0xbf45f584	-0.7732775
250	0x3f20679f	0.62658113
251	0xbd0c2de2	-0.034223445
252	0x3ec97126	0.39344138
253	0x3f3dfffb	0.7421872
254	0x3f87ad53	1.0599769
255	0xbf0829e7	-0.5318894

bias f4 [256]
0	0xbf611e90	-0.8793726
1	0xbf66d596	-0.90169656
2	0xbfee4650	-1.8615208
3	0xbeb61c8f	-0.35568663
4	0xbf36bfc8	-0.71386385
5	0xbf36487e	-0.71204364
6	0xbf071c6c	-0.52777743
7	0xbfbae9f5	-1.4602648
8	0xbf7f7a45	-0.99795943
9	0xbfb35d6a	-1.4012883
10	0xbf02bea1	-0.51072127
11	0xbf8ccd26	-1.1000106
12	0xbf2e6074	-0.68115926
13	0xbf984cdb	-1.1898454
14	0xbfa58ebc	-1.2934184
15	0xbf87caa8	-1.0608721
16	0xbedbfe98	-0.42967677
17	0xbfb5c1a4	-1.419972
18	0xbf5abde4	-0.85446
19	0xbfcbf6f5	-1.593474
20	0x3dc10687	0.09425073
21	0xbf275875	-0.6536935
22	0xbd6025e1	-0.054723624
23	0xbeb6f32e	-0.35732406
24	0xbf2b0f9b	-0.6682069
25	0xbf30fbad	-0.69134027
26	0xbf9235c6	-1.142266
27	0xbe9f1d45	-0.31077018
28	0xbf70cf72	-0.94066536
29	0xbf391207	-0.7229313
30	0xbee4b45f	-0.44668862
31	0xbf36b220	-0.7136555
32	0xbf729b33	-0.94768065
33	0xbed94fb3	-0.42443618
34	0xbe8c6a75	-0.2742497
35	0xbf846790	-1.0344105
36	0xbf964b9e	-1.1741827
37	0xbf9fd075	-1.2485491
38	0x3fb61935	1.4226443
39	0xbfa642eb	-1.2989172
40	0xbff68e07	-1.9262093
41	0xbf7dd270	-0.9914923
42	0xbeba085c	-0.36334503
43	0xbfa94ae0	-1.3225975
44	0xbf1d067a	-0.6133801
45	0xbf9b7d8e	-1.2147691
46	0xbfa3accb	-1.2787107
47	0x3f5ca899	0.8619476
48	0xbf702c90	-0.93817997
49	0xbf57e95d	-0.8434046
50	0xbf8b648b	-1.0890058
51	0xbe8c938a	-0.27456313
52	0xbec5f78e	-0.38665432
53	0xbf423c72	-0.7587348
54	0xbf4f7bf7	-0.8104853
55	0xbf2f7817	-0.6854262
56	0xbea497ed	-0.3214716
57	0x3d7e0a93	0.062021803
58	0xbea312d3	-0.318503
59	0xbfab8a3b	-1.340156
60	0xbf7027b1	-0.93810564
61	0xbf67702d	-0.9040554
62	0xbf7ad9b9	-0.9798847
63	0xbce3aea2	-0.027793232
64	0xbf671c28	-0.9027734
65	0xbfac27aa	-1.3449605
66	0xbe8f0d5d	-0.27939883
67	0xbf81e6f1	-1.0148603
68	0xbf82d7ea	-1.0222142
69	0xbee28f81	-0.4425011
70	0xbfa8965e	-1.3170888
71	0xbf0a28b1	-0.5396834
72	0xbfaaf695	-1.3356501
73	0xbe9ecb9a	-0.3101471
74	0xbe9759f7	-0.29560825
75	0xbf83fe83	-1.0312046
76	0xbf2269bb	-0.6344258
77	0xbf309256	-0.6897329
78	0xbf5189d1	-0.81850916
79	0xbf223166	-0.63356626
80	0xbfc2cdc7	-1.5219048
81	0xbef7bbe1	-0.48385528
82	0xbe6802a6	-0.2265726
83	0xbfdb0860	-1.7111931
84	0xbf76ef37	-0.9645876
85	0xbfa3dd68	-1.2801943
86	0xbf1e371a	-0.6180283
87	0xbf9fe50c	-1.2491775
88	0xbc87aec8	-0.016562834
89	0xbf04fbef	-0.5194692
90	0xbf0ad3d6	-0.54229486
91	0xbeefdc64	-0.46847832
92	0xbf49c7b9	-0.7882038
93	0xbed66604	-0.41874707
94	0xbf814cb8	-1.0101538
95	0xbfe177a7	-1.761464
96	0xbfb6a7b8	-1.4269934
97	0xbf7c689e	-0.98597133
98	0xbf9b11d2	-1.2114813
99	0xbf8d56f8	-1.1042166
100	0xbee83e23	-0.45359907
101	0xbe912617	-0.28349373
102	0xbf08dce9	-0.5346208
103	0xbfe28ca6	-1.7699172
104	0xbeb4c137	-0.3530366
105	0xbf15e3c3	-0.5855066
106	0xbfdd696e	-1.72978
107	0xbf6721cf	-0.9028596
108	0xbedc7d95	-0.4306456
109	0xbf5745c3	-0.8409082
110	0xbfc66513	-1.5499595
111	0xbe8ee725	-0.27910724
112	0xbfbbd737	-1.4675053
113	0xbfa85479	-1.3150779
114	0xbf6a1f19	-0.914537
115	0xbf5c1ffe	-0.85986316
116	0xbf12ab72	-0.57292855
117	0xbc1fb1a4	-0.009746943
118	0xbfb86eee	-1.4408853
119	0xbf6a030a	-0.9141089
120	0xbfe2ab6d	-1.7708565
121	0xbf171365	-0.5901397
122	0xbf3238a9	-0.69617707
123	0xbfaa6c66	-1.331433
124	0xbf76711f	-0.9626636
125	0xbef0f3c9	-0.47060993
126	0xbece62cf	-0.4030976
127	0xbd4a23fd	-0.049350727
128	0xbe8da053	-0.2766138
129	0xbe09e301	-0.13465501
130	0xbf007a45	-0.5018657
131	0xbf49e3ee	-0.7886342
132	0xc015a711	-2.338322
133	0xc0125755	-2.2865803
134	0xbe92dc22	-0.28683573
135	0xbf8a8363	-1.0821346
136	0xbf81ba6d	-1.0135018
137	0xbf41430d	-0.75492936
138	0xbf0cc394	-0.5498593
139	0xc00cb12d	-2.198314
140	0xbf8e384e	-1.1110933
141	0xbe74ea86	-0.23917589
142	0xc035ad57	-2.8387048
143	0xbf4c0fa6	-0.7971138
144	0xbee9adbb	-0.45640358
145	0xbef713c0	-0.48257256
146	0xbead3ac3	-0.33833894
147	0xbf66572e	-0.89976776
148	0xbef3d29d	-0.47621623
149	0x3f07287e	0.5279616
150	0xbf878b53	-1.0589393
151	0xbef7a7bb	-0.48370156
152	0xbfac601e	-1.3466833
153	0xbf56c24d	-0.8389023
154	0xbf9c990c	-1.2234206
155	0xbf2580e3	-0.6464979
156	0xc005d9ba	-2.091414
157	0xbf388ca2	-0.7208959
158	0xbe033af7	-0.12815462
159	0xbf4a4f4c	-0.7902725
160	0xc0185632	-2.380261
161	0xbf672fad	-0.9030712
162	0xbf8a782c	-1.0817924
163	0xbfd23c28	-1.6424608
164	0xc02e0b64	-2.7194452
165	0xbeb7a60d	-0.35868874
166	0xbe8fc9fc	-0.2808379
167	0xbf62b605	-0.8855899
168	0x3d7c9631	0.06166667
169	0xbf8861a4	-1.0654798
170	0xbf0a4972	-0.5401832
171	0xbfefee04	-1.8744512
172	0xc019bf4b	-2.4023006
173	0xbf9f8c9a	-1.2464783
174	0xbf53a13e	-0.8266791
175	0xbf51ab46	-0.8190197
176	0xbf350ef3	-0.70725936
177	0xbf21d622	-0.63217366
178	0xbef0701a	-0.46960527
179	0xbf8ff501	-1.1246644
180	0xbf206022	-0.6264669
181	0xbef1db77	-0.4723775
182	0xbf633773	-0.88756484
183	0xbfaecc1e	-1.3656042
184	0xbec4b945	-0.384226
185	0xbf37176f	-0.7152013
186	0xbf6884c2	-0.9082757
187	0xbf8922f5	-1.0713793
188	0xbf1841d3	-0.5947544
189	0xbd2d4f5f	-0.042312022
190	0xbf93eca9	-1.1556598
191	0xbf301ce4	-0.68794084
192	0xbe213687	-0.15743457
193	0xbeaac3d0	-0.33352518
194	0xbf8661e4	-1.0498624
195	0xbe9bfea0	-0.304677
196	0xbf25deb6	-0.64792955
197	0xbf2dca22	-0.67886555
198	0xbf276e52	-0.6540271
199	0xbf81da33	-1.0144714
200	0xbf44ab36	-0.7682375
201	0xbef8ae11	-0.48570302
202	0xbf265a1b	-0.6498124
203	0xbf4672c7	-0.77518886
204	0xbf38859b	-0.72078866
205	0xbeb27fb7	-0.34863064
206	0xbfe63454	-1.7984719
207	0xbf62cf2e	-0.8859738
208	0xbf98217c	-1.1885219
209	0xbf83c7cf	-1.0295352
210	0xbf8e4a55	-1.1116434
211	0xbf7fc31c	-0.9990709
212	0xbf015503	-0.5052034
213	0xbe27f064	-0.16400295
214	0xbf68b722	-0.9090444
215	0xbf8021dd	-1.0010334
216	0xbf69aa04	-0.9127505
217	0xbf830901	-1.0237123
218	0xbefeae4f	-0.49742362
219	0xbf230486	-0.6367878
220	0xbf461215	-0.7737134
221	0xbf3025eb	-0.6880786
222	0xbf915943	-1.1355366
223	0xbfbb50e6	-1.4634063
224	0x3c414d06	0.011798149
225	0xbe91f675	-0.28508344
226	0xbf0571ac	-0.52126575
227	0xbf1f632f	-0.6226072
228	0xbe3eee4b	-0.18645589
229	0xbfc6c4eb	-1.5528845
230	0xbfd75b48	-1.6824732
231	0xbcb0f284	-0.021600015
232	0xbf9646b0	-1.1740322
233	0xbfa60236	-1.2969425
234	0xbdb5a690	-0.0886966
235	0xbed52bbb	-0.41634926
236	0xbda81c8b	-0.08208569
237	0xbf39ef73	-0.72630996
238	0xbfe0f361	-1.7574273
239	0xbfbee32c	-1.4913077
240	0xbf73b8a2	-0.952036
241	0xbef599bb	-0.4796885
242	0xbf6fca4d	-0.9366806
243	0xbf89c823	-1.0764202
244	0xbfeecfbd	-1.8657147
245	0xbea67829	-0.3251355
246	0xbf613ddb	-0.8798501
247	0xbf065f35	-0.52489024
248	0xbfb36125	-1.4014021
249	0xbfec437b	-1.8458093
250	0xbfc039f6	-1.5017688
251	0xbe8fd304	-0.2809068
252	0xbed4ab13	-0.4153677
253	0xbf964f3d	-1.1742932
254	0xbf6c82f8	-0.9238734
255	0xbf998dfe	-1.1996458

weight f4 [64, 256]
0	0xbc708e53	-0.01468237
1	0x3dabebb9	0.0839457
2	0x3e590b2b	0.21195666
3	0xbefdd4b8	-0.49576354
4	0xbe3cd738	-0.18441474
5	0x3f076310	0.5288553
6	0x3eaaea51	0.33381894
7	0xbeb6b503	-0.35684976
8	0xbe0cc790	-0.13748002
9	0xbe85156b	-0.25992903
10	0x3d22989d	0.039696325
11	0xbebc29c8	-0.36750627
12	0xbd407754	-0.0469888
13	0xbabfa6bb	-0.0014621833
14	0x3f2dfcff	0.67964166
15	0xbcfd9058	-0.030952618
16	0xbeb094b0	-0.3448844
17	0xbeb9f88d	-0.36322442
18	0xbe4cefba	-0.20013323
19	0x3da26865	0.07930068
20	0xc13e902d	-11.910199
21	0x3eea7388	0.45791268
22	0x3ee126c5	0.4397489
23	0xbd862c49	-0.065514155
24	0x3e6225bc	0.22084707
25	0xbc54205e	-0.01294717
26	0x3ea4e87f	0.3220863
27	0xbf163d0e	-0.5868691
28	0x3f207ecf	0.62693495
29	0xbec1dd4e	-0.37864155
30	0x3f1f8f1d	0.6232775
31	0xbe61b781	-0.22042657
32	0xbf9327e8	-1.1496553
33	0x3ddf1916	0.10893457
34	0x3e1ef2ce	0.1552231
35	0x3f0e3649	0.5555158
36	0xc0865cc5	-4.1988244
37	0xbe37fa74	-0.17966634
38	0xbeef630c	-0.46755254
39	0xc02eeca7	-2.733194
40	0xc0307066	-2.7568603
41	0xbe116e24	-0.14202172
42	0x3eff458e	0.49857754
43	0xbf235f9b	-0.6381776
44	0xbdc9edfb	-0.09859844
45	0x3f03c63d	0.5147436
46	0x3e8d5d3f	0.27610204
47	0x3d801080	0.06253147
48	0x3ece7464	0.40323174
49	0x3e47b935	0.19504245
50	0x3db5d1e7	0.08877926
51	0x3dc39556	0.09549968
52	0xbf45e518	-0.77302694
53	0xbe4932ff	-0.1964836
54	0x3ed29ef5	0.411369
55	0x3f199e86	0.6000751
56	0x3e0e2a9c	0.13883442
57	0x3e89f1a3	0.26942167
58	0xbb2257f6	-0.0024771667
59	0xbe40f7b2	-0.18844488
60	0x3dd0cc63	0.10195234
61	0xbc7ab0ef	-0.015300973
62	0x3e96944f	0.29410025
63	0xbe8f5e9e	-0.28001875
64	0xbeda5d0d	-0.42649117
65	0x3d66e586	0.056371234
66	0xbdf6ff8e	-0.12060462
67	0x4017bd97	2.3709466
68	0xc0af2f5f	-5.4745326
69	0x3f6258e1	0.8841687
70	0xbe2270c3	-0.15863328
71	0x3fb8a8c5	1.4426504
72	0x3efb4a92	0.4908033
73	0x3d9e685e	0.0773475
74	0x3e48e23f	0.19617556
75	0x3f1dd86c	0.6165836
76	0xbe55cdc5	-0.20879276
77	0xbe165369	-0.14680256
78	0x3e92fd44	0.2870885
79	0x3d04a435	0.032383163
80	0xbf0e9964	-0.55702806
81	0xbf27ae7a	-0.65500605
82	0x3f80cc6f	1.0062388
83	0x3ed640a2	0.41846186
84	0x3e4f701c	0.2025761
85	0xbed2ef81	-0.41198352
86	0x3ad3ec42	0.0016168433
87	0x3e2b38cd	0.16720887
88	0x3ef54e10	0.4791112
89	0xbf1b2b32	-0.60612786
90	0x3ec3ce8f	0.3824353
91	0x3e7d418b	0.24732034
92	0xbe82bc96	-0.25534505
93	0x3f5431cc	0.82888484
94	0xbfa292f9	-1.2701102
95	0x3edffe05	0.4374849
96	0xbe42dc6f	-0.19029401
97	0xbda64fa8	-0.08120662
98	0x3e326e80	0.17424965
99	0x3e5f9037	0.21832357
100	0x3f06aeaf	0.52610296
101	0xbedf87e4	-0.43658364
102	0xbef436c8	-0.47698045
103	0x3fe713dd	1.8052937
104	0x3f7a1fc8	0.97704744
105	0x3e44ee05	0.19231422
106	0x3f4fbc0e	0.81146324
107	0x3dd59b5a	0.104300216
108	0x3e3021b2	0.17200354
109	0xbdf1526b	-0.11783298
110	0x3d3f0aeb	0.04664127
111	0xbf00c404	-0.50299096
112	0xbed23a94	-0.41060317
113	0xbd9e2117	-0.07721155
114	0xbed2a293	-0.4113966
115	0x3f0021e3	0.5005171
116	0x3da9220b	0.08258446
117	0xbe15bb6f	-0.14622281
118	0x3d84802a	0.06469758
119	0x3e19bf1c	0.15014309
120	0xbfde325a	-1.7359116
121	0x3e0a8171	0.1352594
122	0x3e130fb2	0.14361456
123	0x3da158ab	0.0787824
124	0x3e905d6b	0.28196272
125	0xbebfa456	-0.37430066
126	0x3e8bd5f5	0.27311674
127	0x3d6f5e60	0.058439612
128	0xbe4fe48f	-0.20302032
129	0xbf276420	-0.65387154
130	0x3f201c4a	0.62543166
131	0x3e346247	0.17615615
132	0xbe9cb2cd	-0.30605164
133	0x3e8dfe1f	0.27732942
134	0xbe3154fa	-0.17317572
135	0x3eea2e8d	0.4573864
136	0xbd609b92	-0.054835863
137	0x3e8d72fd	0.27626792
138	0xbe2cb2f0	-0.16865134
139	0xbeccf3da	-0.40029794
140	0x3f28f0dc	0.6599252
141	0x3db68a36	0.089130804
142	0x3f4661b3	0.7749283
143	0x3ec5ccfb	0.3863295
144	0x3eb9393b	0.36176476
145	0xbe901e55	-0.28148142
146	0x3ecf3bc1	0.40475276
147	0x3e673d09	0.22581877
148	0xbe0a7a87	-0.13523303
149	0x3cdd4604	0.027010925
150	0x3e5ae3c3	0.21375947
151	0xbdf56577	-0.119822435
152	0x3e510a21	0.2041402
153	0x3d713f4f	0.058898266
154	0xbf10bef0	-0.5654135
155	0x3ea3cf05	0.3199388
156	0xc1548476	-13.282339
157	0xbca99841	-0.020702483
158	0xc11c8800	-9.783203
159	0x3e29246b	0.16517799
160	0xbcd0cdc9	-0.025488751
161	0xbd21293b	-0.03934596
162	0x3eafe70a	0.34355956
163	0x3d9e44b6	0.07727949
164	0xbee4f514	-0.4471823
165	0x3e97ba89	0.29634503
166	0x3effb70b	0.49944338
167	0x3c95f246	0.018304002
168	0x3ee58c88	0.4483378
169	0xbee3bbe9	-0.44479302
170	0x3e7e5e24	0.248406
171	0xbebc5dbc	-0.36790264
172	0x3e43e77c	0.19131273
173	0xbeb44016	-0.35205144
174	0x3d5dfbc7	0.05419519
175	0xbefcaf60	-0.4935255
176	0xbdd1ba68	-0.10240632
177	0x3e6ec713	0.23318128
178	0x3cd81803	0.026378637
179	0xbe80cd8f	-0.2515683
180	0x3e2e0830	0.16995311
181	0x3ec4bfb1	0.384275
182	0x3ef3434a	0.47512275
183	0xbf0e0ce7	-0.5548844
184	0xbbdfa1a1	-0.0068246876
185	0xbea85ebd	-0.3288478
186	0xbe86fc5b	-0.26364407
187	0x3e4b6c3a	0.19865504
188	0xbe25d799	-0.16195525
189	0x3e288b2f	0.16459344
190	0xbea8de73	-0.32982215
191	0x3ecdc19a	0.4018677
192	0xbe08b4be	-0.13350198
193	0x3c818bef	0.015813796
194	0x3ea5cfdc	0.32385147
195	0x3e535a44	0.20639902
196	0x3e9b88d9	0.30377844
197	0x3e66914b	0.22516362
198	0xbc91d0f3	-0.01779983
199	0x3e1535eb	0.1457135
200	0x3e5b0a0b	0.2139055
201	0xbd43f724	-0.047843114
202	0x3e87d41b	0.2652901
203	0xbebc5f30	-0.36791372
204	0x3e74ade5	0.2389446
205	0xbf005bde	-0.5014018
206	0x3e83b395	0.25722948
207	0x3eeea01e	0.46606535
208	0xbed01a2c	-0.40644968
209	0xbe804082	-0.25049216
210	0x3dea8ed8	0.114530265
211	0xc01a26ac	-2.4086103
212	0x3efd75d4	0.49503958
213	0x3f1772ad	0.59159356
214	0x3f54681f	0.82971376
215	0xbe56bc43	-0.20970254
216	0x3dbe475a	0.09290953
217	0xbee2a51a	-0.44266587
218	0x3f12825c	0.5723016
219	0xbed58a8b	-0.41707262
220	0x3ea29610	0.31755114
221	0x3d1ab3ee	0.03776925
222	0x3f984e6c	1.1898932
223	0x3f0944c0	0.5362053
224	0xbde5d694	-0.11222568
225	0xbfb6f22e	-1.4292657
226	0x3e5c16de	0.21493098
227	0xbefbace5	-0.49155346
228	0xbe4bfcb3	-0.19920616
229	0x3ebdedd1	0.37095502
230	0xbe3e85d8	-0.18605745
231	0xbd761fcf	-0.06008893
232	0xbedd30bb	-0.4320124
233	0xbe17d867	-0.14828645
234	0xbe0be246	-0.13660535
235	0x3e3d15a7	0.18465291
236	0xbde5824a	-0.11206491
237	0x3db73973	0.089465044
238	0x3f260af4	0.64860463
239	0x3d7d4378	0.06183192
240	0x3c026274	0.007958043
241	0x3e85aed7	0.26109955
242	0xbeabc3f1	-0.3354793
243	0x3f351b71	0.70745
244	0x3df29d47	0.118464045
245	0x3e293632	0.1652458
246	0x3f0e7117	0.5564131
247	0x3f0a51ee	0.54031265
248	0x3f29dc87	0.66352123
249	0x3ef9688b	0.48712572
250	0x3ef213d8	0.47280765
251	0x3def3fdc	0.11682102
252	0xbf82c4de	-1.0216329
253	0xbebf9e04	-0.37425244
254	0x3f17c8bf	0.5929069
255	0xbd0dfab1	-0.034662906

bias f4 [64]
0	0x41013d2a	8.077433
1	0x4014a0cd	2.3223145
2	0x3f609d6d	0.8774021
3	0x4006a011	2.1035197
4	0x3ff88d1e	1.9418066
5	0x4003da72	2.0602078
6	0x40246e5a	2.5692353
7	0x40acfe2c	5.406027
8	0x4024c332	2.5744138
9	0x3fa3e56a	1.2804387
10	0xbfc4d3f5	-1.5377184
11	0xbfd0f3c8	-1.6324396
12	0xbeb7978c	-0.3585781
13	0x3f18bd91	0.59664255
14	0x3fbf2205	1.4932257
15	0x4035000b	2.8281276
16	0x4017ede2	2.3738942
17	0x3d4f83c5	0.050662775
18	0xbf340f15	-0.70335513
19	0xc08e5ae1	-4.4485936
20	0xc0a5b7da	-5.178693
21	0xc015ca7c	-2.3404837
22	0x40341095	2.813512
23	0x40750c31	3.828869
24	0x4017b94a	2.3706841
25	0xbeb0ab43	-0.34505662
26	0xc06ae68a	-3.670321
27	0xc102fd32	-8.186815
28	0xc1031c8e	-8.194471
29	0xbf0115b1	-0.50423723
30	0x3e84f788	0.259701
31	0x408db71e	4.428603
32	0x4018d81f	2.388191
33	0xbe82d6ff	-0.25554654
34	0xc12d807d	-10.843869
35	0xc10306f7	-8.1892
36	0xc103331d	-8.199979
37	0xc0802803	-4.0048842
38	0xbefa08ce	-0.48834842
39	0x406482f9	3.570494
40	0x40716a51	3.772114
41	0x3fb8d944	1.4441304
42	0xc072fa87	-3.796541
43	0xc1cd5a2e	-25.669033
44	0xc102ba58	-8.170494
45	0xc0304fdd	-2.7548745
46	0x3fbafb90	1.4608021
47	0x40708fe7	3.758783
48	0x40829b7f	4.0814815
49	0x407d648a	3.9592614
50	0x3f4a3c26	0.7899803
51	0xbf9378df	-1.1521262
52	0xc02d6b80	-2.7096863
53	0x3eb7fdc5	0.35935798
54	0x408b8b17	4.3607287
55	0x405f8cc3	3.4929664
56	0x3edeb75f	0.43499276
57	0x406a9312	3.6652265
58	0x4048e93b	3.1392353
59	0x4049048b	3.1409023
60	0x4047bbb2	3.120831
61	0x40477820	3.1167068
62	0x40872ed0	4.2244644
63	0x3f590ea4	0.84787965
