pth/takada_model_75.pth (torch, 300440 bytes, 6 tensors)

weight f4 [256, 128]
1.0202893 -0.36110073 -0.32753253 -0.27816436 0.28420806 0.72622097 0.12776443 0.072884806
0.42167822 0.024158126 0.5143185 -0.08584508 -0.052577537 0.33800048 0.21300358 0.17253603
-0.27154866 0.3509468 -0.059837654 0.25911322 -0.033109535 -0.14280209 0.510676 -0.44716564
0.14411703 -0.13720968 -0.152901 -0.15972733 0.122442335 0.47134897 -0.41680944 -0.095311545
-0.1493981 0.15960091 -0.24633168 -0.09699463 -0.26147237 -0.18514498 0.29654408 0.2735495
-0.21535963 -0.43353721 0.078749165 -0.0550523 -0.14045198 0.08142868 -0.370448 -0.08899919
-0.011811411 -0.14814346 -0.014780777 -0.20364612 0.097779945 0.18844216 -0.32474586 0.0052053435
0.50223416 -0.5609242 -0.2821852 0.07997095 -0.35865843 0.26134613 0.39824685 -0.44028383
-0.32413074 -0.37651277 -0.33575147 -0.5457707 0.076211974 0.44732875 -0.023605274 0.27558675
-0.011589179 0.38245618 0.27083233 0.14859857 -0.22850375 0.19550565 -0.15669487 -0.014716256
-0.3354835 0.45175648 -0.13590372 -0.0013808728 -0.07202123 -0.09131657 0.40717095 -0.6038649
-0.19118801 -0.30941013 -0.37253714 -0.033807676 -0.20870654 0.0005484974 -0.30842718 0.20102765
0.14336291 0.09861138 -0.12628308 0.06737784 0.040627513 -0.114216544 0.0445525 -0.19621384
-0.16213146 -0.11787829 -0.0006838147 -0.040001415 0.04166297 -0.0689589 -0.24745864 -0.22751978
-0.008571057 -0.07421957 0.47673213 0.034937814 0.29819855 0.11921641 0.30623168 0.25736457
0.4947879 -0.17175862 -0.16738643 0.5538502 -0.2316692 0.07036656 0.54919475 0.053320233
0.28753224 -0.09901962 -0.42213023 0.0056908694 -0.43944886 -0.46462324 0.09123142 -0.22891425
0.512129 -0.6896519 -0.35699898 0.3235914 0.00016302388 0.11175392 0.5798332 -0.17399143
-0.2926829 -0.4767989 0.17578489 -0.065655015 0.087767065 0.19671957 0.07822084 -0.22430241
-0.1320079 0.48212054 -0.19217654 0.023248186 0.23636644 -0.351658 -0.3824304 -0.35968265
0.3511616 -0.6188937 0.3455591 0.045216665 0.0414515 0.13544263 -0.056671936 -0.25030965
-0.17953898 -0.5646055 -0.19520101 0.42125836 0.23912074 -0.2962564 -0.101434685 0.005896458
-0.12790973 0.6171146 0.011912906 -0.05288285 -0.29234973 -0.41683465 -0.6670202 -0.14524269
0.5134829 0.0626244 0.039067954 -0.116570175 0.032989107 0.4873562 0.21895696 -0.20028475
1.1070222 -1.1931499 0.05183069 -0.33720362 -0.26551253 0.67932695 -0.27771184 -0.2019998
-0.114765815 -0.618865 0.31409764 0.22608672 -0.2668791 -0.08000299 0.12613498 0.12867458
0.17989352 0.08481029 0.010528806 -0.0942976 0.29466537 0.13140623 0.16694154 -0.48262182
-0.44010505 0.5485696 -0.28627715 0.18967462 0.066368476 -0.014598365 -0.09087681 -0.46163115
-0.07690047 -0.13873935 -0.4375224 0.17217511 0.19032188 0.3519554 0.21324432 -0.018595314
-0.13163877 0.1444347 -0.05146463 0.42229658 -0.002377576 -0.096434295 -0.30275607 -0.25763562
0.062497463 0.03545954 0.19953503 0.076633476 -0.115981266 -0.17777213 -0.31885043 0.69129336
-0.6113616 0.27713463 0.31180733 0.49998575 0.17349054 -0.22092769 0.27520227 -0.53773165
00000000: d798 823f 32e2 b8be 58b2 a7be 8f6b 8ebe
00000010: b883 913e 9ee9 393f aed4 023e a144 953d
00000020: 35e6 d73e 43e7 c53c 61aa 033f 8ccf afbd
00000030: 8b5b 57bd 660e ad3e 9c1d 5a3e 49ad 303e
00000040: 6d08 8bbe 4daf b33e 5418 75bd 7daa 843e
00000050: dd9d 07bd b63a 12be aabb 023f e5f2 e4be
00000060: 6a93 133e b280 0cbe 1492 1cbe 908f 23be
00000070: 0cc3 fa3d a754 f13e 0c68 d5be b332 c3bd
00000080: d1fb 18be 6c6e 233e 5f3e 7cbe 1fa5 c6bd
00000090: b5df 85be a596 3dbe a0d4 973e ae0e 8c3e
000000a0: 3c87 5cbe 97f8 ddbe 3e47 a13d 857e 61bd
000000b0: a5d2 0fbe 14c4 a63d 5cab bdbe 3545 b6bd
000000c0: a684 41bc ebb2 17be 122b 72bc 9c88 50be
000000d0: da40 c83d fbf6 403e 1745 a6be 9691 aa3b
000000e0: 6b92 003f ba98 0fbf 947a 90be cfc7 a33d
000000f0: 14a2 b7be 29cf 853e 03e7 cb3e e26c e1be
00000100: 77f4 a5be 48c6 c0be 9ee7 abbe a1b7 0bbf
00000110: 0615 9c3d 4608 e53e d95f c1bc b519 8d3e
00000120: 8ae0 3dbc 4cd1 c33e 89aa 8a3e 392a 183e
00000130: e3fc 69be a232 483e 9f74 20be 741c 71bc
00000140: 7ec4 abbe a04c e73e 582a 0bbe 67fe b4ba
00000150: de7f 93bd 2f04 bbbd b678 d03e e496 1abf
00000160: cac6 43be 016b 9ebe 30bd bebe eb79 0abd
00000170: 2bb7 55be 0ac9 0f3a 2bea 9dbe 31da 4d3e
00000180: bacd 123e c3f4 c93d 5a50 01be 65fd 893d
00000190: 0969 263d 5dea e9bd af7c 363d 48ec 48be
000001a0: ca05 26be 2c6a f1bd 0742 33ba 86d8 23bd
000001b0: caa6 2a3d 533a 8dbd cc65 7dbe f2fa 68be
000001c0: 9e6d 0cbc 6e00 98bd 3c16 f43e f41a 0f3d
000001d0: 7bad 983e bc27 f43d 66ca 9c3e 4ac5 833e
000001e0: d754 fd3e 7ee1 2fbe 5967 2bbe 20c9 0d3f
000001f0: b13a 6dbe 581c 903d 0798 0c3f 5166 5a3d
00000200: 6d37 933e ccca cabd 7421 d8be 797a ba3b
00000210: 71ff e0be 19e3 edbe 8ad7 ba3d 7f68 6abe
00000220: e31a 033f 078d 30bf 92c8 b6be c6ad a53e
00000230: 64f1 2a39 3ddf e43d f36f 143f cf2a 32be
00000240: 88da 95be fc1e f4be f400 343e 2376 86bd
00000250: 38bf b33d db70 493e 3f32 a03d 88af 65be
00000260: 142d 07be 81d8 f63e edc9 44be fb72 be3c
00000270: 0b0a 723e 840c b4be ebcd c3be 5328 b8be
00000280: 74cb b33e d16f 1ebf 1fed b03e 1c35 393d
00000290: 0cc9 293d 79b1 0a3e d520 68bd 9628 80be
000002a0: 11d9 37be fc89 10bf c6e2 47be 2daf d73e
000002b0: 11dc 743e ebae 97be fdbc cfbd 1337 c13b
000002c0: c5fa 02be 39fb 1d3f 592e 433c b09b 58bd
000002d0: ddae 95be 5a6b d5be d6c1 2abf 80ba 14be
000002e0: 9e73 033f 3941 803d b805 203d 58bc eebd
000002f0: 961f 073d c086 f93e 4136 603e 7217 4dbe
00000300: e7b2 8d3f 23b9 98bf 6b4c 543d f4a5 acbe
00000310: 42f1 87be 5fe8 2d3f 3f30 8ebe 09d9 4ebe
00000320: 570a ebbd f06d 1ebf 68d1 a03e 4783 673e
00000330: 61a4 88be 9cd8 a3bd 8729 013e 45c3 033e
00000340: 0236 383e 04b1 ad3d 0381 2c3c 1a1f c1bd
00000350: 61de 963e 5b8f 063e b9f2 2a3e 351a f7be
00000360: 7355 e1be 0f6f 0c3f eb92 92be 103a 423e
00000370: 32ec 873d fb2d 6fbc 9f1d babd eb5a ecbe
00000380: fe7d 9dbd b011 0ebe f002 e0be ac4e 303e
00000390: bde3 423e 8033 b43e b85c 5a3e 3355 98bc
000003a0: 50cc 06be b1e6 133e 93cc 52bd 4237 d83e
000003b0: 1bd1 1bbb 587f c5bd d802 9bbe d1e8 83be
000003c0: 57fd 7f3d 063e 113d e952 4c3e 03f2 9c3d
000003d0: 9687 edbd e609 36be 5d40 a3be 9af8 303f
000003e0: 3282 1cbf 97e4 8d3e 36a5 9f3e 22fe ff3e
000003f0: 81a7 313e de3a 62be 50e7 8c3e c8a8 09bf

bias f4 [256]
-0.0824123 0.13060349 0.06398795 -0.06519665 0.022100063 -0.050210215 -0.07280209 0.09025043
-0.091025434 0.18339594 -0.10078914 0.08355717 -0.15153708 0.17596437 0.15690467 -0.1758919
-0.020975703 0.03443559 0.046995714 0.079102285 0.094600566 0.008606733 0.02535999 -0.006117404
0.046512347 0.19268884 -0.062047515 0.088338256 0.12396341 -0.04237912 -0.18745145 0.11279305
0.13885145 0.087590836 0.117819466 -0.13253742 0.04055214 0.2312255 0.01716494 0.008611313
-0.05819425 0.021165693 -0.06351132 -0.20883279 0.06004638 -0.010000622 -0.01744655 0.11349227
-0.039757285 0.12381467 0.07270891 0.13253649 0.08918456 0.15013282 0.15253608 -0.07816265
-0.027892875 -0.045961782 0.026840007 -0.20957191 0.1016708 0.20152706 0.01693956 0.15107682
-0.101616815 0.109206714 -0.062680565 -0.20358704 0.16373879 -0.13926998 -0.022588672 0.19811077
-0.1569608 -0.13660242 -0.046597548 0.07389292 -0.16661008 0.068220444 -0.14232333 -0.022056337
-0.10557033 0.15435906 -0.088452235 0.045833435 0.072993405 0.061634745 -0.15952247 0.19937754
-0.0304101 -0.11151171 -0.09616705 0.047731668 -0.080915615 0.10374197 0.09245815 -0.109155044
-0.08015603 0.086729996 -0.008560993 -0.22618566 -0.1290391 -0.12447052 0.13676731 0.1243753
0.11965552 0.04876394 -0.16687472 -0.12057897 0.13435721 0.1532733 0.029451774 0.17196709
0.13398156 -0.054782063 -0.011004064 0.1895279 0.20148039 0.08866065 0.11438138 0.071918175
0.008825155 -0.17050304 0.022311913 -0.028187776 0.03839116 -0.16366294 -0.14787428 -0.14663793
0.076375075 -0.18006325 0.02319199 0.087524295 -0.068221204 0.17964637 -0.0689397 0.027234012
-0.10145686 -0.17275435 0.09317098 0.14853823 0.06975198 0.056568734 0.14214677 0.13084796
0.028201917 -0.120157786 0.01009175 0.017243566 -0.010246785 -0.14096418 0.086087525 -0.21173517
0.07233218 0.1465051 -0.16834459 -0.023167618 -0.12546366 0.0021090722 -0.007776067 0.04556489
-0.022356033 0.054414686 -0.034619015 0.23173474 -0.13801058 -0.028927062 0.063748896 -0.03922443
-0.17806722 -0.18348609 0.07794518 0.039501462 -0.19800827 0.0017128072 -0.029105462 -0.17048949
-0.05223043 0.05556616 -0.054985583 0.036574665 0.045174684 0.049158365 -0.2817065 0.110333815
0.07539825 -0.08044758 -0.20952038 0.1406253 0.04794886 0.07107834 -0.11578799 -0.14032722
-0.009681615 -0.12724751 -0.15144865 0.046395697 0.12645736 0.09977707 0.1706998 0.18429594
0.06532155 -0.080516614 -0.11596943 0.005800482 0.14158273 0.03421267 0.1496202 0.07380298
0.070096314 0.097939156 0.01776225 0.08248055 -0.16933888 0.03322314 -0.0467209 -0.022811094
0.1116889 0.07072998 -0.03137732 -0.21970439 0.1428204 -0.19776703 0.095836625 0.16324112
0.1799616 0.15762427 0.08499135 0.042101633 -0.038770784 -0.07619729 0.078917466 0.012074185
0.078376055 -0.07976814 0.12212226 -0.15283825 0.05743634 -0.18502648 0.124354206 -0.06352141
0.03119576 0.054257683 -0.15743043 0.057500396 -0.06677866 -0.062301848 -0.03387249 -0.10855789
-0.11142172 -0.10399408 -0.15419157 -0.14315784 0.11177773 -0.031855825 0.13480918 0.11634976
00000000: c8c7 a8bd ecbc 053e 1d0c 833d d285 85bd
00000010: 310b b53c 3aa9 4dbd 4319 95bd 38d5 b83d
00000020: 8b6b babd 25cc 3b3e 896a cebd 0620 ab3d
00000030: 892c 1bbe 0130 343e 9eab 203e 021d 34be
00000040: 3dd5 abbc 550c 0d3d 947e 403d 6100 a23d
00000050: f1bd c13d 4103 0d3c c1bf cf3c 8174 c8bb
00000060: bb83 3e3d 3950 453e 8925 7ebd b0ea b43d
00000070: 87e0 fd3d ba95 2dbd 46f3 3fbe 0b00 e73d
00000080: 132f 0e3e d362 b33d 554b f13d e4b7 07be
00000090: 001a 263d 61c6 6c3e 7d9d 8c3c 7716 0d3c
000000a0: 185d 6ebd ad63 ad3c 3912 82bd 43d8 55be
000000b0: 31f3 753d a6d9 23bc 11ec 8ebc a36e e83d
000000c0: 89d8 22bd 8c92 fd3d 69e8 943d a5b7 073e
000000d0: 65a6 b63d 6bbc 193e 6b32 1c3e bd13 a0bd
000000e0: 997f e4bc 6c42 3cbd 93df db3c 059a 56be
000000f0: c838 d03d 1c5d 4e3e d5c4 8a3c e2b3 1a3e
00000100: 7a1c d0bd c5a7 df3d ab5e 80bd 1f79 50be
00000110: 24ab 273e ca9c 0ebe e10b b9bc 8ddd 4a3e
00000120: 55ba 20be 81e1 0bbe 12dd 3ebd 2c55 973d
00000130: d59b 2abe 29b7 8b3d 35bd 11be 7eaf b4bc
00000140: 4235 d8bd 4d10 1e3e 7226 b5bd d7bb 3b3d
00000150: 917d 953d b774 7c3d dc59 23be a029 4c3e
00000160: 9a1e f9bc 4060 e4bd 3bf3 c4bd 4882 433d
00000170: 16b7 a5bd ac76 d43d b35a bd3d ae8c dfbd
00000180: d828 a4bd 7f9f b13d 6843 0cbc 379d 67be
00000190: d322 04be 66ea febd bb0c 0c3e 7ab8 fe3d
000001a0: f40d f53d b2bc 473d 35e1 2abe 1bf2 f6bd
000001b0: f094 093e adf3 1c3e d944 f13c 2418 303e
000001c0: 7632 093e 2863 60bd 644a 34bc 9a13 423e
000001d0: e050 4e3e b793 b53d c940 ea3d d649 933d
000001e0: 6297 103c 5998 2ebe 79c7 b63c 0dea e6bc
000001f0: 0d40 1d3d 4297 27be 5b6c 17be 4128 16be
00000200: 896a 9c3d 8062 38be 21fd bd3c f03f b33d
00000210: 8fb7 8bbd 38f5 373e 4230 8dbd dd19 df3c
00000220: 9dc8 cfbd 84e6 30be 6dd0 be3d 681a 183e
00000230: 20da 8e3d 9eb4 673d ec8e 113e 02fd 053e
00000240: b507 e73c 4915 f6bd de57 253c 6142 8d3c
00000250: 22e2 27bc ea58 10be a84e b03d 1bd1 58be
00000260: e522 943d 6f05 163e 8662 2cbe 04ca bdbc
00000270: 8c79 00be 5c38 0a3b 61ce febb 40a2 3a3d
00000280: 0024 b7bc efe1 5e3d abcc 0dbd df4b 6d3e
00000290: a552 0dbe 72f8 ecbc c88e 823d cca9 20bd
000002a0: 4157 36be c7e3 3bbe b9a1 9f3d 49cc 213d
000002b0: aec2 4abe 4680 e03a 946e eebc cc94 2ebe
000002c0: 93ef 55bd 5799 633d 9038 61bd 51cf 153d
000002d0: 1709 393d 485a 493d d63b 90be b2f6 e13d
000002e0: 666a 9a3d b3c1 a4bd 838c 56be 1400 103e
000002f0: 0666 443d 8591 913d 4122 edbd f0b1 0fbe
00000300: a39f 1ebc 2c4d 02be 5b15 1bbe 6a09 3e3d
00000310: 0a7e 013e ec57 cc3d eecb 2e3e 13b8 3c3e
00000320: 4ec7 853d e5e5 a4bd 6181 edbd f811 be3b
00000330: 10fb 103e 9622 0c3d 0a36 193e 0426 973d
00000340: a88e 8f3d 5394 c83d 2382 913c 90eb a83d
00000350: 2c67 2dbe fd14 083d 6a5e 3fbd 55de babc
00000360: 26bd e43d e1da 903d 8185 00bd 30fa 60be
00000370: 833f 123e 7183 4abe fe45 c43d ae28 273e
00000380: db47 383e 4268 213e f20f ae3d c372 2c3d
00000390: 1dce 1ebd 530d 9cbd 7b9f a13d cdd2 453c
000003a0: a083 a03d 7b5d a3bd 3c1b fa3d a181 1cbe
000003b0: 5e42 6b3d 9577 3dbe 6bad fe3d 8317 82bd
000003c0: 408e ff3c 4e3d 5e3d 7135 21be 8985 6b3d
000003d0: 40c3 88bd 3930 7fbd e1bd 0abd 9953 debd
000003e0: 1231 e4bd d9fa d4bd 65e4 1dbe f897 12be
000003f0: b9eb e43d 417b 02bd 6b0b 0a3e c848 ee3d

weight f4 [128, 256]
-0.118524805 0.18765812 -0.37750405 -0.11701527 0.041688096 0.12507327 -0.49148795 -0.13821696
-0.25513816 -0.16047682 0.28788474 -0.042159244 -1.5273112 0.15803194 0.27646142 0.08114734
0.3351876 -0.25849566 -0.4280757 -0.12802026 -0.29993573 0.10132875 -0.061257802 -0.25221503
0.10522392 -0.55768317 -0.31293413 0.023592371 0.14062434 0.7377271 -0.2907592 0.4822354
0.053094823 -0.1254336 0.26339713 -0.73368704 0.10803789 0.64097416 -0.041470103 -0.0654348
0.05500179 -0.095380634 -0.8513938 -0.16556579 0.19978702 -0.2498701 -0.10596477 0.2145287
0.21874009 -0.23992139 -0.18733732 0.08564241 0.07887987 0.16779816 -0.4320115 0.030723345
-0.52736354 0.1166557 -0.20071284 -0.22245906 0.27724227 -0.06332372 0.103258215 -0.26835528
-0.18045242 0.05687473 0.08361418 -0.1164249 -0.25059956 0.5854257 -0.0074200258 -0.058782775
-0.16673914 -0.16258429 0.08293019 0.23624611 -0.17638768 0.20257668 0.3734588 -0.22291303
-0.0437701 0.16177043 0.27084938 -0.6107231 -0.104534045 0.2898718 -0.26715192 0.8279975
0.5271727 -0.15172584 0.18487419 -0.3243495 -0.06459617 -0.0034369514 -0.48852557 -0.21053314
0.049702305 -0.27782735 0.029113699 -0.28420788 -0.016384818 0.26120397 0.07051962 0.04355493
-0.06933121 0.2663232 0.28692228 -0.25029618 0.010364329 0.30509925 0.024739228 0.26233524
-0.38014856 -0.14232048 0.16395882 -0.6955631 -0.069819726 -0.7380165 -0.25389355 0.075826444
0.0997196 0.04361657 -0.15452616 -0.09751113 -0.059851166 0.64447314 0.022691641 0.20785844
-0.7858498 0.73898995 -0.16645126 0.2334621 0.49799883 -0.1687645 0.20956862 -0.09503953
0.032152966 -0.068491995 0.1509259 -0.15296073 0.3113524 0.048356548 0.17617942 -0.28668487
-0.17971146 -0.7296274 0.03884134 -0.123305306 -0.23503067 -0.16665149 -0.19090572 0.2691753
-0.1843477 -0.21189898 0.06548537 0.22490777 -0.055799145 -0.05836936 0.3441797 -0.47810468
0.16177528 -0.09704026 0.2779333 0.30482382 0.04081071 -0.27897403 -0.19494404 -0.1387269
0.12865467 -0.2927733 -0.3138221 0.62566125 0.24053217 0.17829503 -0.024713619 -0.05235033
-0.11473522 0.07352044 -0.16654311 0.42958325 0.3959619 0.06459039 -0.3149294 0.52953404
-0.41032127 -1.5348374 -0.19501269 -0.46346864 -0.24739671 -0.70435536 -0.16251546 0.71620625
0.15000331 0.104958534 0.35060787 -0.6246101 0.20475721 -0.33647665 0.15225075 0.8000298
0.0026871043 0.0017041401 0.19927537 -0.009658084 0.55336934 0.12849607 0.10081913 0.71854764
0.14960797 0.07458922 0.20829886 0.18368006 0.25009465 0.5542522 0.110652916 -1.1291744
0.004709088 0.04097978 -0.21902595 -0.17418633 0.06760124 -0.29450348 0.23447713 -0.1473407
0.43104234 -0.32760882 -0.5915071 -0.086623356 -0.14595391 -0.150748 -0.14545564 -0.284047
0.17658672 -0.014768633 0.41935265 -0.07299301 -1.2050515 -0.004631322 0.04008824 0.1856225
-0.5724625 -0.04205655 -0.055210777 0.49572164 -0.41832864 -0.16209291 -0.09462667 -0.23140745
-0.25349122 0.060459897 0.023294814 0.40117994 0.11633094 0.23966625 -0.116419286 0.19608209
00000000: 22bd f2bd 7329 403e 3648 c1be b4a5 efbd
00000010: 23c1 2a3d 3513 003e 4fa4 fbbe bf88 0dbe
00000020: 78a1 82be 0954 24be a165 933e 2caf 2cbd
00000030: ef7e c3bf 20d3 213e 5a8c 8d3e 9430 a63d
00000040: b69d ab3e 8b59 84be bd2c dbbe be17 03be
00000050: 2d91 99be 7385 cf3d 76e9 7abd 5422 81be
00000060: a37f d73d 53c4 0ebf e738 a0be ca44 c13c
00000070: d4ff 0f3e afdb 3c3f 64de 94be 8fe7 f63e
00000080: f579 593d aa71 00be fddb 863e ead2 3bbf
00000090: f842 dd3d e216 243f 8edc 29bd ae02 86bd
000000a0: 8f49 613d ec56 c3bd f2f4 59bf 148a 29be
000000b0: f894 4c3e f3dd 7fbe 0f04 d9bd 69ad 5b3e
000000c0: 67fd 5f3e f4ad 75be 5bd5 3fbe 4a65 af3d
000000d0: c58b a13d 48d3 2b3e 9c30 ddbe 86af fb3c
000000e0: 4c01 07bf 2fe9 ee3d ab87 4dbe 4fcc 63be
000000f0: b3f2 8d3e deaf 81bd 0b79 d33d dd65 89be
00000100: 85c8 38be 7af5 683d e93d ab3d 2e70 eebd
00000110: 964e 80be 75de 153f b023 f3bb 35c6 70bd
00000120: aabd 2abe 7f7c 26be 4ed7 a93d 80ea 713e
00000130: f99e 34be 4370 4f3e fe35 bf3e 5043 64be
00000140: 4748 33bd 26a7 253e c5ac 8a3e 5958 1cbf
00000150: f215 d6bd 146a 943e 23c8 88be a5f7 533f
00000160: caf4 063f 055e 1bbe a94f 3d3e 2311 a6be
00000170: ff4a 84bd 7a3e 61bb 0620 fabe 0096 57be
00000180: a594 4b3d 633f 8ebe da7f ee3c b283 91be
00000190: 7439 86bc 87bc 853e 976c 903d a766 323d
000001a0: 85fd 8dbd 845b 883e 7ae7 923e d226 80be
000001b0: 26cf 293c f835 9c3e eca9 ca3c ce50 863e
000001c0: d5a2 c2be 76bc 11be d2e4 273e 6c10 32bf
000001d0: a5fd 8ebd a6ee 3cbf 56fe 81be e54a 9b3d
000001e0: ca39 cc3d 4aa7 323d 1b3c 1ebe eab3 c7bd
000001f0: 7f26 75bd 31fc 243f d2e3 b93c d8d8 543e
00000200: 742d 49bf 722e 3d3f 3372 2abe b010 6f3e
00000210: b4f9 fe3e 9ad0 2cbe 2899 563e 16a4 c2bd
00000220: d4b2 033d 8845 8cbd 528c 1a3e bda1 1cbe
00000230: 9569 9f3e 8411 463d 6168 343e 5cc8 92be
00000240: 4806 38be dcc8 3abf 1918 1f3d 7e87 fcbd
00000250: e1ab 70be b0a6 2abe ca7c 43be 58d1 893e
00000260: a5c5 3cbe 0cfc 58be 321d 863d 394e 663e
00000270: a58d 64bd b614 6fbd 5238 b03e 23ca f4be
00000280: 6ba8 253e 0bbd c6bd 464d 8e3e de11 9c3e
00000290: 2229 273d afd5 8ebe 699f 47be 6d0e 0ebe
000002a0: 0dbe 033e 62e6 95be 4aad a0be 562b 203f
000002b0: 114e 763e f992 363e 3774 cabc 4d6d 56bd
000002c0: 4dfa eabd e291 963d 478a 2abe 56f2 db3e
000002d0: 85bb ca3e f747 843d 6d3e a1be 8b8f 073f
000002e0: a115 d2be 8d75 c4bf 68b1 47be c34b edbe
000002f0: 9055 7dbe a250 34bf 746a 26be 4b59 373f
00000300: 789a 193e 80f4 d63d e082 b33e 73e6 1fbf
00000310: e0ab 513e ab46 acbe 9fe7 1b3e c1ce 4c3f
00000320: 211a 303b 745d df3a d80e 4c3e f13c 1ebc
00000330: 9da9 0d3f 7994 033e 437a ce3d bdf2 373f
00000340: d532 193e 3cc2 983d 4c4c 553e a016 3c3e
00000350: 680c 803e 79e3 0d3f ff9d e23d c988 90bf
00000360: b14e 9a3b 6ada 273d 5748 60be e75d 32be
00000370: 8572 8a3d 29c9 96be c61a 703e 7be0 16be
00000380: 95b1 dc3e 58bc a7be 026d 17bf 9667 b1bd
00000390: f174 15be af5d 1abe 53f2 14be 9c6e 91be
000003a0: 26d3 343e 23f8 71bc 64b5 d63e 5c7d 95bd
000003b0: 213f 9abf 58c2 97bb 9133 243d d313 3e3e
000003c0: e78c 12bf 7d43 2cbd b224 62bd 3acf fd3e
000003d0: 2c2f d6be affb 25be a1cb c1bd 13f6 6cbe
000003e0: 9ac9 81be cca4 773d c4d4 be3c 7567 cd3e
000003f0: ea3e ee3d 126b 753e 3c6d eebd bec9 483e

bias f4 [128]
0.123672426 0.0833443 0.08968334 0.005853498 0.076214485 0.093301885 0.08397232 0.058617216
-0.008128416 0.015488388 0.040447004 0.05061811 0.0037481992 0.11527521 -0.0050824373 0.08353676
0.035997856 0.17944235 0.10635304 0.05065664 0.21988319 -0.058472447 0.032391902 0.12685697
-0.012516017 0.0866507 0.0890228 0.023461075 0.04424452 0.09667042 0.04547143 -0.002487766
-0.11573331 -0.040499028 0.1297884 0.03933329 -0.03213406 0.10077978 -0.033087417 0.1697902
-0.004830477 0.028146056 0.056391627 0.102655604 -0.012762778 -0.027733684 0.11562721 0.14687805
-0.014548725 0.1523955 0.028357033 -0.05199283 0.04587148 0.14808537 0.09370017 0.11902855
0.07729994 0.057771165 0.2444595 0.05372488 0.007978775 0.043921635 0.06889035 -0.14365223
-0.08198559 0.03688118 0.074696936 0.029778983 -0.010930633 0.16936289 0.06157827 -0.007914766
0.09329606 0.046048522 0.015305593 0.051907975 0.05663381 0.11257717 0.082442984 0.088335365
0.02730091 0.124008894 0.11755359 0.04101939 0.13874424 0.15730952 0.13314533 0.14240877
-0.019634629 -0.015052826 0.04710516 0.010160959 0.039779354 0.108911455 -0.07474508 0.08055225
-0.06973835 0.011820289 0.07924381 0.033009466 -0.042819466 0.046717096 0.09248516 0.045671668
0.055751864 0.09703153 -0.01193343 0.08633739 0.08204131 0.08258285 0.106753476 0.025977474
0.019189142 0.117669284 0.012796141 0.009483519 0.08101447 0.222717 0.09759972 0.12402226
-0.04035726 0.1135832 0.08359303 0.016452953 0.13299371 0.008007782 0.0954022 0.102216475
00000000: f847 fd3d 6bb0 aa3d e6ab b73d b3ce bf3b
00000010: 5716 9c3d 0f15 bf3d aef9 ab3d 9b18 703d
00000020: 0c2d 05bc 02c3 7d3c c2ab 253d ef54 4f3d
00000030: 59a4 753b 6915 ec3d 938a a6bb 5215 ab3d
00000040: 7d72 133d bcbf 373e 9fcf d93d 567d 4f3d
00000050: 0f29 613e ce80 6fbd 5fad 043d cbe6 013e
00000060: fb0f 4dbc ec75 b13d 9651 b63d 7131 c03c
00000070: be39 353d 24fb c53d 4040 3a3d ca09 23bb
00000080: 9605 edbd 4fe2 25bd 40e7 043e f21b 213d
00000090: 019f 03bd a165 ce3d ac86 07bd 7bdd 2d3e
000000a0: fa48 9ebb 8f92 e63c e8fa 663d 1a3d d23d
000000b0: f91a 51bc c031 e3bc f5cd ec3d 3367 163e
000000c0: c75d 6ebc 910d 1c3e 024d e83c 6ff6 54bd
000000d0: bce3 3b3d b1a3 173e e0e5 bf3d 3ec5 f33d
000000e0: 6e4f 9e3d 75a1 6c3d 9753 7a3e 9f0e 5c3d
000000f0: 68b9 023c 2ce7 333d 6216 8d3d 9219 13be
00000100: 10e8 a7bd b810 173d b5fa 983d 0ef3 f33c
00000110: 6616 33bc 776d 2d3e 7f39 7c3d efac 01bc
00000120: 0112 bf3d 609d 3c3d 4fc4 7a3c 759d 543d
00000130: dbf8 673d dc8e e63d ded7 a83d 2ce9 b43d
00000140: 28a6 df3c 60f8 fd3d f0bf f03d f303 283d
00000150: f812 0e3e bf15 213e 4057 083e 9bd3 113e
00000160: cdd8 a0bc 21a0 76bc 57f1 403d 277a 263c
00000170: adef 223d f80c df3d f313 99bd 94f8 a43d
00000180: fbd2 8ebd e3a9 413c 944a a23d ef34 073d
00000190: 7763 2fbd 6d5a 3f3d dc68 bd3d 3712 3b3d
000001a0: 115c 643d 78b8 c63d 6f84 43bc a8d1 b03d
000001b0: 4605 a83d 3221 a93d 91a1 da3d b6ce d43c
000001c0: 8c32 9d3c 98fc f03d e8a6 513c c360 1b3c
000001d0: eaea a53d ed0f 643e 5de2 c73d 62ff fd3d
000001e0: a74d 25bd 4f9e e83d d332 ab3d 58c8 863c
000001f0: 812f 083e 1233 033c 3b62 c33d df56 d13d

weight f4 [64, 128]
-0.052310057 0.26796582 0.04655534 0.29056677 0.035544448 0.08666796 -0.017312346 -0.1438521
-0.14773321 -0.4809675 -0.14112647 0.19323026 0.34260505 -0.015574823 -0.17595692 0.41386512
-0.2458508 0.21479775 -0.15277277 -0.34546298 -0.0216027 -0.06332635 0.2068438 -0.35595018
0.21929142 -0.22063516 -0.031079086 -0.25685775 -0.05279466 0.14693213 0.03529636 -0.17134435
0.12555157 -0.14678265 0.30132183 0.298349 -0.12715052 0.15793863 -0.20477009 -0.11421281
0.24004266 -0.021845594 0.33206403 -0.015921365 0.1255749 0.14967479 0.21230824 0.1906
0.02927277 -0.10128521 -0.25351015 -0.11236647 -0.08568668 0.15070002 -0.04208264 0.20090273
0.22726561 -0.20359041 0.022820063 0.07584398 0.21973102 -0.23295721 0.02828414 -0.05733598
-0.026350308 0.43579578 0.20307069 0.15511923 0.061142072 0.11907537 -0.3104235 0.06896237
-0.10866952 0.463569 -0.36423928 0.30912602 -0.08744548 -0.28900808 -0.20405203 0.052340344
-0.033155896 0.20934953 -0.090962835 -0.123102285 0.13470505 0.044508092 -0.26376733 0.07744942
-26.737041 -0.3125577 0.25810063 0.0014857446 -0.030871894 -0.08318821 0.07589077 -0.022224538
0.14788358 0.13196848 0.18243973 0.14616169 0.098201 0.10904471 -0.0030489785 0.076762594
-0.022301603 -0.035210274 -0.0031413015 0.1651459 -0.04161817 -0.42579314 -0.06604983 -0.069981925
-0.052844666 0.21933766 -0.2443517 -0.01959595 0.100840986 0.07050261 -0.19133204 -0.019784937
-0.030137261 -0.11552298 0.028898574 -0.06758884 0.14652012 0.07932591 0.07628868 -0.022035863
0.2346965 0.11375965 -0.2883409 0.1134289 0.35084763 -0.15628898 -0.10062045 -0.06407998
-0.2536421 0.097698495 0.24053907 0.111474134 0.2611207 -0.13016066 -0.035755113 -0.17592634
-0.17278224 0.081270725 -0.043853078 0.10687529 0.00878245 0.044262104 -0.2750585 0.13244472
-0.010748782 -0.18884775 -0.008958544 -0.12588911 -0.026738985 -0.23694496 0.070432365 -0.038456872
0.13376357 0.15749064 0.2422142 0.13063654 0.18981177 -0.23712562 0.3622706 0.1483562
0.046975005 0.37498403 -0.09765329 0.02551767 0.18726599 -0.05031029 -0.09686208 0.031541236
-0.024115643 0.12753923 0.036639903 -0.13921699 -0.2231676 0.23417714 -0.24263042 0.019811159
-0.007131596 0.0813896 0.013014712 0.056083523 0.017695842 -0.3531698 -0.05400555 -0.19777091
0.3533978 -36.40455 0.4607893 0.040109143 -0.0023330748 0.058409467 0.15879266 0.103691496
0.002861731 0.024596425 -0.19198625 0.45428163 0.17344461 -0.0021241726 -0.072853714 0.2539075
-0.19446903 0.119216666 -0.3922937 -0.10793786 -0.22359934 -0.15966968 -0.40588236 0.26681674
-39.024277 0.14423394 0.035615586 0.052577224 0.16134335 -0.096993744 -0.092442654 -0.3227861
0.29911113 0.2898459 -0.20660354 0.21147986 -0.022000065 0.12338669 -0.33745354 0.054858983
0.011659398 -0.13031757 0.27055913 0.39778697 -0.081526875 -0.4161904 -0.045834925 0.01393976
-0.051801074 0.023572387 0.15275885 -0.01577218 0.22611646 0.21086517 -0.14994703 0.09113018
-0.029076401 0.17738812 -0.17368652 -0.03541705 0.042226434 0.0990123 0.108276226 -0.13449775
00000000: 1243 56bd d132 893e d0b0 3e3d 2bc5 943e
00000010: 0e97 113d f97e b13d 9fd2 8dbc f74d 13be
00000020: 6047 17be 5f41 f6be 7583 10be 27de 453e
00000030: ee69 af3e 8b2d 7fbc 0d2e 34be 21e6 d33e
00000040: 50c0 7bbe f1f3 5b3e 7770 1cbe 86e0 b0be
00000050: 25f8 b0bc 3fb1 81bd dcce 533e 1a3f b6be
00000060: ee8d 603e 2fee 61be 9199 febc dc82 83be
00000070: 373f 58bd 6075 163e ea92 103d e574 2fbe
00000080: 9790 003e 314e 16be db46 9a3e 33c1 983e
00000090: bf33 02be aaba 213e 40af 51be 68e8 e9bd
000000a0: becd 753e 88f5 b2bc 4c04 aa3e 866d 82bc
000000b0: b596 003e 5944 193e 5567 593e a52c 433e
000000c0: 73cd ef3c 9f6e cfbd 15cc 81be 6420 e6bd
000000d0: 807c afbd 1b51 1a3e d95e 2cbd 72b9 4d3e
000000e0: 51b8 683e 017a 50be 24f1 ba3c 1754 9b3d
000000f0: 2b01 613e 568c 6ebe 24b4 e73c 22d9 6abd
00000100: 9adc d7bc a020 df3e c3f1 4f3e 93d7 1e3e
00000110: 1c70 7a3d cadd f33d d4ef 9ebe 253c 8d3d
00000120: 208e debd ea58 ed3e 927d babe c445 9e3e
00000130: 9e16 b3bd def8 93be 04f3 50be d462 563d
00000140: 7ace 07bd b95f 563e b94a babd 0d1d fcbd
00000150: 1ff0 093e 1e4e 363d 830c 87be cd9d 9e3d
00000160: 76e5 d5c1 9007 a0be c425 843e 51bd c23a
00000170: 0ee7 fcbc 955e aabd 9f6c 9b3d 3c10 b6bc
00000180: cb6e 173e bf22 073e 7bd1 3a3e 69ab 153e
00000190: 9b1d c93d d552 df3d 5fd1 47bb b535 9d3d
000001a0: dab1 b6bc a638 10bd 4bde 4dbb 021c 293e
000001b0: d077 2abd 8f01 dabe 2245 87bd af52 8fbd
000001c0: a673 58bd 0d9a 603e 5537 7abe b087 a0bc
000001d0: b885 ce3d ac63 903d 8cec 43be 0514 a2bc
000001e0: 6be2 f6bc 5097 ecbd b4bc ec3c 056c 8abd
000001f0: 5f09 163e 9f75 a23d 3d3d 9c3d 8e84 b4bc
00000200: 4754 703e d2fa e83d 6ba1 93be 694d e83d
00000210: 4da2 b33e 380a 20be 1812 cebd 5d3c 83bd
00000220: 61dd 81be 2616 c83d e04f 763e 8d4c e43d
00000230: 9db1 853e d648 05be f473 12bd 0926 34be
00000240: d4ed 30be 4471 a63d 499f 33bd 6fe1 da3d
00000250: 44e4 0f3c 2e4c 353d 78d4 8cbe 979f 073e
00000260: a91b 30bc 4e61 41be dbc6 12bc 13e9 00be
00000270: b70b dbbc b3a1 72be d83e 903d f484 1dbd
00000280: 51f9 083e 3a45 213e 0007 783e 96c5 053e
00000290: 045e 423e 0fd1 72be 887b b93e b0ea 173e
000002a0: dd68 403d e8fd bf3e 73fe c7bd 6f0a d13c
000002b0: a8c2 3f3e 2a12 4ebd a05f c6bd 6231 013d
000002c0: 2b8e c5bc a599 023e b913 163d e68e 0ebe
000002d0: 0c86 64be 22cc 6f3e 1c74 78be 034b a23c
000002e0: 2ab0 e9bb 97af a63d a93b 553c d6b7 653d
000002f0: dff6 903c acd2 b4be ec34 5dbd 7584 4abe
00000300: 8ef0 b43e 429e 11c2 93ec eb3e 7c49 243d
00000310: 80e6 18bb c43e 6f3d 8b9a 223e 355c d43d
00000320: e18b 3b3b 717e c93c 0b98 44be 9a97 e83e
00000330: 779b 313e b435 0bbb 5434 95bd 2a00 823e
00000340: e422 47be de27 f43d b8da c8be 860e ddbd
00000350: 3af7 64be 7380 23be d0cf cfbe 349c 883e
00000360: dc18 1cc2 10b2 133e a6e1 113d 375b 573d
00000370: 3137 253e a8a4 c6bd 9352 bdbd 3844 a5be
00000380: 1825 993e af66 943e e18f 53be 2d8e 583e
00000390: 7b39 b4bc 29b2 fc3d b6c6 acbe d0b3 603d
000003a0: 0f07 3f3c f871 05be ba86 8a3e bcaa cb3e
000003b0: 90f7 a6bd e816 d5be 67bd 3bbd 9763 643c
000003c0: 5d2d 54bd e11a c13c d16c 1c3e a934 81bc
000003d0: 138b 673e 0aed 573e b78b 19be 76a2 ba3d
000003e0: a231 eebc 3ba5 353e e1da 31be 7811 11bd
000003f0: a0f5 2c3d f6c6 ca3d edbf dd3d c7b9 09be

bias f4 [64]
-0.43741506 0.8451639 -0.15228818 -0.19742334 -0.02769453 -0.1855763 0.29796976 0.13239335
0.42079046 0.36217877 -0.35418403 0.1804763 -0.5426638 -0.09287304 -0.28626424 -0.5383391
-0.5984306 -0.0571696 -0.26331246 -0.485516 0.5501677 0.71592504 0.13397323 -0.07293569
0.73480487 0.12535931 0.47821885 0.04318733 -0.024894444 0.77877694 0.33037052 0.17496113
-0.78521544 0.17509544 -0.043025922 -0.08130846 -0.10017359 -0.36858878 0.25758627 0.32593852
-0.4979397 0.15373857 -0.14796686 -0.250409 0.08566621 -0.21291788 0.076006025 -0.13257217
-0.5140147 0.7697513 -0.6090171 0.24055924 -0.0756256 -0.6132194 0.67999685 -0.42138436
-0.52279204 -0.053882618 0.7292927 0.25695843 -0.39054236 -0.24964117 0.41592327 0.011932307
00000000: def4 dfbe a95c 583f 6ff1 1bbe 5829 4abe
00000010: a4df e2bc b707 3ebe 7e8f 983e 1f92 073e
00000020: d971 d73e 7f6f b93e 9c57 b5be c7ce 383e
00000030: 04ec 0abf 3834 bebd 3a91 92be 97d0 09bf
00000040: bf32 19bf ac2a 6abd e4d0 86be 8e95 f8be
00000050: cad7 0c3f dd46 373f 4730 093e 4f5f 95bd
00000060: 2c1c 3c3f 315e 003e 1ad9 f43e 33e5 303d
00000070: 6fef cbbc ed5d 473f 5326 a93e 0329 333e
00000080: e103 49bf 384c 333e f33b 30bd 0d85 a6bd
00000090: d027 cdbd abb7 bcbe 59e2 833e 6ae1 a63e
000000a0: f4f1 febe a56d 1d3e a084 17be 9c35 80be
000000b0: c471 af3d 2507 5abe 0ca9 9b3d 00c1 07be
000000c0: 7896 03bf 6c0e 453f 8be8 1bbf 2955 763e
000000d0: 98e1 9abd f2fb 1cbf 4614 2e3f b1bf d7be
000000e0: b3d5 05bf 05b4 5cbd edb2 3a3f 0e90 833e
000000f0: 2bf5 c7be efa1 7fbe e5f3 d43e b97f 433c
