pth/takada_model_25.pth (torch, 119448 bytes, 6 tensors)

weight f4 [128, 128]
-0.07523731 -0.2583189 -0.08217676 -0.25866163 0.023506356 0.19775169 -0.08091776 0.049683608
0.12171199 -0.04370754 -0.09231065 -0.25869855 0.0087168915 -0.116559006 0.22222765 -0.37823224
-0.26960847 0.33443666 0.057555392 0.12703674 -0.09555994 0.2756763 -0.09736064 0.2203452
0.21866372 -0.049122304 0.074113116 0.048770875 -0.21115181 -0.24373643 -0.08952834 -0.054529898
0.24060795 0.035578348 -0.09751398 -0.015680311 -0.16765192 0.3283918 0.104716085 -0.08299787
-0.15848684 -0.048818097 0.25742322 -0.08150507 -0.021939002 -0.30744007 0.21469794 -0.09288299
0.055524748 -0.056368254 0.21523139 -0.0298463 -0.1923102 0.18169782 -0.24480298 -0.197834
0.13505405 0.3088059 0.09947783 0.035210777 -0.09414328 -0.33393618 0.06901291 0.109242074
0.13806131 -0.34174746 -0.0069906064 -0.25740325 -0.075035475 0.21499062 -0.03343604 0.0043317117
0.067889914 -0.22378972 -0.017888138 -0.1442319 0.11350754 -0.14337106 0.3513348 -0.28492463
-0.35515696 0.18992007 0.100626245 0.2531382 0.09546153 0.33558333 -0.0018140442 0.17509985
0.11243637 0.07389639 0.06370696 -0.11913314 -0.023125034 -0.31001917 -0.19015808 -0.05112834
0.2532813 -0.009955292 -0.26931188 -0.24302067 -0.043079935 0.31546992 0.087099284 -0.21997227
-0.15654543 -0.05133055 0.30538446 -0.2830561 -0.03921664 -0.30310622 0.3389562 -0.038383204
-0.011339922 -0.059387214 0.03394424 -0.04439277 -0.15071507 0.34636524 -0.12154264 -0.28372166
0.016522663 0.27790546 0.06920895 -0.08785904 -0.1406152 -0.29183534 0.024639377 0.15355867
-0.09571835 -0.059255507 0.33955064 0.13686222 -0.18104471 -0.2170752 -0.00955389 0.34796646
-0.060178272 0.13643897 0.21486053 -0.121519096 0.14837624 0.28039113 0.07693971 0.12990654
0.33911356 -0.08151164 0.03073156 -0.09703727 -0.20752276 0.17630574 0.0569317 -0.07143128
0.08233183 -0.057826407 -0.04595893 -0.06395388 0.014106973 0.053259015 0.01375139 0.34871116
-0.2567677 0.045207452 -0.12602143 -0.08075608 -0.15583017 0.15409623 0.14743617 -0.032992918
-0.030889703 0.07843856 0.06997067 -0.17451987 -0.2799689 -0.004785641 0.01843957 0.047522847
0.3108015 -0.05279611 0.12725608 -0.10388295 0.10228845 -0.05333135 -0.27056706 -0.23151317
-0.19521166 -0.009699625 -0.18576029 -0.13045801 0.3065585 -0.23404464 0.11317444 0.32582423
-0.26304668 0.008259709 0.18994343 0.09387989 -0.1813566 -0.28936988 -0.010166525 0.23976694
-0.021763247 0.07876506 0.14557733 -0.062432896 0.24511053 0.19826427 -0.16474855 0.024825778
0.35723525 -0.16130778 -0.11866104 -0.264116 -0.22695097 0.012682567 0.23329055 -0.005254984
0.11843711 -0.2444823 -0.16315454 -0.122791275 -0.035476428 -0.079393096 -0.019667817 0.29096895
-0.19599764 0.035461828 -0.2166199 -0.04192372 -0.10030469 0.22095948 0.1395768 -0.07701575
0.07963562 0.15329303 -0.11719654 0.029021837 -0.099754825 0.10947288 -0.058369484 0.051334817
0.281155 -0.17404826 0.17173663 -0.022104736 0.10813274 -0.018015053 -0.23550655 -0.25231424
-0.16791894 0.06881805 0.01886441 -0.114340544 0.18908119 -0.08215053 0.09099062 0.22959922
00000000: 0516 9abd 6042 84be 4a4c a8bd 4c6f 84be
00000010: 6790 c03c 6b7f 4a3e 36b8 a5bd 0a81 4b3d
00000020: 2344 f93d ad06 33bd 5e0d bdbd 2374 84be
00000030: 4bd1 0e3c 7db6 eebd a58f 633e a8a7 c1be
00000040: 1f0a 8abe 483b ab3e 34bf 6b3d eb15 023e
00000050: eeb4 c3bd 7225 8d3e 0465 c7bd 2ca2 613e
00000060: 62e9 5f3e 7834 49bd 9ec8 973d f8c3 473d
00000070: 2e38 58be 0b96 79be a25a b7bd be5a 5fbd
00000080: ee61 763e 9aba 113d 69b5 c7bd ff73 80bc
00000090: f2ac 2bbe f822 a83e 6375 d63d cafa a9bd
000000a0: 604a 22be 7cf5 47bd facc 833e 21ec a6bd
000000b0: 6cb9 b3bc c968 9dbe c7d9 5b3e 7039 bebd
000000c0: eb6d 633d 66e2 66bd 9e65 5c3e 3a80 f4bc
000000d0: f7ec 44be fe0e 3a3e a2ad 7abe ff94 4abe
000000e0: 9c4b 0a3e cf1b 9e3e 08bb cb3d 2d39 103d
000000f0: 31ce c0bd aff9 aabe a456 8d3d 4fba df3d
00000100: f25f 0d3e 86f9 aebe 7511 e5bb 5cca 83be
00000110: 33ac 99bd 8026 5c3e 3bf4 08bd 08f1 8d3b
00000120: de09 8b3d 2229 65be 258a 92bc 87b1 13be
00000130: a476 e83d ddcf 12be 28e2 b33e a4e1 91be
00000140: 22d7 b5be 687a 423e 2215 ce3d 559b 813e
00000150: 5681 c33d 94d1 ab3e 39c5 edba 604d 333e
00000160: 0a45 e63d fe56 973d cb78 823d 13fc f3bd
00000170: b670 bdbc d5ba 9ebe cdb8 42be f36b 51bd
00000180: 16ae 813e 851b 23bc 3fe3 89be 69da 78be
00000190: 9674 30bd 4685 a13e 1c61 b23d 6940 61be
000001a0: 724d 20be fc3f 52bd 5a5b 9c3e bbec 90be
000001b0: a1a1 20bd bd30 9bbe ab8b ad3e b537 1dbd
000001c0: 15cb 39bc 0240 73bd 1e09 0b3d 31d5 35bd
000001d0: 0d55 1abe c956 b13e 59eb f8bd f743 91be
000001e0: 895a 873c a049 8e3e 6cbd 8d3d 71ef b3bd
000001f0: 6efd 0fbe 716b 95be 85d8 c93c 7c3e 1d3e
00000200: fb07 c4bd e7b5 72bd 95d9 ad3e 9c25 0c3e
00000210: c963 39be f648 5ebe eb87 1cbc a928 b23e
00000220: 7e7d 76bd a8b6 0b3e 6604 5c3e 01df f8bd
00000230: f1ef 173e 6d8f 8f3e 9192 9d3d 3806 053e
00000240: 4ba0 ad3e 93ef a6bd c1c0 fb3c 7abb c6bd
00000250: d980 54be 7e89 343e 3731 693d 904a 92bd
00000260: 979d a83d 62db 6cbd 6e3f 3cbd 40fa 82bd
00000270: ef20 673c 2026 5a3d 834d 613c 458a b23e
00000280: 0e77 83be 732b 393d c30b 01be 7263 a5bd
00000290: f291 1fbe 67cb 1d3e 82f9 163e 9523 07bd
000002a0: 670c fdbc 65a4 a03d c84c 8f3d 56b5 32be
000002b0: 1558 8fbe ded0 9cbb 950e 973c 51a7 423d
000002c0: 6021 9f3e bc40 58bd 6b4f 023e 96c0 d4bd
000002d0: 9b7c d13d f971 5abd c487 8abe ca11 6dbe
000002e0: 91e5 47be 2deb 1ebc f237 3ebe c996 05be
000002f0: 3cf5 9c3e 66a9 6fbe 00c8 e73d 6fd2 a63e
00000300: 0eae 86be bb53 073c 8880 423e 1a44 c03d
00000310: 8bb5 39be 4a28 94be 7f91 26bc 7785 753e
00000320: d648 b2bc 934f a13d 3912 153e a3b9 7fbd
00000330: 41fe 7a3e ca05 4b3e d8b3 28be 6e5f cb3c
00000340: 8ae7 b63e de2d 25be 8f04 f3bd 363a 87be
00000350: d665 68be 8bca 4f3c b8e3 6e3e 0032 acbb
00000360: 288f f23d 9159 7abe fc11 27be fe79 fbbd
00000370: bb4f 11bd d998 a2bd 671e a1bc e2f9 943e
00000380: 9bb3 48be 6c40 113d 9bd1 5dbe 35b8 2bbd
00000390: 8c6c cdbd 3443 623e 38ed 0e3e 6fba 9dbd
000003a0: 0018 a33d d9f8 1c3e bd04 f0bd 34bf ed3c
000003b0: 424c ccbd 5133 e03d d714 6fbd 7544 523d
000003c0: 8cf3 8f3e b539 32be badb 2f3e fe14 b5bc
000003d0: b374 dd3d 4e94 93bc a128 71be 552f 81be
000003e0: f1f2 2bbe 7af0 8c3d 8989 9a3c 602b eabd
000003f0: 809e 413e 893e a8bd 4a59 ba3d 0f1c 6b3e

bias f4 [128]
-0.12691762 -0.09801856 0.17564616 -0.10239332 -0.0953808 0.07317126 0.06704564 0.111090966
-0.046179757 -0.110924736 0.12540644 0.08637792 -0.04382398 -0.16151704 -0.058532193 -0.07403317
0.18021013 -0.21656667 -0.12525553 0.20836008 -0.1631263 0.17584744 0.13484976 0.17727849
0.028026009 0.07026534 0.0026112401 0.1682983 0.2387562 -0.1075046 -0.023636006 0.044495422
0.20545293 -0.19031358 -0.11140101 0.17242181 -0.09984822 0.12285216 -0.22521868 0.032082703
0.11824144 0.19631432 -0.16610871 -0.12977485 -0.119859576 -0.076122634 0.12157466 0.0074003213
-0.087096006 -0.19812433 -0.053700354 -0.16301678 0.17648263 0.1712944 -0.16688697 0.112226985
0.041661076 -0.23852396 0.11062965 -0.17475186 0.11008841 0.14520021 -0.073883325 -0.10413002
0.015465415 0.208157 -0.21823245 0.18148552 -0.07305315 -0.2123635 0.06833604 0.09507048
-0.17827053 0.11445364 0.058621164 0.1160227 -0.12209779 0.02617625 0.1942112 -0.14264804
-0.07538641 -0.19122754 0.1399048 -0.011751585 0.14569621 0.059531588 0.00093007076 -0.26920533
0.24133581 0.04599933 0.2204733 0.16903205 -0.042317297 -0.124265835 0.22182979 -0.17578883
-0.23063889 -0.12766406 0.06555944 0.15655307 -0.018767318 -0.19974935 0.052320745 0.1525508
-0.108437404 0.13943411 0.19366418 0.08141991 0.093015134 -0.14962617 -0.011740632 -0.11039784
0.030248085 0.021196663 -0.11150158 -0.07656144 0.21167518 0.010444895 -0.09931254 0.19339246
-0.19133645 0.1256327 0.1793449 0.11481707 0.10670158 0.12222832 0.07310077 0.1613968
00000000: b1f6 01be f4bd c8bd 96dc 333e 97b3 d1bd
00000010: 0257 c3bd d0da 953d 394f 893d a983 e33d
00000020: fc26 3dbd 822c e3bd 8c6a 003e e8e6 b03d
00000030: c680 33bd b964 25be 74bf 6fbd b49e 97bd
00000040: 0189 383e a7c3 5dbe fc42 00be 585c 553e
00000050: 950a 27be 5a11 343e 0e16 0a3e 7e88 353e
00000060: cd96 e53c 46e7 8f3d 5721 2b3b 6456 2c3e
00000070: 817c 743e 5f2b dcbd 4ca0 c1bc d540 363d
00000080: 4162 523e 90e1 42be 3626 e4bd 588f 303e
00000090: 397d ccbd ea99 fb3d ba9f 66be 2769 033d
000000a0: 9128 f23d 9f06 493e 6718 2abe b3e3 04be
000000b0: f078 f5bd 2fe6 9bbd 23fc f83d 657e f23b
000000c0: 645f b2bd 1be1 4abe e7f4 5bbd dfed 26be
000000d0: ddb7 343e cd67 2f3e 6be4 2abe 43d7 e53d
000000e0: cea4 2a3d a03f 74be cc91 e23d 27f2 32be
000000f0: 0876 e13d 5daf 143e 2450 97bd 1f42 d5bd
00000100: a762 7d3c 1c27 553e 5478 5fbe 57d7 393e
00000110: e49c 95bd d175 59be c4f3 8b3d 50b4 c23d
00000120: 8d8c 36be ac66 ea3d bf1c 703d 4f9d ed3d
00000130: 680e fabd 936f d63c 4ddf 463e 5412 12be
00000140: 3164 9abd 27d1 43be 3443 0f3e b889 40bc
00000150: 6331 153e 65d7 733d fecf 733a 48d5 89be
00000160: bc20 773e cb69 3c3d c1c3 613e bd16 2d3e
00000170: e754 2dbd 167f febd 5927 633e fd01 34be
00000180: 9a2c 6cbe 5eba 02be 0744 863d 734f 203e
00000190: ebbd 99bc 188b 4cbe 474e 563d 4736 1c3e
000001a0: 6e14 debd d1c7 0e3e e74f 463e 7bbf a63d
000001b0: b87e be3d 9a37 19be c85b 40bc 4318 e2bd
000001c0: d5ca f73c a0a4 ad3c f15a e4bd 3fcc 9cbd
000001d0: 61c1 583e 1121 2b3c 5f64 cbbd ac08 463e
000001e0: b4ed 43be dca5 003e 31a6 373e 3625 eb3d
000001f0: 5c86 da3d d752 fa3d dbb5 953d 3445 253e

weight f4 [64, 128]
-0.2988148 0.2384543 0.2604316 -0.2798955 0.1752594 -0.30270937 0.25736862 -0.16076493
-0.15518773 0.18927556 0.0071594506 -0.027412053 -0.00092923455 -0.2772946 -0.30793676 0.26932555
0.044426154 -0.15060155 0.062600665 -0.029690193 0.08556794 0.09238415 0.33742762 0.2145025
0.10023833 -0.01073365 -0.23672518 -0.09913568 0.22378547 0.097197495 0.31432742 0.14701681
-0.19844875 -0.09548466 -0.31983203 -0.20090199 0.23925771 -0.11390241 0.11350003 -0.33941197
-0.27723342 0.18596533 0.020967124 -0.20118205 0.10009606 -0.004953927 -0.009505877 -0.29428434
-0.09623277 -0.3593928 0.28217727 0.33804846 0.17977858 -0.15838866 0.25115833 -0.3176642
0.112150386 0.32226828 -0.069889225 0.24220268 -0.08103683 0.185588 -0.13081558 0.14947952
0.23152246 0.22041011 -0.2731266 -0.17054063 0.25175437 -0.3457752 -0.33405524 -0.15096562
0.22718984 -0.00886673 0.13861759 0.21310073 -0.22520065 -0.28331462 0.084517196 -0.26440182
-0.013036125 0.25965098 -0.028193587 0.30543992 -0.21916077 0.22327119 -0.1550054 0.2634912
0.12132195 -0.19786341 0.13625802 0.29182467 0.14072916 -0.10927485 -0.20473021 -0.2125137
-0.15032688 0.055034403 0.12108548 -0.3469332 0.18982646 -0.24530707 0.0310218 0.008654064
0.13883296 0.04589011 -0.18406563 -0.09039514 -0.3154316 -0.19846706 0.056040168 0.11478913
0.32485092 0.2092262 -0.2646357 0.15822586 0.2604604 0.12573826 0.30353194 -0.034182604
0.1442418 0.18349543 0.11059206 -0.20653911 -0.18814333 -0.20843647 0.3148459 0.08693922
0.19849527 0.14592972 -0.26900503 0.097835 -0.17997867 0.02034764 0.286813 -0.2644096
0.09429393 -0.091384344 0.16949585 -0.12565777 0.24688417 0.05350194 0.05245337 0.08688393
-0.16468963 0.28846234 -0.24912912 0.22921692 0.0342271 -0.21432906 0.03521701 -0.06076133
0.22684744 0.030988866 0.13015284 -0.12177871 -0.11510101 0.199494 -0.26907456 -0.30401987
-0.010846104 -0.14911407 0.15573145 -0.064484395 0.117868595 -0.21143757 -0.10465377 0.284517
-0.07027132 0.3540194 -0.20754354 -0.3038394 0.3452142 -0.33151078 0.10595956 0.1696372
-0.2789954 0.16798495 0.0153345065 0.1671503 0.13998269 -0.15266414 0.16081132 0.05030898
-0.16255687 -0.29297507 0.23982851 -0.19653778 0.36050892 -0.05672757 -0.21468648 -0.027348772
0.2729428 0.036225572 0.097044006 0.20900059 0.06974593 -0.30674666 -0.15871006 0.2630583
-0.12294193 0.34119466 -0.276468 0.08888807 0.20463653 0.060097434 -0.15305609 -0.22791243
0.011398308 -0.29483756 -0.32718188 0.022065215 -0.14625001 0.18217394 0.33999676 -0.20402123
-0.118294604 0.25116694 -0.00562935 0.04311183 0.19333692 -0.18432325 0.2445557 -0.26951712
0.16090089 0.10225504 0.00947102 -0.22099964 0.2437583 -0.12522633 -0.074112654 0.20618998
-0.34450847 -0.11031239 0.3204952 0.030085104 0.11669705 -0.30787456 0.28992462 -0.3029775
-0.0946798 -0.06506743 -0.10196262 0.07264255 0.1398044 0.27144197 -0.12638637 0.36478826
0.10409423 -0.25123012 0.31880963 -0.033922784 0.15583342 -0.042517185 0.26183134 0.14902015
00000000: 41fe 98be 5d2d 743e 4a57 853e 774e 8fbe
00000010: 3377 333e b9fc 9abe d2c5 833e 909f 24be
00000020: 88e9 1ebe 74d1 413e d399 ea3b 3e8f e0bc
00000030: e097 73ba 8ff9 8dbe e3a9 9dbe 0ae5 893e
00000040: 33f8 353d 4b37 1abe c734 803d d938 f3bc
00000050: 3e3e af3d e733 bd3d 50c3 ac3e 8ba6 5b3e
00000060: c149 cd3d 31dc 2fbc 1668 72be a607 cbbd
00000070: 0528 653e 7b0f c73d 86ef a03e 938b 163e
00000080: 2636 4bbe 768d c3bd 06c1 a3be 40b9 4dbe
00000090: f9ff 743e ab45 e9bd b472 e83d 68c7 adbe
000000a0: 8af1 8dbe b26d 3e3e 3fc3 ab3c ab02 4ebe
000000b0: 2aff cc3d 8d54 a2bb 8abe 1bbc 70ac 96be
000000c0: b015 c5bd 5502 b8be 8a79 903e b014 ad3e
000000d0: e017 383e a330 22be d397 803e e2a4 a2be
000000e0: 1aaf e53d 5900 a53e 1522 8fbd fb03 783e
000000f0: a3f6 a5bd c80a 3e3e 85f4 05be 2911 193e
00000100: 3914 6d3e 30b3 613e 40d7 8bbe 34a2 2ebe
00000110: f3e5 803e 7209 b1be 4a09 abbe bb96 1abe
00000120: 74a4 683e c345 11bc c5f1 0d3e 1437 5a3e
00000130: 009b 66be 9d0e 91be 5a17 ad3d ad5f 87be
00000140: 7995 55bc f9f0 843e 3df6 e6bc 9f62 9c3e
00000150: ae6b 60be 34a1 643e bcb9 1ebe 52e8 863e
00000160: a477 f83d b59c 4abe 3987 0b3e 0b6a 953e
00000170: 4e1b 103e 7ecb dfbd cca4 51be 319d 59be
00000180: 4aef 19be c16b 613d aafb f73d 3aa1 b1be
00000190: de61 423e c731 7bbe 6e21 fe3c c6c9 0d3c
000001a0: 3a2a 0e3e 45f7 3b3d b37b 3cbe 1621 b9bd
000001b0: 4080 a1be f33a 4bbe 608a 653d 9016 eb3d
000001c0: dc52 a63e 653f 563e 557e 87be f605 223e
000001d0: 115b 853e 88c1 003e 8a68 9b3e 0f03 0cbd
000001e0: 1fb4 133e 3ae6 3b3e 177e e23d fd7e 53be
000001f0: a5a8 40be 5f70 55be 7b33 a13e 310d b23d
00000200: 5842 4b3e 9a6e 153e 07bb 89be b75d c83d
00000210: 544c 38be 18b0 a63c 27d9 923e b260 87be
00000220: 2d1d c13d b727 bbbd 5290 2d3e 6eac 00be
00000230: 34cf 7c3e da24 5b3d 58d9 563d 34f0 b13d
00000240: 66a4 28be 56b1 933e b41b 7fbe d7b7 6a3e
00000250: b731 0c3d 1479 5bbe b63f 103d dfe0 78bd
00000260: b24a 683e 5ddc fd3c c946 053e 1e67 f9bd
00000270: 14ba ebbd 2848 4c3e 24c4 89be 7ea8 9bbe
00000280: dbb3 31bc 5cb1 18be 1178 1f3e 6510 84bd
00000290: 1765 f13d 1783 58be b754 d6bd 36ac 913e
000002a0: 69ea 8fbd 0842 b53e 4b86 54be d690 9bbe
000002b0: eabf b03e c8bb a9be 5301 d93d 60b5 2d3e
000002c0: 7cd8 8ebe 3f04 2c3e 953d 7b3c 7329 2b3e
000002d0: 9f57 0f3e fd53 1cbe b9ab 243e ca10 4e3d
000002e0: 4f75 26be d400 96be 9b95 753e 3341 49be
000002f0: a094 b83e 2b5b 68bd c6d6 5bbe 880a e0bc
00000300: 29bf 8b3e 4461 143d 02bf c63d 4004 563e
00000310: f4d6 8e3d e60d 9dbe e484 22be 94af 863e
00000320: fbc8 fbbd 11b1 ae3e 378d 8dbe f30a b63d
00000330: 3d8c 513e ba28 763d bcba 1cbe e061 69be
00000340: f8bf 3a3c f3f4 96be 6284 a7be 1cc2 b43c
00000350: 90c2 15be ce8b 3a3e 0e14 ae3e f1ea 50be
00000360: 7144 f2bd f498 803e 6976 b8bb 0896 303d
00000370: 1dfa 453e 3cbf 3cbe cf6c 7a3e 26fe 89be
00000380: 34c3 243e 176b d13d 562c 1b3c bb4d 62be
00000390: c79b 793e 553b 00be 60c8 97bd 7723 533e
000003a0: 6a63 b0be 76eb e1bd f217 a43e 0975 f63c
000003b0: ddfe ee3d bca1 9dbe 0071 943e de1f 9bbe
000003c0: 7ce7 c1bd 1342 85bd c7d1 d0bd 9ec5 943d
000003d0: e228 0f3e 71fa 8a3e 6e6b 01be 87c5 ba3e
000003e0: 5b2f d53d 3ca1 80be 043b a33e 9ef2 0abd
000003f0: cc92 1f3e 8026 2ebd c20e 863e bd98 183e

bias f4 [64]
-0.07837904 0.08423754 0.052030485 -0.08438317 0.07649901 -0.058262274 0.02768559 -0.14455095
0.2007521 0.04590184 0.035676047 0.22227265 0.16776253 0.020354595 0.13093747 0.25857395
-0.1448299 0.076452404 0.0125581315 -0.10680415 0.075672835 -0.09022348 0.22027412 -0.05811592
-0.062595695 0.1406668 0.120002314 0.14608108 0.13687426 0.1303995 -0.017068265 -0.13232118
-0.15109682 0.24451673 -0.1527433 -0.06030906 0.082346134 0.022647047 0.118429445 0.20908278
0.0023701186 -0.1024896 -0.25997698 0.10944287 -0.08035107 -0.08575074 -0.16781881 0.007101004
-0.013624115 0.11185884 0.271478 0.18230696 -0.0005943227 0.017252576 0.07377073 0.08361942
0.14101984 -0.026415206 0.045141403 0.05151531 -0.01036207 0.21414316 -0.113010265 0.2959734
00000000: 3185 a0bd bb84 ac3d eb1d 553d 15d1 acbd
00000010: 83ab 9c3d 6ca4 6ebd e4cc e23c 2a05 14be
00000020: f591 4d3e 9103 3c3d 0c21 123d 719b 633e
00000030: f1c9 2b3e aebe a63c 7914 063e ce63 843e
00000040: 4a4e 14be 1493 9c3d 9fc0 4d3c 22bc dabd
00000050: 5cfa 9a3d 16c7 b8bd 8a8f 613e f50a 6ebd
00000060: 2c32 80bd f50a 103e c6c3 f53d 4796 153e
00000070: c428 0c3e 7287 053e bfd2 8bbc 347f 07be
00000080: 20b9 1abe 9862 7a3e bd68 1cbe a206 77bd
00000090: 17a5 a83d 4d86 b93c 238b f23d cc19 563e
000000a0: fe53 1b3b 11e6 d1bd b41b 85be 9523 e03d
000000b0: 1a8f a4bd 159e afbd b2d8 2bbe 8aaf e83b
000000c0: ae37 5fbc 3f16 e53d 2aff 8a3e adae 3a3e
000000d0: 52cc 1bba 4655 8d3c 1c15 973d a940 ab3d
000000e0: 8167 103e b464 d8bc 31e6 383d b801 533d
000000f0: acc5 29bc 5848 5b3e ed71 e7bd d389 973e

weight f4 [64, 64]
-0.01855425 -0.23752764 0.1264796 0.0046202457 -0.26679114 0.28301084 -0.06332046 0.14348012
0.10385051 0.24460147 0.2576771 -0.19635281 0.191404 -0.07349275 -0.078196585 0.19847989
0.33366197 0.032014865 -0.14262645 0.15807797 0.116481885 -0.10128972 -0.26209098 0.0027071426
0.25475755 -0.15039615 0.009748349 -0.12764235 0.018121675 -0.24246389 0.032770455 -0.18599512
-0.31419706 0.09841435 -0.16795503 -0.20604877 -0.19925752 -0.2333137 -0.046322417 -0.07871143
-0.27633387 0.2628028 0.14869836 0.022795143 -0.13727918 -0.4044561 0.041912355 0.07569567
-0.1935583 -0.07977214 -0.14246069 -0.09902434 0.08757349 -0.049251415 0.2528562 0.18662798
-0.12601775 0.26819193 0.16143337 0.11977892 0.21572745 0.025562052 -0.07661131 -0.05129944
0.04581565 -0.045918003 -0.12953043 -0.26542363 -0.17720418 -0.14075145 -0.026472203 0.3171507
-0.10134529 0.2623314 0.06026112 0.2738386 -0.2906162 -0.3314065 0.3305434 -0.06112387
-0.1668517 0.05046059 0.3578048 -0.256817 -0.15350944 0.0067633423 0.21923114 -0.011849018
-0.068402395 -0.007159195 0.15021378 -0.10432847 0.21578063 0.20703083 -0.2209028 0.18916734
0.060508896 -0.16626914 0.0041834735 -0.17186144 -0.044149708 0.034135096 0.21103096 -0.39384735
0.11432517 -0.091310516 0.009710536 0.19078244 0.2069078 0.030888287 0.18386823 0.40615436
-0.32064995 -0.07698571 -0.30928788 0.20207426 -0.25248373 0.23006482 0.39755598 0.017103149
0.12544377 -0.21344961 -0.19157773 0.05278692 -0.09506476 -0.24384266 -0.2972978 -0.0011110161
0.26940167 -0.19192927 -0.17908135 0.32065156 -0.12867844 -0.28293625 0.1201168 0.39351517
-0.047814626 0.21252637 0.03930695 -0.0015803274 0.34274846 -0.1433031 0.22971448 -0.2164858
0.14247023 0.05729612 -0.13695563 -0.13778268 0.11655645 -0.19075897 0.030948862 -0.07749658
-0.026755426 -0.19665755 -0.021527085 0.14413333 0.22029142 -0.313027 0.30518833 -0.2900424
0.3676906 0.31116477 0.3288525 0.24661393 -0.33523965 0.2885539 0.28423232 0.14338255
-0.23747168 -0.17111038 0.112123184 -0.03277814 0.018862782 -0.025674028 -0.26801896 -0.37092847
-0.2764191 -0.14137596 0.18002948 0.28482142 -0.16506994 0.19814043 -0.33295512 0.10091365
0.2127069 -0.15876481 -0.3094957 0.17729919 0.021637553 -0.35765275 0.13970585 -0.16203526
0.2576194 0.20163445 -0.026198404 0.23955044 0.013404804 0.22662693 0.09790713 -0.3720888
-0.3142181 -0.2552292 0.14209999 -0.078434214 0.018283973 -0.3043627 -0.25738758 -0.29819477
0.073524766 -0.30725884 -0.012957888 0.24370372 -0.3453269 0.25567856 0.3045741 0.2131311
-0.32404393 -0.19056275 -0.2663375 -0.31327975 -0.17657782 0.19636591 0.338658 0.13065773
-0.25281274 0.35214564 -0.04864315 -0.2543179 0.0189688 0.35852748 0.3315316 -0.24710381
0.30541217 0.30468613 -0.016669821 -0.0057155443 -0.26997486 0.108173266 -0.25029165 -0.115907855
-0.1965701 -0.35616398 0.23072231 -0.27142394 0.010397248 -0.026327126 0.09707019 0.33034924
0.3430465 -0.11431106 0.056127843 0.08560063 -0.23680209 -0.11398967 0.31596223 0.0294962
00000000: 15ff 97bc 723a 73be de83 013e 6e65 973b
00000010: d998 88be cce6 903e 28ae 81bd 74ec 123e
00000020: 94af d43d cf78 7a3e 41ee 833e b610 49be
00000030: 69ff 433e 5e83 96bd 8825 a0bd 503e 4b3e
00000040: bed5 aa3e 0522 033d ab0c 12be 31df 213e
00000050: 0e8e ee3d fc70 cfbd ca30 86be 516a 313b
00000060: 956f 823e 7301 1abe 8ab7 1f3c adb4 02be
00000070: e873 943c 7448 78be 503a 063d 8175 3ebe
00000080: 70de a0be 768d c93d 67fc 2bbe 73fe 52be
00000090: 2a0a 4cbe c9e9 6ebe 93bc 3dbd 7533 a1bd
000000a0: a27b 8dbe 178e 863e 6244 183e e1bc ba3c
000000b0: ea92 0cbe df14 cfbe 4aac 2b3d 5506 9b3d
000000c0: 2634 46be 935f a3bd 37e1 11be 46cd cabd
000000d0: bb59 b33d dabb 49bd 5e76 813e 681b 3f3e
000000e0: cc0a 01be 7450 893e ca4e 253e a74e f53d
000000f0: a8e7 5c3e 8267 d13c 64e6 9cbd 5d1f 52bd
00000100: 31a9 3b3d 8414 3cbd a0a3 04be 9be5 87be
00000110: 0375 35be 2621 10be 3cdc d8bc 9461 a23e
00000120: 1f8e cfbd 4d50 863e 5dd4 763d 9334 8c3e
00000130: a6cb 94be 1dae a9be fc3c a93e 065d 7abd
00000140: 2cdb 2abe c3af 4e3d 3132 b73e 857d 83be
00000150: 9431 1dbe 079f dd3b 217e 603e 6222 42bc
00000160: 8e16 8cbd ae97 eabb a4d1 193e 2aaa d5bd
00000170: 99f5 5c3e e4ff 533e 5834 62be 15b5 413e
00000180: 2dd8 773d 7542 2abe 8515 893b 72fc 2fbe
00000190: 53d6 34bd 3ed1 0b3d 8018 583e 5ca6 c9be
000001a0: 5123 ea3d 0201 bbbd f118 1f3c 795c 433e
000001b0: a3df 533e 6f09 fd3c f447 3c3e 77f3 cf3e
000001c0: 3b2c a4be afaa 9dbd fb5a 9ebe 8eec 4e3e
000001d0: 8c45 81be 1d96 6b3e 758c cb3e e71b 8c3c
000001e0: 5574 003e 8992 5abe f42c 44be 1937 583d
000001f0: 50b1 c2bd e4b1 79be 6b37 98be 849f 91ba
00000200: 04ef 893e 1b89 44be 1a61 37be 712c a43e
00000210: 48c4 03be 05dd 90be ccff f53d d27a c93e
00000220: 45d9 43bd 83a0 593e 5300 213d fd22 cfba
00000230: ba7c af3e 0cbe 12be 463a 6b3e 74ae 5dbe
00000240: b7e3 113e 56af 6a3d 193e 0cbe e716 0dbe
00000250: 26b5 ee3d 5256 43be 7888 fd3c 87b6 9ebd
00000260: 322e dbbc 9960 49be 9259 b0bc b097 133e
00000270: 1394 613e 1345 a0be a541 9c3e 7080 94be
00000280: f141 bc3e fd50 9f3e 5b5f a83e 5d88 7c3e
00000290: 88a4 abbe 56bd 933e e686 913e e0d2 123e
000002a0: c72b 73be 8f37 2fbe d7a0 e53d 5f42 06bd
000002b0: 1f86 9a3c 5752 d2bc c839 89be 56ea bdbe
000002c0: ce86 8dbe dcc4 10be a659 383e 1dd4 913e
000002d0: 1808 29be 53e5 4a3e 1879 aabe d1ab ce3d
000002e0: d6cf 593e 3e93 22be 3876 9ebe eb8d 353e
000002f0: 3d41 b13c 431e b7be 0d0f 0f3e 92ec 25be
00000300: b1e6 833e 4379 4e3e 099e d6bc b64c 753e
00000310: d39f 5b3c e410 683e 8983 c83d 6c82 bebe
00000320: 32e1 a0be 67ad 82be a982 113e 1ea2 a0bd
00000330: 45c8 953c 6ed5 9bbe 4ec8 83be fcac 98be
00000340: 2794 963d 0851 9dbe 524d 54bc 788d 793e
00000350: b0ce b0be 4de8 823e 23f1 9b3e 0a3f 5a3e
00000360: 16e9 a5be e222 43be 645d 88be 3466 a0be
00000370: d1d0 34be 2514 493e 9564 ad3e 24cb 053e
00000380: ac70 81be 6f4c b43e 0a3e 47bd f535 82be
00000390: 7564 9b3c ea90 b73e 83be a93e c808 7dbe
000003a0: fc5e 9c3e d2ff 9b3e 268f 88bc 7649 bbbb
000003b0: 253a 8abe f289 dd3d 3a26 80be 1961 edbd
000003c0: ac49 49be 205b b6be 7842 6c3e 14f8 8abe
000003d0: 3859 2a3c fcab d7bc bccc c63d 8923 a93e
000003e0: caa3 af3e eb1b eabd 4fe6 653d 624f af3d
000003f0: 3f7c 72be 6b73 e9bd cdc5 a13e 04a2 f13c

bias f4 [64]
0.18860123 0.0047537964 -0.050231002 -0.21941034 -0.2602502 0.010098556 -0.0044398443 0.21137759
-0.111569084 -0.28435138 -0.16119789 -0.04001884 0.02427131 0.25473544 -0.15407485 0.20399664
0.1448424 -0.3346757 0.18526337 -0.074327566 0.0320644 -0.076876044 -0.0767973 -0.15937994
-0.008287019 -0.14320156 -0.054096855 0.06704122 0.03118508 0.114674605 -0.15690458 0.010601366
-0.28655836 -0.0066532595 0.27843368 -0.03316318 0.018270353 -0.23895498 -0.10639046 -0.19332395
-0.16668351 0.038307313 0.034680847 0.1786749 0.28283218 0.3409673 -0.24819286 -0.18719351
0.12664968 0.123043664 0.010463851 -0.17985503 -0.060148332 -0.16501917 -0.11434195 0.08497304
0.072457016 -0.03625848 -0.033057887 -0.24092174 0.15742917 -0.31105465 0.20082566 -0.27799243
00000000: ae20 413e bcc5 9b3b 06bf 4dbd 1bad 60be
00000010: 843f 85be 6a74 253c 1d7c 91bb 5e73 583e
00000020: 557e e4bd 8196 91be 0f11 25be ccea 23bd
00000030: a0d4 c63c af6c 823e ccc5 1dbe 7fe4 503e
00000040: 9151 143e 9d5a abbe aeb5 3d3e 0d39 98bd
00000050: f655 033d 3071 9dbd e747 9dbd 7f34 23be
00000060: 47c6 07bc 6ea3 12be aa94 5dbd e84c 893d
00000070: da77 ff3c 85da ea3d 98ab 20be 5ab1 2d3c
00000080: c7b7 92be 9603 dabb dc8e 8e3e 1dd6 07bd
00000090: b5ab 953c 9db0 74be 3ee3 d9bd b7f6 45be
000000a0: 15af 2abe 21e8 1c3d 810d 0e3d 8ef6 363e
000000b0: 61cf 903e 4493 ae3e 4526 7ebe a8af 3fbe
000000c0: 74b0 013e 51fe fb3d 9270 2b3c eb2b 38be
000000d0: 195e 76bd c9fa 28be 1d2c eabd 5806 ae3d
000000e0: 5864 943d c683 14bd b567 07bd 30b4 76be
000000f0: 1d35 213e 8e42 9fbe 3ea5 4d3e 0655 8ebe
