pth/takada_model_115.pth (torch, 464802 bytes, 6 tensors)

weight f4 [256, 128]
000000 84 3c c7 bd 62 41 4c be 37 41 7b 3e e5 3b a0 be
       -0.09728339 -0.19946817 0.24536596 -0.31295696
000010 74 7c 25 3e 46 91 55 be 4c 35 1d 3e c8 c5 25 3d
       0.16160756 -0.20856199 0.15352362 0.040471822
000020 46 90 10 be 84 77 fd bd e3 71 80 3e 16 33 56 be
       -0.14117536 -0.123763114 0.2508689 -0.20917925
000030 20 d9 fc 3d 21 06 6b 3e 1c 55 ca 3c fe d9 2d bc
       0.12346101 0.22951557 0.024698786 -0.010611055
000040 21 38 06 3e df 26 90 3e 5a e3 92 bd f1 34 7e be
       0.13107349 0.28154656 -0.0717227 -0.24824883
000050 46 1e 7c bd 0e ad 85 be 95 d0 1a be 19 1f 9b 3d
       -0.06155231 -0.26108593 -0.1511863 0.07574291
000060 31 4b 60 3e ea cf 36 3e ef e4 b6 3d 8c 90 be bd
       0.21903683 0.1785275 0.08930384 -0.09304914
000070 5f 4a 9a bd 45 98 e2 3d 80 a3 82 bc 14 36 57 3e
       -0.075337164 0.11064199 -0.015947104 0.21016723
000080 c3 a4 5a be 29 5a 04 3d 0c 76 bb bd c3 c1 d5 3d
       -0.21351914 0.032312546 -0.09153375 0.10437348
000090 cb 0a 3a 3d 69 da f2 bd ec fe b8 bd ee 13 f5 bd
       0.04542045 -0.11858065 -0.090329975 -0.11966692
0000a0 84 ff 41 3e 45 21 25 be b2 c8 64 3e 9c 2f 10 3e
       0.18945128 -0.16125973 0.22342184 0.14080662
0000b0 91 87 18 3e cb 1a 3c bd 65 fe 4b be 0f d8 0d bd
       0.14895464 -0.04592399 -0.19921263 -0.034629878
0000c0 aa 58 58 3e a2 83 9b bd 1c a7 67 be 28 46 06 3e
       0.21127573 -0.07593466 -0.22622341 0.131127
0000d0 03 3c be be a0 2a 47 3d cc 8e 26 be 0a ef 9c be
       -0.3715516 0.048624635 -0.1626541 -0.30651122
0000e0 15 c9 79 3d e4 13 c3 be 68 4b 56 3e 49 13 88 3e
       0.060982782 -0.38101113 0.20927203 0.26577213
0000f0 20 6a 54 3e df c4 2b 3e 00 55 c5 3d ed 87 c8 be
       0.20743608 0.16774319 0.09635353 -0.39166203
000100 34 c1 80 3d 71 c5 34 be de 2e 57 bd bf 7a 33 be
       0.062868506 -0.17653443 -0.05253493 -0.17527293
000110 74 e1 66 bd d1 92 0d be f5 55 20 3d ce e9 a0 3e
       -0.056367353 -0.13825537 0.039144475 0.3142838
000120 72 3c fd bd 1a 59 6f be 31 a6 cb 3e e4 5f 73 be
       -0.12365045 -0.23373833 0.3977523 -0.23767048
000130 33 7a cc be b4 9c e1 3d 8b 39 2f 3d 7b dc 88 3e
       -0.3993698 0.11016217 0.042779487 0.26730713
000140 7d 33 37 3e cd 0e a8 be 4a 3b 2f 3d 70 d2 6d be
       0.17890735 -0.32823792 0.04278115 -0.23224807
000150 7f 2f 50 be e5 83 d9 bb 64 de 6e bd 20 9c a5 3e
       -0.20330618 -0.0066380375 -0.058317557 0.32345676
000160 f2 27 e7 3d 67 87 4c be 30 16 46 be f0 54 0a 3d
       0.11286916 -0.19973527 -0.19344401 0.03377241
000170 03 79 81 bd 60 b1 43 be e6 61 91 3e 02 22 f3 3d
       -0.06321909 -0.19110632 0.28395003 0.11871721
000180 19 3a 8e be ab fd 19 3d 4a 4a 8b be 51 c6 11 be
       -0.277787 0.037595432 -0.27205116 -0.14235808
000190 65 25 22 be cd 53 f4 bd 24 03 9f be 61 7f 68 be
       -0.15834577 -0.11930046 -0.31057084 -0.22704841
0001a0 77 17 ac bd e9 13 a6 be 06 c1 02 bd b5 34 3a be
       -0.08402913 -0.32437065 -0.031922363 -0.18184169
0001b0 52 3e 26 be 8d 24 4c be 28 70 2e 3c a4 79 82 3d
       -0.16234711 -0.19935818 0.010646857 0.06370857
0001c0 ec c4 b6 3e cc 57 d8 bd 4b 70 f3 3d e4 31 33 3e
       0.35697114 -0.10563621 0.118866526 0.174995
0001d0 29 8d da bc fa d5 8f 3d ef 08 4a be 79 31 d6 bd
       -0.026678639 0.07023235 -0.1972997 -0.10458655
0001e0 81 84 b4 be 56 10 8c bd db 6d 41 3e ae 2d 52 3e
       -0.35257342 -0.06839053 0.18889563 0.20525238
0001f0 f9 94 93 3c 97 1c 9f 3e 15 73 8a 3e f0 c4 b7 bd
       0.018015372 0.310765 0.27040926 -0.0897311
000200 c7 10 f4 bd 2c ac be 3b c5 83 61 be 28 4b 47 3d
       -0.119172625 0.0058188643 -0.22022922 0.04865566
000210 2f f7 4e be 77 d5 80 be c4 0e 7f 3e 0c 8e a0 3e
       -0.2021148 -0.2516286 0.24907976 0.31358373
000220 40 bc be 3d 05 17 4b be 95 83 92 be d5 b0 83 be
       0.093132496 -0.19833 -0.28616014 -0.2572085
000230 4a 12 c7 bd 9a bc 51 be 5f c8 84 be 08 b2 3e be
       -0.09720285 -0.20482102 -0.2593412 -0.18622601
000240 4c e8 55 3e 4f bc 5a 3e 02 af 04 3d 77 3f 22 bd
       0.20889395 0.21360897 0.032393463 -0.039611306
000250 4f 92 86 bd 52 fb 8e 3e 62 54 96 be 0a 75 96 be
       -0.06570875 0.27926117 -0.29361254 -0.2938617
000260 48 7b e2 bd bb e6 57 be 5e 70 8f be f7 85 e2 bd
       -0.1105867 -0.2108411 -0.28015417 -0.11060708
000270 74 45 a9 bd 00 f8 8b be 1a d7 7c be 0a 09 c4 bc
       -0.082652 -0.27337646 -0.2469143 -0.023930091
000280 fd 03 38 be af 8a bc bd f8 d6 09 be 73 e4 5c 3e
       -0.17970271 -0.09206139 -0.1346091 0.21571521
000290 93 4e 28 3e 72 75 c0 be 13 45 38 3e f5 91 8d bd
       0.16436224 -0.37589604 0.179951 -0.06912605
0002a0 13 aa 2c 3d fb a7 ad bd be aa 64 bd 37 73 00 be
       0.042154383 -0.08479305 -0.055826895 -0.12543951
0002b0 24 1a fe 3d b6 02 0b 3e 2b 04 b4 bd 5b 40 8d bd
       0.1240733 0.13575253 -0.087898575 -0.068970405
0002c0 e0 8e 8d 3d bc 26 86 be 47 50 41 bc d5 84 96 3e
       0.06912017 -0.26201427 -0.011798925 0.29398218
0002d0 c4 af e5 3d 4e 99 3b be 29 72 27 3e 66 b9 36 3e
       0.11215165 -0.183202 0.16352142 0.17844161
0002e0 59 df a5 bd cf 76 6f 3e 93 c2 87 be 35 60 18 bc
       -0.08099241 0.23385166 -0.26515636 -0.009300281
0002f0 d6 fc c9 3d a3 71 5a ba 73 6e b8 3e 33 43 78 bd
       0.09862678 -0.0008332973 0.36021766 -0.06061096
000300 96 3c 57 3c 82 1d 02 3d 83 81 8d be 99 38 17 bd
       0.013137003 0.031766422 -0.27637872 -0.03691921
000310 d0 85 fd bd f3 2c b9 3c 76 b7 a3 3b 2c 72 9d 3e
       -0.12379038 0.022604441 0.0049962355 0.3075117
000320 31 22 6b bb ac af 92 bd da 05 12 be 54 b5 71 3e
       -0.0035878534 -0.07162413 -0.14260045 0.23604327
000330 37 3e 91 be 9c 89 38 3c 46 42 19 bd 63 cd 98 be
       -0.2836778 0.011263277 -0.03741672 -0.29844198
000340 88 fd 2d 3e b1 63 74 be 8a f6 05 bd 15 78 ba 3d
       0.16991246 -0.23866154 -0.03270582 0.09104935
000350 da 18 7d 3e 43 8a 15 be ad 7e a1 3b 73 68 c2 3b
       0.24716511 -0.14603524 0.004928431 0.0059328615
000360 f1 68 55 3e ae 65 4e 3e c4 73 b4 3d 13 82 9d 3d
       0.20840813 0.20155975 0.08811143 0.07690825
000370 10 83 83 3c 49 32 00 3e f9 56 21 b8 ef c5 11 3e
       0.016053706 0.12519182 -3.846639e-05 0.14235662
000380 c4 7b d2 3c 5d 3f c6 be 91 18 a8 be 95 63 74 be
       0.025693782 -0.38720217 -0.32831243 -0.23866113
000390 a5 41 40 be 92 3e a0 3d 10 f9 ac 3e 67 3b fc bc
       -0.18775041 0.07824434 0.3378377 -0.030790044
0003a0 48 92 f3 3c 15 8b c1 be 8a b2 b9 be bb 91 8d be
       0.029732838 -0.37801424 -0.36269027 -0.27650246
0003b0 b6 53 69 be 69 9f 13 be 75 5e 95 be 5f 05 a1 bd
       -0.2278584 -0.14416279 -0.29173627 -0.078623526
0003c0 69 57 98 3e 4b 2f 5d be 6c 08 65 be 22 39 7d 3e
       0.2975419 -0.21600072 -0.22366494 0.24728826
0003d0 af 1a 6f be d0 f8 79 be 29 0e b1 bd 67 e6 9a 3e
       -0.23350023 -0.2441132 -0.08645279 0.30253908
0003e0 79 36 b4 be f2 4a 14 3e 10 10 aa bc 83 24 42 3e
       -0.3519781 0.14481714 -0.020759612 0.1895924
0003f0 de 12 74 be e0 47 73 be 69 f2 66 3e 95 71 9f 3d
       -0.23835322 -0.23757887 0.2255341 0.07785336

bias f4 [256]
000000 b0 5d f4 bd 87 bc b5 bc d5 08 31 be da d5 6b 3d
       -0.11931932 -0.022184623 -0.17288525 0.05757699
000010 99 4a 1b 3e bd 55 06 be 98 cd 48 3c 39 c4 32 be
       0.15165175 -0.13118644 0.012256049 -0.17457666
000020 6c 95 e2 3d a7 52 0a be f9 28 39 3d ef 73 36 be
       0.11063656 -0.13508092 0.04520509 -0.17817663
000030 d4 16 07 be cd 8b fa 39 f9 4a 42 3d e1 fa 2d 3d
       -0.13192302 0.00047787876 0.04743478 0.042475585
000040 f9 13 10 3e 10 79 e5 3d 37 26 09 bd 42 d3 c5 bd
       0.14070119 0.112047315 -0.03348371 -0.09659435
000050 b2 10 04 3e aa 65 3c bd f0 60 e7 3d a6 f1 14 3e
       0.12896994 -0.045995392 0.11297786 0.14545307
000060 44 0d 18 be f6 87 1c 3e bd f9 30 3e 4b 30 28 be
       -0.1484881 0.1528624 0.17282768 -0.16424672
000070 de f9 c2 bc a3 a5 18 3c ff 2a ce 3d 6e 49 8b 3d
       -0.023800787 0.009316835 0.100667946 0.06801115
000080 28 87 1b be dd fc 21 3e ac 37 21 3e 0c 64 fa 3d
       -0.15188277 0.15819116 0.15743893 0.12226114
000090 2d 3d 45 be b6 cc e6 bd fa 13 cc 3c 0c 42 39 3e
       -0.19261618 -0.11269514 0.02491187 0.18091601
0000a0 7c 0f c8 bd a9 53 a5 bd 2c 42 bc 3d 06 dc c8 3d
       -0.097685784 -0.080725975 0.09192309 0.09807591
0000b0 10 fd a4 bd e7 65 00 be 64 0f 61 3e fa 30 04 3e
       -0.0805608 -0.12538873 0.21978527 0.12909308
0000c0 c9 a4 cb 3d ca 2b 9b bd fb a0 ef 3d ec 71 40 3e
       0.0994354 -0.075767115 0.117006265 0.18793458
0000d0 14 c2 83 3d d8 66 58 3e 5f 27 ee bd b9 73 ca 3d
       0.06433502 0.21132982 -0.11628603 0.098853536
0000e0 75 34 a8 bb 7e 83 07 be 24 fd 88 bb aa 7f ee bd
       -0.0051332065 -0.13233754 -0.0041805673 -0.11645444
0000f0 e2 5b 37 3e a2 e1 1e 3d d4 2c 85 3b fe 98 aa 3d
       0.17906144 0.0387894 0.004064182 0.08329962
000100 ff cb 22 be cd 8a 11 3d ba 8b 8b 3d 21 5c 9a 3c
       -0.15898131 0.03553276 0.0681376 0.018842759
000110 37 6f d6 3d 39 c8 76 3d cc 8f 12 be e0 77 41 3d
       0.10470431 0.06024954 -0.14312667 0.047233462
000120 50 43 b4 bb 3a 44 2a be f8 d2 36 3d 73 39 21 3e
       -0.0055011883 -0.16627589 0.04463479 0.15744571
000130 be d4 92 3d d4 ee 4e 3e 71 73 8b bd 1b f9 27 bc
       0.071694836 0.20208293 -0.06809128 -0.010252262
000140 79 b4 2a be 24 98 40 3d bc c7 fa 3d 7c 6e 63 3e
       -0.16670407 0.047020093 0.122451276 0.22210115
000150 52 12 4d bd ed e9 fd 3d ee 3d ff bd 85 46 02 3e
       -0.0500663 0.123981334 -0.12462984 0.12722214
000160 fe c6 2d 3e 1a 36 40 3e cf 0b e3 3d b6 ee 15 be
       0.16970441 0.18770638 0.11086237 -0.14641842
000170 4a b5 d9 3d df 57 0a 3e 32 f5 22 3e 22 96 2e be
       0.10630281 0.13510083 0.15913847 -0.17049459
000180 39 38 9f 3d 3f 86 9c bc 8e 68 09 be 1e c3 0c be
       0.077743955 -0.019106982 -0.1341879 -0.13746306
000190 65 ed 79 be 7b e6 df 3d 70 44 87 bd 5e 02 87 3d
       -0.24406965 0.109326325 -0.0660485 0.065922484
0001a0 71 c3 77 3e 07 9a 2c be ce 7c 33 3e b5 5a 0b 3e
       0.24195649 -0.16855632 0.17528078 0.1360882
0001b0 7e 4c 73 bd 2f 88 8c 3c e8 24 3e be 44 ec 2c 3d
       -0.05939912 0.017154781 -0.18568766 0.042217508
0001c0 25 3b b0 3c 94 4c 6c 3d 20 a7 e3 3d e9 9a ea 3d
       0.021512577 0.057690218 0.11115861 0.11455328
0001d0 3f 3f 5b bd 95 73 27 3e e4 a5 24 3e 22 d3 dd 3d
       -0.053527113 0.16352685 0.16078907 0.10831286
0001e0 5a 16 f4 3d 68 a6 7a 3c 9a 1d 0e be 9f 75 80 3d
       0.11918326 0.015298463 -0.1387848 0.062724344
0001f0 5e f6 0d be 90 49 b3 bd 67 f2 b4 bd 91 62 0d 3d
       -0.13863513 -0.08754265 -0.08835297 0.03451783
000200 a5 d2 fc 3c bb 33 0a 3d a8 69 0d be 19 64 20 3e
       0.030862162 0.03374074 -0.13809836 0.15663184
000210 15 a9 2d 3e 22 ac 3e be 54 db 0a 3e e6 f2 1c be
       0.16959031 -0.18620351 0.1356023 -0.15327033
000220 46 96 62 bd cf 01 e8 bc 02 4d a7 3b da 16 df bd
       -0.055319093 -0.028321175 0.0051056156 -0.108930305
000230 25 d1 04 3e d6 4d 23 3d ec fa 95 3d 7e d4 34 3d
       0.12970407 0.039869152 0.0732325 0.04414796
000240 4c cf 48 be ae 7b b1 3d cb 7d c1 bd 01 27 d0 3d
       -0.19610327 0.08666168 -0.09447821 0.101636894
000250 04 87 48 be f9 53 ca 3d f9 a6 09 bd 88 0a 62 be
       -0.19582754 0.09879298 -0.033606503 -0.2207433
000260 d7 b3 ce 3d f7 dd c4 3d 47 66 bb bd 9d 90 0c 3e
       0.100928955 0.09612649 -0.09150367 0.1372704
000270 24 49 28 be bb 0b 4c be 8e 0a c6 bd 69 bb 66 3e
       -0.16434151 -0.1992635 -0.09669982 0.22532429
000280 eb 8a 2a 3e 35 5d 8f bd 23 2b 0a be b2 2f 7b be
       0.16654555 -0.070002 -0.13493018 -0.24529913
000290 04 01 91 3c da e0 60 3e 6f b8 91 bd 9e 7c 3a bd
       0.01770068 0.21960774 -0.07115256 -0.045529
0002a0 d5 8a b1 bd a4 8e 82 bd 8f 54 16 be ce 5b 3c be
       -0.08669058 -0.06374863 -0.14680694 -0.18394396
0002b0 fc ad 02 be c4 21 6a 3d 61 ca b8 3c fe 23 f4 bd
       -0.12761682 0.057161108 0.02255744 -0.119209275
0002c0 e2 3a ca 3d ae bf 80 bd be ce 45 3d ca 2b 2b 3e
       0.09874512 -0.0628656 0.048292868 0.16715923
0002d0 50 03 e9 bd e2 56 30 3e 0a 98 4f bd 50 91 5e bd
       -0.11377585 0.17220643 -0.050682105 -0.0543378
0002e0 e6 0d 3a be f8 ed 29 be 0e e7 20 be 3c 12 c9 3d
       -0.18169364 -0.16594684 -0.1571314 0.09817931
0002f0 3d 12 92 bd 5f 8e 4d 3e 5e 32 8d bd 85 99 39 be
       -0.07132385 0.20073842 -0.068943724 -0.1812497
000300 ce 79 d4 bd ce 3f 61 3d b9 27 89 3d 71 21 ca bd
       -0.10374795 0.05499249 0.066970296 -0.0986966
000310 97 b8 53 3e a9 30 83 3d 77 dc ca bd 6f 61 3c be
       0.20675884 0.064057656 -0.099053316 -0.18396543
000320 e5 d9 52 be 9d 44 1e be 63 7c 03 3e 0e 84 c2 bd
       -0.20590933 -0.15455861 0.12840419 -0.09497844
000330 ac 5d c5 3d 55 62 bd bd 08 b2 50 be 65 28 b1 3b
       0.09637007 -0.09247271 -0.20380414 0.0054064267
000340 bc c3 c0 3d 81 66 2a 3d 9a d5 19 be 0f 6a 97 ba
       0.09412333 0.04160166 -0.15022889 -0.0011551994
000350 5f 06 3d be 91 e2 40 3e ab ee 3a bc c8 37 84 bd
       -0.18459462 0.18836428 -0.011409442 -0.06455952
000360 30 03 18 3d 78 b7 f9 3d 65 ab 2f be 6d 69 ec bd
       0.037112415 0.12193197 -0.17155226 -0.11543546
000370 04 fc 0d 3e 44 78 8a 3c 10 cc 94 bb da 37 31 3d
       0.13865668 0.01690305 -0.0045409277 0.043266155
000380 c4 7b 8c bd 50 ad ed bd 4a 81 f9 3c 19 ea bb bd
       -0.06859544 -0.11605322 0.030457158 -0.0917551
000390 9e 8f b5 3d f6 93 36 bc 08 04 00 bd 3d f9 0a bd
       0.088652834 -0.011143675 -0.031253844 -0.0339291
0003a0 e3 e7 68 be 06 6b f5 bd 89 63 c6 bd 67 70 8e bd
       -0.22744708 -0.11983304 -0.096869536 -0.06955033
0003b0 24 a1 e8 3d b0 15 10 3e 52 60 2f 3e e1 2f a5 bd
       0.1135886 0.14070773 0.17126587 -0.08065773
0003c0 cc 43 2b bd 1e b0 e0 3d f1 6b 4e be a6 32 25 be
       -0.041812703 0.10971092 -0.20158364 -0.16132602
0003d0 45 75 93 bd 4c 59 e5 bd ec a2 ec 3d ec 9e 9f bd
       -0.07200102 -0.11198673 0.115545124 -0.07793984
0003e0 2d d9 8d bd 69 db 27 be dc 5a 07 be 34 72 ef bd
       -0.069261886 -0.16392292 -0.13218254 -0.116917044
0003f0 41 03 4d be 6f 92 c6 3d 5f f5 53 be c2 9a 46 3e
       -0.20020773 0.09695899 -0.2069907 0.19394973

weight f4 [256, 256]
000000 32 3b a1 bd 1a 55 4a 3e 0b 68 db bd 27 92 46 3d
       -0.07872619 0.19759026 -0.10713204 0.048479225
000010 7b c7 06 3e de 02 12 3e 96 40 70 3d 33 df 1a 3d
       0.13162033 0.14258906 0.058655344 0.037810516
000020 0e e2 b2 3c ae ed 17 3e a2 ca 44 3e 70 74 90 be
       0.021836307 0.14836761 0.19217923 -0.28213835
000030 f4 c1 3d be bf 9d ac bd 33 ba 30 be ab 6a 09 3e
       -0.18531018 -0.08428525 -0.1725853 0.13419597
000040 31 b3 45 3d d8 a0 1a be 48 2a 84 be d5 01 f7 bd
       0.048266593 -0.1510042 -0.25813508 -0.12060896
000050 8d 69 39 bd 08 b4 10 be ff 13 52 3e da 36 44 3e
       -0.045266677 -0.14131176 0.2051544 0.19161549
000060 8f 69 21 3d f5 fa 7b be 07 6a a2 3c 80 16 bf bd
       0.03940731 -0.24607451 0.019825948 -0.093304634
000070 65 52 1e 3e e9 cb f3 bd 2a c6 92 3d bb ff 89 3e
       0.15461119 -0.11904127 0.07166703 0.2695292
000080 7e c9 02 be a1 7f 19 3e 51 cb 1c 3e 83 09 85 3e
       -0.12772176 0.14990093 0.15311934 0.2598382
000090 1a 7c 2b 3e 49 e1 ee bd 56 7d 0d be 1e de 18 3e
       0.1674656 -0.116640635 -0.13817343 0.14928481
0000a0 83 a5 91 3d ee fb 2a 3e 09 3e a5 3d ca c2 9f 3e
       0.07111647 0.16697666 0.08068473 0.312033
0000b0 a0 7d 11 be 3f ee 8c 3d 15 5d 0a 3e 93 13 60 3e
       -0.14208078 0.06881379 0.1351207 0.21882467
0000c0 c0 3b 06 3e e1 11 54 3d 6d bb 54 3e 2c c8 fe 3d
       0.1310873 0.051774863 0.20774622 0.124405235
0000d0 a5 fd 38 bd 6d 4c 17 3e 85 55 cd bd 14 c8 56 3e
       -0.04516377 0.14775248 -0.10026077 0.20974761
0000e0 5c 99 2d 3e 04 e7 35 be f1 86 38 3d 13 de 2b 3e
       0.16953033 -0.17763907 0.045050565 0.16783933
0000f0 ab c2 73 3e 72 7d 09 3d 58 62 32 3e 80 a0 82 be
       0.23804729 0.0335669 0.17420328 -0.25513077
000100 22 99 83 be d0 98 11 be b7 9a d9 bb 37 13 ef bd
       -0.2570277 -0.1421845 -0.006640758 -0.11673587
000110 fc cc 3a 3e 03 b8 a1 bd c7 67 7e be 62 b2 f9 3d
       0.18242258 -0.078964256 -0.24844275 0.12192227
000120 16 9c 8c 3c bb 23 c0 bd ab 81 2e 3e e5 97 b0 bd
       0.017164271 -0.09381815 0.17041652 -0.086227216
000130 da 5c 3b bd 8f 3a 1e 3e 2b a1 d4 3d 15 35 38 bd
       -0.045742847 0.15452026 0.10382303 -0.044972498
000140 ed 0c 34 3e ad ab e6 bd b9 8b 42 be 6d 0f e4 bc
       0.17583056 -0.11263213 -0.18998612 -0.027839387
000150 c0 0d b8 bd e2 a5 76 bd 70 b1 c3 3d 24 c6 08 be
       -0.089869976 -0.060216792 0.09555328 -0.13356835
000160 3f a9 42 3e 63 de 59 be c1 44 20 be 42 ff 65 be
       0.19009875 -0.2127624 -0.15651228 -0.22460654
000170 da 23 43 3e 2b 72 9d 3e f7 05 00 3e 42 f1 cc bd
       0.19056645 0.30751166 0.12502275 -0.10006954
000180 03 3e 32 3e 7e 1c 0e bd c7 ef b2 be 98 c9 1a 3e
       0.17406468 -0.03469514 -0.3494856 0.15115964
000190 39 f2 b5 be 68 9c 3b be 43 b9 23 be e9 74 eb 3d
       -0.35536364 -0.18321383 -0.1598864 0.11496908
0001a0 8c d0 d0 3d 03 e5 37 bc 6b 84 ab 3b 11 81 1d be
       0.10196027 -0.011224034 0.0052342913 -0.15381266
0001b0 22 8d bc bd 23 b6 8b 3e 0d c2 31 3d 75 67 09 be
       -0.092066064 0.27287397 0.043397952 -0.13418372
0001c0 c5 19 36 3e ff 4a 2e 3e 4e 59 7d be 61 98 cf 3d
       0.17783268 0.17020796 -0.24741098 0.10136486
0001d0 c7 1a eb bd ae bd d2 bd a7 b0 89 3e 82 3b bb 3d
       -0.11479717 -0.10290085 0.26892588 0.091422096
0001e0 38 37 8a 3e 51 8d a3 3d be aa 64 be b5 f8 2f 3d
       0.26995254 0.07985938 -0.22330758 0.042961795
0001f0 67 cf 56 be 71 df 2f be 40 0e 66 be 3a 0e 53 3e
       -0.20977555 -0.1717508 -0.22466373 0.20610896
000200 e5 29 23 3e 97 dc 31 bd 45 5f d7 bc 1e 40 12 3e
       0.1593395 -0.04342326 -0.026290545 0.14282271
000210 30 e1 7b bd f0 ee 8c bd 5a fb fb 3d 7c b2 60 bd
       -0.061494052 -0.06881511 0.12303801 -0.054857716
000220 d7 84 45 be a8 b0 0b be be 2e 49 3d 25 d8 27 be
       -0.19288956 -0.13641608 0.049116842 -0.16391046
000230 7b 0e 17 be 87 b7 42 3d 17 92 40 3e ff 8f 07 3e
       -0.14751618 0.047538307 0.18805729 0.13238524
000240 c9 f5 94 3d a8 73 3b 3e d2 61 ac 3d c4 83 71 bd
       0.07273442 0.18305838 0.08417095 -0.058963552
000250 91 7a ff bd 3a 2e 0b 3d f8 54 48 3e 11 b1 da bc
       -0.124745496 0.033979632 0.19563663 -0.02669576
000260 51 7d ab 3e e7 4f 1e 3e 94 b4 cd bd 1c 79 05 be
       0.33494046 0.15460168 -0.10044208 -0.13034481
000270 7f bc 95 be 5f cf 49 be c1 c9 15 3c b5 7e 97 3d
       -0.29245374 -0.19708012 0.00914234 0.07397214
000280 35 22 0a 3d db 26 aa be 8c ff 4b be d5 a8 29 3e
       0.03372403 -0.3323277 -0.19921702 0.1656831
000290 03 3c 1b be b8 32 08 be 76 56 29 be 90 1f 28 3e
       -0.15159611 -0.13300598 -0.16536888 0.1641829
0002a0 24 90 e8 3b 80 18 2e be d6 10 5d 3e 36 dd 2e 3d
       0.007097261 -0.17001534 0.21588454 0.042691432
0002b0 50 c5 85 3d 14 92 55 be 53 90 0e 3e b4 bc 26 be
       0.06531775 -0.20856506 0.13922243 -0.16282922
0002c0 b4 5a 5c 3e 31 43 12 be 24 33 14 3e 10 b1 17 3e
       0.21518975 -0.14283444 0.14472634 0.14813638
0002d0 4c f9 49 bd 87 c8 92 3d 5a be 3a 3e 64 79 9c be
       -0.049310014 0.07167154 0.18236676 -0.30561364
0002e0 be ef ef bc 65 fd d1 3d f9 a9 16 bd ef c6 23 be
       -0.029289123 0.10253409 -0.036783192 -0.15993856
0002f0 96 3d 97 be d9 06 4e 3e 61 88 90 3e 2a f5 22 3e
       -0.29539174 0.201198 0.2822905 0.15913835
000300 bf 50 a2 3d d7 df da 3c 83 18 84 3d 07 72 ed bd
       0.07925557 0.026718063 0.06449988 -0.115940146
000310 2a dc d3 3c 28 39 51 be a0 be 1d bc 5f 90 1d be
       0.025861818 -0.2043196 -0.009627968 -0.15387104
000320 86 8f ad ba 57 d5 96 be 68 b2 09 be db 8f a0 be
       -0.0013241626 -0.2945964 -0.13446963 -0.31359753
000330 cc 45 61 bd b8 ab cd 3c 85 35 ec 3c 1b f2 38 be
       -0.054998204 0.025106296 0.028834114 -0.18061106
000340 3f e5 3b bc 52 98 b7 3d f5 87 1c be 63 42 a0 3d
       -0.011468231 0.089646 -0.15286238 0.07825162
000350 99 fd 48 3d 91 a3 0a 3e 6f 70 de bd 86 ef f0 bd
       0.049069975 0.13538958 -0.10861289 -0.117644355
000360 2f 6a dd 3c 8d 26 a3 3e b2 c8 6f 3e 72 e0 be be
       0.027028171 0.3186535 0.23416403 -0.37280613
000370 e5 3b 8c bd 10 13 18 3e dd f2 3e 3e a8 f6 81 bc
       -0.068473615 0.14851022 0.18647332 -0.015864685
000380 47 2b 95 3d 30 0d 48 be 1d 47 13 3c f5 ef 61 be
       0.07283645 -0.1953628 0.008989123 -0.22064193
000390 76 d1 31 3e 14 d2 33 be 41 b2 c5 bb a3 bd 81 3d
       0.1736506 -0.17560607 -0.0060332124 0.063349985
0003a0 8b 0c 0e 3e dc af 34 be eb bd af 3d ad 12 89 3e
       0.13871972 -0.1764521 0.08581146 0.2677206
0003b0 d2 a2 73 3d 70 c4 d4 3d 71 b4 82 3a 8e d2 7e bd
       0.05948145 0.1038903 0.0009971989 -0.06221252
0003c0 93 8e de bd f0 b4 0c 3e 91 07 18 be 3f a4 9a be
       -0.108670376 0.13740897 -0.14846636 -0.30203435
0003d0 2e 0c 3c bd 27 5b 00 bc da f9 66 3e fc b7 28 be
       -0.045910053 -0.007834232 0.22556248 -0.16476434
0003e0 16 3d b2 bc ab 0a 95 be 2c 2c 65 be 8b ba 52 be
       -0.021757644 -0.29109702 -0.22380131 -0.20578973
0003f0 e2 56 60 3e 19 75 49 3e fb d5 92 be 94 72 8f 3e
       0.21908143 0.19673575 -0.2867888 0.28017104

bias f4 [256]
000000 cd 5d 10 3e 9b f3 ed bd 43 05 78 bd 0a 67 d9 bd
       0.14098282 -0.1161873 -0.060551893 -0.10615356
000010 b4 72 7f bd a0 cf 9e 3d 07 11 b3 3d ac f2 d7 bd
       -0.06236525 0.07754445 0.08743482 -0.10544333
000020 14 28 7c bd c5 1a c5 bc 5e b2 fc 3d 69 b4 6d bc
       -0.06156166 -0.024060616 0.12338708 -0.014508345
000030 0c 19 ae 3d 54 c9 8b 3d 70 fc 12 3e be 7f 0a 3c
       0.08500871 0.0682551 0.1435411 0.008453308
000040 20 fd 5b 3e 0c cd da 3c c2 55 7d 3d f5 ca 46 3d
       0.21483278 0.026709102 0.061849363 0.0485334
000050 2d 9b 4d 3d 81 7a c8 bc a6 2b 2a 3d b0 e8 36 3e
       0.050196815 -0.024472477 0.041545533 0.178622
000060 cb b3 01 bd bb 00 cf 3b 60 72 60 bb 80 f7 45 3e
       -0.031665605 0.0063172258 -0.003424786 0.19332695
000070 bd 5b 41 bc 6b 41 cd bc f9 d3 33 bd 55 70 ee bd
       -0.011801657 -0.025055608 -0.043903325 -0.116425194
000080 34 a7 9e 3d b7 6c a2 b8 36 a6 93 bb 23 8b b5 3d
       0.07746735 -7.745012e-05 -0.004505898 0.08864429
000090 f4 04 1d 3e 91 45 c1 3d 49 62 a8 3d b6 19 26 3d
       0.1533392 0.09437097 0.082218714 0.040551864
0000a0 f4 1c 4b 3c c7 7c eb bc 0c 8e 97 3e 76 9f 06 bd
       0.01239704 -0.028746022 0.2960056 -0.032866918
0000b0 13 7b 8c ba 25 18 c8 3d b3 11 b7 bc cb c2 82 3d
       -0.0010717831 0.0977023 -0.022347307 0.0638481
0000c0 76 b8 0a 3e aa 4e af bd 12 25 94 bc 04 0f 08 3d
       0.13546929 -0.08559926 -0.018084083 0.033217445
0000d0 c9 3e 9e bc 5d 03 ab bc ea 96 1b 3d 20 7f 91 3b
       -0.019317048 -0.020875627 0.03798572 0.0044402033
0000e0 56 cc e3 3c 02 be e8 bc 00 03 b7 bd 9c db 05 3e
       0.027807396 -0.028410915 -0.08936119 0.13072056
0000f0 62 57 af 3c 91 1d 8b 3c bd 80 a2 bc b2 54 8f 3c
       0.021403972 0.016981872 -0.019836778 0.01749644
000100 f3 cf b3 3d 81 cd 42 bd a0 c0 10 3d 08 d7 a8 3d
       0.087798975 -0.047559265 0.03533995 0.08244139
000110 87 25 95 bd ae b7 79 3d 35 44 73 bd 84 bb b2 3c
       -0.072825484 0.060966186 -0.05939122 0.02181793
000120 8f d9 a1 3c 9f 43 08 be 73 b7 c7 3b c5 a0 03 3e
       0.01975706 -0.13307045 0.006094867 0.12854297
000130 08 d7 fc 3d 36 e5 19 3b 41 88 a1 bd 70 d9 6d bc
       0.123457015 0.0023482568 -0.078873165 -0.014517173
000140 0e 33 11 bd 58 14 36 bd b2 30 0f be a9 bc 3b bd
       -0.03544908 -0.044452995 -0.1398342 -0.045834217
000150 00 a8 84 3c 85 19 83 3d 6e 15 90 3d ef a0 a6 bb
       0.01619339 0.06401352 0.070353374 -0.0050851027
000160 1f fe c8 ba a4 3b 68 3e 25 e4 e2 bc 8e 5c a5 3d
       -0.0015334523 0.22679001 -0.027696678 0.08074294
000170 33 85 2e 3e 8e 52 84 bc 0c 19 6a 3d 8f 5b 91 3b
       0.17042999 -0.016152646 0.057152793 0.0044359635
000180 9e 1a 7e 3d 6e b4 2b 3e 45 48 c7 3d 9d 1b b8 bc
       0.062037103 0.16768047 0.09730581 -0.022474105
000190 e5 65 90 bd 94 50 84 bd 1e d9 5c 3c 3d 9c 5b 3d
       -0.07050685 -0.064606816 0.013479499 0.053615797
0001a0 87 a2 7c 3d 69 a9 7e 3d ed 97 14 be ab 1a 2b bd
       0.061678436 0.06217328 -0.1451108 -0.04177348
0001b0 ad 38 9d 3c 5e cb 1d bc 16 7b 6c 3c b9 dc d1 3d
       0.019192064 -0.009631006 0.014433643 0.10247178
0001c0 b9 83 62 3b 16 09 0a 3c f2 ca 86 bc 1d 66 17 be
       0.0034563376 0.008425018 -0.016454194 -0.14785047
0001d0 61 5d 8f bc 9b 2f 1e bd 3a 1c ce 3d 32 03 ae bd
       -0.017500581 -0.03861962 0.100639775 -0.08496703
0001e0 72 b7 2c 3d 39 cd b3 3c f4 fa 1e be 62 4c 6f 3e
       0.042167135 0.021948444 -0.15525419 0.23368981
0001f0 e0 28 0c bd 9e 6b f4 3d e2 02 60 3d 61 fe 98 bd
       -0.03421867 0.11934589 0.05469025 -0.07470394
000200 5c 37 12 be 54 21 dc 3c d4 c6 46 3e 47 5b 18 3d
       -0.1427893 0.02687136 0.19411784 0.037196424
000210 6d c8 a5 3c 96 d2 69 3d 0e cb 90 3d ff c0 b6 3a
       0.020237172 0.057085596 0.070699796 0.0013943015
000220 e4 4b 96 3d 90 ce 15 bb c5 9c 3e 3c 32 8a 71 3d
       0.07338694 -0.0022858717 0.011634056 0.058969684
000230 41 a6 be bd 9c 38 0b 3c 30 5c 16 bd dc 86 50 bc
       -0.09309054 0.008497383 -0.03670901 -0.0127274655
000240 6c 4b 48 3e c6 b4 f0 3d ab 7f aa 3d 97 d3 c5 3d
       0.19560021 0.1175323 0.08325132 0.09659498
000250 9d 01 86 bc 0e 42 29 3e ba f9 c6 bc 1d 81 b0 3d
       -0.016358191 0.16529104 -0.024289 0.086183764
000260 43 3b dc bd 79 4b 34 3d e0 cf ab bc 05 51 88 bd
       -0.10753491 0.04401729 -0.020973146 -0.06656078
000270 d9 44 5c bd c9 5d 56 bd d6 dd 3a bd 5e 6b f1 3d
       -0.053776596 -0.052335534 -0.045621715 0.11788057
000280 0b b4 59 bd f4 e2 ac 3c e2 b1 dc 3c 8f 98 f5 3c
       -0.053150218 0.021104313 0.02694029 0.029979972
000290 c1 21 6b bd 16 0e 5e 3c f3 95 48 3e 14 65 34 bc
       -0.057405237 0.013553163 0.19588451 -0.011010427
0002a0 8c 06 4a 3d 13 a5 86 3d 89 90 c6 bb ac b9 fa 3c
       0.04932265 0.06574454 -0.0060597104 0.030606113
0002b0 62 29 31 bd d6 07 c3 3d 42 c3 70 3d 72 a8 8a 3d
       -0.043252356 0.09522979 0.058779962 0.0677041
0002c0 92 b3 e8 bd 5e 6e 7d 3d 10 f1 ca 3d a4 ec ca bd
       -0.11362375 0.061872832 0.0990926 -0.09908417
0002d0 d9 ca 4f 3d e2 3e d7 bd 9c 89 9c bd 73 64 dd 3c
       0.05073056 -0.10510041 -0.076434344 0.027025437
0002e0 44 0b 9d 3c be 36 b6 3c c1 bd c3 3d 3e c6 a6 bd
       0.01917041 0.0222429 0.09557677 -0.081432804
0002f0 d2 94 93 3d b5 b9 0a 3e 7f 84 99 bd 01 55 c0 bd
       0.072061196 0.13547404 -0.07495975 -0.09391213
000300 6a 41 70 3d e3 be d7 3d 0b 4a 81 bc 65 90 b4 3d
       0.058656134 0.105344556 -0.015782377 0.088166036
000310 48 0a e5 3c 86 f6 e8 3d 4b 66 80 3d b0 cf 17 3e
       0.027959004 0.113751456 0.06269511 0.1482532
000320 3d fa 3e 3e b9 cc 9d 3d d3 e7 7c 3d 3e c2 8f bc
       0.18650146 0.077050634 0.061744522 -0.017548677
000330 d0 89 95 3d b7 2d f3 3d d2 2e 44 3d e5 3f ae 3d
       0.07301676 0.11873954 0.047896214 0.08508281
000340 37 b1 89 3d 8c e2 80 3d 9f 8a 6d 3d f3 bb b1 3c
       0.06723254 0.062932104 0.057993528 0.021696066
000350 6a 70 e7 3c 80 36 87 bd 13 25 13 3c 28 5e 44 bc
       0.028251845 -0.06602192 0.008981007 -0.011985339
000360 d2 df 32 bb cf 24 cf bd 66 c1 d1 bc e5 22 a4 3d
       -0.0027294052 -0.101144426 -0.025604915 0.08014468
000370 56 58 a0 3c 55 d6 a8 3d 33 c0 17 be b3 0f 3e bd
       0.019573372 0.082440056 -0.14819412 -0.04640169
000380 34 02 d8 bc 2c 99 20 bd 72 2e 0f bd b2 72 95 bc
       -0.026368238 -0.039208576 -0.034956403 -0.018243168
000390 b1 a6 80 bc fe 4a 8f bb 8e f9 6f 3d 98 9c a1 3d
       -0.015704485 -0.0043729534 0.058587603 0.07891196
0003a0 21 01 24 bd 5e 3a 8a 3d 23 54 93 bd 01 38 c8 3d
       -0.04004014 0.06749414 -0.07193782 0.09776307
0003b0 ab b7 80 3d 01 be fe bd ae 7b 93 3d c2 7f d6 3d
       0.06285032 -0.12438584 0.072013244 0.104735866
0003c0 4e d9 31 3e f2 4f 8c 3c 40 c6 a4 3b 60 bf ac 3d
       0.17368051 0.017127965 0.005028516 0.084349394
0003d0 01 ad 26 be 5d d0 c4 3d 52 9c 1e 3d 58 18 b4 3d
       -0.16276933 0.09610055 0.038723297 0.08793706
0003e0 fd a7 e4 bd ad 6a 9f 3d e4 8c 1e be 3c 75 d4 3c
       -0.11164854 0.07784019 -0.15483433 0.025934808
0003f0 57 f9 28 3e bc 19 d2 3c 02 11 98 3d ee d4 25 3e
       0.16501366 0.025647037 0.07425119 0.16194507

weight f4 [64, 256]
000000 36 be 2a be 77 11 6b bd 2c e8 0b bd 62 65 5d 3d
       -0.16674122 -0.057389703 -0.034156963 0.054051764
000010 ea 1c 9e bd 01 64 8f 3d 4d 65 bb be af bb 28 3c
       -0.07720359 0.07001496 -0.36600724 0.0102986535
000020 69 3c 92 be dd f9 9b be 16 1a 1f be 51 35 1b 3e
       -0.28561714 -0.30464068 -0.15537295 0.15157057
000030 76 27 64 3e c3 5b ef 3d 66 24 4b 3d 65 25 f1 bd
       0.22280678 0.11687424 0.04959526 -0.117747106
000040 35 18 85 3e af c9 6f bd 7f f9 31 be ba 3a 1a 3e
       0.2599503 -0.05854195 -0.17380331 0.15061465
000050 7a 80 cf bd 2a 92 f9 bd 71 7e 00 be 6a 55 89 be
       -0.10131927 -0.12186082 -0.12548234 -0.26822978
000060 b2 0c 58 bd 17 fb 57 bd 09 3d c6 bd c8 fa ac 3d
       -0.052746482 -0.052729692 -0.0967961 0.0844627
000070 08 3d 35 be 93 36 0f 3e 2c 46 cd 3d e6 37 d8 bd
       -0.17699063 0.13985662 0.1002315 -0.10557537
000080 24 1b 7a bd 8f 02 73 3e f5 b0 45 be a1 da 82 bc
       -0.06106104 0.23731445 -0.19305785 -0.015973391
000090 15 78 7d bd 28 ec 9f 3c 93 e6 68 3d d6 d6 70 3e
       -0.061882097 0.019521788 0.056860518 0.23519453
0000a0 4b 44 94 3d f3 11 f2 bc 4a fe 5a 3e 04 e3 21 bd
       0.07239588 -0.029549574 0.21386066 -0.03952314
0000b0 4e be 73 bd 43 e6 45 bd ed cd 29 3d 8e d4 17 bd
       -0.05950766 -0.048315298 0.04145615 -0.037067942
0000c0 e2 ad ee 3d a2 33 cd 3c 75 38 b7 be 3b c1 08 3e
       0.11654259 0.025049035 -0.3578526 0.13354962
0000d0 e2 71 34 be 14 61 90 be 3c 31 59 3d 5c de 29 be
       -0.17621568 -0.28199065 0.05302547 -0.1658873
0000e0 18 73 86 3c 1a cb b6 3e 91 98 40 bc b1 0f 97 bc
       0.016412303 0.3570183 -0.011755125 -0.0184401
0000f0 fb 0b 47 be f6 1d 56 bd f3 43 17 bd 92 bd 10 be
       -0.19438164 -0.052274667 -0.036930036 -0.14134815
000100 c4 b2 84 3e 65 ce d4 bc a4 db c3 3e c3 36 2a be
       0.25917637 -0.025977323 0.3825351 -0.16622452
000110 f4 b8 8b bc ad 11 d0 bc 45 3d 61 be b5 1b 90 3d
       -0.017055966 -0.025399053 -0.21996029 0.07036535
000120 af ff 80 3e da 0b dd bc 43 ea 15 3e bc b8 8b bc
       0.2519507 -0.02698319 0.14640145 -0.017055862
000130 7d b7 8e be d0 76 16 3d 59 1e fb bd 24 0b 02 be
       -0.27874365 0.036734402 -0.12261648 -0.12699562
000140 fb df 3b 3d 8f bf 6f be d6 8f 56 3b 54 bc c4 3d
       0.0458679 -0.23412918 0.0032739541 0.09606233
000150 5e 36 90 bd dc 62 7a 3e 58 c8 86 b8 80 98 44 be
       -0.0704162 0.24451774 -6.426935e-05 -0.19198799
000160 6c ea ae 3d 7e 6f c0 bc a2 6f 26 be 92 83 88 3c
       0.08540806 -0.023490664 -0.16253522 0.0166643
000170 88 a5 88 be 89 2a a1 be ab da 11 3e 53 eb cf 3c
       -0.2668879 -0.31477764 0.14243571 0.025380766
000180 0e da c3 3d 70 be 86 3e 65 41 7c be 88 6e 5e 3e
       0.09563075 0.26317167 -0.24634321 0.21721852
000190 94 53 f7 bd a5 f1 3d 3d 6c 18 14 3e 6e 66 ad be
       -0.12076488 0.04637303 0.14462441 -0.3386721
0001a0 ab 41 db 3d 9e 91 b2 be 27 da b7 3d 7a 12 00 be
       0.107058845 -0.34876722 0.08977156 -0.12507048
0001b0 79 ff 17 3e 21 12 b8 3d 89 55 a9 bd 18 88 50 be
       0.14843549 0.08987833 -0.08268268 -0.20364416
0001c0 bc c0 13 3e 17 85 8e 3d 6e 2c da 3b a6 c7 5b be
       0.14428991 0.069589786 0.0066581285 -0.21462879
0001d0 55 3a eb 3d d8 5c 1e be 6d 85 29 3e 73 d9 0a 3e
       0.11485735 -0.15465105 0.16554804 0.13559513
0001e0 a6 25 47 3e 44 33 e0 bd c2 3e 1a bd 09 7a 32 be
       0.19447955 -0.10947278 -0.037657507 -0.17429365
0001f0 1e 86 ce 3d 54 eb a7 bd b9 f2 32 3e e0 9a b6 3d
       0.100841746 -0.08199182 0.17475404 0.08916259
000200 59 8e e9 bd 3f bd 94 be 55 2c 93 3e 53 be 15 3e
       -0.11404104 -0.29050633 0.2874476 0.14623384
000210 48 8e 3e 3d 0b f0 e3 3c 99 4c ae be d5 29 91 be
       0.04652241 0.027824422 -0.34042814 -0.28352228
000220 21 3a 2e 3e 02 50 da 3c b6 b2 88 3d 9f db dc bd
       0.17014362 0.026649479 0.066747114 -0.10784077
000230 fb a2 29 be a4 92 95 3d ef b5 9f 3d 64 bd 45 bd
       -0.16566078 0.0730336 0.07798373 -0.04827632
000240 42 da 3a 3e b1 c8 2e be 1b 63 07 be ff a7 3f 3e
       0.18247321 -0.17068745 -0.132214 0.18716429
000250 10 77 62 bb a4 01 49 3e aa 90 1a bd 68 bb ad bd
       -0.003455583 0.19629532 -0.03773562 -0.084830105
000260 7e f9 1d be 88 9a 19 bd c1 30 41 be 39 18 39 3d
       -0.15427205 -0.037500888 -0.18866254 0.045189116
000270 36 4d 35 be f5 a5 11 bc 28 e8 9a 3d 4c ca ee bd
       -0.17705235 -0.008889665 0.075638115 -0.11659679
000280 e8 4b e6 3d 4e a4 b1 bb 8e 4a 99 be bd cd ed 3d
       0.11244947 -0.005421198 -0.29939693 0.11611507
000290 71 79 14 be c1 a4 17 3e 6d 58 0f be 71 e1 53 3e
       -0.14499451 0.14808942 -0.13998576 0.20691468
0002a0 20 f2 17 3e 61 fd 51 bd d9 86 05 3c 58 73 8c 3e
       0.14838457 -0.05126703 0.008149826 0.2743175
0002b0 02 26 a5 3d 8f 31 fd 3d 80 08 58 3e 68 3d 0d bd
       0.0806389 0.12362968 0.21096992 -0.03448239
0002c0 77 23 83 3d 58 18 6d 3e d5 09 5a 3e 61 94 78 3d
       0.06403249 0.23153818 0.21292813 0.06068838
0002d0 78 68 51 3e b1 1e 7a be c9 16 97 bd 03 ac 1e 3e
       0.20450008 -0.2442577 -0.07377393 0.15495305
0002e0 b0 f6 1b 3e c1 5e 4a 3e fb fc bb bd 9e a4 f4 3c
       0.15230823 0.19762708 -0.091791116 0.029863652
0002f0 e1 a5 db 3c cf 48 c3 3d fa b5 3a 3e ed cc fd bd
       0.026812496 0.095353715 0.18233481 -0.12392602
000300 8d 6e 07 3c 1c d0 d9 39 70 45 7e bd 02 7a a2 3e
       0.008266103 0.0004154452 -0.06207794 0.3173371
000310 58 e3 b2 be bf 48 0f 3e b5 3f 3b 3e 3e e9 12 3e
       -0.34939075 0.13992594 0.18286021 0.14346787
000320 f6 28 2d be 7f ff 93 3d 69 7f 95 bd 3f 10 f9 3d
       -0.16910157 0.072264664 -0.07299692 0.12161302
000330 48 c8 a0 be 83 84 4b bd 45 df 15 be b8 54 38 3e
       -0.31402802 -0.04968692 -0.14635952 0.18001068
000340 c1 ff eb bd d3 46 d4 bd 44 08 d2 bd 81 76 16 3e
       -0.115233906 -0.10365071 -0.10255483 0.14693643
000350 c5 fc c8 bd 38 ed 95 3d aa 0b 1f 3e 26 13 29 be
       -0.09813837 0.073206365 0.15531793 -0.16511211
000360 78 3f 65 3e 2a 06 e4 3d de 59 34 bd d8 26 40 3e
       0.22387493 0.11133988 -0.044031017 0.18764818
000370 29 77 6c 3c db 7c 05 3e 95 1a 1a be 5e 73 26 be
       0.014432707 0.1303591 -0.15049203 -0.16254947
000380 9e 42 f2 3c d7 c4 30 3e 96 d3 e4 bd 69 05 27 be
       0.029572781 0.17262588 -0.11173169 -0.16310658
000390 13 99 42 be 1e 1c cb 3e d9 8d 14 be 70 fa 85 bd
       -0.19003706 0.3966989 -0.14507236 -0.06541908
0003a0 96 ef d7 bc 8f fc 0e be 17 c4 04 3e a7 00 28 bd
       -0.02635936 -0.13963531 0.12965427 -0.041016247
0003b0 ef 2f 12 bc c7 e8 72 bd 9b d1 3f 3e ed c1 94 3d
       -0.008922561 -0.059304025 0.18732302 0.07263551
0003c0 69 42 0f 3c 61 58 91 bd 16 ab ed 3d b5 e4 8f 3d
       0.008743861 -0.07096935 0.11604898 0.07026044
0003d0 9d f0 e4 3d 20 2b 95 3e 77 5e 3e 3e b1 39 23 3b
       0.11178706 0.29134464 0.18590723 0.0024906213
0003e0 22 7c 14 be 77 b6 7c bd d7 6d 41 3e f3 87 c1 bc
       -0.14500478 -0.06169745 0.18889557 -0.023624396
0003f0 2c 37 98 3e a7 3a 33 3e c8 ce 13 3e 38 39 a2 3d
       0.29729593 0.17502843 0.1443435 0.0792107

bias f4 [64]
000000 50 dc 93 3d f3 25 d7 ba b0 69 ee 3d 4f 9e 2d bd
       0.07219756 -0.0016414508 0.11641252 -0.042387303
000010 13 ad 67 3b 5b d3 af bd 60 24 ee 3c 1b 08 b2 bd
       0.0035350963 -0.08585235 0.02907008 -0.08692952
000020 2c 0b a9 3c 31 41 20 3e af 0e 44 bd 0b af ef bd
       0.02063521 0.15649869 -0.047865566 -0.11703309
000030 72 9c 24 bd e4 f2 cd bd f9 ba 76 ba 73 75 f8 bc
       -0.04018826 -0.10056093 -0.00094120164 -0.030329442
000040 c1 43 90 3c 95 35 81 bd 6f 68 82 bc 94 d1 01 be
       0.017610433 -0.06309048 -0.015918938 -0.12677604
000050 a9 62 92 3d 20 2a 24 be ac 0d 17 bd d7 bd 35 bd
       0.07147724 -0.16031694 -0.036878273 -0.0443705
000060 f6 35 b2 bc b7 d0 19 3e f1 2d c9 bd 22 e4 89 3c
       -0.021754246 0.15021025 -0.09823216 0.016832415
000070 e3 b2 0f 3c ad 00 33 3e eb 2a 04 bd 67 14 00 3d
       0.008770677 0.17480727 -0.032267492 0.031269457
000080 11 0b c4 bb c1 4b 1b 3c f2 a9 d6 3c a4 92 26 bc
       -0.0059827645 0.00947851 0.026204083 -0.010166798
000090 4a a7 4e bc 18 b2 b1 bd c3 a8 3e bd 1b 6e 86 be
       -0.012613127 -0.08676547 -0.046547662 -0.2625588
0000a0 71 cd 3f bc 39 bb c8 bd 79 4c 13 3e 5c f1 31 3e
       -0.011706696 -0.09801335 0.14384641 0.17377228
0000b0 4f 5c 79 3d 2c aa 52 3d 5b c8 57 be d3 73 6a bd
       0.060879048 0.05143182 -0.21072523 -0.057239365
0000c0 6d a8 ca 3d e3 10 d9 3d a4 6c 20 be 0d 26 b6 3d
       0.09895406 0.10598924 -0.15666443 0.08893976
0000d0 3e 22 f8 bd e4 92 8c bd d0 a2 bf 3d 93 71 99 3c
       -0.12115906 -0.06863955 0.09357226 0.018730914
0000e0 8d 41 59 3e 9c 2d cc 3d 60 8d 8c bc 3c cb e9 bd
       0.21216412 0.09969637 -0.017157257 -0.11415717
0000f0 78 a7 fd 3d 9b 8c 6c be d6 79 e3 3c 84 9f ba bc
       0.12385458 -0.23100512 0.027768057 -0.022781141
