pth/takada_model_0.pth (torch, 119438 bytes, 6 tensors)

weight f4 [128, 128]
00000000: 4bb3 e040 1484 da40 2088 cb40 4c2f ce40
00000010: 1382 cc40 cf40 ce40 4c4b e040 206f ec40
00000020: 9c51 d740 67f7 df40 ea0c b840 d77d b940
00000030: a939 b540 9f21 be40 8a48 e440 169a e440
00000040: 722d c940 a2cf ba40 8818 6940 35c2 6b40
00000050: 6cd7 7640 0e89 7b40 9f52 c340 efde c940
00000060: 98af ca40 46cd b940 604a b540 784d b640
00000070: 84b5 b740 d2da b640 c6c8 b640 ee54 cb40
00000080: 6c1f c940 4f3d b940 4938 b240 945e a940
00000090: 1ee6 5740 fe5c 6e40 b4a1 b540 7fe1 c940
000000a0: 0aa6 ca40 852d c040 0dbb b040 59a2 b040
000000b0: a6e2 6140 6bb6 6c40 b51f b240 5ff2 c340
000000c0: f504 da40 3c1a e540 b8ce b840 d868 b640
000000d0: 3b7e b040 7964 b140 c8d3 e140 70de d740
000000e0: e551 e940 ae96 e140 c756 cc40 cf62 ca40
000000f0: 104f cc40 59c9 c740 6e71 db40 8bc5 e340
00000100: 7386 ef40 cf26 d340 03d9 c640 baa3 c340
00000110: 72b6 c240 e3e9 c240 a3f3 d240 d97e eb40
00000120: 9a6c d940 aa48 ec40 0872 be40 bcd2 bc40
00000130: ff76 bb40 efb1 c040 07ea e140 8c6e d540
00000140: 1b49 c740 7282 bc40 3dda b440 cf08 7d40
00000150: 4e8a 6740 5fcd 8040 ae04 bc40 cb1f c140
00000160: 72ea c240 2257 b340 cb40 5640 99d9 ae40
00000170: b041 8140 f7cf 5640 614a b240 9d67 bd40
00000180: 015e c440 8970 b640 f01c 6c40 1064 8840
00000190: 2f7b 8740 8cff 7b40 7f0d b140 edcf bf40
000001a0: 4e7d c040 c08c bf40 3b9b 7140 2725 5040
000001b0: 4782 bc40 d1d7 7e40 8178 bb40 ee62 c040
000001c0: 912a dc40 35e2 e840 46aa bc40 dbaa af40
000001d0: c5c2 ad40 e574 b840 91bf ef40 da58 d040
000001e0: 1ce9 ee40 4ab7 d140 6020 c440 9aef b940
000001f0: 779e be40 2a90 bf40 5976 cd40 5c1e dc40
00000200: c849 0340 c346 fe3f 5efa c03f a830 b93f
00000210: 7dd0 b93f 355d c73f 779d f23f 656f 2b40
00000220: 85fc e63f 86f0 e03f 9940 603f 2084 813f
00000230: 44e8 7d3f f973 8f3f e9df 0240 58ce d83f
00000240: 6a63 ac3f 2286 693f a1e5 613e 8bc9 083f
00000250: 710a 143f a67d 2a3f 7792 973f 9192 b63f
00000260: 9dd4 ba3f 5c8f 8d3f e5f9 c23e 89b6 993d
00000270: c529 6ebe 6143 bebd 4804 6e3f 751b 9e3f
00000280: 6d16 d33f 6c1f 973f 50af 233f 6d7a fdbe
00000290: 9221 62bd dc9a 143f 7a1f 603f 05c1 9e3f
000002a0: 44e6 de3f beca bb3f c550 3f3f 9bba 203e
000002b0: 3016 babe 4073 dc3e bcf3 703f f063 a13f
000002c0: 4970 0f40 3cbd 3c40 4927 8f3f 34db 613f
000002d0: 0a1b 2e3f 2c00 7e3f eb1c 0240 f820 c53f
000002e0: 994e 2c40 1359 1240 b1c3 b73f cc10 d03f
000002f0: 804c c33f f742 be3f 404a 0540 35b8 1d40
00000300: 4e7b 3d40 2472 dd3f c1ec b53f 148d a83f
00000310: 16b9 9e3f ac01 af3f 359e d43f ca10 2340
00000320: a510 eb3f 4e81 1540 2c31 8a3f 2050 673f
00000330: aafb 893f a1e0 a23f 1cc1 0240 e515 b83f
00000340: 68aa ac3f eca2 983f 1c21 733e 19a3 8b3e
00000350: c45a 0d3f 3d56 3b3f 4e78 a43f 1fb0 bb3f
00000360: a430 a93f aadb 713f 0fb6 5f3e 05ad 4bbf
00000370: 285b e3be d81e 43be dc7c 933f 92bb 993f
00000380: 6f3f b23f 4b25 4c3f b643 b33e a91d 91be
00000390: 3096 2bbf ee6e cb3e 9771 a83f 9148 a13f
000003a0: 1dd0 b63f 65aa 5d3f f160 203f 5582 913e
000003b0: 14cd 80be 4c7d 9d3e efdf a43f d4d2 ac3f
000003c0: f41e 0040 b58b fb3f 0d0b 543f 884b 643f
000003d0: 67e5 6a3f 2093 8e3f 7050 0840 dd36 8b3f
000003e0: 1208 5940 8b9e c73f aa67 6c3f 4634 b03f
000003f0: d61d 8f3f 5e50 853f 2098 c73f 61ec eb3f
7.0218863 6.828623 6.360367 6.4432735 6.390878 6.445411 7.0091915 7.388565
6.728712 6.9989505 5.7515764 5.7966113 5.6632886 5.941604 7.133855 7.1438093
6.2867975 5.837846 3.6421223 3.6837285 3.8568983 3.9302402 6.1038356 6.3084636
6.333935 5.806308 5.665329 5.6969566 5.7409077 5.7142115 5.7120085 6.3541174
6.2850857 5.788734 5.5693707 5.292795 3.3734202 3.7244258 5.675989 6.3087764
6.3327684 6.0055566 5.5228333 5.519818 3.5294585 3.698634 5.5663705 6.1233363
6.813105 7.1594524 5.775234 5.7002983 5.515409 5.5435147 7.057102 6.745903
7.291247 7.0496435 6.385593 6.3245616 6.384651 6.2433286 6.8575964 7.117864
7.4851623 6.5984874 6.2139907 6.113736 6.084771 6.0910506 6.592241 7.3592343
6.794507 7.38387 5.95142 5.9007244 5.858276 6.0217204 7.059818 6.6697445
6.227674 5.8909235 5.6516404 3.9536626 3.6178164 4.0250697 5.8755713 6.035131
6.091119 5.6043863 3.3477046 5.464062 4.0392685 3.3564432 5.5715795 5.918898
6.136475 5.701237 3.6892662 4.2622147 4.233787 3.9374723 5.5328975 5.9941316
6.015296 5.9859314 3.7750995 3.2522676 5.890903 3.9819224 5.85846 6.0120764
6.880196 7.277613 5.8957853 5.4896064 5.4300256 5.7642694 7.4921346 6.510846
7.4659557 6.553624 6.128952 5.810498 5.956844 5.986348 6.4206967 6.878706
2.0513783 1.9865345 1.5076406 1.4467974 1.451675 1.557532 1.8954304 2.678674
1.8045813 1.7573402 0.8759857 1.0118446 0.99182534 1.1207267 2.0449164 1.6937971
1.3467839 0.91220295 0.22060253 0.5343253 0.5782843 0.66597974 1.1841573 1.4263479
1.4596134 1.1059375 0.3808128 0.07505519 -0.23258121 -0.09290195 0.9297528 1.2352129
1.6491219 1.1806464 0.6393938 -0.49507466 -0.055207796 0.58048797 0.8754803 1.2402655
1.7414021 1.4671247 0.7473262 0.15696184 -0.36345053 0.4305668 0.9412191 1.2608624
2.2412283 2.94905 1.1183864 0.882251 0.6801001 0.9921901 2.033015 1.5400686
2.6922972 2.2866867 1.4356595 1.6255126 1.5257721 1.4864186 2.0826569 2.464368
2.960651 1.7300458 1.4212877 1.3168054 1.2400234 1.3672385 1.6610781 2.5478997
1.8364455 2.3360171 1.0796256 0.90356636 1.0779927 1.2724801 2.0430365 1.4381682
1.3489504 1.192472 0.23743099 0.2727287 0.5521662 0.73178464 1.2849214 1.4663123
1.3217969 0.94475806 0.21846794 -0.7956088 -0.44405484 -0.19054735 1.1522479 1.2010367
1.3925608 0.79744405 0.35012597 -0.2834294 -0.6702604 0.3973307 1.3159665 1.260027
1.4282261 0.86588126 0.6264792 0.28419748 -0.25156462 0.30759656 1.2880839 1.350184
2.0018892 1.965201 0.8282936 0.8917775 0.9175629 1.1138649 2.1299095 1.0876118
3.3911176 1.5595258 0.9234568 1.3765953 1.118098 1.0415151 1.55933 1.8431512

bias f4 [128]
00000000: 6c85 b140 a008 f4be d21d 9bc0 e077 a6be
00000010: b34f bcbf 236a 2340 4439 f9bf cacb a3bf
00000020: 56a0 88c0 e8d0 f440 995e 85c0 3e3f abc0
00000030: 587d bd40 da20 5640 38c5 14c0 22a4 b53f
00000040: 2bd3 5b40 112a 97c0 02c9 51bf 5265 ba40
00000050: d70a 2a40 7bed 413f 8a0c 3ac0 7541 1ec0
00000060: 4bc3 b6bf bf52 0941 2344 80bf a632 c33f
00000070: abbf 4ebe 1b4f 4440 d7c2 2740 02f9 1041
00000080: c480 53c0 1cf5 1040 2e5d 9cc0 8fef 77c0
00000090: f2b7 9ac0 82c0 4840 159d 933f 0ace f03f
000000a0: ef12 0240 ae35 8fc0 e7ed 05c0 748d 6ec0
000000b0: 9d41 d6c0 4b72 03c0 c07b a240 de7c 8b3e
000000c0: 1f0e b9be a4ee a8bf 1724 e540 8ab6 a33e
000000d0: 4269 f13f c8ce 0ec0 d7c8 283e 0676 8840
000000e0: ea67 853d 63b2 1a40 52ce 903d 551b d8c0
000000f0: af7a 4c40 2f7c bf40 0644 7bc0 08c8 aa3f
00000100: d38f 40c0 e9d5 1e40 34e5 593f 6950 9d40
00000110: 5779 22c0 de4e 0041 f929 6b3f c80a 13c0
00000120: 2cc1 8dbf 5204 83c0 e29f d73f eaa6 b3bf
00000130: c0f3 b13f e4bd 94bf 3e8e 8f40 bec9 8fbf
00000140: d237 69c0 671e 69bf 0fab 31bf 3cab 9bc0
00000150: f506 82c0 3318 3c40 ef4b c240 8bee 8dc0
00000160: 97a2 88c0 547d 3a40 ca04 92c0 0a92 95c0
00000170: 42e0 05c0 6e70 a8bf 435c 9a3e 78d5 49c0
00000180: b4d4 27c0 b37c 95c0 fb06 a9c0 134a a640
00000190: 379f 4bbf 84ba 7bc0 2122 5c40 857b 6ac0
000001a0: 970a 8340 9a65 0341 0368 15c0 8ebd 8640
000001b0: 63ec 3d3e 159d a140 e0bf b13f 11bd 99c0
000001c0: 2e22 ffbe ab8d d63f f819 88c0 4101 6cbf
000001d0: d571 9b40 00b2 2a40 da7c 66bf 6412 66c0
000001e0: f5de 25c0 4690 d0c0 ccf3 cd3e 7e3a 99bf
000001f0: 32fc 2140 600c 8bc0 c696 6440 5167 04c0
5.547537 -0.4766283 -4.84739 -0.32513332 -1.4711822 2.553353 -1.9470601 -1.2796566
-4.2695723 7.6505013 -4.1677976 -5.35147 5.9215508 3.345755 -2.3245373 1.4190714
3.4347637 -4.723885 -0.8194734 5.824868 2.6569116 0.7575299 -2.9070153 -2.4727452
-1.4278349 8.582702 -1.0020794 1.5249832 -0.20190303 3.0673282 2.621267 9.060793
-3.3047342 2.2649603 -4.8863745 -3.8739965 -4.8349543 3.1367497 1.1532313 1.8812878
2.0324056 -4.4753027 -2.0926454 -3.7273836 -6.6955094 -2.053851 5.077606 0.27243704
-0.36143586 -1.3197827 7.1606555 0.31975204 1.8860247 -2.231371 0.16482864 4.264407
0.06513961 2.4171379 0.070706025 -6.7533364 3.194988 5.983909 -3.9260268 1.3342295
-3.0087783 2.481806 0.8511536 4.9160657 -2.538656 8.019255 0.9186092 -2.297533
-1.1074576 -4.0942774 1.6845667 -1.4035313 1.3902512 -1.162045 4.4861135 -1.1233442
-3.644032 -0.91062015 -0.6940164 -4.8646526 -4.0633492 2.938977 6.071769 -4.435369
-4.2698474 2.9138994 -4.5630846 -4.674077 -2.0918126 -1.3159311 0.30148515 -3.153654
-2.6223574 -4.671472 -5.282102 5.1965423 -0.7953982 -3.933259 3.439583 -3.663789
4.0950427 8.212305 -2.3344734 4.210639 0.18547206 5.050425 1.3886681 -4.8043294
-0.49830765 1.6761984 -4.25317 -0.92189413 4.8576455 2.6671143 -0.9003426 -3.5948725
-2.5917332 -6.5176115 0.40225065 -1.1970975 2.5310178 -4.3452606 3.5717025 -2.068806

weight f4 [64, 128]
00000000: d023 f4c0 2e7a d4c0 2fae e740 bfc9 d140
00000010: fab4 8cc0 9ba2 9040 88d4 9d40 4780 a540
00000020: 60af b740 93a4 2d40 1c41 a940 1e60 e040
00000030: ca5c 5440 5e19 be40 61c3 87c0 de28 a540
00000040: 8b53 d5c0 eccf ef40 c34e cfc0 7701 b4c0
00000050: d7d3 a2c0 ab4c 98c0 6992 d440 17f0 9640
00000060: 2568 dc40 fcf8 3240 276d 8e40 ac37 c540
00000070: 3978 f340 f213 dbc0 983e 6840 7ec5 1740
00000080: 776e e440 20b9 cb40 e571 28c0 7c6a be40
00000090: 0b21 6cc0 e4d3 a1c0 caee 00c1 5137 c440
000000a0: 0916 3140 b921 73c0 4889 c1c0 4ead e640
000000b0: 86d5 abc0 64b0 95c0 156f 3340 8a33 8a40
000000c0: c3a4 9340 9d97 e940 8211 dbc0 d07b c340
000000d0: 1379 ffc0 5b50 a140 4241 6b40 adaa c0c0
000000e0: 4491 d0c0 cc6d c240 93b1 b240 d670 b1c0
000000f0: 2025 b140 6d49 c7bd 47f9 4cc0 c03f 9640
00000100: 43cf a440 745a 5240 2280 ce40 b66c dfc0
00000110: cc15 a140 57ca cbc0 dc68 bc40 914b db40
00000120: 583c 9c40 a6be bc40 7c38 dac0 5db2 e940
00000130: c647 c8c0 e6ea cac0 19f4 6b40 5f06 98c0
00000140: 84f6 ddbf 157d 8ec0 749c ae40 4250 e540
00000150: 1276 ae40 6fe3 c140 098c c1c0 e59c 8fc0
00000160: 28be a3c0 ec06 9cc0 30b0 b140 c9f5 de40
00000170: 77c1 9e40 1234 86c0 1afe d0c0 858a b240
00000180: 3059 b040 144e ac40 fbd3 e140 730f e9c0
00000190: 0f48 45c0 483d 0fc0 c381 e3c0 3ce3 c2bf
000001a0: 3554 7540 b6dc 4c40 d1b8 d540 fbac 6740
000001b0: 072b cdc0 736c b240 660d cac0 6e69 b140
000001c0: 1ffd d440 01ee a7c0 1859 3bc0 d0a1 9140
000001d0: 98a6 debe 7240 7940 e002 c240 9468 de40
000001e0: d524 de40 03d0 ac40 1734 97c0 50f7 bfc0
000001f0: aa85 e0c0 600e abc0 4aec 9240 2441 9e40
00000200: 47f0 e0c0 b22f a2c0 176f a340 b9dc a140
00000210: 8482 93c0 b5db b4c0 40c3 e240 2a1b 66c0
00000220: 01a5 e240 0af9 a7c0 9055 e340 5272 a240
00000230: d02c 6540 0c52 aa40 670a a640 3bd7 a140
00000240: c7fa a2c0 6b19 e040 444a e8c0 c5b6 e4c0
00000250: dec8 e7c0 9b38 e2c0 8b32 ad40 87ae b040
00000260: dd8f a540 0077 9840 9627 a740 7b13 a140
00000270: ac72 a340 b196 a1c0 d95d 6940 16cb a2c0
00000280: 0212 a540 a738 a340 cee0 a2c0 5fa5 e440
00000290: 4f9e a540 e3ca e6c0 6960 a1c0 3017 a540
000002a0: f15e a6c0 782c a440 40b3 a0c0 86c8 a540
000002b0: 6710 a8c0 0ef0 6640 d0d6 6040 c9f8 b240
000002c0: 772c e840 b320 a440 2b66 a5c0 3b74 e440
000002d0: f8de 6040 a802 e640 44f6 a5c0 9b65 6440
000002e0: 7fdc a2c0 71ea a540 aae1 5fc0 6051 a3c0
000002f0: a2ed 6840 50b2 6240 3180 a340 73b0 a340
00000300: da9d 9a3f af01 a2c0 7a52 a140 2d80 e1c0
00000310: b535 e840 564f e5c0 9a1a a440 4bb3 e340
00000320: ec89 4fc0 06fc e240 1ecc bcc0 6305 57c0
00000330: af5d e2c0 67ee a0c0 4942 6640 3b91 6340
00000340: 8f01 6740 5c2b 1240 66b3 66c0 4bd9 e240
00000350: 433f e540 94a4 e540 c828 e3c0 0257 62c0
00000360: 8273 66c0 9f39 e5c0 0fac e240 1590 6a40
00000370: 5bca e640 92fb aac0 4144 a2c0 0400 e440
00000380: 6b07 5ec0 6433 e840 7f2e a240 a4a8 a0c0
00000390: e871 69c0 bb60 b1c0 00bf e3c0 134c a440
000003a0: 54b2 a4c0 ec94 e440 a5b3 a440 a05e a440
000003b0: b354 a3c0 89e9 a340 01c7 a2c0 de39 e440
000003c0: 2bf9 a540 ef5a 6540 1e51 a640 b64b aa40
000003d0: 0a74 e1c0 aae8 57c0 8001 a440 fd74 e440
000003e0: b32f a240 5972 a540 e4ed e4c0 0f2d 67c0
000003f0: 123e a1c0 a974 6bc0 da50 a1c0 857b e740
-7.6293716 -6.6399145 7.2400126 6.555877 -4.397092 4.5198493 4.9321938 5.171909
5.740158 2.7131698 5.289198 7.011733 3.3181634 5.9405966 -4.2426 5.1612387
-6.666448 7.494131 -6.4783645 -5.625179 -5.0883594 -4.759359 6.6428723 4.716808
6.887713 2.7964468 4.4508243 6.163046 7.6084256 -6.8461847 3.6288204 2.371429
7.1384845 6.3663483 -2.6319516 5.9504986 -3.6895168 -5.0571156 -8.058298 6.1317525
2.76697 -3.7989333 -6.048008 7.2086554 -5.369815 -4.677782 2.803655 4.3187914
4.6138625 7.2997575 -6.845887 6.108864 -7.9835296 5.041059 3.675858 -6.0208344
-6.5177326 6.075903 5.5841765 -5.545024 5.535782 -0.09730802 -3.2027147 4.695282
5.1503005 3.2867708 6.453141 -6.9820204 5.0339108 -6.3684497 5.8878 6.8529744
4.882366 5.8982725 -6.819395 7.303023 -6.2587614 -6.341174 3.6867735 -4.7507777
-1.7340856 -4.452769 5.4565983 7.166047 5.451913 6.059013 -6.048344 -4.487902
-5.1169624 -4.875845 5.5527573 6.967503 4.9611163 -4.1938562 -6.5310183 5.579409
5.510887 5.384531 7.0571265 -7.283136 -3.082523 -2.2381153 -7.10959 -1.5225596
3.8332646 3.2009711 6.6788106 3.619933 -6.4115024 5.5757384 -6.3141356 5.54412
6.6558986 -5.247803 -2.9273129 4.5510025 -0.43486476 3.8945584 6.062851 6.950266
6.941996 5.400392 -4.7251086 -5.9989395 -7.0163164 -5.3455048 4.591344 4.9454517
-7.0293307 -5.068322 5.107311 5.0581937 -4.609682 -5.6518197 7.086334 -3.595408
7.082642 -5.2491503 7.1041946 5.076455 3.5808601 5.3225155 5.18877 5.0575233
-5.0931125 7.003103 -7.2590656 -7.1473107 -7.24327 -7.06941 5.41242 5.5213046
5.1738114 4.7645264 5.2235823 5.033628 5.107748 -5.049645 3.646353 -5.087291
5.158448 5.1006656 -5.089942 7.145187 5.175575 -7.2122664 -5.043019 5.1590805
-5.1990895 5.1304283 -5.021881 5.180728 -5.2520022 3.6084018 3.513111 5.5928693
7.255428 5.1289916 -5.1687217 7.1391883 3.513609 7.1878242 -5.1863117 3.5687015
-5.089416 5.1848683 -3.4981484 -5.1036835 3.639504 3.5421333 5.1093984 5.115289
1.2079422 -5.0627055 5.041318 -7.0468965 7.256556 -7.1659346 5.1282473 7.1156363
-3.242793 7.0932646 -5.8999166 -3.3597038 -7.073936 -5.029102 3.5977957 3.5557392
3.6094701 2.2838964 -3.6046996 7.089025 7.1639724 7.17634 -7.098728 -3.5365605
-3.6008 -7.163284 7.0835032 3.665044 7.2122016 -5.3432093 -5.070832 7.125002
-3.4692028 7.2562733 5.068176 -5.020586 -3.6475773 -5.543058 -7.1170654 5.1342864
-5.1467686 7.143179 5.1469293 5.136551 -5.1040893 5.1222577 -5.0867925 7.132064
5.186666 3.5836751 5.197402 5.321742 -7.045415 -3.3735757 5.125183 7.139281
5.0683227 5.1702085 -7.1540394 -3.6121252 -5.038827 -3.6789954 -5.0411196 7.233828

bias f4 [64]
00000000: fb2c b3c0 bf04 e9c0 3fb4 ffc0 3fee 92c0
00000010: 5764 e3c0 4c75 93c0 4cae 91c0 2911 ebc0
00000020: 84db 91c0 fbfa a4c0 9740 d4c0 3442 d0c0
00000030: e6df e8c0 db8d edc0 66c3 d9c0 298c d1c0
00000040: 689b 92c0 e5c1 dec0 875c 91c0 f726 f2c0
00000050: 0d5b 94c0 8e16 93c0 eb7d 71c0 3a78 3dc0
00000060: 2ae7 d5c0 31fd d0c0 12a2 0dc1 00bb d7c0
00000070: d935 bcc0 2773 d2c0 1aba a2c0 56b4 013f
00000080: 6f16 e2c0 85aa 90c0 b38e ecc0 6d02 94c0
00000090: d3b2 90c0 5158 6dc0 8d42 dec0 e4ef 06c1
000000a0: fd36 bf40 2bc0 dec0 d78c 69c0 09f1 f0c0
000000b0: acc7 f0c0 cdd1 dac0 64db d2c0 283e 93c0
000000c0: c7a0 eec0 38a6 dec0 cd93 d2c0 8e90 ffc0
000000d0: 488b efc0 d91d f8c0 b590 ebc0 82d5 93c0
000000e0: 012d d1c0 5766 dcc0 f9a1 0dc1 f6dd 91c0
000000f0: 3daa 92c0 c0af 8fc0 e9fa d4c0 170f 91c0
-5.599241 -7.2818294 -7.9907527 -4.591583 -7.1059985 -4.6080685 -4.5525265 -7.3458447
-4.5580463 -5.1556373 -6.6328845 -6.5080814 -7.2773314 -7.4235663 -6.8051023 -6.5483594
-4.5814705 -6.961169 -4.542545 -7.5672565 -4.6361146 -4.5965033 -3.7733104 -2.960463
-6.6844683 -6.530907 -8.852068 -6.741577 -5.881573 -6.5765567 -5.0852175 0.50665796
-7.0652385 -4.5208154 -7.3924193 -4.625296 -4.521829 -3.7085154 -6.945624 -8.433567
5.9754624 -6.960958 -3.6492212 -7.529423 -7.524374 -6.8381104 -6.589281 -4.6013374
-7.457126 -6.9577904 -6.580542 -7.986396 -7.485752 -7.7536435 -7.3614144 -4.619813
-6.5367436 -6.8874927 -8.852044 -4.558345 -4.583281 -4.490204 -6.6556287 -4.533092

weight f4 [64, 64]
00000000: 9277 f140 89ff e340 027b e340 a4cc cf40
00000010: 9641 e240 1e14 bd40 103a cf40 b273 df40
00000020: cc19 cf40 2d62 d240 5ccc c040 b3c7 1241
00000030: 6b9e cf40 d291 de40 2c8d 9540 369f f740
00000040: 9167 bd40 94e6 e640 75cd 8f40 36e7 dc40
00000050: 236f d240 a4cd d040 9051 c140 407a e340
00000060: 859f bd40 8972 f440 bf4e d540 fcca f440
00000070: 1269 4541 0406 bd40 9acc c840 00f5 0141
00000080: eec6 e240 e9c7 cf40 55a8 e240 d476 d340
00000090: cac9 d440 99b3 e240 999e e040 2d1c d440
000000a0: 2719 bd40 f1ad de40 fcb4 dd40 7ad7 e040
000000b0: 4146 de40 c8d2 dd40 73e3 d540 b74a d440
000000c0: 32c0 f140 02f6 ce40 f72f f840 b511 f540
000000d0: 174d dd40 348b e140 f32e e740 abed bc40
000000e0: 2bf0 d340 5057 bf40 e73e eb40 60cf d540
000000f0: 8052 c1c0 2b5e d040 bc76 c240 7ef9 d440
00000100: 2d23 d73f 3df4 e040 b90c ec40 4a83 9140
00000110: cfeb e540 0c94 bfc0 9d30 d240 c027 7340
00000120: 88af d140 eefd d240 754c bd40 fd5c 1441
00000130: b321 d140 2ae1 6f40 ef12 d040 6b0e ce40
00000140: e342 bf40 23e6 e440 6da2 9240 db4d df40
00000150: 9619 d040 605b d440 c4a7 c140 5234 7640
00000160: 88a7 c140 ea38 9040 3faf ce40 034f 9640
00000170: c225 4141 90be c240 7e36 d040 20d4 0241
00000180: 20c3 e340 bc45 cf40 3cb0 6c40 a3e9 d040
00000190: cdb4 d540 f79f df40 1d91 de40 e417 d040
000001a0: a901 c1c0 cfb7 dd40 9ae4 e140 8a71 e240
000001b0: 6420 e040 6ff7 dd40 6c5c d340 4abf d540
000001c0: a789 0241 54b2 9140 560b f640 4db7 f740
000001d0: 3cc9 df40 9016 dd40 55e4 e540 3ccf bf40
000001e0: 2be8 9240 51c5 bc40 cab1 e340 f17d d140
000001f0: fef3 bfc0 5e62 d440 09d1 c240 f523 cf40
00000200: f9fd 92c0 6a88 9840 cdf4 9640 8402 8ec0
00000210: 963a 89c0 a98e 94c0 d98f 93c0 4fda ad40
00000220: c1df 90c0 0fbd 90c0 5e6e 94c0 ee07 0c41
00000230: caf6 91c0 9fe6 b040 9bd0 8fc0 cbab 8ec0
00000240: 0eac 8dc0 bc0a e340 b62e 9240 b9c6 a240
00000250: 74b4 8dc0 5274 90c0 72ff 49be 3d4c 6440
00000260: 932f 8fc0 705f 90c0 13b9 91c0 8ad6 61c0
00000270: 4a5b 2641 b5b9 8fc0 c4bd 95c0 1df8 c940
00000280: b258 e040 8d32 95c0 fc7e 8dc0 3e9a 94c0
00000290: 5610 94c0 601e e440 a52d e140 2200 95c0
000002a0: e399 c140 b721 e340 5e0a ad40 de45 b140
000002b0: a050 a940 3dd2 79c0 1658 92c0 defa ce40
000002c0: 399b 91c0 aa63 92c0 3f7e 8fc0 c351 fb40
000002d0: 95a2 ac40 0c3c 9140 c257 8fc0 44d2 92c0
000002e0: 6794 92c0 a7fa 90c0 56f5 87c0 2b06 93c0
000002f0: 9924 90c0 3b4f 93c0 8a8a 90c0 4bde 93c0
00000300: 093a 9440 e5a2 6840 e037 9d40 0787 ce40
00000310: e5bb 6e40 eb5e bc40 8143 8e40 fdee 6d40
00000320: be3e 8f40 fdad 8e40 fe0e bfc0 5fc0 1441
00000330: d514 9540 f3d9 6840 64b0 d040 7daf 0641
00000340: 0cd2 a940 88ec 4d40 c755 8e40 0d39 df40
00000350: c78e 9340 4e61 9140 7a31 c1c0 ad29 a240
00000360: 1b9b bd40 36ca d040 34de d040 6c24 db40
00000370: e2f5 2341 ccd0 bcc0 f489 cf40 d753 0641
00000380: 31f8 e240 a35e d440 022d e140 9836 9540
00000390: cdb1 d140 1ba8 6c40 5b84 e440 1428 d440
000003a0: 7ec4 c0c0 1e23 e140 b0ca e040 9bc0 6a40
000003b0: 8b7c 6a40 f1a0 dd40 3399 ce40 b904 9040
000003c0: da16 e940 3569 9040 9ba5 dc40 3971 f640
000003d0: 5685 6840 b0de e140 8a24 e440 07e8 be40
000003e0: 9378 d340 bd6b be40 ecc7 6b40 797b 9540
000003f0: 2480 bd40 89ab 9540 f97f 6c40 cc1c d540
7.545846 7.1249433 7.1087656 6.4937305 7.070506 5.9087057 6.4758377 6.982873
6.471899 6.5744843 6.024946 9.173755 6.488088 6.9553003 4.673483 7.738185
5.9188924 7.2156467 4.49383 6.903224 6.5760665 6.5251026 6.0412064 7.108673
5.9257226 7.6389813 6.6658626 7.6497784 12.338152 5.9069843 6.274976 8.122314
7.0867834 6.493153 7.0830483 6.6082554 6.6496325 7.0844235 7.01936 6.6284394
5.9093204 6.958733 6.928343 7.0263033 6.946076 6.93198 6.684015 6.6341205
7.5547113 6.4675303 7.755855 7.6584115 6.9156604 7.0482426 7.224481 5.904012
6.6230674 5.9794083 7.3514285 6.6815643 -6.041321 6.511495 6.076994 6.6554556
1.680761 7.0298142 7.376553 4.5472765 7.185035 -5.986822 6.5684342 3.7993011
6.552677 6.5934973 5.915583 9.272702 6.5353637 3.748118 6.502311 6.43926
5.976915 7.153093 4.5823274 6.978254 6.5031233 6.636154 6.051729 3.8469434
6.0517006 4.5069475 6.4588923 4.697145 12.071718 6.085762 6.506652 8.176788
7.117569 6.4772625 3.6982565 6.52852 6.6783204 6.988277 6.955214 6.5029163
-6.0314527 6.9286876 7.0591555 7.0763597 7.003954 6.9364543 6.605032 6.6796007
8.158607 4.5530186 7.688884 7.7411256 6.9933147 6.909004 7.1841226 5.994047
4.590841 5.8990865 7.115453 6.5466237 -5.998534 6.6370077 6.088017 6.4731393
-4.5935025 4.766652 4.717383 -4.437807 -4.2884016 -4.6424146 -4.6113095 5.432899
-4.5273137 -4.5230784 -4.6384726 8.751936 -4.5613756 5.528152 -4.4942145 -4.458471
-4.427253 7.0950603 4.568202 5.086758 -4.428278 -4.5141993 -0.19726351 3.5671532
-4.4745574 -4.51165 -4.553842 -3.5287194 10.397287 -4.4914193 -4.6794147 6.3115373
7.010827 -4.6624207 -4.421751 -4.6438284 -4.626994 7.128708 7.036822 -4.656266
6.050035 7.0978656 5.4075155 5.5397787 5.291092 -3.903457 -4.5732527 6.4681234
-4.550198 -4.574666 -4.484161 7.8537307 5.3948464 4.53858 -4.4794626 -4.588167
-4.5806155 -4.530597 -4.248698 -4.594503 -4.5044675 -4.6034217 -4.5169115 -4.6208854
4.6320844 3.6349423 4.9130707 6.453983 3.7302182 5.8865867 4.44574 3.7177117
4.476409 4.458739 -5.97058 9.296966 4.658793 3.6383026 6.521532 8.417844
5.3068905 3.2175617 4.447971 6.975714 4.611179 4.543128 -6.0372896 5.0675874
5.925184 6.524684 6.5271244 6.848196 10.24753 -5.900488 6.48559 8.395469
7.092797 6.6365523 7.036744 4.6629143 6.552954 3.6977603 7.1411567 6.6298923
-6.023986 7.035537 7.024742 3.6680057 3.6638515 6.925896 6.456201 4.5005765
7.2840395 4.5128427 6.8952155 7.701321 3.6331382 7.0584335 7.1294603 5.9658237
6.6084685 5.9506516 3.6840773 4.6713223 5.921892 4.6771894 3.6953108 6.6597652

bias f4 [64]
00000000: 4c42 4a40 0750 3440 4967 3840 7006 3540
00000010: 18a2 3640 db80 3840 7bf4 3440 2cb8 4840
00000020: f10f 3440 0063 2740 4b2b 3440 89fd 3340
00000030: 3250 3440 9df9 3240 ecf7 2540 872e 3640
00000040: d7e5 3740 d774 3440 d98d 3540 7a49 3640
00000050: 65f0 3540 5223 3940 b12a 3540 17a9 3740
00000060: 4249 3640 d684 3540 f0aa 3640 ca09 ecc0
00000070: 2cdd f2c0 f5b2 3940 f3bc 3340 2a52 3640
00000080: 0ad7 3640 5b52 3640 2a07 3a40 ea21 eec0
00000090: 235f efc0 8a7d 3740 8269 3340 038f 3740
000000a0: 72c3 3540 5328 3340 add6 3840 d72b 3940
000000b0: fbb7 3240 1626 3740 a63d 3440 d474 3740
000000c0: df68 3640 226e 2740 d38d 3540 ab2a 3540
000000d0: 26c3 3740 e551 3740 03c5 2640 763c 3540
000000e0: 38f9 4740 94ff 3640 79ba 3740 2c0b 3640
000000f0: 0403 3740 d684 3540 a745 3540 2384 4940
3.1602964 2.8173845 2.881304 2.828518 2.8536434 2.8828647 2.827422 3.136241
2.813473 2.6154175 2.8151424 2.8123496 2.8173947 2.7964852 2.593257 2.8465898
2.8734033 2.8196313 2.8367827 2.8482347 2.8427975 2.8927808 2.8307307 2.8696954
2.8482213 2.8362327 2.8541832 -7.376195 -7.5894985 2.9015477 2.8084075 2.848765
2.856875 2.8487766 2.9066873 -7.44164 -7.4803634 2.8670373 2.8033147 2.8681037
2.840054 2.7993362 2.8881028 2.8933008 2.7924793 2.8616996 2.8162627 2.8665056
2.8501508 2.616097 2.8367813 2.8307292 2.871286 2.8643734 2.6057746 2.8318152
3.124586 2.8593493 2.8707564 2.8444319 2.859559 2.8362327 2.8323762 3.14869
