pth/takada_model_135.pth (torch, 859042 bytes, 6 tensors)

weight f4 [512, 128]
-0.3885056 -0.46171 -0.24542254 0.08886582 -0.31948143 0.080657 0.03669973 0.48215052
-0.06609191 -0.0039047354 -0.17042105 -0.13052957 0.101506226 -0.02332414 0.4346867 -0.26082778
0.10662548 -0.45741412 -0.17192908 -0.20618095 -0.24361253 -0.17632815 -0.18182653 0.13960111
0.1389422 0.463843 -0.15479459 0.05266395 0.21597588 -0.06342032 0.14723225 -0.0079226
-0.042733587 0.36998123 -0.13669734 0.040162288 0.15519185 0.17238191 -0.06854966 0.06038817
-0.24340221 -0.22247326 -0.35055986 0.21100545 0.22423847 0.13008887 -0.3338147 0.14808047
0.080697834 -0.2525653 -0.44184583 0.12817289 0.104164764 0.26767677 0.06992723 -0.07788272
0.37430453 -0.42541716 -0.022339404 0.21847326 -0.28965816 0.45690238 0.055370975 0.04202176
-0.060498897 -0.25861388 -0.3531361 -0.030958109 0.10587015 0.058009822 0.34185603 0.7838079
0.3820546 -0.32347274 -0.39302847 0.1059351 -0.28823107 0.085785985 -0.21529676 0.2689247
0.13188143 -0.27051428 -0.08182875 -0.008451675 -0.040984645 0.0027806018 -0.40286347 0.30889788
-0.2143752 0.2601799 0.0062043257 0.07110691 0.057425007 0.1419022 -0.111495316 -0.17401192
-0.18693522 0.07709154 0.18073437 0.16839637 0.029263122 -0.34103844 -0.25083357 0.40055326
0.15442301 -0.20928432 0.08609821 0.29810566 0.033660166 -0.27615383 -0.16680148 -0.18584423
0.119137034 0.3932434 -0.3511135 0.2276529 -0.2632105 -0.42890212 0.08982592 -0.33044735
0.7562225 0.21836379 0.032065127 -0.034890607 0.09264227 -0.112377025 -0.25206995 -0.40713224
0.53730947 -0.8459163 -0.1732732 0.047868628 -0.120921634 -0.3594351 -0.27324513 0.53646314
0.16143437 0.5587926 0.17763524 -0.18172997 -0.55073184 0.0513305 -0.12270567 -0.2211733
0.34125376 -0.26429805 -0.2536078 0.1588193 0.21826142 -0.33543685 0.031414784 0.23742087
0.62789917 0.04953069 0.4643925 0.039363258 -0.08167085 -0.017821454 -0.08165055 0.29261363
-0.0053774533 0.16885321 -0.18987092 0.21026608 0.2190246 0.29855156 -0.315929 -0.4395919
0.014900112 -0.21537286 0.33542347 -0.06866967 0.15345642 0.42056257 0.048978314 -0.28237432
-0.10106372 -0.57121164 0.10577603 -0.4165157 0.3387819 -0.21271628 0.3226541 -0.53488696
-0.17906114 0.07078109 0.4724589 0.07030496 0.049927484 -0.3033557 -0.14017172 -0.069055706
-0.12493804 -0.121461645 0.07531461 0.36810604 -0.25146675 -0.05619466 -0.16969042 0.37774882
0.2881557 -0.17310706 0.16965963 -0.30961192 -0.16148438 0.19164133 0.71195835 0.08196306
0.28643343 -0.22447774 -0.2526683 -0.2777977 -0.14383024 -0.10809553 -0.19402847 0.245184
-0.44353136 -0.18516827 -0.36008433 -0.07589399 0.16071628 0.38414806 -0.1938636 -0.13192004
0.6031004 -0.08860529 -0.43974036 -0.17609963 -0.15018068 -0.012057159 -0.13106416 -0.23699935
0.11080962 -0.023484113 0.19249338 0.31183046 -0.13995151 0.27308738 0.27828684 0.12823656
-0.36198726 0.023291193 -0.12883167 -0.2087055 0.13586183 -0.3540294 -0.34260577 0.13908237
-0.83513075 -0.4261532 -0.24905883 0.08513764 -0.15833814 -0.37074634 0.15776893 0.94845
00000000: 35ea c6be 4165 ecbe 0c50 7bbe 48ff b53d
00000010: 1293 a3be 7f2f a53d 7552 163d 6fdc f63e
00000020: 325b 87bd 97e6 7fbb db82 2ebe 8ba9 05be
00000030: 7fe2 cf3d 4412 bfbc 418f de3e 388b 85be
00000040: 765e da3d 2f32 eabe 2d0e 30be 1921 53be
00000050: 9075 79be 5e8f 34be bc30 3abe 98f3 0e3e
00000060: dd46 0e3e d47c ed3e 7982 1ebe 27b6 573d
00000070: c828 5d3e 83e2 81bd 0dc4 163e cbcd 01bc
00000080: 6a09 2fbd 2e6e bd3e 63fa 0bbe 3681 243d
00000090: 9dea 1e3e e284 303e c463 8cbd 9659 773d
000000a0: 6e3e 79be 08d0 63be 957c b3be d011 583e
000000b0: c59e 653e 0436 053e c3e9 aabe 68a2 173e
000000c0: e844 a53d 3d50 81be 9e39 e2be c13f 033e
000000d0: 5654 d53d ee0c 893e 0236 8f3d fa80 9fbd
000000e0: d8a4 bf3e 47d0 d9be 2001 b7bc 74b7 5f3e
000000f0: 134e 94be 1cef e93e adcc 623d 021f 2c3d
00000100: b1cd 77bd 0a69 84be 41ce b4be dc9b fdbc
00000110: 73d2 d83d b59b 6d3d c107 af3e a2a7 483f
00000120: a99c c33e 389e a5be 073b c9be 80f4 d83d
00000130: 0693 93be 90b0 af3d c176 5cbe 80b0 893e
00000140: ed0b 073e d980 8abe d595 a7bd e578 0abc
00000150: 84df 27bd c23a 363b 1f44 cebe dd27 9e3e
00000160: 2c85 5bbe 4d36 853e a84d cb3b 80a0 913d
00000170: 7c36 6b3d cf4e 113e a857 e4bd 2e30 32be
00000180: f26b 3fbe 2be2 9d3d 6e12 393e 1970 2c3e
00000190: 37b9 ef3c 979c aebe 426d 80be 5115 cd3e
000001a0: 1121 1e3e a14e 56be 4254 b03d 4ea1 983e
000001b0: 3edf 093d 0964 8dbe 02ce 2abe f34d 3ebe
000001c0: 1efe f33d 3357 c93e 26c5 b3be d81d 693e
000001d0: 87c3 86be 0f99 dbbe a7f6 b73d 6530 a9be
000001e0: cc97 413f c29a 5f3e b956 033d 74e9 0ebd
000001f0: 3bbb bd3d ed25 e6bd 500f 81be a373 d0be
00000200: 1d8d 093f f88d 58bf 886e 31be e511 443d
00000210: c3a5 f7bd e107 b8be c9e6 8bbe a655 093f
00000220: 0d4f 253e 080d 0f3f 03e6 353e 6c17 3abe
00000230: c3fc 0cbf ee3f 523d 1c4d fbbd 417b 62be
00000240: d0b8 ae3e 1352 87be e2d8 81be 87a1 223e
00000250: ec7f 5f3e 61be abbe caac 003d 751e 733e
00000260: 00be 203f b1e0 4a3d dbc4 ed3e 5e3b 213d
00000270: 0c43 a7bd 4cfe 91bc 6738 a7bd 74d1 953e
00000280: 5935 b0bb dbe7 2c3e 866d 42be fe4f 573e
00000290: fc47 603e c0db 983e 72c1 a1be 3112 e1be
000002a0: 991f 743c b48a 5cbe a0bc ab3e afa2 8cbd
000002b0: ae23 1d3e fa53 d73e 7c9d 483d 5e93 90be
000002c0: 7ffa cebd ed3a 12bf 1aa1 d83d 8c41 d5be
000002d0: d274 ad3e 4cd2 59be eb32 a53e 5aee 08bf
000002e0: ce5b 37be adf5 903d 22e6 f13e 0cfc 8f3d
000002f0: c380 4c3d 7051 9bbe 2d89 0fbe 146d 8dbd
00000300: 84df ffbd e2c0 f8bd 8c3e 9a3d 6578 bc3e
00000310: 40c0 80be 5f2c 66bd 53c3 2dbe 4b68 c13e
00000320: 2589 933e fa42 31be 41bb 2d3e 7485 9ebe
00000330: 295c 25be a03d 443e e742 363f 40dc a73d
00000340: 67a7 923e 7edd 65be bd5d 81be 803b 8ebe
00000350: 3c48 13be 3061 ddbd 66af 46be 8411 7b3e
00000360: 8b16 e3be c09c 3dbe f95c b8be 4f6e 9bbd
00000370: cf92 243e 0eaf c43e 2e84 46be 0c16 07be
00000380: ca64 1a3f b176 b5bd a625 e1be 7653 34be
00000390: f7c8 19be 648b 45bc af35 06be f5af 72be
000003a0: 27f0 e23d c161 c0bc fc1c 453e 3ea8 9f3e
000003b0: 734f 0fbe 1cd2 8b3e 9d7b 8e3e 7250 033e
000003c0: 6556 b9be 2ccd be3c 73ec 03be e5b6 55be
000003d0: 5d1f 0b3e 5743 b5be 066a afbe 9c6b 0e3e
000003e0: 21cb 55bf c130 dabe 4709 7fbe a55c ae3d
000003f0: 6523 22be 77d2 bdbe 2e8e 213e 9fcd 723f

bias f4 [512]
0.14843345 -0.053652845 0.06373649 -0.12304045 -0.06426132 -0.09549164 -0.12814231 -0.010188184
0.05694392 -0.04951435 0.05501956 -0.18027289 0.06296677 0.14840323 -0.17351823 -0.117686
0.11587383 -0.09465373 -0.05265666 -0.01800333 0.14677133 -0.054659758 -0.08067392 -0.03729038
0.027270507 -0.18056953 0.059971765 0.030476864 0.13853756 -0.07079581 -0.05328292 0.1217565
0.0068614106 -0.18039276 -0.019950492 -0.0773038 -0.04142621 -0.08135281 0.095898315 -0.033722375
-0.06972506 -0.11315098 0.15846962 0.051479913 -0.013750076 0.10223266 0.17242074 -0.1204752
-0.029029574 0.12583417 -0.10047644 -0.12338409 0.0022329725 -0.1957042 -0.0141986655 -0.09748503
-0.009418412 0.121739276 0.17688668 0.0093499655 0.047608323 -0.091973975 -0.094646394 0.054919492
0.017663471 0.15744664 -0.12294666 0.069872625 -0.09948247 0.12761904 0.07300097 -0.03969077
-0.1124712 -0.26538008 0.07392907 0.17128219 -0.14997213 0.09364313 0.08985716 -0.040290873
-0.0153887905 -0.06433899 0.025274882 -0.0756158 -0.16822606 0.012567459 -0.1044342 0.0018431647
0.084006846 0.066217706 0.02217613 -0.008839189 0.018975647 -0.14958839 -0.018223327 -0.025596349
-0.19740464 -0.1705913 0.15921953 -0.13471986 0.019938054 -0.034495514 -0.18187286 0.10327509
0.12107798 -0.05349623 0.15945822 0.0034110975 0.09155436 -0.16668516 -0.09326576 0.111841574
-0.12641287 -0.083971225 -0.21961764 -0.034208585 0.08335595 0.10767953 -0.22607867 -0.0022153144
-0.10241217 0.090568244 0.12486316 -0.0841859 0.008339233 0.0073716617 0.0881371 0.019304298
0.14970651 0.016032942 -0.2234149 0.14528726 -0.006187042 0.09742856 -0.026104888 -0.12756887
0.10768801 0.0753084 -0.15850805 0.04278851 -0.012215683 -0.006635478 0.02622371 -0.041505042
0.021258993 0.11292892 -0.031552985 0.0134492945 -0.03944879 -0.05183857 -0.0133686755 0.14960712
-0.119141124 0.051687643 0.08687265 -0.0602456 -0.14268714 -0.14450683 -0.118814975 0.087633915
-0.15846172 0.015261872 0.08894692 0.13488726 0.15026838 0.06909595 0.21784844 -0.116838455
0.0314464 -0.10482839 -0.1348974 0.17529501 0.002893639 0.09748979 -0.06274756 0.13913976
-0.016086403 0.0043057846 0.034981497 -0.11594712 -0.07792357 0.11712966 0.13845317 0.13252738
-0.020491783 -0.13454683 -0.17808756 -0.11694831 0.002074609 0.12092021 -0.024071215 -0.15841284
0.08597977 -0.14052218 0.14970627 0.15303005 -0.09627191 -0.008574388 -0.026693882 -0.0430314
-0.066128254 0.13529019 0.13372013 0.19645107 0.15508352 0.12933394 0.12004109 -0.116927624
0.05688085 0.0014717351 -0.051505297 0.17998222 -0.0964354 0.012752251 -0.118848 -0.14401701
-0.021900443 0.11391312 0.06817623 -0.0036111423 0.025934702 0.034208633 0.16667423 0.054096833
0.011238284 0.0019031541 -0.08342991 -0.19881995 -0.09346084 -0.11467615 0.007565569 0.013267925
-0.04350886 0.010337235 0.12264015 -0.10017333 0.05333154 0.14911526 -0.010803376 0.061590597
0.06195817 -0.13440399 0.06081217 0.0763525 -0.002233162 0.08622444 -0.1418965 -0.035197627
0.11585253 -0.18933044 -0.09780449 0.08525135 -0.004244883 0.06939508 0.08631797 -0.04752344
00000000: f0fe 173e 16c3 5bbd 4788 823d a2fc fbbd
00000010: 709b 83bd 1f91 c3bd bd37 03be 57ec 26bc
00000020: 073e 693d 8fcf 4abd 315c 613d 7599 38be
00000030: b9f4 803d 04f7 173e c3ae 31be 5c05 f1bd
00000040: 424f ed3d d1d9 c1bd 83ae 57bd b87b 93bc
00000050: 394b 163e e9e2 5fbd 5e38 a5bd ccbd 18bd
00000060: 6666 df3c 38e7 38be f4a4 753d 9eaa f93c
00000070: cadc 0d3e 65fd 90bd 313f 5abd 795b f93d
00000080: afd5 e03b e1b8 38be 376f a3bc 7451 9ebd
00000090: 88ae 29bd 4d9c a6bd 5666 c43d 7920 0abd
000000a0: 03cc 8ebd b3bb e7bd dc45 223e 9adc 523d
000000b0: 0048 61bc 5b5f d13d 108f 303e b4bb f6bd
000000c0: 6ecf edbc acda 003e 97c6 cdbd ccb0 fcbd
000000d0: 1057 123b af66 48be 85a1 68bc 3ba6 c7bd
000000e0: af4f 1abc 7152 f93d c821 353e 9930 193c
000000f0: f200 433d da5c bcbd f8d5 c1bd 43f3 603d
00000100: fcb2 903c b139 213e 75cb fbbd 6119 8f3d
00000110: 77bd cbbd 91ae 023e 8881 953d ca92 22bd
00000120: 4d57 e6bd e6df 87be 2068 973d 9964 2f3e
00000130: 4b92 19be f8c7 bf3d 0807 b83d 0b08 25bd
00000140: 4421 7cbc 29c4 83bd 450d cf3c 75dc 9abd
00000150: 7443 2cbe bee7 4d3c 99e1 d5bd 5896 f13a
00000160: c80b ac3d 269d 873d b7aa b53c 3fd2 10bc
00000170: d172 9b3c b32d 19be 1649 95bc 6faf d1bc
00000180: 7124 4abe 7caf 2ebe 720a 233e 01f4 09be
00000190: 2155 a33c 2b4b 0dbd e13c 3abe e481 d33d
000001a0: bbf7 f73d dd1e 5bbd 0449 233e b88c 5f3b
000001b0: da80 bb3d 84af 2abe 1e02 bfbd 320d e53d
000001c0: 6072 01be 1bf9 abbd 72e3 60be 4d1e 0cbd
000001d0: 86b6 aa3d 1687 dc3d 2b81 67be cf2e 11bb
000001e0: 79bd d1bd d87b b93d 42b8 ff3d a869 acbd
000001f0: 47a1 083c fb8d f13b 3981 b43d 0c24 9e3c
00000200: aa4c 193e 8457 833c e0c6 64be 2fc6 143e
00000210: acbc cabb a088 c73d ebd9 d5bc 6aa1 02be
00000220: 888b dc3d 4a3b 9a3d ef4f 22be 0143 2f3d
00000230: 4a24 48bc 6d6e d9bb 1bd3 d63c 3101 2abd
00000240: 5727 ae3c 4747 e73d b43d 01bd 6e5a 5c3c
00000250: 0e95 21bd ae54 54bd 4a08 5bbc 9c32 193e
00000260: 4300 f4bd 6cb6 533d 4aea b13d 17c4 76bd
00000270: 941c 12be 99f9 13be 4455 f3bd 6979 b33d
00000280: ca43 22be ee0c 7a3c ce29 b63d e31f 0a3e
00000290: f4df 193e 2d82 8d3d a913 5f3e 0049 efbd
000002a0: f1cd 003d 44b0 d6bd 8b22 0abe 8980 333e
000002b0: 35a3 3d3b baa8 c73d cb81 80bd a77a 0e3e
000002c0: a2c7 83bc 8a17 8d3b c248 0f3d af75 edbd
000002d0: 6596 9fbd ade1 ef3d abc6 0d3e 42b5 073e
000002e0: 62de a7bc a5c6 09be 965c 36be 9882 efbd
000002f0: 2af6 073b 04a5 f73d ff30 c5bc fa36 22be
00000300: 2916 b03d 0ce5 0fbe 9a4c 193e e9b3 1c3e
00000310: 352a c5bd 977b 0cbc 21ad dabc b141 30bd
00000320: 406e 87bd 8389 0a3e eeed 083e 782a 493e
00000330: 37ce 1e3e 1e70 043e 1ad8 f53d c077 efbd
00000340: e5fb 683d 3ce7 c03a 38f7 52bd 424d 383e
00000350: ec7f c5bd d1ee 503c 9566 f3bd 3279 13be
00000360: 8f68 b3bc 484b e93d fb9f 8b3d eaa8 6cbb
00000370: 0375 d43c 5a1e 0c3d a6ac 2a3e a494 5d3d
00000380: c820 383c 4173 f93a 4ddd aabd 7597 4bbe
00000390: 6668 bfbd 54db eabd 98e8 f73b b661 593c
000003a0: 5936 32bd 825d 293c c22a fb3d ad27 cdbd
000003b0: 2c72 5a3d acb1 183e a500 31bc 6c46 7c3d
000003c0: dac7 7d3d 33a1 09be 2f16 793d b35e 9c3d
000003d0: 3e5a 12bb 7096 b03d 514d 11be 632b 10bd
000003e0: 1744 ed3d d7df 41be b84d c8bd 4398 ae3d
000003f0: a918 8bbb 021f 8e3d 7ac7 b03d f0a7 42bd

weight f4 [256, 512]
-0.014966006 0.095092975 0.2313954 0.09849154 -0.013973772 0.2780467 0.09169243 -0.13975495
0.103206456 -0.15295295 -0.1682979 -0.05203263 0.043742776 -0.0353163 0.086247474 -0.12088201
0.1890459 -0.08121697 -0.15078676 0.19813734 0.044042617 -0.3361936 0.119154066 0.18546715
-0.05275559 -0.009471008 -0.12168834 -0.064904675 -0.17751105 0.09392899 0.08619408 0.10498139
-0.056506295 -0.057101287 -0.18430938 -0.0057222275 -0.09780054 0.27793652 -0.006647788 -0.22803542
0.019628802 -0.05637614 0.003799839 0.08488452 -0.09084095 -0.054127473 -0.04342896 0.028078789
0.14225517 0.02012385 -0.023005223 -0.051173273 0.05737136 0.07381251 0.049740996 -0.34841433
-0.04239138 0.28762743 0.0718819 -0.15413626 0.18185733 -0.015644172 -0.10935161 0.036592506
0.042849816 0.05458991 0.1739482 -0.044476196 0.062096868 0.04347429 -0.10697654 -0.086407825
0.059775844 0.24647231 0.08577741 -0.18251118 0.012624783 0.07749338 -0.12626739 -0.15249844
0.011619014 0.07863389 0.037080884 0.20211168 0.4405174 0.10351277 -0.09804269 0.09208718
0.03476011 -0.029063255 -0.097511455 0.14268662 0.038023673 -0.014076951 0.029423228 -0.04977489
0.03989133 0.045923404 0.06385678 0.022294713 0.20265518 -0.14110193 -0.092948385 -0.23603837
0.10494353 0.054676566 0.33242658 -0.1390002 -0.053775985 0.009298972 -0.018388374 0.15159963
0.0847179 0.21026084 -0.24287616 -0.18719383 0.052210093 0.08544015 -0.08039484 -0.07838831
-0.12755664 0.16891985 0.06028083 -0.04551511 0.021168452 -0.15109266 0.045961812 0.075149044
-0.11012863 0.11154508 0.016884271 0.097051 0.022912614 0.045254618 -0.020297315 -0.13733505
0.07085912 0.18044212 0.0053739906 0.15830593 0.16212752 0.0031341987 0.049393028 -0.1607627
0.08733323 0.07049758 -0.07033633 0.114811026 0.14868543 0.013701103 0.027118761 -0.038696572
-0.036793973 0.02210494 -0.065402724 -0.07595807 0.09379269 0.06852233 -0.13872838 -0.05274752
0.08381546 0.08020376 0.10961855 -0.11661921 0.0027889824 0.0890848 -0.06470053 0.09592638
0.093370646 -0.030301208 -0.040153824 -0.051012732 0.02779881 -0.050040465 0.09778015 0.086324625
0.28842106 0.037101246 0.027528552 -0.030055821 -0.05917249 0.052680157 -0.1050206 0.07419854
0.057759274 0.0003177714 0.0036530276 -0.13445921 -0.25295863 -0.010872658 0.13293569 -0.0938471
-0.13902447 0.012242641 0.14906536 -0.27235758 0.030253585 0.023973964 -0.14422731 -0.068437874
0.35880372 0.0641805 0.06337993 0.29779845 -0.029543782 -0.1337787 0.043945268 -0.11318335
-0.057200816 -0.08731572 0.020822154 -0.21110609 -0.031559423 0.0720049 0.04323459 -0.030968461
-0.029149285 0.06977936 0.08783613 0.058356438 0.15644978 0.0021911114 0.30795372 0.18135889
0.0036870649 -0.13982263 0.105705075 0.11555604 -0.21460779 -0.08189252 0.01428582 0.08484508
0.0054516257 -0.07050392 -0.022361804 -0.28143114 -0.067991614 -0.062322076 0.0036448734 -0.040665172
0.065704845 0.073502444 0.00039446432 0.05489302 -0.16634178 0.031724498 0.032355256 0.0030039356
0.07516564 -0.09958416 -0.03025497 0.44583237 -0.031164885 0.15774107 0.091753714 0.021753768
00000000: fb33 75bc 1bc0 c23d eaf2 6c3e efb5 c93d
00000010: 3ff2 64bc 235c 8e3e 3ec9 bb3d ec1b 0fbe
00000020: e85d d33d b39f 1cbe 4956 2cbe 2b20 55bd
00000030: a02b 333d d3a7 10bd 84a2 b03d fd90 f7bd
00000040: 4095 413e 1555 a6bd d867 1abe 84e4 4a3e
00000050: 0866 343d 9121 acbe 0c07 f43d 1aeb 3d3e
00000060: 3f16 58bd 492c 1bbc bd37 f9bd beec 84bd
00000070: 75c5 35be d85d c03d 8686 b03d 7c00 d73d
00000080: 2573 67bd 0ae3 69bd 99bb 3cbe 8681 bbbb
00000090: a64b c8bd b24d 8e3e b0d5 d9bb 1e82 69be
000000a0: 95cc a03c abea 66bd b806 793b efd7 ad3d
000000b0: d20a babd c5b4 5dbd 91e2 31bd 7d05 e63c
000000c0: 57ab 113e c6da a43c 7375 bcbc 119b 51bd
000000d0: 3bfe 6a3d 032b 973d 37bd 4b3d 5d63 b2be
000000e0: 95a2 2dbd e743 933e d136 933d e5d5 1dbe
000000f0: cf38 3a3e 3528 80bc bdf3 dfbd 06e2 153d
00000100: 4a83 2f3d ab99 5f3d 7a1f 323e ac2c 36bd
00000110: 4959 7e3d 1912 323d 8416 dbbd 96f6 b0bd
00000120: 84d7 743d 3d63 7c3e 11ac af3d 36e4 3abe
00000130: 2ed8 4e3c d9b4 9e3d 3d4c 01be 8d28 1cbe
00000140: ad5d 3e3c ce0a a13d 20e2 173d 5df6 4e3e
00000150: 7f8b e13e 81fe d33d 9bca c8bd 3498 bc3d
00000160: 9e60 0e3d 1016 eebc 16b4 c7bd 711c 123e
00000170: b6be 1b3d 03a3 66bc fb08 f13c c1e0 4bbd
00000180: 1765 233d 2e1a 3c3d 58c7 823d 67a3 b63c
00000190: d784 4f3e 067d 10be b95b bebd 0bb4 71be
000001a0: a2ec d63d 89f4 5f3d d133 aa3e 1256 0ebe
000001b0: 3544 5cbd b75a 183c 37a3 96bc ef3c 1b3e
000001c0: 9480 ad3d 9e4e 573e 87b4 78be bdaf 3fbe
000001d0: 40da 553d 3ffb ae3d 0da6 a4bd 0d8a a0bd
000001e0: 359e 02be 53f9 2c3e 08e9 763d 0d6e 3abd
000001f0: 7669 ad3c 09b8 1abe 7442 3c3d bee7 993d
00000200: 1f8b e1bd bf71 e43d e250 8a3c adc2 c63d
00000210: 3cb3 bb3c e85c 393d 8e46 a6bc 8fa1 0cbe
00000220: 961e 913d d2c5 383e 4d18 b03b f31a 223e
00000230: c204 263e 2167 4d3b 5850 4a3d fa9e 24be
00000240: c4db b23d 0961 903d 7e0c 90bd 0b22 eb3d
00000250: fe40 183e 977a 603c 2a28 de3c 4c80 1ebd
00000260: 47b5 16bd 6b15 b53c ddf1 85bd e88f 9bbd
00000270: 6216 c03d 6f55 8c3d d00e 0ebe c90d 58bd
00000280: 71a7 ab3d de41 a43d b17f e03d 0dd6 eebd
00000290: 5cc7 363b 1772 b63d b681 84bd 0d75 c43d
000002a0: 1c39 bf3d 3d3a f8bc 5678 24bd baf2 50bd
000002b0: 54ba e33c 3bf7 4cbd f640 c83d f7ca b03d
000002c0: edab 933e 7af7 173d 8f83 e13c a037 f6bc
000002d0: da5e 72bd 26c7 573d 0a15 d7bd 67f5 973d
000002e0: fd94 6c3d 8e9a a639 a267 6f3b adaf 09be
000002f0: cb83 81be 3c23 32bc 4b20 083e e932 c0bd
00000300: 6e5c 0ebe 5c95 483c 97a4 183e 7472 8bbe
00000310: 5ed6 f73c 0c65 c43c 53b0 13be 2829 8cbd
00000320: 1fb5 b73e 1171 833d 56cd 813d 0a79 983e
00000330: cd05 f2bc 49fd 08be f4ff 333d accc e7bd
00000340: 674b 6abd 96d2 b2bd 3993 aa3c 322c 58be
00000350: 7444 01bd 4e77 933d c116 313d 92b1 fdbc
00000360: 7bca eebc 7be8 8e3d 6ee3 b33d 2907 6f3d
00000370: 5f34 203e c098 0f3b 1cac 9d3e 25b6 393e
00000380: afa2 713b aa2d 0fbe e77b d83d a5a8 ec3d
00000390: 25c2 5bbe 44b7 a7bd 120f 6a3c 42c3 ad3d
000003a0: 8da3 b23b 5c64 90bd 1a30 b7bc be17 90be
000003b0: 303f 8bbd 6f45 7fbd d4de 6e3b 8690 26bd
000003c0: 4390 863d 7388 963d 1bd0 ce39 81d7 603d
000003d0: 8055 2abe 8cf1 013d f286 043d addd 443b
000003e0: 71f0 993d c8f2 cbbd 45d9 f7bc 2444 e43e
000003f0: 804d ffbc e086 213e 5fe9 bb3d f534 b23c

bias f4 [256]
-0.029298723 0.036308557 -0.023613034 -0.078795634 0.066057615 0.043096997 0.08456373 -0.028918678
0.06674858 0.06728669 0.041206483 0.113243125 0.058427386 0.07716485 0.06060793 -0.011847923
-0.04380173 -0.00065551646 0.0038660811 0.08151715 0.06744199 0.011471833 -0.07588493 0.024571355
-0.05747695 -0.044129845 -0.006619603 0.014379182 0.07556787 0.06807922 0.059872355 0.017260132
0.015225186 -0.044065896 0.08682416 0.07275539 0.108701 0.0106522525 -0.04408584 0.022773616
0.06689134 0.04022287 0.012422846 0.013224625 0.012397302 0.07157219 -0.05910686 0.03348479
0.08229536 0.008262883 -0.08145406 0.0633025 0.06695954 0.080028735 0.031985186 -0.07998048
-0.018504519 0.020675752 0.028658194 0.011090846 -0.01431621 0.039019126 0.049464434 -0.0006205491
0.09863084 0.030052865 0.08596559 0.048594657 0.016464973 -0.03425184 0.049466945 0.013322277
-0.06615582 -0.033425327 -0.0020739918 -0.0035478831 0.0145646 0.089885026 0.030279513 0.078326404
0.044263173 -0.06285602 -0.013548921 -0.0071894424 0.038824752 0.028458113 0.0228934 0.00039417678
0.016997147 0.026286233 0.0012638133 0.047639124 -0.034827415 0.054819502 -0.034989066 0.022908363
-0.0025076591 -0.0142377755 -0.05250633 0.028902564 0.016312094 -0.008780084 0.12007724 0.04359622
0.105666965 0.016898438 0.037298877 0.034272015 -0.021367548 0.12130893 -0.050870497 -0.049331702
0.07505868 0.0046027503 0.0031283863 0.038505938 0.025874019 0.09261701 -0.059611745 0.046064187
0.049737632 0.090172075 -0.028947555 0.069181815 0.05199587 -0.0026837355 0.0057038628 -0.046702154
0.053446993 0.10093223 -0.051110726 -0.016611075 0.018999573 0.0214649 0.05538997 0.09338546
0.02049103 -0.074209355 -0.0174841 -0.023701956 0.0072135823 0.033104416 0.0140882805 0.09121384
-0.005968715 -0.045365516 0.008653172 -0.023603821 -0.034637574 0.04940901 -0.0077866246 -0.005746934
-0.019327428 0.052401423 -0.018612364 0.031389985 -0.014099732 -0.04614757 0.021891283 0.04751452
0.0030485208 -0.013586909 0.0013481296 -0.007953903 -0.012699788 -0.06976283 0.0009382175 0.02359667
0.031665828 -0.0051546516 -0.03715011 -0.07329308 0.045680903 0.05348079 -0.006733581 0.077448815
-0.11434646 -0.011242268 0.03904303 0.05412432 -0.044636928 0.08989822 0.032815155 0.077931896
0.078502595 0.008689841 0.06361952 0.0870547 0.058945313 0.072708696 0.006894143 -0.010323909
0.014921209 0.03737145 0.0081809 -0.05480671 0.048104703 0.0015073305 -0.024141302 -0.00804616
0.050100192 0.026779287 0.036501776 -0.041507453 0.026668832 0.0325928 0.047764007 -0.040587015
0.060727753 -0.057512347 0.04113519 0.026812132 0.009812457 0.037470136 0.061332326 0.088509485
0.011194779 0.05383373 0.052526932 0.03263822 0.05549101 0.06391607 -0.032287072 -0.08058223
-0.0044342764 0.023528837 -0.033030234 0.0952783 0.036738608 0.0822582 -0.020157896 -0.06106258
0.033531316 0.038857218 0.048058778 -0.08831812 0.04808939 -0.0097709205 -0.053302933 -0.013791676
0.032315996 0.046853337 -0.010787092 0.07065281 0.07304546 0.070164286 0.07381558 -0.07420565
0.022739895 0.02179431 -0.013997135 0.001975994 0.08791361 -0.019274589 0.02519741 0.06186718
00000000: e003 f0bc 48b8 143d 1f70 c1bc 9b5f a1bd
00000010: 3749 873d 7a86 303d c02f ad3d dde6 ecbc
00000020: 7bb3 883d 9bcd 893d 21c8 283d 03ec e73d
00000030: 8e51 6f3d 9b08 9e3d 0540 783d ca1d 42bc
00000040: 7169 33bd f7d6 2bba 145e 7d3b 77f2 a63d
00000050: 071f 8a3d 5bf4 3b3c 8f69 9bbd de49 c93c
00000060: f36c 6bbd 7fc1 34bd 41e9 d8bb a996 6b3c
00000070: 54c3 9a3d 1e6d 8b3d b73c 753d 1f65 8d3c
00000080: 0f73 793c 717e 34bd ddd0 b13d c700 953d
00000090: a19e de3d c986 2e3c 5b93 34bd bc8f ba3c
000000a0: 54fe 883d bcc0 243d 3189 4b3c 19ac 583c
000000b0: 0e1e 4b3c 7194 923d 091a 72bd 5927 093d
000000c0: 788a a83d 0b61 073c 63d1 a6bd bea4 813d
000000d0: 1522 893d 1be6 a33d e602 033d cecc a3bd
000000e0: ca96 97bc 3260 a93c 97c4 ea3c 61b6 353c
000000f0: 898e 6abc 85d2 1f3d 389b 4a3d 58ac 22ba
00000100: f7fe c93d 6d31 f63c ba0e b03d 310b 473d
00000110: 8de1 863c a84b 0cbd da9d 4a3d ae45 5a3c
00000120: b47c 87bd ffe8 08bd cfeb 07bb 9a83 68bb
00000130: 5ca0 6e3c a415 b83d be0c f83c 9869 a03d
00000140: 4d4d 353d a8ba 80bd 4bfc 5dbc 6a95 ebbb
00000150: b406 1f3d fd20 e93c f18a bb3c 83a9 ce39
00000160: 9a3d 8b3c 3a56 d73c 8aa6 a53a 3e21 433d
00000170: 31a7 0ebd 6a8a 603d b250 0fbd 52aa bb3c
00000180: 8a57 24bb 8f45 69bc e110 57bd 12c5 ec3c
00000190: f1a0 853c 57da 0fbc 0eeb f53d f391 323d
000001a0: ec67 d83d 986e 8a3c b5c6 183d d060 0c3d
000001b0: ff0a afbc d170 f83d 955d 50bd 0a10 4abd
000001c0: 5db8 993d abd2 963b 9d05 4d3b 67b8 1d3d
000001d0: c0f5 d33c fdad bd3d 722b 74bd cdad 3c3d
000001e0: b0b9 4b3d 23ac b83d 6c23 edbc 32af 8d3d
000001f0: 9ff9 543d 9ce1 2fbb 78e7 ba3b c24a 3fbd
00000200: 3ceb 5a3d 8fb5 ce3d 7b59 51bd f313 88bc
00000210: fea4 9b3c 28d7 af3c 98e0 623d e040 bf3d
00000220: cedc a73c 13fb 97bd d13a 8fbc 9b2a c2bc
00000230: ea5f ec3b 7f98 073d 88d2 663c 52ce ba3d
00000240: 3695 c3bb 31d1 39bd 09c6 0d3c cd5c c1bc
00000250: 21e0 0dbd 1a61 4a3d f126 ffbb c750 bcbb
00000260: 8e54 9ebc e0a2 563d f578 98bc c992 003d
00000270: 9002 67bc 3c05 3dbd 5955 b33c 969e 423d
00000280: b1c9 473b a09b 5ebc b9b3 b03a 1651 02bc
00000290: c612 50bc d1df 8ebd b6f2 753a ce4d c13c
000002a0: 07b4 013d 5ae8 a8bb b72a 18bd af1a 96bd
000002b0: e61b 3b3d ac0e 5b3d 5fa5 dcbb 7c9d 9e3d
000002c0: 7a2e eabd 7d31 38bc 96eb 1f3d 77b1 5d3d
000002d0: 36d5 36bd 8f1c b83d 2f69 063d c29a 9f3d
000002e0: f8c5 a03d d65f 0e3c f34a 823d bc49 b23d
000002f0: a470 713d 4ce8 943d 43e8 e13b 9d25 29bc
00000300: 1678 743c ce12 193d 2e09 063c 007d 60bd
00000310: 7009 453d 9e91 c53a fbc3 c5bc 0bd4 03bc
00000320: dc35 4d3d 3c60 db3c e382 153d b803 2abd
00000330: 9878 da3c 0780 053d 31a4 433d 923e 26bd
00000340: aabd 783d 1192 6bbd 5f7d 283d 1ea5 db3c
00000350: 6dc4 203c 497a 193d 9b37 7b3d 7644 b53d
00000360: 4e6a 373c c280 5c3d 7b26 573d a7af 053d
00000370: 8b4a 633d 6ee6 823d 733f 04bd 4c08 a5bd
00000380: 684d 91bb 8cbf c03c b64a 07bd 4521 c33d
00000390: 397b 163d fd76 a83d 2c22 a5bc c21c 7abd
000003a0: 2258 093d bf28 1f3d 48d9 443d 21e0 b4bd
000003b0: 61f9 443d 3616 20bc 2d54 5abd 7bf6 61bc
000003c0: c75d 043d 49e9 3f3d 58bc 30bc 6cb2 903d
000003d0: dc98 953d 4bb2 8f3d 9f2c 973d 22f9 97bd
000003e0: 0449 ba3c fb89 b23c 3d54 65bc ae7f 013b
000003f0: 0d0c b43d bee5 9dbc cc6a ce3c 7168 7d3d

weight f4 [64, 256]
-0.13401882 -0.12239403 0.06637852 0.1893815 0.08678312 -0.007431714 -0.24484973 -0.19179441
0.014722657 0.102859356 -0.034491837 0.3382963 -0.24208325 -0.051390994 -0.05995393 -0.044427957
0.1760373 0.1876158 0.14670184 0.36039886 0.054008603 -7.727561 0.06752298 0.07240022
0.18110482 -0.06893447 -0.19923976 -0.1366176 0.2616077 0.17861196 0.24679554 -0.12140395
-0.08495322 0.047127005 -0.0031508964 -0.0116346 0.04428587 0.23485462 -0.19448026 -0.24717633
-0.031696234 -0.012559986 0.16689326 0.28515995 0.037346754 -0.0788657 0.03529608 -0.07040313
0.019744454 -0.007603673 0.20877367 0.056105718 0.00312065 0.0882772 -0.07736654 -0.17080885
-0.30371276 -0.009411571 -0.3590563 0.13968225 0.031608757 0.1406847 0.10682745 0.38388044
-0.6803549 -0.09914054 -0.3430011 0.08973395 0.049958795 0.034167547 0.016069079 0.11286401
-0.14650728 0.15975471 0.18946266 0.2535518 -0.0030171198 -0.42162877 0.085320935 0.05609082
-0.02683199 0.22860947 0.05815378 -0.037115905 -0.1452821 -0.114841394 0.05670633 0.054895204
-0.014471668 -0.06070147 0.006044911 0.045959026 -0.040759355 -0.14559206 0.20270222 0.1496123
0.09451581 -0.16017704 0.061371114 0.04137753 0.16821507 0.14597808 0.05122477 0.092715904
0.09073157 0.026130993 0.11504085 0.07973319 0.14114305 0.08641034 0.16477598 0.12960887
0.11485457 -0.011706239 0.31223822 0.08507286 -0.033567604 0.12302015 0.103069305 -0.16337804
0.026885923 -0.16836515 -0.011606629 0.019082056 -0.09143712 -0.21267566 -0.05137923 0.058088172
-0.0060184947 -0.233706 -0.17313369 -0.06679845 -0.0038557476 -0.73874867 0.20354183 -0.12583528
-0.015854325 -0.027431283 0.091724 0.17760397 0.036753036 -0.21322617 0.022174545 0.011710862
-0.3856318 0.22624049 -0.14828368 -0.007871753 0.049253274 0.10844651 0.049258783 -0.25497815
0.23901846 0.22983998 0.22028646 -0.07497173 -0.18156314 0.008792322 0.029839879 -0.0029148962
0.084659904 0.0029586426 0.14130697 -0.097043194 0.275564 -0.100087136 0.11395632 0.04920369
-0.08206076 0.042126115 0.14126365 0.13053389 0.13305205 0.0013979947 -0.26807684 -0.18967393
-0.032073982 -0.24518207 0.12817147 0.17263949 -0.041912112 -0.1336094 0.2644615 -0.109750725
0.1884499 -0.17455661 -0.15324967 0.1277246 0.13118383 0.062018253 -0.061763655 -0.18259412
0.1498395 -0.0058609294 -0.54245937 0.2984632 -0.030166375 -0.19382076 -0.026014058 0.06840041
0.02681559 -0.043108772 0.021074949 -0.28438124 0.1822617 0.016364716 0.19127537 -0.37210336
-0.09676049 -0.31434697 0.09766037 -0.051148016 0.19900881 -0.3468325 0.04159367 -0.0048028356
-0.025290655 -0.12148774 0.029679907 0.13318747 0.10905189 0.17843531 -0.09631129 0.017000578
0.05035432 -0.19070889 -0.066730455 -0.58950233 0.1915968 -0.24434821 -0.111892015 0.018423468
-0.86291945 -0.015314862 -0.17871556 -0.25255063 -0.30169916 -0.068874 -0.052562565 -0.1498992
-0.030290889 0.011881011 0.096416794 0.1027753 0.1058934 0.128264 -0.09986894 -0.19912201
0.14026557 -0.04122916 0.19227304 -0.23700826 -0.54576206 0.033559803 -0.0015379438 0.051161207
00000000: 3b3c 09be b9a9 fabd 76f1 873d 39ed 413e
00000010: 59bb b13d bc85 f3bb e3b9 7abe c165 44be
00000020: 4d37 713c eda7 d23d 5047 0dbd 2c35 ad3e
00000030: ace4 77be 5d7f 52bd 4192 75bd 17fa 35bd
00000040: 1f43 343e 5b1e 403e 0239 163e 3386 b83e
00000050: 2038 5d3d 2e48 f7c0 7d49 8a3d 9146 943d
00000060: 8b73 393e 842d 8dbd 8205 4cbe 7ce5 0bbe
00000070: 72f1 853e 0ee6 363e f8b7 7c3e a2a2 f8bd
00000080: f4fb adbd 3f08 413d 457f 4ebb 0d9f 3ebc
00000090: 1a65 353d bb7d 703e d525 47be cb1b 7dbe
000000a0: e9d3 01bd 66c8 4dbc 11e6 2a3e 7c00 923e
000000b0: e9f8 183d 5784 a1bd 9f92 103d 842f 90bd
000000c0: 1fbf a13c 3b28 f9bb c4c8 553e 1ccf 653d
000000d0: d283 4c3b adca b43d 5972 9ebd 84e8 2ebe
000000e0: 3d80 9bbe fd32 1abc 3ad6 b7be dd08 0f3e
000000f0: 2f78 013d a60f 103e 5ac8 da3d fa8b c43e
00000100: bd2b 2ebf 320a cbbd d79d afbe 6fc6 b73d
00000110: 98a1 4c3d 45f3 0b3d 4da3 833c 3f25 e73d
00000120: 0106 16be bd96 233e 8002 423e 8bd1 813e
00000130: dfba 45bb badf d7be bebc ae3d 7dbf 653d
00000140: c3ce dbbc 9a18 6a3e a832 6e3d d906 18bd
00000150: d5c4 14be f731 ebbd e644 683d cbd9 603d
00000160: 931a 6dbc 1ba2 78bd 6414 c63b 883f 3c3d
00000170: 48f3 26bd 1616 15be 2c91 4f3e f733 193e
00000180: 8191 c13d 7305 24be 4760 7b3d 7c7b 293d
00000190: 9240 2c3e 477b 153e 10d1 513d d6e1 bd3d
000001a0: 79d1 b93d aa10 d63c 8a9a eb3d 284b a33d
000001b0: ce87 103e e8f7 b03d 09bb 283e 30b8 043e
000001c0: df38 eb3d 86cb 3fbc b0dd 9f3e ae3a ae3d
000001d0: 2f7e 09bd fdf1 fb3d 0016 d33d 934c 27be
000001e0: de3f dc3c ea67 2cbe bb29 3ebc f951 9c3c
000001f0: 6343 bbbd a6c7 59be 0773 52bd dded 6d3d
00000200: cb36 c5bb a050 6fbe f549 31be a0cd 88bd
00000210: b6b0 7cbb a21e 3dbf 456d 503e f7da 00be
00000220: eee0 81bc 92b7 e0bc cbd9 bb3d d1dd 353e
00000230: 5a8a 163d f657 5abe 64a7 b53c eade 3f3c
00000240: 8871 c5be 96ab 673e add7 17be 86f8 00bc
00000250: cdbd 493d 3419 de3d 94c3 493d 7f8c 82be
00000260: 41c1 743e 2c5b 6b3e c692 613e c78a 99bd
00000270: b0eb 39be ac0d 103c c372 f43c d807 3fbb
00000280: 2c62 ad3d c9e5 413b c6b2 103e 95be c6bd
00000290: b916 8d3e 7cfa ccbd ee61 e93d cf89 493d
000002a0: 790f a8bd 6f8c 2c3d 6ba7 103e adaa 053e
000002b0: cc3e 083e eb3c b73a 5e41 89be e239 42be
000002c0: 0260 03bd 0211 7bbe 623f 033e 68c8 303e
000002d0: 09ac 2bbd e7d0 08be 7f67 873e fdc4 e0bd
000002e0: 03f9 403e f8be 32be 7bed 1cbe 3dca 023e
000002f0: 0e55 063e da06 7e3d e3fb 7cbd f4f9 3abe
00000300: 876f 193e 0a0d c0bb 9ede 0abf 2bd0 983e
00000310: 791f f7bc f378 46be 6f1b d5bc 8415 8c3d
00000320: 5eac db3c d392 30bd 5fa5 ac3c 6b9a 91be
00000330: d0a2 3a3e 4c0f 863c b1dd 433e 5584 bebe
00000340: 5d2a c6bd 16f2 a0be 2902 c83d 9580 51bd
00000350: f7c8 4b3e 0894 b1be 205e 2a3d 1b61 9dbb
00000360: 592e cfbc 90ce f8bd 4723 f33c 4c62 083e
00000370: 9956 df3d bfb7 363e db3e c5bd cc44 8b3c
00000380: 5540 4e3d 3149 43be faa9 88bd a0e9 16bf
00000390: f431 443e 6b36 7abe a427 e5bd d0ec 963c
000003a0: 4ae8 5cbf 30eb 7abc 3601 37be 514e 81be
000003b0: 5078 9abe d00d 8dbd d84b 57bd 2d7f 19be
000003c0: 9924 f8bc 92a8 423c 2b76 c53d db7b d23d
000003d0: a4de d83d a357 033e 1688 ccbd a4e6 4bbe
000003e0: c7a1 0f3e e8df 28bd 39e3 443e 4bb2 72be
000003f0: 10b7 0bbf 0176 093d d594 c9ba 6a8e 513d

bias f4 [64]
-0.04599561 -0.12320879 0.04310083 -0.023698382 0.1071127 -0.08383482 0.11151559 0.1269987
-0.04136852 -0.21359722 0.28011924 -0.31405452 0.3316798 -0.24534608 0.031602625 0.08669018
0.12865257 -0.32592088 0.08333687 -0.38404506 0.06512403 -0.10805611 0.009919903 0.080652624
-0.15026127 -0.04391205 0.17368633 0.0015744654 0.015708853 0.06166208 0.12104302 -0.18521124
0.121277854 -0.048076216 -0.33505782 -0.005972023 0.028742315 0.05062276 0.33793497 0.05607745
0.051637724 -0.1679267 0.13517876 -0.0723352 0.061948244 0.058312457 0.18177274 0.12252646
-0.0028772652 -0.12638858 -0.11835948 -0.04626405 -0.11555093 -0.22597048 -0.072881915 -0.015669324
-0.1626209 -0.057828892 -0.0097035505 0.55065095 -0.31304684 0.21773411 -0.10418508 0.05776274
00000000: e565 3cbd e454 fcbd 7f8a 303d 1c23 c2bc
00000010: e75d db3d 97b1 abbd 4962 e43d f20b 023e
00000020: 0a72 29bd 3bb9 5abe ca6b 8f3e c1cb a0be
00000030: efd1 a93e 013c 7bbe c171 013d 9f8a b13d
00000040: 80bd 033e 1adf a6be 85ac aa3d 8ea1 c4be
00000050: bf5f 853d 864c ddbd 1787 223c 342d a53d
00000060: 17de 19be 1fdd 33bd d4da 313e 4b5e ce3a
00000070: daaf 803c 6191 7c3d 67e5 f73d 04a8 3dbe
00000080: 8660 f83d 91eb 44bd b38c abbe f6b0 c3bb
00000090: 0175 eb3c d059 4f3d d005 ad3e 78b1 653d
000000a0: 1482 533d faf4 2bbe 4d6c 0a3e 7a24 94bd
000000b0: 71bd 7d3d 0bd9 6e3d a222 3a3e 27ef fa3d
000000c0: 8090 3cbb 026c 01be 7466 f2bd 5f7f 3dbd
000000d0: f7a5 ecbd ce64 67be 1d43 95bd f45c 80bc
000000e0: 1886 26be fddd 6cbd a4fb 1ebc 76f7 0c3f
000000f0: ad47 a0be b1f5 5e3e fd5e d5bd 9f98 6c3d
