pth/takada_model_110.pth (torch, 464802 bytes, 6 tensors)

weight f4 [256, 128]
0	0xbf89d0d6	-1.0766857
1	0x3f8929cb	1.0715879
2	0x3f2a25f0	0.6646414
3	0x3ea4baa8	0.32173657
4	0x3ea9cc00	0.33163452
5	0x3df92b34	0.121664435
6	0xbe518631	-0.20461346
7	0xbe1a12ff	-0.15046309
8	0x3f1f61f2	0.6225883
9	0x3ecc54c1	0.39908412
10	0xbdcdb50b	-0.10044297
11	0x3ee47bab	0.446256
12	0xbef02237	-0.46901104
13	0x3eab4bec	0.3345636
14	0xbe460ace	-0.19340059
15	0xbe953457	-0.29141495
16	0xbdceb149	-0.10092408
17	0x3df76c91	0.12081254
18	0x3ea9f792	0.33196694
19	0xbf031b3c	-0.5121343
20	0x3edd5d19	0.4323509
21	0x3f059b1c	0.52189803
22	0xbd737413	-0.05943687
23	0x3dbb203d	0.09137008
24	0xbec263df	-0.3796682
25	0x3e1928bd	0.14956947
26	0x3e7ccbe5	0.24687155
27	0xbe71d7de	-0.23617503
28	0xbe149ffb	-0.14514153
29	0xbe1697e5	-0.1470638
30	0x3e0a50fe	0.13507459
31	0x3e2ca6f4	0.16860563
32	0x3edd0fdd	0.43176165
33	0xbdb11824	-0.086471826
34	0x3e68585d	0.22689958
35	0x3e134670	0.14382339
36	0x3d789a67	0.060694125
37	0xbb402c73	-0.0029323369
38	0xbe8e82f5	-0.27834287
39	0x3e8175d6	0.25285214
40	0x3d8d5a55	0.06901995
41	0x3e83239a	0.256131
42	0xbdf26994	-0.11836544
43	0x3c27b6ad	0.010236424
44	0xbe881bef	-0.26583812
45	0x3ce274f4	0.027643658
46	0x3e3dc50c	0.18532199
47	0x3e737284	0.23774153
48	0xbed7c1ed	-0.4214014
49	0x3f5d84cc	0.86530757
50	0xbe991f15	-0.29906526
51	0xbd7dcb62	-0.06196154
52	0xbe9abb42	-0.3022099
53	0xbe8fe5de	-0.28105062
54	0xbf4ee387	-0.8081593
55	0xbe1eab85	-0.15495117
56	0x3f670bf5	0.9025262
57	0xbf311693	-0.6917507
58	0x3dd2deff	0.102964394
59	0x3dfc9c9b	0.123345576
60	0x3eac2d49	0.336283
61	0x3e6c8464	0.23097378
62	0xbd8aea5b	-0.06782981
63	0x3e7baa45	0.24576671
64	0x3fb5c021	1.4199258
65	0xbef90402	-0.4863587
66	0x3e834fa9	0.25646713
67	0xbf26ab04	-0.651047
68	0xbd736170	-0.059419096
69	0x3ec9b9aa	0.39399463
70	0xbc08caed	-0.0083491625
71	0x3e91d1c1	0.28480342
72	0x3d6d5a23	0.05794729
73	0xbedc5553	-0.43033847
74	0x3e6d764f	0.23189662
75	0x3f0264aa	0.5093485
76	0xbec4ce73	-0.38438758
77	0x3e80da3a	0.25166494
78	0xbecf72e4	-0.40517342
79	0xbe8ff617	-0.2811744
80	0x3eb3ce55	0.35118356
81	0x3d3f8f8e	0.046767764
82	0x3ec2dfe4	0.3806144
83	0xbe75616a	-0.23962942
84	0x3ccc31a9	0.024926024
85	0x3d8834e0	0.0665071
86	0x3e96c8b7	0.29450008
87	0x3e5777a1	0.21041729
88	0xbea37e33	-0.3193222
89	0xbd247ee9	-0.040160093
90	0xbe863886	-0.26215
91	0x3df378e5	0.11888293
92	0xbdc755ee	-0.09733187
93	0x3de1e4c1	0.110299595
94	0x3eab0ba2	0.33407313
95	0x3ea0c0fd	0.31397238
96	0xbe89216e	-0.26783317
97	0x3f389faf	0.7211866
98	0xbe00966e	-0.12557384
99	0xbeadd0d6	-0.33948392
100	0xbe7c021b	-0.24610178
101	0xbe07fe40	-0.13280582
102	0xbe8e19ad	-0.27753964
103	0x3df87d6b	0.121332966
104	0x3e2efbd6	0.17088255
105	0x3ed72e9e	0.42027754
106	0xbd18aa2e	-0.03727167
107	0x3d61a162	0.055085547
108	0x3d872b77	0.06600087
109	0xbe4092b9	-0.1880597
110	0xbec17d97	-0.3779113
111	0x3dc600ad	0.09668098
112	0xbd88d783	-0.066817306
113	0xbbf320fa	-0.0074197026
114	0xbec08e7c	-0.37608707
115	0xbee37f5b	-0.44433102
116	0xbec22962	-0.37922198
117	0xbf1bdfc8	-0.6088834
118	0x3e6ed445	0.23323162
119	0x3f1e2248	0.6177106
120	0x3ed39857	0.41327164
121	0xbed4747b	-0.41495118
122	0x3d98400d	0.07434092
123	0xbac142fa	-0.0014744692
124	0x3f11d5ab	0.56966656
125	0x3e0f3689	0.13985647
126	0xbf0f49e4	-0.55972123
127	0xbf4cf79c	-0.8006532
128	0x3e7b4146	0.24536619
129	0xbe70907c	-0.23492616
130	0xbe8eda36	-0.27900857
131	0x3df45304	0.119298965
132	0xbd8a4139	-0.067507215
133	0xbdb186ab	-0.08668264
134	0xbee79614	-0.45231688
135	0x3ee83111	0.45349935
136	0xbee4fa59	-0.4472225
137	0xbeb32d54	-0.3499552
138	0xbe26a331	-0.1627319
139	0xbe18b798	-0.14913785
140	0xbf05373c	-0.52037406
141	0xbf319474	-0.69367146
142	0x3da51006	0.08059697
143	0xbe0816f6	-0.13290009
144	0xbe456c26	-0.19279537
145	0x3e909b1f	0.28243348
146	0xbdc17786	-0.094466254
147	0x3e106e1f	0.14104508
148	0x3d9db215	0.07699982
149	0x3e76b05b	0.24090712
150	0x3e9a4afa	0.30135328
151	0xbd720a9e	-0.059092157
152	0x3e49806b	0.19677894
153	0xbe9d4cbb	-0.30722603
154	0xbe87e7c4	-0.2654401
155	0xbed29179	-0.41126612
156	0xbe8c3fc4	-0.273924
157	0xbe920da2	-0.28526026
158	0xbedd1d90	-0.43186617
159	0x3f0d703e	0.55249393
160	0xbec13360	-0.3773451
161	0xbe37980d	-0.17929097
162	0xbe290f41	-0.16509725
163	0x3dbaef88	0.09127718
164	0xbe8b15ea	-0.27165157
165	0x3e88e120	0.26734257
166	0xbe05719b	-0.13031618
167	0xbecd62e0	-0.40114498
168	0x3f050057	0.51953644
169	0x3e38fcb4	0.18065149
170	0xbe98ca96	-0.2984206
171	0xbef0dbc8	-0.4704268
172	0x3d5d0341	0.05395818
173	0xbd4a2b3d	-0.04935764
174	0xbddf71c7	-0.10910373
175	0x3ea0fa59	0.31441
176	0x3e27b401	0.1637726
177	0xbdea2573	-0.11432924
178	0xbd07b628	-0.033132702
179	0xbda2d763	-0.07951238
180	0xbf1463e6	-0.5796493
181	0x3e97229e	0.29518598
182	0x3ee22435	0.4416825
183	0x3f291e42	0.66061795
184	0xbf15b9db	-0.5848672
185	0x3e8f5c51	0.2800012
186	0x3ee5b4d0	0.4486451
187	0x3ef3e3f1	0.47634843
188	0x3eb5fb03	0.3554307
189	0x3d87fa9e	0.06639598
190	0xbc127851	-0.0089398185
191	0xbf050dfc	-0.51974463
192	0x3d8f9d50	0.07012427
193	0x3e90e088	0.28296304
194	0xbe6f4b51	-0.23368575
195	0x3d95f44f	0.07321989
196	0x3f0968fd	0.53675824
197	0xbeaff11e	-0.34363645
198	0xbf267026	-0.65014875
199	0x3efe5475	0.4967381
200	0x3ea35c04	0.3190614
201	0xbeef8c65	-0.467868
202	0x3e49d5c2	0.19710448
203	0xbe258452	-0.16163757
204	0xbdcd068d	-0.10011015
205	0xbd10894c	-0.035287187
206	0x3e4ee176	0.20203194
207	0xbe883755	-0.26604715
208	0x3d8fc95d	0.07020829
209	0xbda20b50	-0.07912314
210	0xbc86ffa6	-0.016479325
211	0xbea93e25	-0.33055225
212	0x3d1652cc	0.036700055
213	0xbe6fb6e4	-0.23409611
214	0x3da27b8a	0.079337195
215	0x3db5103a	0.088409856
216	0xbeb3d992	-0.3512693
217	0x3f08c643	0.53427523
218	0x3ef166d4	0.47148764
219	0x3e67bb96	0.22630152
220	0x3dc7f7ab	0.09764036
221	0xbea5e9f6	-0.3240506
222	0xbe2cf1e2	-0.16889146
223	0x3ed0a90b	0.4075397
224	0xbe204447	-0.15651046
225	0xbecead70	-0.40366697
226	0xbf16dc10	-0.5892954
227	0xbe4da3a8	-0.20081961
228	0x3d0a71d3	0.033799957
229	0xbde868f2	-0.11348142
230	0x3e92e288	0.28688455
231	0xbee0c04e	-0.43896717
232	0x3d51a698	0.051184267
233	0xbcbd7d88	-0.023131147
234	0xbed46f95	-0.4149138
235	0x3e1d49ba	0.15360156
236	0xbe9502d7	-0.2910373
237	0xbea644b6	-0.32474297
238	0xbed20e8b	-0.4102672
239	0x3ea779e4	0.32710183
240	0xbe9b62f2	-0.30348927
241	0x3e990c90	0.29892397
242	0xbeb8fd59	-0.3613079
243	0xbe905e6b	-0.28197035
244	0x3e79faea	0.24412122
245	0x3e59b9dd	0.21262307
246	0x3ee1fed5	0.44139734
247	0xbeb48cfc	-0.35263813
248	0xbf69a2e6	-0.9126419
249	0x3e879859	0.2648342
250	0x3da36ccd	0.079797365
251	0x3ea1d9b2	0.316114
252	0x3e9dfb26	0.30855674
253	0x3e1ce429	0.15321411
254	0x3da68eaf	0.081326835
255	0x3e633ef4	0.22191983

bias f4 [256]
0	0xbdbc1aed	-0.09184823
1	0xbd0455a6	-0.032308243
2	0x3e10e82c	0.14151067
3	0xbda1c4ab	-0.078988396
4	0xbdf49b87	-0.11943727
5	0x3da69286	0.08133416
6	0x3d90da71	0.070729144
7	0x3e08012f	0.13281702
8	0xbce27a01	-0.027646067
9	0xbd071d9f	-0.032987233
10	0xbe285026	-0.16436824
11	0xbe42c527	-0.1902052
12	0x3d879dc7	0.066218905
13	0x3dd18b96	0.10231702
14	0x3d623c6b	0.0552334
15	0xbd6f2843	-0.058388006
16	0xbdb30881	-0.08741856
17	0x3e3fa5ab	0.18715541
18	0x3c6a886c	0.014314752
19	0xbe4cd206	-0.20001993
20	0x3e6fa3b1	0.23402287
21	0xbdd9777b	-0.10618492
22	0xbd1e831f	-0.038699266
23	0x3dc3608d	0.095399
24	0xbe5517da	-0.2080988
25	0x3d96a485	0.07355598
26	0xbca70307	-0.020387186
27	0xbdee4ac6	-0.11635356
28	0x3dc72d7f	0.097254746
29	0x3df2a99e	0.11848758
30	0xbe625771	-0.22103669
31	0x3d9940c9	0.0748306
32	0x3ce0a3b5	0.027421812
33	0x3cd7749a	0.026300717
34	0xbd71e3f7	-0.059055295
35	0xbd61ac0b	-0.055095714
36	0xbdc09718	-0.09403819
37	0xbdff1b09	-0.124563284
38	0x3e7e3311	0.24824168
39	0x3d9d2e6d	0.07674871
40	0xbe27f4a7	-0.16401921
41	0xbe26d765	-0.16293104
42	0x3d95e62b	0.07319292
43	0x3e33683f	0.17520235
44	0xbd00bd53	-0.031430554
45	0x3e4003d7	0.18751465
46	0x3d84074c	0.06446704
47	0xbe123462	-0.14277795
48	0x3e2e6638	0.17031181
49	0x3d0e57f6	0.034751855
50	0x3e7a5182	0.24445155
51	0xbd60c464	-0.054874793
52	0x3e23aa59	0.15982951
53	0xbe09eac6	-0.13468465
54	0x3e75b798	0.23995817
55	0xbe48a671	-0.19594742
56	0xbe6b5b62	-0.22984079
57	0x3e6944ed	0.227802
58	0xbe1cdd72	-0.1531885
59	0xbe2aed33	-0.16692047
60	0x3da66fe5	0.08126811
61	0x3dab0f09	0.08352477
62	0x3e023779	0.12716474
63	0xbdc4eb22	-0.096151605
64	0x3dc26d7f	0.09493541
65	0x3db6d202	0.089267746
66	0x3dcb24e8	0.09919149
67	0xbcb4cc68	-0.022070125
68	0x3dc739b9	0.097278066
69	0x3d996366	0.07489662
70	0xbd2af1d6	-0.04173454
71	0x3db60cfe	0.08889197
72	0xbb945257	-0.0045264172
73	0xbe21482e	-0.1575019
74	0x3d9922f1	0.07477368
75	0x3e1cfab6	0.15330014
76	0x3cd28331	0.025697323
77	0xbe209a28	-0.15683806
78	0x3dc78f8a	0.09744175
79	0x3e449995	0.19199212
80	0xbe51ce6d	-0.20488901
81	0x3dc374b7	0.09543746
82	0xbda96d5f	-0.08272814
83	0xbdfe5f00	-0.124204636
84	0xbbfc5b18	-0.007701289
85	0xbd8b6d7d	-0.068079926
86	0x3daba882	0.0838175
87	0xbd49dac1	-0.049280886
88	0xbe06f510	-0.13179421
89	0xbe5964d9	-0.21229877
90	0x3e2e165b	0.17000715
91	0x3c522551	0.01282628
92	0x3e4d33ae	0.20039245
93	0xbdd1f0c2	-0.10250999
94	0xbd2d7216	-0.04234513
95	0xbdeb1caf	-0.1148008
96	0x3d7992c8	0.060930997
97	0xbda6b37e	-0.08139704
98	0x3ddea286	0.10870843
99	0x3ea3dac8	0.32002854
100	0xbe81d8cd	-0.25360718
101	0x3e25b639	0.16182794
102	0xbcd242b0	-0.025666565
103	0xbd85eb5b	-0.06539031
104	0x3db10ecb	0.086454
105	0x3e18444f	0.14869808
106	0x3e132fb4	0.14373666
107	0x3e036c49	0.12834276
108	0x3dc4138f	0.09574043
109	0xbc528c89	-0.012850889
110	0xbddbb295	-0.10727421
111	0x3e04cad5	0.12968
112	0x3d187c1a	0.037227727
113	0xbd42af46	-0.047530435
114	0x3e17f2e6	0.14838752
115	0x3c91baae	0.017789211
116	0xbd7aae2c	-0.06120126
117	0xbe7e79fd	-0.24851222
118	0x3e48ad23	0.19597296
119	0x3e0e73e2	0.13911393
120	0x3cb03326	0.021508764
121	0x3e1a1d9f	0.15050362
122	0xbdc290a8	-0.09500247
123	0x3de26ffb	0.11056515
124	0x3e175df1	0.1478193
125	0x3d4f2cfc	0.05058001
126	0xbe0537ea	-0.13009611
127	0xbd0fb29a	-0.035082437
128	0xbe305ebd	-0.1722364
129	0x3e22c4e9	0.15895428
130	0xbd8d433c	-0.068975896
131	0xbd642403	-0.055698406
132	0xbe24dfea	-0.16101041
133	0xbd5cf8a3	-0.053948056
134	0x3e1067c3	0.14102082
135	0x3e34b569	0.17647327
136	0xbe710a45	-0.23539074
137	0x3bc6d318	0.006067645
138	0x3de66a6c	0.11250767
139	0x3dbdf7b2	0.0927576
140	0x3b9abb73	0.0047220527
141	0x3e12609d	0.14294668
142	0x3e099de4	0.13439137
143	0xbe21cbfb	-0.15800469
144	0xbe1b8dd9	-0.1519083
145	0x3d3a49dc	0.045480594
146	0xbe67b813	-0.22628812
147	0x3e311417	0.1729282
148	0xbd50a148	-0.05093506
149	0xbe397124	-0.18109566
150	0xbe643355	-0.22285207
151	0x3d8d596e	0.06901823
152	0xbc1d33c7	-0.009594864
153	0x3e0f4370	0.13990569
154	0x3e6e1461	0.23249961
155	0xbc604129	-0.01368741
156	0xbdaab16f	-0.08334624
157	0x3e115eae	0.14196274
158	0xbe07d5f3	-0.13265209
159	0x3e54f9ce	0.20798418
160	0xbe46566a	-0.19368902
161	0xbe13cf8f	-0.14434646
162	0x3e1cb081	0.15301706
163	0x3dfcc781	0.1234274
164	0xbd9fec85	-0.078087844
165	0x3ddfabc5	0.10921434
166	0x3dcdcff0	0.100494266
167	0x3dfeeb82	0.12447263
168	0x3d881c99	0.066460796
169	0x3e3bc5bd	0.1833715
170	0xbe05812d	-0.13037558
171	0x3de22f79	0.11044211
172	0x3dffec73	0.12496271
173	0x3c0903de	0.008362738
174	0x3df21385	0.11820129
175	0xbde3dc1d	-0.11125968
176	0xbda5f990	-0.08104241
177	0x3df39cf2	0.11895169
178	0x3db4dd1c	0.08831236
179	0x3e0d632e	0.13807365
180	0xbddb67ce	-0.107131585
181	0x3df0363a	0.11729093
182	0x3de690b2	0.11258067
183	0x3e3a9e0f	0.18224357
184	0x3d425348	0.047442704
185	0x3d97d236	0.074131414
186	0xbe3e4ee4	-0.18584782
187	0x3d0d04d9	0.03442845
188	0xbe10db36	-0.14146122
189	0xbe40c310	-0.1882441
190	0xbe180fcd	-0.14849778
191	0xbd746a59	-0.059671734
192	0xbd95c45d	-0.07312844
193	0x3cced60b	0.025248548
194	0x3dfd64b5	0.12372724
195	0xbd76cb02	-0.060252197
196	0xbe4267c4	-0.18984896
197	0x3d847f1f	0.06469559
198	0x3dc133af	0.09433686
199	0xbd8ab7f4	-0.067733675
200	0x3d23cb19	0.03998861
201	0xbe2d7d6a	-0.16942373
202	0xbc026a34	-0.007959891
203	0xbd9693d8	-0.07352418
204	0x3cff79ef	0.031186072
205	0x3e29f1af	0.16596101
206	0x3d374292	0.04474122
207	0x3ddda7e9	0.10823042
208	0xbe26a55b	-0.16274016
209	0xbe0bf58a	-0.13667884
210	0xbc92b399	-0.017907904
211	0x3d292e5c	0.041303977
212	0x3a24de4c	0.00062892283
213	0xbe43e154	-0.19128925
214	0x3e11c61a	0.14235726
215	0xbbdeff47	-0.006805334
216	0xbe09c6eb	-0.13454787
217	0x3e0adc30	0.13560557
218	0x3d847e83	0.06469443
219	0x3e066599	0.13124694
220	0xbe167537	-0.14693151
221	0xbd2aef0f	-0.04173189
222	0x3e0a5236	0.13507923
223	0xbd913af6	-0.07091324
224	0x3e889698	0.26677394
225	0x3d81c71c	0.06336805
226	0xbd3b17f6	-0.045677148
227	0x3d5ae614	0.053442076
228	0xbd1bca94	-0.03803499
229	0xbdbc0dd5	-0.09182326
230	0x3cbaae8f	0.022788314
231	0x3d853c20	0.065056086
232	0xbdfa7b3c	-0.12230536
233	0x3e145b4f	0.14487956
234	0xbdedd6e2	-0.11613251
235	0x3dc76bc5	0.09737352
236	0xbe20244c	-0.15638846
237	0x3dd83946	0.10557799
238	0x3da643ba	0.081183866
239	0x3dec3238	0.11533016
240	0xbc23c02d	-0.009994549
241	0xbc899cb4	-0.016798355
242	0xbdab1aea	-0.08354743
243	0xbd9c46e2	-0.07630707
244	0x3b102fcd	0.0022001148
245	0xbcdc1751	-0.026866587
246	0xbd0d3384	-0.034472957
247	0xbd98b05e	-0.07455514
248	0xbe53ffc8	-0.20703042
249	0xbe2b0706	-0.16701898
250	0xbde31946	-0.11088805
251	0x3d77ffdb	0.060546737
252	0x3e02edae	0.1278598
253	0x3d8fb270	0.07016456
254	0x3d1b6b51	0.03794414
255	0xbe036854	-0.12832767

weight f4 [256, 256]
0	0x3deb7fb7	0.11498969
1	0xbe91a2a6	-0.28444403
2	0x3d084053	0.03326447
3	0xbd99941b	-0.07498952
4	0x3e895a30	0.2682662
5	0xbe0ad0a9	-0.1355616
6	0x3dad147f	0.08451175
7	0xbcddefad	-0.027091825
8	0x3d8f6543	0.07001736
9	0x3d3b8300	0.04577923
10	0xbe1960f1	-0.14978386
11	0xbd60f66e	-0.054922514
12	0xbd84c43a	-0.0648274
13	0xbdc41871	-0.09574974
14	0x3e94311e	0.28943723
15	0x3d951e11	0.07281125
16	0xbde62763	-0.11237981
17	0x3e0a9e2c	0.135369
18	0xbf08a0d8	-0.5337043
19	0xbd16b3e7	-0.036792662
20	0xbdfcedc1	-0.123500355
21	0xbdd13085	-0.102143325
22	0x3e6ed1a1	0.23322155
23	0x3e5c2ada	0.21500722
24	0x3c0b3bf7	0.008498183
25	0xbded7c67	-0.115959935
26	0x3d4896c9	0.048971925
27	0xbb06d3bf	-0.0020572988
28	0x3dbcc04e	0.09216367
29	0xbdc9ae3e	-0.09847687
30	0xbf0d4828	-0.55188227
31	0x3e849f0b	0.2590259
32	0xbe6e4319	-0.23267783
33	0x3f46b2df	0.77616686
34	0x3cab3f8f	0.02090433
35	0xbeadc5be	-0.33939928
36	0xbec67a0f	-0.38764998
37	0xbd0bcc44	-0.03413035
38	0x3d5df21a	0.054185964
39	0x3ea41287	0.32045385
40	0xbdab5089	-0.0836497
41	0x3e283905	0.16428001
42	0x3ebc816b	0.36817488
43	0x3dbe5e11	0.092952855
44	0x3e7e20a6	0.24817142
45	0x3d61f49a	0.05516491
46	0x3e48593e	0.19565293
47	0x3da498f4	0.08036986
48	0x3e02b6c5	0.12765034
49	0x3e030208	0.12793744
50	0x3e74bb31	0.23899533
51	0xbe7b487f	-0.24539374
52	0x3c5c7ccf	0.013457491
53	0xbc971464	-0.01844234
54	0x3eccdce8	0.40012288
55	0xbcfad80f	-0.030620603
56	0xbe1b8944	-0.15189081
57	0x3d570eb4	0.052504256
58	0xbdc64d9e	-0.09682773
59	0xbf22741b	-0.6345841
60	0xbdc51163	-0.09622457
61	0xbe9e554d	-0.30924454
62	0xbe6d0f3d	-0.23150344
63	0xbe2d169c	-0.16903156
64	0x3c0cbf5f	0.008590548
65	0x3e9a4471	0.30130342
66	0xbe8141ec	-0.25245607
67	0x3dfcff92	0.12353434
68	0x3e59b397	0.21259914
69	0xbf031118	-0.5119796
70	0x3de123bf	0.10993146
71	0xbd9751c4	-0.073886424
72	0x3d6653c8	0.056232244
73	0xbd8bd63a	-0.0682797
74	0xbd4f46f3	-0.05060477
75	0x3e8448ad	0.25836697
76	0x3dfed24a	0.12442453
77	0xbd667f4b	-0.05627374
78	0x3e643fd9	0.22289981
79	0xbda37600	-0.07981491
80	0xbe1fe5d1	-0.15615012
81	0x3ea044df	0.31302544
82	0xbec74703	-0.38921365
83	0xbe2f2804	-0.17105108
84	0x3ec63676	0.38713425
85	0x3e222db5	0.15837748
86	0xbe83bbd7	-0.25729248
87	0xbe14c66c	-0.14528817
88	0xbe45f43c	-0.1933145
89	0x3da86d86	0.08224015
90	0x3e1dc25f	0.15406178
91	0x3d8db76f	0.06919753
92	0x3f0a0a5c	0.5392206
93	0x3cf38510	0.029726535
94	0xbe9c8ffd	-0.30578604
95	0x3ee80989	0.45319775
96	0x3d3fcd74	0.046826795
97	0x3dca1303	0.098669074
98	0x3df93f3a	0.12170263
99	0x3e03e30d	0.12879582
100	0x3e3b4c19	0.18290748
101	0x3d49a6ba	0.04923127
102	0xbeaa631b	-0.33278736
103	0xbd0553bd	-0.032550562
104	0xbd5a208a	-0.053253688
105	0x3d4e0793	0.050300192
106	0x3e3ffb2c	0.18748158
107	0x3e44e4b9	0.19227876
108	0x3e88a6bd	0.2668971
109	0x3e646681	0.22304727
110	0x3ea64b8f	0.32479522
111	0xbdf436aa	-0.11924489
112	0xbd8a44ca	-0.06751402
113	0xbec19eab	-0.37816367
114	0xbe431b64	-0.19053417
115	0x3e746221	0.23865558
116	0xbd425dd3	-0.04745276
117	0xbe2d8c55	-0.16948064
118	0x3f2a0d89	0.66426903
119	0x3e1c3e0e	0.15258047
120	0xbd27993c	-0.04091762
121	0xbd82abcb	-0.06380423
122	0xbe345dc5	-0.17613895
123	0x3e9366aa	0.28789264
124	0x3d8f5c74	0.07000056
125	0xbde5badc	-0.11217281
126	0x3d0e1301	0.034686092
127	0x3b7f6422	0.0038969596
128	0x3e3ac659	0.18239726
129	0x3f19f96b	0.60146207
130	0x3e210300	0.157238
131	0x3e30ec8c	0.17277735
132	0x3d9e8b3c	0.077414006
133	0x3c410240	0.011780322
134	0xbe5a9329	-0.213452
135	0x3db9dd63	0.09075429
136	0x3e383314	0.17988235
137	0xbe45cd26	-0.19316539
138	0x3e79c832	0.24392775
139	0x3e0d8eb8	0.13823974
140	0x3e3d29a7	0.1847292
141	0x3dd121ee	0.1021155
142	0x3decaf59	0.115568824
143	0xbe095bed	-0.13413973
144	0x3d396541	0.04526258
145	0x3d22ced5	0.03974803
146	0x3d5792c7	0.052630212
147	0xbdf142a5	-0.117802896
148	0x3e0728df	0.13199185
149	0xbdbbf5e9	-0.09177763
150	0xbd7168e5	-0.058937926
151	0xbeecdef2	-0.46263844
152	0xbdf4c729	-0.11952049
153	0xbef02d6a	-0.46909648
154	0x3d0ba1df	0.03408992
155	0x3ddbd70e	0.10734378
156	0xbe8e3977	-0.27778217
157	0x3d98c909	0.074602194
158	0x3dd8d1a0	0.10586858
159	0x3e322d8b	0.17400186
160	0x3ccd1049	0.02503218
161	0x3c751044	0.014957491
162	0x3e82b616	0.25529546
163	0x3d87032e	0.06592403
164	0x3f115169	0.5676485
165	0x3d0354b9	0.03206322
166	0xbe9a2f11	-0.30114034
167	0x3b8b41b0	0.004249774
168	0xbd8b32df	-0.06796812
169	0x3e8088cf	0.25104377
170	0x3f1b9e78	0.6078868
171	0x3ef4a880	0.47784805
172	0x3d295d47	0.04134872
173	0xbea6c235	-0.32570043
174	0x3e2c46e0	0.16823912
175	0x3e42f7f8	0.19039905
176	0x3f04647c	0.51715827
177	0x3d9902f1	0.07471264
178	0xbeaf9e4f	-0.34300467
179	0x3e8c8b9b	0.2745026
180	0x3e6a0950	0.22855115
181	0x3e547cb9	0.20750703
182	0xbd9d55c0	-0.07682371
183	0xbe5321df	-0.2061839
184	0x3f149e78	0.58054304
185	0xbd874f25	-0.066068925
186	0xbe2d275b	-0.16909544
187	0xbcb815fa	-0.022471417
188	0x3b84edf4	0.0040566865
189	0xbe35c0f0	-0.17749381
190	0xbc7f9f9d	-0.01560202
191	0xbec2c193	-0.3803831
192	0x3f1b2c10	0.6061411
193	0xbe8e9f8a	-0.27856094
194	0x3e1c0be5	0.15238912
195	0x3dac3963	0.08409383
196	0xbdc0cd83	-0.09414198
197	0xbea778a4	-0.3270923
198	0xbe5ce59b	-0.21571963
199	0x3d18e8e8	0.03733149
200	0x3eaf20a3	0.34204587
201	0x3e295511	0.16536357
202	0xbe444803	-0.19168095
203	0xbe20536e	-0.15656826
204	0x3e55e138	0.20886695
205	0xbd446db4	-0.047956184
206	0x3e8daa4d	0.27668992
207	0x3d84ba08	0.06480795
208	0x3e5656c2	0.20931533
209	0xbd869874	-0.06572047
210	0xbdb92c62	-0.090416685
211	0x3d132263	0.035921466
212	0x3e62f85e	0.22165057
213	0xbd8bce0c	-0.0682641
214	0x3dddd4c5	0.10831598
215	0x3dee2f30	0.11630094
216	0x3d0941ab	0.03350989
217	0xbc87bc8e	-0.016569402
218	0x3e6eb393	0.2331069
219	0x3d814901	0.063127525
220	0x3ddcb162	0.107760206
221	0xbea39555	-0.3194987
222	0xbdae52e6	-0.08511905
223	0xbda7f984	-0.08201888
224	0x3d1021fa	0.035188653
225	0xbda7e749	-0.08198411
226	0xbeacb5d9	-0.3373249
227	0x3e51a8a9	0.20474495
228	0x3ece6e87	0.403187
229	0xbe7bf6c1	-0.24605848
230	0x3dbe533d	0.0929322
231	0x3d42ba13	0.047540735
232	0xbdd84401	-0.10559846
233	0xbdad10ff	-0.084505074
234	0xbe09574f	-0.13412212
235	0xbe50b16c	-0.20380181
236	0xbc5367fc	-0.01290321
237	0x3de279d8	0.11058396
238	0xbe922d4b	-0.2855018
239	0x3e82ac65	0.25522152
240	0xbe2e095b	-0.16995756
241	0x3e7e57f2	0.24838236
242	0x3ec23c23	0.37936506
243	0xbf4c3a1b	-0.7977616
244	0x3e2238a0	0.15841913
245	0xbe0d84b0	-0.13820148
246	0xbf0ea546	-0.5572094
247	0xbce78edb	-0.028266361
248	0xbcf48d9f	-0.029852686
249	0xbf229149	-0.6350294
250	0x3d453bda	0.048152782
251	0x3e1257cd	0.14291306
252	0xbe8b7408	-0.27236962
253	0xbc61769d	-0.01376119
254	0x3dfab718	0.122419536
255	0xbd48c62f	-0.049017128

bias f4 [256]
0	0x3dc458e5	0.09587268
1	0x3df5acb6	0.119958326
2	0x3d7fc01b	0.062439065
3	0x3d52846c	0.05139582
4	0x3d360531	0.044438545
5	0x3cbf5bd9	0.023359226
6	0xbd1632ad	-0.036669422
7	0x3d944b5e	0.07240938
8	0xbcc60994	-0.02417449
9	0x3de24ceb	0.11049827
10	0x3d74cee3	0.059767615
11	0x3df52074	0.119690806
12	0x3de6a38a	0.11261661
13	0x3d7e2664	0.06204833
14	0xbd938fa7	-0.07205134
15	0x3daf84c6	0.085702464
16	0x3dcef374	0.10105029
17	0x3d05a2a8	0.032625824
18	0x3d7fb2c3	0.06242634
19	0x3dc208e3	0.09474351
20	0x3d897c93	0.06713214
21	0x3d89e3c8	0.06732899
22	0x3dabc8e5	0.08387927
23	0x3d5f307f	0.05448961
24	0x3d866470	0.06562126
25	0x3d40390c	0.046929404
26	0x38fb8046	0.000119925055
27	0x3e1646b4	0.14675409
28	0xbce9426a	-0.028474052
29	0x3d85f12c	0.065401405
30	0x3da0215e	0.07818864
31	0xbd0c71e4	-0.034288302
32	0x3c82c32f	0.015962211
33	0xbc4adf6e	-0.012382371
34	0x3d57a642	0.05264879
35	0xbc17602a	-0.009239236
36	0xbcfd3374	-0.030908324
37	0xbc88be71	-0.016692372
38	0xbc1379fb	-0.00900125
39	0x3d193345	0.03740241
40	0xbd75cc41	-0.060009245
41	0x3cc6567b	0.024211159
42	0x3d9711c6	0.07376437
43	0x3dc6838d	0.0969306
44	0x3d1ef70d	0.038809825
45	0x3d282c76	0.041058026
46	0xbc4d8be5	-0.0125455605
47	0x3df37df1	0.11889256
48	0x3c599bee	0.013281805
49	0xbc90092b	-0.017582497
50	0x3d12e208	0.03586009
51	0x3cb27b31	0.021787258
52	0x3d3cbea9	0.046080265
53	0xbcb890e0	-0.02253002
54	0xbdd9171c	-0.10600111
55	0x3d510457	0.05102953
56	0xbce1b70d	-0.027553106
57	0xbd6b374d	-0.057425786
58	0x3b2cb4a5	0.002635279
59	0xbd16a18d	-0.03677516
60	0x3df9dad8	0.12199944
61	0x3d665bce	0.056239896
62	0xbdb4cc6b	-0.08828052
63	0x3d35bcc6	0.04436948
64	0x3d10e72a	0.035376705
65	0xbcba889f	-0.022770224
66	0x3e035139	0.12823953
67	0x3d5ee65a	0.0544189
68	0xbd1983e2	-0.03747929
69	0xbdce0933	-0.10060348
70	0x3d055508	0.032551795
71	0xbbb4dfc9	-0.0055198413
72	0xbbdd6960	-0.0067569464
73	0x3d803057	0.0625922
74	0x3bffeee4	0.0078104604
75	0xbd2db6ea	-0.04241077
76	0xbd155afd	-0.036463726
77	0x3b3a88d7	0.002846291
78	0x3da6574b	0.081221186
79	0xbb39de60	-0.0028361306
80	0x3aede780	0.0018150657
81	0x3e49b5af	0.19698213
82	0xbc9bf7d1	-0.019039067
83	0xbde19537	-0.110147886
84	0xbd508afa	-0.05091379
85	0xbd3827d1	-0.044959847
86	0xbdd94048	-0.10607964
87	0xbc3f71d2	-0.011684852
88	0x3d90b3c1	0.07065535
89	0xbde1272f	-0.10993802
90	0xbc06b83c	-0.008222636
91	0xbc5e42c4	-0.013565723
92	0x3e177f70	0.14794707
93	0x3df24eb9	0.118314214
94	0xbc9ea6c6	-0.019366633
95	0xbdfeb315	-0.12436501
96	0x3b15665a	0.0022796602
97	0xbd4d4950	-0.050118744
98	0x3dd9ae92	0.10629
99	0x3d662191	0.056184355
100	0x3e1fccf7	0.15605532
101	0xbd75ff0f	-0.060057696
102	0x3d7f484c	0.062324807
103	0x3e095d19	0.1341442
104	0x3dd17d6e	0.10229002
105	0x3d3d1aee	0.04616826
106	0xbce241b6	-0.027619224
107	0x3e041ab4	0.12900811
108	0xbca1de2a	-0.019759256
109	0xbc5e3bfd	-0.013564107
110	0x3c288d38	0.010287575
111	0xbc097f3b	-0.0083921505
112	0x3c7b71d0	0.015346959
113	0x3d124a7c	0.035715565
114	0x3d83a858	0.064285934
115	0xbd38f56c	-0.045155928
116	0xbd09dd7a	-0.033658482
117	0xbcdc2da6	-0.026877236
118	0x3d31db87	0.04342225
119	0xbc035757	-0.008016429
120	0xbb85c619	-0.004082453
121	0x3d31ece5	0.04343881
122	0x3ca1aedb	0.019736698
123	0x3d85830b	0.06519135
124	0x3c95b33b	0.01827394
125	0xbd844f41	-0.06460429
126	0x3d8a217e	0.067446694
127	0xbd0fb794	-0.035087183
128	0x3dad842d	0.08472476
129	0x3d047774	0.032340482
130	0x3d6c31ed	0.0576648
131	0xbc08a41c	-0.008339908
132	0x3bf884ee	0.007584206
133	0xbc4eae45	-0.012614791
134	0xbb67b92f	-0.003535818
135	0xbd1079af	-0.035272297
136	0x3d6a1b64	0.057155028
137	0xbc44ea30	-0.012018725
138	0x3d4d6408	0.050144225
139	0xbd66c13e	-0.056336634
140	0xbc0a4eb0	-0.008441612
141	0x3cea47dd	0.02859872
142	0xbdee5a01	-0.11638261
143	0x3d39b578	0.045339078
144	0x3dbfe630	0.09370077
145	0x3d85f950	0.06541693
146	0xbdc167dc	-0.09443638
147	0x3bbf97a9	0.0058469367
148	0x3e1e753e	0.15474412
149	0xbcd6331f	-0.026147423
150	0x3d98aefa	0.07455249
151	0x3d8b2e44	0.06795934
152	0x3db64e45	0.089016475
153	0x3cc129cf	0.023579506
154	0x3c373605	0.011182313
155	0xbde2ab8d	-0.11067877
156	0x3c34cfb9	0.011035853
157	0x3dc65881	0.096848495
158	0x3d47aca4	0.048748627
159	0xb90176fb	-0.00012346722
160	0x3cbdc261	0.023163976
161	0x3e1f272d	0.15542288
162	0x3a9a3a5e	0.0011766662
163	0x3d765fa2	0.060149796
164	0xbde59cf7	-0.11211579
165	0x3d563ac8	0.052302152
166	0x3dda4551	0.10657752
167	0x3ba23bd0	0.004950978
168	0xbd4c6bb5	-0.049907405
169	0x3d8375c7	0.064189486
170	0x3df0cc8f	0.117577665
171	0xbc39e674	-0.011346448
172	0x3e00f956	0.12595114
173	0x3caae030	0.020858854
174	0x3d0ba10f	0.034089144
175	0x3e184b8d	0.1487257
176	0x3c858432	0.016298387
177	0xbc7f5384	-0.0155838765
178	0x3d486cc7	0.048931863
179	0xbc10803f	-0.008819639
180	0xbd8e7de1	-0.06957603
181	0x3d5a18a8	0.05324617
182	0xbc87aeeb	-0.0165629
183	0x3da1b430	0.07895696
184	0x3a80de63	0.0009831901
185	0x3c8408dc	0.016117506
186	0x3e070fdb	0.13189642
187	0x3d66e411	0.056369845
188	0x3bf81e30	0.007571958
189	0xbd9cc867	-0.07655411
190	0x3cd60c51	0.02612892
191	0x3d8f85e5	0.0700796
192	0x3d1fb931	0.03899497
193	0x3e112991	0.14176013
194	0xbd895750	-0.06706107
195	0xbd8325c9	-0.06403691
196	0x3c5eb7c4	0.013593618
197	0x3db9d6ff	0.090742104
198	0x3c639df8	0.013892643
199	0xbc8ae846	-0.01695646
200	0x3c607c14	0.0137014575
201	0xbc93f7d4	-0.01806251
202	0x3c89d4ff	0.016825197
203	0xbcd20671	-0.025637837
204	0x3c2d99d4	0.0105957575
205	0x3d8748a3	0.06605651
206	0xbe066a89	-0.13126577
207	0x3d197836	0.037468158
208	0x3cff3955	0.031155268
209	0x3d9c757e	0.07639597
210	0xbbaa44ab	-0.005196174
211	0x3df67583	0.12034132
212	0x3cfd9f96	0.030959886
213	0x3d28a3b3	0.04117174
214	0x3d5f2df6	0.05448719
215	0x3d1b23ea	0.037876047
216	0xbc31ccb1	-0.010852025
217	0x3c9ccfe0	0.019142091
218	0xbbc7da77	-0.006099041
219	0x3dcbc2c3	0.09949257
220	0xbb57767f	-0.0032877026
221	0xbd5b243c	-0.053501353
222	0x3c87299b	0.016499331
223	0xbc274514	-0.010209341
224	0xbd15e012	-0.036590643
225	0x3dc77375	0.097388186
226	0x3d11060d	0.03540616
227	0x3d5479fa	0.05187414
228	0x3d3af580	0.045644283
229	0x3cdfbb0c	0.02731087
230	0xbd02a834	-0.031898692
231	0x3d81d594	0.06339565
232	0xbd1eec4b	-0.038799565
233	0x3d27e535	0.040990073
234	0x3de1d377	0.11026662
235	0x3d1cc5fd	0.038274754
236	0x3c212dc4	0.0098375715
237	0x3baec987	0.0053340825
238	0xbb86684d	-0.004101789
239	0x3bd84af0	0.00660073
240	0xbd2b3546	-0.041798852
241	0xbacac61d	-0.0015470419
242	0xbd2cc547	-0.042180326
243	0xbd554c7c	-0.052074894
244	0xbbd736bd	-0.0065678046
245	0x3d829696	0.06376378
246	0xbd2b06c6	-0.041754507
247	0xbbcf0148	-0.0063172914
248	0x3e184e83	0.148737
249	0x3dc2164f	0.09476911
250	0x3ca2597c	0.01981806
251	0xbd3a5db1	-0.045499507
252	0xbdfdb4cb	-0.12387999
253	0xbc96ca1d	-0.018406922
254	0x3cba7a8e	0.022763517
255	0xbcd9998d	-0.026562477

weight f4 [64, 256]
0	0x3da3812b	0.07983621
1	0x3e0cf0ba	0.13763705
2	0xbdbf901b	-0.09353658
3	0xbded12f7	-0.11575883
4	0xbdded500	-0.1088047
5	0xbe446bc8	-0.1918174
6	0x3cdfbaf2	0.027310822
7	0x3dcc6d1a	0.09981747
8	0xbd9fe742	-0.07807781
9	0xbe671282	-0.22565654
10	0x3e3d700f	0.18499778
11	0xc02af269	-2.6710455
12	0xbe2c20f2	-0.16809443
13	0xbe14143d	-0.14460845
14	0x3c7d98ae	0.015478296
15	0x3d894414	0.06702438
16	0xbd308f13	-0.043105196
17	0xbd42ce3c	-0.04755996
18	0xbe1b38ef	-0.15158437
19	0x3d2ffb79	0.042964432
20	0x3d3fe96b	0.046853464
21	0x3e261558	0.1621908
22	0xbd119b1e	-0.035548322
23	0xbb85f4aa	-0.004088004
24	0xbe94a872	-0.29034764
25	0xba630a23	-0.0008660873
26	0x3c81d525	0.015848706
27	0x3d8bc5d0	0.06824839
28	0x3ddb8d0a	0.107202604
29	0xbda8d23b	-0.08243223
30	0xbe39aa1f	-0.18131302
31	0xbe426fe7	-0.18988
32	0xbe2df898	-0.16989362
33	0xbd351147	-0.04420593
34	0xbedb6781	-0.42852405
35	0x3ed3b70c	0.4135059
36	0x3dc338bc	0.095323056
37	0x3dfc17ed	0.12309251
38	0x3d85c086	0.065308616
39	0xbdf00fc4	-0.11721757
40	0xbd8ea3d6	-0.06964843
41	0x3d76a7fb	0.060218792
42	0x3d7959c4	0.060876623
43	0xbd4e2c29	-0.050335083
44	0xbd95a56e	-0.07306944
45	0x3ebaa716	0.364556
46	0x3e0cb352	0.1374028
47	0xbda6d8ec	-0.08146843
48	0x3cd9b9f3	0.026577925
49	0x3d8bee53	0.06832566
50	0x3e2a8304	0.16651541
51	0x3eaa464b	0.33256754
52	0x3dfa4514	0.12220207
53	0xbde72ca4	-0.112878114
54	0x3da28229	0.07934982
55	0xbe262ca3	-0.16227965
56	0x3da64ba6	0.081198975
57	0x3dd74876	0.10511868
58	0x3dd13279	0.10214705
59	0xbd5d51b0	-0.05403298
60	0x3c69f07e	0.014278529
61	0xbdbe3163	-0.092867635
62	0xbe4c99ef	-0.19980596
63	0xbc31a4f1	-0.010842548
64	0xbe123df3	-0.14281444
65	0xbcbbcbe9	-0.02292438
66	0xbbecd1b0	-0.007227145
67	0x3e7a89f6	0.2446669
68	0xbe4c9404	-0.19978338
69	0x3e6a4ddb	0.22881262
70	0x3da830aa	0.08212407
71	0xbd962d01	-0.073328026
72	0x3d98a097	0.07452505
73	0x3d8f4282	0.06995107
74	0x3e159eae	0.14611313
75	0x3e6e1d5f	0.23253392
76	0xbd847ae3	-0.06468751
77	0x3c5c17d1	0.013433413
78	0xbb11f769	-0.0022272712
79	0x3ce3db33	0.027814483
80	0xbd19b7ed	-0.03752892
81	0x3dd45f2f	0.10369717
82	0xbf0c4d3d	-0.54805356
83	0x3e7359fa	0.23764792
84	0xc10fe149	-8.992501
85	0x3dd05c9a	0.10173912
86	0xbd19d114	-0.037552908
87	0x3dbae3ae	0.09125458
88	0x3e2db664	0.16964108
89	0x3e324c24	0.17411858
90	0xbe4078f7	-0.18796144
91	0x3e0bbc13	0.13645963
92	0xbddcb53a	-0.10776754
93	0x3e3459c5	0.1761237
94	0x3df54318	0.11975688
95	0x3e829c61	0.25509933
96	0x3da0bd26	0.07848577
97	0xbe1ba9e7	-0.15201531
98	0xbc6d0f98	-0.01446905
99	0xbd27c275	-0.040956933
100	0xbe2fe3d4	-0.17176753
101	0x3e2f1db8	0.1710118
102	0x3d96a93d	0.073564984
103	0x3e210baf	0.15727113
104	0x3ca4d255	0.020119825
105	0x3bae1585	0.005312624
106	0x3e08a4bb	0.1334409
107	0xbdf5c1fe	-0.11999892
108	0xc012a4e8	-2.291315
109	0x3dc815b6	0.09769766
110	0xbe1e9002	-0.15484622
111	0x3e252bab	0.1612994
112	0x3d98a36b	0.074530445
113	0x3cbf89db	0.023381164
114	0x3e1b278c	0.15151805
115	0xbdaf47d2	-0.085586205
116	0x3e123e8d	0.14281674
117	0x3d0fa475	0.035068948
118	0xbd902dd2	-0.070399895
119	0x3ccdf089	0.02513911
120	0x3d2ce091	0.04220635
121	0x3ec45701	0.3834763
122	0xbe8b2144	-0.27173817
123	0x3e2778af	0.16354631
124	0x3e85817f	0.2607536
125	0x3dbdf8b5	0.09275953
126	0xbe4c9e98	-0.19982374
127	0xbddd05ba	-0.10792108
128	0xbdd51c51	-0.104057916
129	0xbe39c749	-0.18142428
130	0xbe85a4b1	-0.26102212
131	0x3e39e43d	0.18153472
132	0x3deea8c3	0.116532825
133	0x3d8bc07b	0.06823822
134	0x3e3ade5e	0.18248889
135	0xbd80eacd	-0.06294785
136	0x3b2bb9b0	0.0026203208
137	0xbdfd7440	-0.123756886
138	0xbe1b75c6	-0.15181646
139	0xbdf7fb25	-0.12108449
140	0xbecf3d94	-0.40476668
141	0x3e8f4da9	0.27988937
142	0x3dcd4e0f	0.10024654
143	0x3d040871	0.032234613
144	0xc11018c8	-9.00605
145	0x3e026592	0.12734058
146	0x3ddf3efd	0.10900686
147	0x3e00e319	0.12586631
148	0x3cde279f	0.027118502
149	0xbe37aefa	-0.17937842
150	0x3d2973e2	0.04137028
151	0x3db1448c	0.086556524
152	0x3e9bbabd	0.30415908
153	0x3cbca970	0.023030013
154	0xbe84a030	-0.25903463
155	0x3d23c549	0.039983068
156	0xbd291332	-0.04127807
157	0x3ea194ed	0.31558934
158	0x3e901f72	0.2814899
159	0x3db9a495	0.09064595
160	0x3e380d0e	0.1797373
161	0xc119759d	-9.591214
162	0xbb954512	-0.004555353
163	0x3d659178	0.056046933
164	0xbdf5f922	-0.12010409
165	0xbdb98681	-0.09058858
166	0x3e6212c1	0.22077467
167	0x3d5684ad	0.052372623
168	0x3e48a785	0.19595154
169	0x3e04591c	0.12924618
170	0x3e659837	0.22421347
171	0xba50843a	-0.00079542736
172	0xbd6660b9	-0.056244586
173	0xbcac525a	-0.021035362
174	0xbe55e03d	-0.20886321
175	0xbe2ee201	-0.17078401
176	0xbd9f159d	-0.07767794
177	0x3d814fc5	0.06314043
178	0xbe2eb12f	-0.17059778
179	0x3cb04f21	0.021522107
180	0x3d844af4	0.06459609
181	0xbe54c3ec	-0.20777863
182	0xbe2344a7	-0.15944158
183	0x3dfeb295	0.124364056
184	0xbe6e72c4	-0.23285967
185	0xbd9b04a6	-0.07569246
186	0xbcc53c58	-0.024076626
187	0xc1196ffc	-9.58984
188	0xbe702715	-0.23452409
189	0x3e430eb3	0.19048576
190	0x3e4f5ef2	0.20251063
191	0x3dc2684f	0.094925515
192	0xbebb78f6	-0.36615723
193	0xbe0697ef	-0.13143896
194	0x3ea075b2	0.31339794
195	0xbbca5703	-0.0061749234
196	0xbd19b587	-0.037526634
197	0x3d7f18d8	0.062279552
198	0x3da8e90f	0.082475774
199	0x3effc52c	0.49955118
200	0xbe529801	-0.20565797
201	0x3ec73690	0.38908815
202	0x3cdaecd3	0.026724255
203	0xbe0f029a	-0.13965836
204	0x3c9a47af	0.01883301
205	0x3eaee109	0.34156063
206	0xbdbd844a	-0.09253748
207	0xbdcd2261	-0.10016323
208	0x3ce4befa	0.027923096
209	0x3e25e08b	0.16198938
210	0xbc08aee2	-0.008342477
211	0x3ca029a2	0.019551102
212	0x3daacd5e	0.08339952
213	0x3e397532	0.18111113
214	0x3e194a5a	0.14969769
215	0xbd660234	-0.056154445
216	0xbe62065c	-0.22072738
217	0xbced5bc8	-0.028974429
218	0xbd2ffc69	-0.042965326
219	0xbd5c43eb	-0.05377571
220	0x3dd443ff	0.10364532
221	0x3e88bcce	0.26706547
222	0x3e1ed36b	0.15510337
223	0xbe92b562	-0.2865401
224	0x3d564098	0.052307695
225	0x3cbef6cf	0.023311047
226	0x3d62aadd	0.05533873
227	0x3e23f7b4	0.1601246
228	0xbd8a533d	-0.06754158
229	0x3d40b48f	0.047047194
230	0x3c306641	0.010766567
231	0x3d694931	0.056954566
232	0x3e0070d1	0.12543036
233	0x3d91be76	0.07116406
234	0xbc799641	-0.015233577
235	0x3ed1b8fd	0.40961447
236	0x3ce19620	0.027537405
237	0x3d7c5cf8	0.0616121
238	0x3d723177	0.059129205
239	0xbd4a4b15	-0.04938801
240	0x3c91d991	0.017803939
241	0x3e06c72e	0.13161919
242	0xbe86a30c	-0.2629627
243	0xbe510ffd	-0.20416255
244	0x3de7e705	0.1132336
245	0xbe94308c	-0.28943288
246	0x3d29586a	0.041344084
247	0xbd0daa5d	-0.0345863
248	0xbe545ed5	-0.207393
249	0xbe981a9b	-0.29707798
250	0x3b9f528f	0.0048621367
251	0x3dac416e	0.08410917
252	0xbd9559ac	-0.07292494
253	0xbe1edd77	-0.1551417
254	0x3e2a2c98	0.16618574
255	0xbdffb7b1	-0.12486208

bias f4 [64]
0	0x3d161fc1	0.036651377
1	0xbdb5fd28	-0.08886176
2	0xbe35ba06	-0.17746744
3	0xbe958b04	-0.29207623
4	0xbdd41a37	-0.103565626
5	0xbd000ac6	-0.031260274
6	0x3e426846	0.1898509
7	0xbe3990bf	-0.18121623
8	0x3e25fa4f	0.16208766
9	0xbe1bb8c6	-0.15207204
10	0x3d8499ef	0.06474673
11	0xbc3e2992	-0.011606591
12	0x3dc033e3	0.093848966
13	0x3de8d366	0.11368446
14	0xbbb169db	-0.0054142303
15	0x3ddc0ee4	0.10745028
16	0xbd067241	-0.032823805
17	0xbe857e11	-0.26072744
18	0x3e2f031e	0.17091033
19	0xbd4f9b34	-0.050685123
20	0xbe1997cd	-0.14999314
21	0x3e4b3906	0.19845971
22	0xbea0292c	-0.31281412
23	0x3d9c1a5e	0.07622217
24	0x3df543c0	0.11975813
25	0x3cdec767	0.027194692
26	0xbdf7b739	-0.12095494
27	0x3cacec2c	0.02110871
28	0xbd8e2fee	-0.069427356
29	0xbd1c39b6	-0.038140975
30	0x3dc27e85	0.09496788
31	0xbde214a0	-0.1103909
32	0xbe588c3b	-0.21147244
33	0x3bf0a60b	0.0073440126
34	0xbc1b556b	-0.009480814
35	0xbd595cb0	-0.05306691
36	0xbc90cfe8	-0.017677262
37	0xbd0de9cf	-0.034646805
38	0xbe424352	-0.18970993
39	0xbeac6597	-0.33671257
40	0x3e5dc72b	0.21658008
41	0x3e06fda0	0.13182688
42	0xbd8d63c9	-0.06903798
43	0x3dafea16	0.0858957
44	0x3b59bf89	0.0033225736
45	0xbe335beb	-0.17515533
46	0x3f0c097c	0.5470197
47	0xbe17e22b	-0.1483237
48	0xbd25ceaa	-0.040480293
49	0x3eaa3ca6	0.33249396
50	0x3c287128	0.010280885
51	0xbded36ee	-0.11582743
52	0x3e489676	0.19588646
53	0x3e283ba9	0.16429009
54	0xbe037490	-0.12837434
55	0x3e132319	0.14368857
56	0xbe95ed84	-0.29282773
57	0xbdb5d4e1	-0.08878494
58	0xbd18e5da	-0.03732858
59	0x3e5337d0	0.2062676
60	0x3e142164	0.14465863
61	0xbe77dd4d	-0.24205513
62	0xbdd0c132	-0.10193099
63	0x3e0ee712	0.13955334
