pth/takada_model_65.pth (torch, 300440 bytes, 6 tensors)

weight f4 [256, 128]
00000000: 9857 56bd f27f 13bb 3bbc d53c 9799 6fbd
00000010: 2f7c f2bd a20a ef3c 6b15 8f3b f00b 113d
00000020: 9fff eebd 9b8e 7bbd c941 ccbe af60 22be
00000030: 7b59 99bd d992 75bd d037 34bd fed2 c8bd
00000040: b747 f6bd dfd8 cabe d06c 99be 24a2 f2be
00000050: c75b 6ebe 13e4 5cbe 5e63 78be d985 1ebe
00000060: 346e 58bd a9dc 6abe 92c0 98be b868 c4be
00000070: a754 983e 99e0 b0be f841 10be dae6 5ebd
00000080: 76f5 4abc 6971 9fbd 809d c5be 7b53 3d3e
00000090: 6b1a e2bd cbb1 6fbe ab03 02bd fb44 993c
000000a0: 9815 08be 3b16 ddbd dbf7 e5be 4706 bebe
000000b0: 7245 2bbf 0d29 c13d 2863 16be 2a5b c03b
000000c0: 324d ef3d 92fd 893d d050 a9bd 68c3 02be
000000d0: fdae 28be 344c 3dbe 14c2 6a3e 98c4 f63d
000000e0: b459 d73c 83c3 d9bc f86f f6bc 1ca3 0c3c
000000f0: 03a9 3c3c 47d8 da3c 2a20 603d 53a1 eb3d
00000100: 6834 573e 4fb2 643d 31e7 ecbd 09f7 22be
00000110: 8a82 c6bd d922 7cbe ce05 ea3c c9a9 2b3e
00000120: f525 a4bd 7727 1f3c e4cf 84be 4c87 70be
00000130: 5087 54be 12a4 8ebd dd03 fbbd d289 423d
00000140: 40c1 00be 5a3d 3bbd d6af cbbe 3bb9 bbbe
00000150: ecef 2abd b005 acbe 6f73 0fbe 33d1 92bd
00000160: 76f9 06be c6fe 2bbe e3e5 b13c 6c2b 403d
00000170: be1e 10bf 0874 22bf 806d 2dbe 3ff0 f7bd
00000180: 11b0 12be 03dd 30be 1fee 84be f5a4 f1be
00000190: 89ed e43c ad32 92be 7182 91be af22 9fbc
000001a0: 4ab8 0bbe c412 60bd 2c29 80bd 3206 23bf
000001b0: 52a8 efbe dd60 07bf 0e36 ccbd 1ff4 f4bd
000001c0: a7b6 6abc adf2 8a3d 9d78 6cbd c288 4cbe
000001d0: ea5b 15be 9f2e 84be 8d63 b6be f12c 94bd
000001e0: 730c 1a3c 4348 673d a4ac 05bd f844 54bd
000001f0: 2761 5fbe a7d1 46be f5de 403d 066f ca3d
00000200: e3f9 7fbe f86c 3fbe 3c1a 59be eca7 56be
00000210: a58a 3cbe 64ca 57be 1481 2fbe 12fd c1bc
00000220: cfd0 5fbe 50b4 56be 5530 20be 5fe2 4ebe
00000230: e527 53be 5726 75be 1b9c 3ebe 184f 00be
00000240: b170 0abe bd6b 79be 7fd5 b8be eb4e a6be
00000250: ec51 5bbe 873f 63be 3ac3 19be 0c0e b8bd
00000260: b1d0 7ebe 9e30 4fbe 9c7d 5cbe 9386 0fbe
00000270: 873b 1fbe dccc 18bf 5cb8 5fbe e86f 74be
00000280: 8fd5 71be dadf 12be 77e0 82be f5c9 a4bd
00000290: b1bd a8be 5fac 9abe b8dc 31be 0e2c 11be
000002a0: 7efe 13be 4ef2 7cbe e430 2cbe 6aab 94be
000002b0: 0f80 0bbf c586 aebe da3e 90be 7d33 84be
000002c0: b7b0 3abe 0c44 fabd d51b 51be 6fe5 11be
000002d0: 1ca3 9fbe 5b5b 74be c9ba a0be ee59 96be
000002e0: a1a6 5ebe 529e 5dbe 79b1 27be 64df 2bbe
000002f0: 60a1 0abe c319 15be 4682 1ebe 6849 57be
00000300: 63a0 55be 7c13 8fbe 0040 6fbe 2638 58be
00000310: ec33 13be 0f48 62be 2da5 17be cf7f eebd
00000320: 5fe6 49be 5db7 7cbe 144e 7fbe e983 82be
00000330: 7b06 28be 551c 7dbe ee29 7bbe 27c9 3ebe
00000340: 1e4a 18be ec7b 28be 35e1 b9be 1924 8dbe
00000350: 91b0 70bd 6f56 57be 804c 08be e31c c1bd
00000360: 1d0e 3ebe cdb9 d7bd de81 47be 8fe7 9dbe
00000370: ac51 b6be 0bd1 d1be 8414 89be 3cf6 f2bd
00000380: 491f 57bd 39fc 85be 34ea 82be d22f b1be
00000390: cd36 3abe ea45 39be 9d87 e6bd 2e44 55be
000003a0: 631e 4ebe 6d33 46be 9150 acbd 0608 b3be
000003b0: 92dc e5be 985c efbe a314 02be f9ac 62be
000003c0: a4ed 31be f829 16be 4865 71be 5e34 1cbe
000003d0: 6144 453d 42a3 83be 8718 b1bd 5dcc 3dbe
000003e0: 3638 1ebe 60fa 78be 4355 42be c486 80be
000003f0: 04ec 6fbe 53da d2bd 0911 56be 27b1 77be
-0.05232963 -0.0022506681 0.026090732 -0.058496084 -0.118400924 0.029179875 0.004366567 0.035411775
-0.116698496 -0.061415296 -0.3989394 -0.15857194 -0.0748777 -0.059954498 -0.04399854 -0.098058686
-0.12025397 -0.39618585 -0.2996583 -0.47389328 -0.23277198 -0.21571378 -0.24256656 -0.15480746
-0.052839473 -0.22935738 -0.2983442 -0.38361144 0.29752085 -0.34546354 -0.14087665 -0.054419376
-0.012387624 -0.07785303 -0.38596725 0.18488877 -0.11040195 -0.23407666 -0.03174178 0.01870965
-0.13289487 -0.10795256 -0.4491566 -0.37114164 -0.6690284 0.09431658 -0.14686263 0.0058702426
0.11684646 0.06737818 -0.08267367 -0.12769854 -0.16473003 -0.184861 0.22925597 0.12049216
0.026287891 -0.026582485 -0.030082688 0.00858381 0.011514905 0.026714457 0.054718174 0.115053795
0.21016085 0.05583411 -0.11567534 -0.15914549 -0.09692867 -0.24622668 0.028567221 0.16763987
-0.08015052 0.009713999 -0.25939858 -0.23489112 -0.20754743 -0.06964888 -0.12256596 0.047494717
-0.12573719 -0.045712806 -0.3978259 -0.36664757 -0.041732714 -0.3359809 -0.14008878 -0.07168808
-0.131811 -0.16796407 0.021716064 0.04691641 -0.5629691 -0.634583 -0.16936302 -0.1210637
-0.14324977 -0.1727181 -0.25962922 -0.47196165 0.027945297 -0.28554288 -0.2841983 -0.019425718
-0.1364452 -0.054705396 -0.06257853 -0.6368133 -0.46808106 -0.52882177 -0.099712476 -0.11960625
-0.014325774 0.06784568 -0.057732213 -0.19974044 -0.14585844 -0.2581682 -0.35622826 -0.072351344
0.009402382 0.0564654 -0.032635346 -0.051823586 -0.21814404 -0.19415914 0.04708763 0.09884457
-0.24997668 -0.18693912 -0.21201414 -0.20962495 -0.18412264 -0.210733 -0.17139083 -0.023680244
-0.21856998 -0.20967221 -0.15643437 -0.20203541 -0.20620687 -0.23940407 -0.18614237 -0.12530172
-0.13519551 -0.24357505 -0.36100385 -0.32482085 -0.2141797 -0.22192203 -0.1501588 -0.08987054
-0.24884297 -0.2023339 -0.21532291 -0.1401618 -0.15550052 -0.5968759 -0.21847671 -0.23870814
-0.23616622 -0.14343205 -0.25561878 -0.08046333 -0.32957223 -0.30209634 -0.17369354 -0.14176962
-0.1445255 -0.24701807 -0.16815525 -0.2903703 -0.54492277 -0.34087196 -0.28172952 -0.25820532
-0.18231474 -0.1222001 -0.20420773 -0.14247678 -0.3117913 -0.23862974 -0.31392506 -0.29365486
-0.21743251 -0.21642426 -0.16376294 -0.16784436 -0.13538122 -0.14560609 -0.15479383 -0.21024096
-0.20861964 -0.27944553 -0.23364258 -0.21115169 -0.14375275 -0.220978 -0.14809103 -0.11645471
-0.19716786 -0.24679323 -0.24932128 -0.25491264 -0.16408722 -0.24717839 -0.24527714 -0.18631421
-0.14872023 -0.16453522 -0.36304632 -0.27566603 -0.058762137 -0.21029066 -0.13310432 -0.09429338
-0.18560071 -0.105334856 -0.19483134 -0.30840728 -0.35609186 -0.409798 -0.26773465 -0.11863372
-0.05252007 -0.26168993 -0.25569308 -0.34606797 -0.18184967 -0.18093076 -0.11256335 -0.2082679
-0.20128779 -0.19355555 -0.08413804 -0.3496706 -0.44894844 -0.4675033 -0.12703185 -0.22136296
-0.17375809 -0.14664447 -0.23573792 -0.15254351 0.048160914 -0.25710493 -0.08647256 -0.1853499
-0.1545113 -0.2431426 -0.18977837 -0.25102818 -0.23429877 -0.10295548 -0.20904936 -0.24188672

bias f4 [256]
00000000: a246 6bbe 408c 52be 11fc 0b3d 43a2 61be
00000010: 8e6d 0bbe 4a4b f4bd d874 cfbe 424c 583e
00000020: d399 8d3e 95be 2abe 8ffc d83e ba8d 8a3e
00000030: 3a85 483c 90e2 08be 724e c9bd abc9 99bd
00000040: d677 0dbe 2362 aabe 5862 58be abc0 923d
00000050: 6494 963d 8629 9dbe 6147 223f e523 3b3d
00000060: 6a5a a23d d9be 133d 1051 36be a9a4 d73d
00000070: ac7b 09bf cad7 753e 548c 063f 9c07 9f3e
00000080: 27b2 d8bc 1948 a8be 424d 123e 1d3b 1dbe
00000090: 8e7f b4be 6a5e a13e 5481 62be 5391 3abe
000000a0: 02bb 893e f230 a83e 3f30 e1be 02bb 74bd
000000b0: 5c71 9abd e5da 60be 3c7c 023f 9752 a33e
000000c0: 7a32 853e 7591 1cbc f214 543e c550 12be
000000d0: 0182 fb3e faff 2ebe 7d79 70be c762 f73d
000000e0: 9d8b f6bb 966d 2fbf c031 94be 29e9 22be
000000f0: 90c6 2abe 4ab0 4f3e ec42 e7be 87f7 a3bd
00000100: 3720 2abe a7d7 6fbe 0aa1 43be 43f9 5abc
00000110: 008f 6b3d 0a21 c8be aa54 f6bd b0ae 11bd
00000120: b51d 7fbd 0941 a03e 977d e6bd cf82 e03e
00000130: 72da 0b3e ca29 2fbf aa16 5ebe 2c4a 97be
00000140: ec92 033f 6cde 103e 359f 503e a7ca 38be
00000150: b758 0fbf d2b0 c1bc 8fca 48bf cc10 9b3e
00000160: 9d0d 383e f122 ac3e 0a7f a1be 8baa 44bd
00000170: 804e 263d da3d 033e a689 463e 0953 843e
00000180: ce19 f5bd 004c 26be 37cd 84be 3d70 943e
00000190: db4f 813e 2cce c0be 3349 6ebd 121a b7be
000001a0: 4a4e 583e d446 2a3e 7256 36be 6935 a7bd
000001b0: 38df 383e 43dc 58bd 7fe5 d2be 3fc2 f73d
000001c0: 10f5 0d3e 6d43 25be b20b cbbc 48ba a0be
000001d0: b10a 4ebd e497 13bf 6022 77bc ec9f e8bd
000001e0: 56ce e5bd 0cb1 a8be 5077 19be 4e04 703e
000001f0: 765a 9c3e e74c 1bbe 362a 8ebe b435 933e
00000200: 1fb0 d3be 85cf 99be 5ae4 15be e8ca 643e
00000210: 9007 d0be 5be3 a23c d33f a13b 3b66 d3be
00000220: 4bde 37bf 593b 09bf 7b31 b4bd 3653 eb3d
00000230: b72e 823e 666a 933e fa18 4b3e db40 28be
00000240: 54a6 1b3f ef76 80be 8996 e63c 1a03 1cbe
00000250: 3df1 f3bb fc39 9e3d db72 0c3e 4241 df3d
00000260: 7c7a d1bd 4b16 eebe 8a9d 4b3e b374 753c
00000270: 21bc f23e 7484 303e a245 a0be 8d8a 15bd
00000280: a44a 033f 9c17 a8be d59a 12be a262 34be
00000290: 7892 e63d 6370 313e e708 15bf 39a4 45be
000002a0: 0ac4 183f 702d 763e 898c 5dbe 268e bebe
000002b0: 9418 bdbc 7b9c 9b3e 3cbf e7be 82c3 d83d
000002c0: 3503 10bf ca08 5fbb 3cdf 773e 39e1 1a3a
000002d0: 9fc7 93be 4d9a eebd 2fa7 8e3e 2639 ee3d
000002e0: ee60 6bbe 9baa 79be 3600 0fbe 4dea ffbd
000002f0: 697c 743e 9157 573e 778a f33e 946f 7e3e
00000300: 2ec6 f3be 5c96 e33d ff2a 3c3e f185 d9bd
00000310: e3e3 393d ea64 07be dd38 0b3e e547 483e
00000320: 5faa 8abd 0b21 0dbe 81ae 26be dbea 35be
00000330: f10a 71be 0f56 003e 289b 3c3e e746 273e
00000340: b8e3 8f3e d0f9 85be d7c8 a43c 2870 463d
00000350: b08e 413e ca80 8b3e 6a54 e1bd 3bd7 1cbe
00000360: 6275 fa3d 391f cabe b270 673e 0f9d 963e
00000370: 9089 bbbc c1e9 4fbe 0a64 6e3e a810 a1be
00000380: eb3d 8abe e4ab 9dbe 8dfe f43d c001 9f3c
00000390: b3a2 373e 643d db3e 2b66 d9bd 6774 253e
000003a0: f3f2 7cbe 0d5a a4be 71d6 253e 02c6 4fbe
000003b0: 1ae4 b03e 21d5 9c3e 1dbb eb3c bea7 ee3c
000003c0: 3d62 b5be ab57 d03e 6ebd 81be a3a4 093e
000003d0: 07ed 083d 5b60 433e f341 053e 54de 733d
000003e0: c19a 3a3c 1fa8 3c3e 3ed2 93be c3bf f93e
000003f0: 3b10 973d 416c 0c3e ada3 ffbe 1057 c63e
-0.22976163 -0.20561314 0.034175936 -0.22034554 -0.1361601 -0.11928423 -0.40518832 0.2112284
0.2765642 -0.16674264 0.42380187 0.27061254 0.012238795 -0.13367677 -0.098294154 -0.07509168
-0.13815245 -0.33277997 -0.21131265 0.07165655 0.07352522 -0.30695742 0.63390166 0.04568853
0.07927401 0.03607068 -0.1780436 0.10529453 -0.53704333 0.24008098 0.52557874 0.31060493
-0.026452137 -0.32867506 0.14287284 -0.15354581 -0.35253567 0.31517345 -0.22119647 -0.182195
0.26900488 0.32849842 -0.4398212 -0.059748657 -0.07541153 -0.21958502 0.50970817 0.3189895
0.26015073 -0.009556164 0.20711115 -0.14288624 0.49122623 -0.17089835 -0.23483844 0.12079387
-0.0075239674 -0.6852659 -0.28944206 -0.15909256 -0.16677308 0.20282093 -0.45168245 -0.080061965
-0.16613851 -0.23422109 -0.191044 -0.013365093 0.057509422 -0.39087707 -0.12027867 -0.035566986
-0.06228419 0.31299618 -0.11254423 0.438498 0.13657549 -0.6842314 -0.21688333 -0.29548776
0.5139606 0.14147347 0.20373233 -0.18046056 -0.55994743 -0.023643885 -0.7843408 0.30286252
0.17973943 0.33620408 -0.31542236 -0.048014205 0.040602207 0.12816563 0.19388446 0.258446
-0.119678125 -0.16239929 -0.25937817 0.2899188 0.25256237 -0.37657297 -0.058175277 -0.35762078
0.21123615 0.16628581 -0.17806414 -0.08164484 0.18053901 -0.052944433 -0.41190717 0.120975964
0.13863015 -0.16139002 -0.02478585 -0.3139212 -0.050303165 -0.5765364 -0.015083879 -0.11358628
-0.11220996 -0.32947576 -0.1498692 0.23439142 0.30537766 -0.15166055 -0.2776658 0.2875191
-0.41345307 -0.30041137 -0.1463789 0.22343028 -0.4063077 0.019883802 0.0049209385 -0.41288933
-0.7182357 -0.5360618 -0.087985 0.114904806 0.25426266 0.28792113 0.19833747 -0.1643099
0.6080067 -0.2509074 0.028147953 -0.15235558 -0.0074445293 0.077259034 0.13715689 0.10901119
-0.1022844 -0.46501383 0.19884315 0.014981437 0.47409156 0.17238027 -0.31303126 -0.036509085
0.5128577 -0.32830513 -0.14316876 -0.1761575 0.112584054 0.17328028 -0.5821671 -0.19300927
0.5967413 0.2404077 -0.21635641 -0.37217826 -0.023083009 0.30392823 -0.45263088 0.10584165
-0.56254894 -0.0034032338 0.24206251 0.00059081946 -0.28863236 -0.11650524 0.27861926 0.11631994
-0.22986194 -0.24381487 -0.13964924 -0.12495861 0.23875584 0.21029498 0.47566578 0.24847251
-0.47612137 0.11112663 0.18375777 -0.106212504 0.045383345 -0.1322209 0.1359591 0.19558676
-0.06770777 -0.13782136 -0.16277505 -0.17765372 -0.2353933 0.12532829 0.18418562 0.16335641
0.28103423 -0.26167154 0.0201153 0.048446804 0.18902087 0.27246696 -0.11002429 -0.15316479
0.1222942 -0.39476946 0.22601584 0.294167 -0.022892743 -0.20304014 0.2328035 -0.3145802
-0.27000365 -0.30795205 0.11962614 0.019410014 0.17933159 0.42820275 -0.1061519 0.16157685
-0.24702053 -0.32099953 0.16195084 -0.20290378 0.34549028 0.30631354 0.028775746 0.02913272
-0.35426512 0.40691885 -0.25339836 0.1344171 0.033429172 0.19079725 0.13013439 0.0595382
0.011389435 0.18423508 -0.2887134 0.48779115 0.073761426 0.1371317 -0.49929562 0.38738298

weight f4 [128, 256]
00000000: 9d20 febe de5a 5a3f ea13 013f d0ac 883e
00000010: 1239 a43e 8962 3b3f 12d8 5b3f b27b 063f
00000020: a2b2 84bd 9d19 113f 8247 1fbe cddb 033f
00000030: bebc 75be c775 de3e dcfc 4a3e 95a5 273f
00000040: 51fa 15bf 3755 283e 340f 0a3f 5c27 c0be
00000050: 752e 17bf d1dd 8e3f 6b75 0f3e 0e1b 8b3f
00000060: 4604 053f 154d 3b3e 9c41 99be f68d d4be
00000070: 32a0 d6be 798c fc3e 9d2c d23d cfa0 72bb
00000080: 8316 bebe 54f5 91be 834e 16bf 8c2a b93f
00000090: 9d10 393f 619f 20bf 0af2 863f 6afb 3a3f
000000a0: 4ca6 55bf 1ef6 3fbe c8f7 b8be 6f57 6e3f
000000b0: 1836 10be 252e 973f 7fe0 f53e 6859 2ebe
000000c0: 151e 06bf 9f4c 84bd 8130 3f3e b2e7 183f
000000d0: 948f eb3e 7285 143e 01ea 11bf f9df c53e
000000e0: 9194 12bf 5e77 2a3f a505 8d3e a687 683e
000000f0: 0f38 7f3f c9ee 3e3f 6e66 4dbd d8d3 493f
00000100: e41e aebe f8fd 1bbd 255f 423f 630b 7e3e
00000110: e4ae 91be 0e98 893f 6b44 88bf a9b2 05be
00000120: 2448 73bf c73f 123f 7cac 3bbe 4b96 0ebd
00000130: d281 b63d 4f4f aabd ecda d1bd 8083 20be
00000140: 26d3 293e 447e 93bf dcba 173f 6e9d adbf
00000150: f461 3e3f 6b08 30bf 7663 143f ce26 02bf
00000160: 5cb9 c23e bdf9 193e 164e eb3e 44e8 85bc
00000170: 128e 5fbd 4c28 c63e 97d7 bcbe 7023 11bf
00000180: f6c0 a73e ed6a 94bf 3cc0 943f 2a5f 8d3e
00000190: a255 f83e 63fe 8c3f bcb4 8ebf e16e 4d3f
000001a0: 5135 b5be 781b 703e be8d 7a3f 8bf2 583d
000001b0: e0be 91be 5a33 c2bd a486 373f 9b72 f13e
000001c0: cff8 0bbe 6ab5 9bbe b175 52be cad8 0abe
000001d0: 5176 7b3e 0be5 843e 6874 06bf cd94 d7bc
000001e0: 2e06 8e3f 71fc 1a3f ddf3 2c3e ae37 3bbf
000001f0: 92f1 3dbf ddb5 ff3e 2ff5 de3e 5fd9 fabe
00000200: e876 fb3e d3ea bb3e fa71 59bf 6034 94bd
00000210: 5da9 233f 511a 15bf 6406 10be 3665 573f
00000220: d2e2 e0be 9c46 d6be d37b 31be 6072 51bf
00000230: a101 443f f833 30bf 702e b8bd 8f0c 1f3f
00000240: c9ed ed3e 9718 493f 348b 1fbb a1eb 903f
00000250: 1802 313f bf77 c63d abf4 cf3d 2968 5dbf
00000260: 7a91 fa3e 13d7 1a3e de33 403f 1b77 e83d
00000270: b07a 04bf 5cfb 053f c4ff 733f e0b8 983e
00000280: 3640 d03e fca9 573f dabe 143f f96b 97be
00000290: c62a 06be 4ecf 62be c406 0f3f f06f c13e
000002a0: 0c52 29bf e34a 41bd ac31 04bf 98ae a83f
000002b0: deeb 303f add6 a43e 16f2 2d3f a4da 51bf
000002c0: 1a0e 143f 02b4 62bf 22f1 54be 19b4 ef3d
000002d0: f647 793f dd72 5d3f ceda a3bf c746 703e
000002e0: 304f f0be ee76 cb3e 0ea0 e6bc b5cb 1e3e
000002f0: 9efe c0be 675b 7bbd 83c0 11be 9d5e 37bf
00000300: bb5b 543e f1fa 293e 5957 5cbf d072 2b3f
00000310: c296 d0bd d4d2 6b3f 5b1b 57be 701c 8ebf
00000320: 630b cc3d 1525 83be 33f2 9cbe 4c8a 1e3f
00000330: 2e3a 0e3d 7b54 40bf c7f9 9a3e dfb6 583b
00000340: 7290 06bf 18ee 973e d594 173f 2091 63bd
00000350: a792 a13e ce25 24bf 7559 e0be 7074 f1be
00000360: 510f 97bd ee2a dfbe ef2e 153e 2721 ccbe
00000370: a8dd edbe 4fb4 d33e 0dd6 b13d 771d 273e
00000380: da90 59bf 2723 b3bf 4030 f03e c226 8b3e
00000390: acc6 d23e 8825 af3e 7e7b afbc 7cb1 1f3e
000003a0: 6053 8f3f 5843 79be db6e 78bf 7dbc 84bf
000003b0: 5f72 8abf 18d4 88bf 071c 883f 8b30 b53e
000003c0: e6a6 0cbf 5d6a 27bf b0b0 dc3e 401e e6be
000003d0: 2092 b23a ba6f 5dbf caf5 ca3e 8873 6bbe
000003e0: d1de f1bc 1b3e 09be 133d 793f e4f8 493e
000003f0: e85f 1cbe d092 12bf ae1e 97be af7d 243f
-0.49634257 0.852949 0.5042101 0.26694345 0.3207479 0.7319723 0.8587657 0.52532494
-0.06479384 0.5667971 -0.15554622 0.51507264 -0.2399778 0.43449232 0.1982302 0.65487033
-0.5858508 0.16438757 0.5392945 -0.3753003 -0.5905526 1.1161443 0.14009635 1.0867631
0.51959646 0.18291123 -0.29932868 -0.41514558 -0.41919094 0.49325922 0.102624156 -0.003702212
-0.3712655 -0.28507483 -0.5871355 1.4466109 0.72290975 -0.6274319 1.0542614 0.7303988
-0.83456874 -0.1874623 -0.36126542 0.93102163 -0.14083135 1.1810957 0.4802284 -0.17026293
-0.5238965 -0.06459927 0.18670847 0.5972854 0.4600798 0.1450403 -0.56997687 0.3864744
-0.57257944 0.6658839 0.2754337 0.22707996 0.99694914 0.7458311 -0.050146513 0.7883887
-0.34007943 -0.038084 0.7592643 0.24809031 -0.28453743 1.0749528 -1.064588 -0.13056435
-0.9503195 0.57128567 -0.18327516 -0.0348113 0.0891148 -0.08315908 -0.10246834 -0.15675163
0.16584453 -1.1522908 0.592695 -1.3563669 0.74368215 -0.68762845 0.57964265 -0.5084046
0.38032043 0.15036674 0.45958012 -0.016346104 -0.05457885 0.3870262 -0.36883232 -0.566947
0.32764405 -1.1595131 1.1621165 0.27611667 0.48502833 1.1015133 -1.1148906 0.8024731
-0.3539224 0.23447978 0.9787253 0.052965682 -0.2846594 -0.09482451 0.7168982 0.4715775
-0.13669132 -0.30411845 -0.20552708 -0.13559261 0.24556853 0.25955996 -0.5252137 -0.02631607
1.1095636 0.60541445 0.16889901 -0.73131835 -0.7419673 0.49943438 0.43546435 -0.48993966
0.49114156 0.36702594 -0.8493954 -0.07236552 0.639303 -0.5824328 -0.14064938 0.8413881
-0.4392305 -0.41850746 -0.17332391 -0.8181515 0.76564986 -0.688293 -0.08993232 0.6212854
0.46470478 0.78553146 -0.0024344446 1.1321908 0.6914382 0.096908085 0.101540886 -0.8648706
0.48939115 0.15121107 0.75079143 0.113508426 -0.51749706 0.5233667 0.9531214 0.29828548
0.4067399 0.8424375 0.58103716 -0.29574564 -0.13102254 -0.22149393 0.558697 0.37780714
-0.6614082 -0.04719056 -0.51638293 1.3178282 0.69109905 0.32195035 0.6794752 -0.81974244
0.5783402 -0.8855592 -0.2079511 0.11704273 0.9737543 0.8650339 -1.2801149 0.234645
-0.46935415 0.39739174 -0.028152492 0.15507396 -0.37694257 -0.061366465 -0.14233594 -0.71628743
0.20738117 0.16599633 -0.8607078 0.66972065 -0.10185005 0.92118573 -0.21006529 -1.1102428
0.09963109 -0.2561423 -0.30653533 0.61929774 0.034723453 -0.75128907 0.3026869 0.0033067984
-0.52564156 0.2967384 0.59211475 -0.055558324 0.315572 -0.64120185 -0.4381825 -0.47159147
-0.07375968 -0.4358744 0.14568685 -0.39869043 -0.46458173 0.41348502 0.08683405 0.16319834
-0.8498665 -1.3995103 0.46911812 0.27178007 0.411672 0.34208322 -0.02142119 0.15595049
1.1197319 -0.24342096 -0.9704415 -1.0370022 -1.0816153 -1.0689726 1.0633553 0.35388598
-0.54942167 -0.6539667 0.43103552 -0.44944954 0.0013623871 -0.86498606 0.39640647 -0.2299329
-0.029525192 -0.13402598 0.97358817 0.1972385 -0.1527096 -0.5725527 -0.29515594 0.6425428

bias f4 [128]
00000000: 9122 773e ccd6 94bd 8be3 73bf 6467 46bf
00000010: bd10 75bf a6ac 2cbf 65b2 41bf f7d6 31bf
00000020: 843c 13bf d665 e4be 30d0 f9be 3768 3cbf
00000030: 4ba6 28bf 4ccd 0fbf 3da4 cabe b27e dcbe
00000040: 2763 39be d86e 3fbf ad5b 3cbf 1756 40bf
00000050: ca8d 12bf 8511 38bf 2209 10bf f1d6 3cbf
00000060: d43f 38bf 75c2 47bf 1bac e9be 18f7 9dbe
00000070: fd1e 31bf e3b2 b93d cae6 36bf d8ec 14bf
00000080: 539d 993c 1eea 42bf 26d3 eabe f993 56bf
00000090: 4b3b 29bf 8772 5fbf 5bc7 5ebf 89ff 2dbf
000000a0: 553f 28bf 7a10 23bf c28f 753d 977f 21bf
000000b0: 2183 33bf d9db 6bbf 6919 05bf 8500 37bf
000000c0: 7d59 43bf 56a7 33bf 76a9 c6be bacb 26bf
000000d0: 07be 48bf 4299 2dbf 4ef8 0cbf faf0 44bf
000000e0: 01d2 30bf bb23 7abf 54bd 7cbf 00e3 38bf
000000f0: 8f76 08bf 9ef4 20bf 9d82 62bf 06c0 3cbf
00000100: feda 2abf 0e9e b03c c6db 28bf cb29 2cbf
00000110: 4afd d13d 7958 70bf 7ae3 31bf 05e5 2abf
00000120: 7b3d 12bf c5d7 2abf 7264 6cbf f8f8 0fbf
00000130: 6eae 31bf 272d b6be dd8c 10bf f8e3 6cbf
00000140: ed23 6ebf 6643 1ebf 82c5 22bf 0d38 25bf
00000150: eb06 d5bd c82f d4be a5af 3abf 0a80 cebe
00000160: 43ac ebbc 6d89 d7bd edee 9fbe cf83 11bf
00000170: 81cf 37bf bd42 34bf ccc9 45bf 0039 2cbf
00000180: b75f a1be bf02 7abf de8a 3cbf 6170 14bf
00000190: ecc1 6dbf 7f2e 33bf 6d8d 1dbf dd5f 41bf
000001a0: 8fa3 31bf 848f 593e cb3f a33e 9c9e 1ebf
000001b0: e36c 49bf 9071 f4be aacd 3ebf 7853 1b3e
000001c0: 9b67 4fbf 3083 6dbf 72a7 b6bd 6074 35bf
000001d0: 2c61 28bf f30a 24bf 3fb8 29bf 0adc 41bf
000001e0: aca8 37bf 7e06 37bf 6b7c 07bf 8447 17bf
000001f0: e807 3dbf 1e40 3cbf 3cc1 8cbf ace8 b83d
0.2413428 -0.07267532 -0.9526908 -0.7750151 -0.95728666 -0.6745094 -0.75662833 -0.69468635
-0.57514215 -0.44608945 -0.48791647 -0.7359652 -0.6587874 -0.56172633 -0.3957843 -0.4306541
-0.1810423 -0.7477851 -0.73577386 -0.7513136 -0.572476 -0.7190173 -0.56263936 -0.73765475
-0.71972394 -0.7803109 -0.4563912 -0.3085258 -0.6918791 0.09067323 -0.71445906 -0.58173895
0.018751776 -0.76138484 -0.45864218 -0.8381954 -0.661061 -0.8728413 -0.8702294 -0.6796804
-0.65721637 -0.63697016 0.05995155 -0.6308531 -0.7012196 -0.92132336 -0.519919 -0.7148517
-0.76308423 -0.7017721 -0.38801163 -0.6515461 -0.7841496 -0.6781198 -0.5506638 -0.769302
-0.6907044 -0.9771077 -0.9872639 -0.72221375 -0.53305906 -0.62873256 -0.8848055 -0.73730505
-0.66740406 0.021559741 -0.6596035 -0.6725127 0.10253389 -0.93885 -0.69487727 -0.66755706
-0.5712506 -0.6673549 -0.9234077 -0.5623927 -0.69406784 -0.35581324 -0.5646494 -0.9253535
-0.9302357 -0.6182159 -0.63582623 -0.6453865 -0.1040171 -0.41442704 -0.7292426 -0.4033206
-0.028768664 -0.10524259 -0.31236973 -0.5684175 -0.71801 -0.70414335 -0.7726104 -0.67274475
-0.31518337 -0.9766044 -0.73649395 -0.57983977 -0.92874026 -0.6999282 -0.61543924 -0.755369
-0.69390196 0.21246153 0.31884608 -0.6196077 -0.7868177 -0.4774289 -0.7453257 0.1516856
-0.81017464 -0.927783 -0.089186564 -0.708807 -0.6577327 -0.6407921 -0.6629676 -0.7572638
-0.7174175 -0.7149428 -0.5292422 -0.590935 -0.7384019 -0.73535335 -1.099647 0.09028754

weight f4 [64, 128]
00000000: 740a 5abc 7ad9 fb3e b94a cfbd 2f63 473f
00000010: 7c1f e2be 592e 273f c0a7 243f 3dcc 2b3f
00000020: 2555 d33e bd09 f13e 3511 bfbe e3a5 203f
00000030: e195 e3be cf9a a53f 3f3c 093f 9847 163f
00000040: d1b6 993f 1bd9 af3e 3a6d 1fbe 2b9d d6be
00000050: 6098 253f 5931 cabe 61ae 91be 9169 cabe
00000060: 1883 6bbd 78d1 bcbe bbf5 14bf 8b95 be3e
00000070: c548 ab3e 918a 10bf 7a6e 8a3f 399b 223f
00000080: e5dc 9b3e d272 00be 7a69 a83f 2c8d 523e
00000090: c764 283f be67 573f 0e6f 3a3f e73d 1e3f
000000a0: e793 293f dea1 c0be 5b58 143f 6d2f dcbe
000000b0: 1623 c2be 3a30 bebd 5773 8f3f bd0a 243f
000000c0: da26 d63e 5c86 1c3f fabc 483f d296 03bf
000000d0: 75a3 95be b24c d0be 59f0 9a3f c607 d0be
000000e0: bde9 283f 67b0 7bbe a4a5 50be 6929 a43e
000000f0: 76da f1be be71 7dbe 50e7 053f dda8 383f
00000100: f5b4 3b3f 564c 7d3d c032 2e3f 990f 363f
00000110: 4860 2f3f 3d58 163f 500b cabe 3f46 d33e
00000120: 1f49 c5be 4888 ddbe db18 ae3e 5c48 e0be
00000130: 06db d4be 6199 bebe 9fcb 923f 4236 adbe
00000140: 685b b2be 43f4 1dbf b8db d4be d7fc 80be
00000150: 21d7 1bbe 63db e03e 1515 053f bb14 353f
00000160: 01c9 113f 436d 033f 42ee 003f d891 2a3f
00000170: 9d54 243f eaee 353f 8f8e 53be 7ade 2b3f
00000180: e571 d7bd 3ab9 0f3e 256f 413f 807d bfbe
00000190: b57f a13f 8686 70be f703 8a3e 33b8 cdbe
000001a0: e24c e5be 8fd3 dfbe 66a0 763f f9b1 bfbe
000001b0: da0e cfbe 4a35 07bf 8803 9ebe 1925 0d3f
000001c0: f816 2c3f 27de a2be bb25 213f aee0 e6be
000001d0: 5236 763f bc9f 183f ba5b cfbe 58f0 b23e
000001e0: a7af c7be 03db b8bd 6101 d1be f590 cabe
000001f0: 6bb9 6abe c064 483f 9dbf 783e 4b8a 813f
00000200: 5978 283f 3e32 543f 05f5 5c3f 8e91 433f
00000210: 0f2d 393f 7d6f 3e3f 7391 1f3f ec32 3c3f
00000220: 5651 ee3e 3b41 eb3e 0508 1e3f b08b 423f
00000230: d0de 823f 8c87 a43f fb95 0c3f 90c2 873f
00000240: 2abc 933f aa58 cf3e cded 6b3f d186 713f
00000250: cd01 433f 73d5 693f 8edc 583f 518f 383f
00000260: 73e1 653f a7b3 543f 6230 043f b673 d93e
00000270: 16a9 093f 15b1 133f 8efc 833f 1942 213f
00000280: 613c c63e 850c 643f a22b a83f 8c6f 2c3f
00000290: 02d7 253f bac8 543f ab62 213e 6b1a d13e
000002a0: 2169 a73e 81b3 283f 5316 3f3f 959f 1e3f
000002b0: a961 703f 4f6f c03f 48ab 9c3f a220 213f
000002c0: d41e ba3e 6d4b 273f 92cf 283f 4439 5c3f
000002d0: 93b2 723f 04ec 7e3f 377a a03f 34be 763f
000002e0: 547a 3b3f 2024 643f 2c16 763f 95e1 3e3f
000002f0: 15c7 d93e 57cd 613f da81 3b3f 6c0e 453f
00000300: 23d4 3f3f 33f7 383f 5632 c73e cf44 413f
00000310: f7dd 453f a161 663f b99a 353f a6f0 e73e
00000320: c3e3 2f3f a874 5e3f f880 a93e 9804 6d3f
00000330: 7384 823f cf3a c73e 6c21 933f 4adb 3f3f
00000340: ec9b 6a3f 52ca 2dbf 45bb 463f c0ad 783f
00000350: 3118 643f ac08 a83e 52a1 153f e7a5 e43e
00000360: eaa6 243f 7a3d 5b3f d238 9d3e c8f5 2c3f
00000370: 3462 313f 1a18 2f3f cfc0 743f bcd4 3f3f
00000380: be47 4d3f 19be 143e be10 473f 2e99 503f
00000390: 30f5 a53f 82cf f8be cebe ff3e e667 543f
000003a0: a7b8 4c3f afb9 1e3f 5b0f 3f3f e517 3e3f
000003b0: c3b6 253f 22ea 633f d4b3 5a3f 8671 1c3f
000003c0: b6b7 0d3f 7e22 393f 9f7e b93e 4700 393f
000003d0: 0f9f 733f 593d 8b3f 7d0a 723f 7e95 4b3f
000003e0: a50c 803f a10c 6b3f 3f06 093f ed11 5b3f
000003f0: 861d 643f c033 483f 01cc d03e 71eb 843f
-0.013308156 0.4918936 -0.10121674 0.7788572 -0.44164646 0.65305096 0.64318466 0.6710852
0.41275898 0.47077742 -0.37317815 0.62753123 -0.44450286 1.2937869 0.53607553 0.58702993
1.2008916 0.34345326 -0.1556901 -0.41916785 0.6468563 -0.39490774 -0.28453353 -0.39533666
-0.057498068 -0.36878562 -0.58187455 0.37223467 0.33453956 -0.56461436 1.0814965 0.635181
0.30441967 -0.125438 1.3157189 0.20561665 0.65778774 0.84142673 0.72825706 0.61813205
0.66241306 -0.37623495 0.5794732 -0.43004933 -0.37917393 -0.09286542 1.1207074 0.64078885
0.41826516 0.61142516 0.78413355 -0.5140201 -0.2922627 -0.40683514 1.2104598 -0.4063093
0.65981656 -0.24579011 -0.20375687 0.32062843 -0.47236985 -0.2475042 0.5230608 0.72132665
0.73322994 0.061840378 0.6804619 0.7111755 0.6850629 0.5872839 -0.39461756 0.4126453
-0.3853235 -0.43268037 0.34003338 -0.43805206 -0.41573352 -0.37226394 1.146839 -0.33830458
-0.34835362 -0.6170084 -0.41573882 -0.25192901 -0.15218784 0.4391738 0.51985294 0.7073476
0.5694733 0.51338595 0.5036355 0.6662879 0.6419161 0.7106768 -0.2065985 0.6713635
-0.105197705 0.14035502 0.7556022 -0.37400436 1.2617098 -0.23488817 0.2695615 -0.40179595
-0.4478522 -0.43716094 0.963385 -0.3744047 -0.40441018 -0.5281569 -0.3086207 0.5513473
0.6722255 -0.31810114 0.629482 -0.45093292 0.96176636 0.59618735 -0.4049967 0.34948993
-0.390012 -0.09026148 -0.40821365 -0.39563718 -0.22922294 0.7827873 0.24291845 1.0120329
0.65808636 0.82889163 0.8631137 0.76393974 0.7233438 0.7438887 0.6233131 0.735152
0.4654643 0.45948204 0.61730987 0.75994396 1.0224247 1.2853866 0.5491635 1.0606251
1.1541798 0.40497333 0.9215973 0.9434634 0.7617462 0.9134132 0.8471154 0.72093683
0.89797133 0.8308663 0.51636326 0.42471093 0.5377363 0.5769208 1.0311449 0.6299148
0.3871794 0.89081603 1.3138316 0.6735771 0.647812 0.83118784 0.15760295 0.40840468
0.32697394 0.658989 0.7464344 0.6196225 0.9389902 1.5033969 1.2239771 0.6294042
0.36351645 0.65349466 0.6594173 0.8602488 0.9480373 0.9957888 1.2537297 0.96383977
0.7323353 0.8911762 0.9612758 0.7456296 0.425347 0.8820395 0.7324501 0.7697513
0.7493307 0.72252196 0.3890559 0.7549562 0.77291816 0.8999272 0.70939213 0.45300788
0.6870691 0.86896753 0.33106208 0.92585135 1.019667 0.38912055 1.1494575 0.74943984
0.9164417 -0.6788684 0.776295 0.9714012 0.89099413 0.32819116 0.5844928 0.44657823
0.6431719 0.8564068 0.30707413 0.6756253 0.6929047 0.6839615 0.956067 0.7493398
0.80187595 0.14525642 0.7775992 0.81483734 1.296545 -0.48595816 0.4995026 0.82971036
0.7996926 0.6200208 0.74632806 0.7425521 0.64732 0.89029133 0.85430646 0.61110723
0.55358446 0.72318256 0.36229417 0.7226605 0.9516458 1.0878097 0.94547254 0.7952498
1.0003859 0.91816145 0.53525156 0.8557423 0.8910755 0.78203964 0.40780643 1.0384351

bias f4 [64]
00000000: 93e6 383f f0f6 c13e 219d e23e fca7 c73e
00000010: 6584 d43e 384a e43e 2aa8 c73e 25a7 323f
00000020: 46ef bf3e a219 353e 08cd c03e be5c bf3e
00000030: 12f4 c13e 5741 b73e 2e69 1e3e 5ee9 d03e
00000040: 85a3 de3e 9517 c33e e883 cb3e f75d d13e
00000050: e48b ce3e 5f53 e83e 4bb9 c83e e6ba dc3e
00000060: cec0 d13e f890 cb3e 45c3 d43e 5d6f e4c0
00000070: 59c9 e4c0 6df1 3cbf c959 bd3e 2e03 d23e
00000080: ff0d d63e df02 d23e 3dad ef3e 0a1d e6c0
00000090: 1300 e8c0 c062 db3e a8c1 ba3e b3b4 db3e
000000a0: 8b89 cd3e f7ad b83e a104 e63e 0cbc e83e
000000b0: 9c49 b5c0 8789 bf3d 125d c13e 7d1a db3e
000000c0: c9de d23e d1cb 353e d7e0 cb3e 47c6 c83e
000000d0: 5388 dd3e 6700 da3e 2f3f 2b3e 7e41 c93e
000000e0: 399f 2f3f 0265 d73e 3a42 dd3e eac9 cf3e
000000f0: ce88 d73e 7c95 cb3e c484 c93e 6cf9 353f
0.7222683 0.3788371 0.44260505 0.3899535 0.4150726 0.44587874 0.38995486 0.6978629
0.3748724 0.1768556 0.37656426 0.37375444 0.37881523 0.35792038 0.1546981 0.40803045
0.4348413 0.3810393 0.39749074 0.40892002 0.40341103 0.45376107 0.39203867 0.43111342
0.4096741 0.3975904 0.4155523 -7.138594 -7.1495786 -0.73805887 0.36982563 0.4101805
0.41807553 0.41017815 0.46811858 -7.191045 -7.250009 0.42848778 0.36475873 0.429113
0.40144 0.36070225 0.44925407 0.45455968 -5.6652355 0.09352403 0.3776632 0.42793646
0.41185597 0.17753531 0.39819977 0.39213774 0.4326807 0.42578432 0.16723321 0.3930778
0.6860233 0.4206925 0.4321459 0.40583736 0.4209656 0.39762485 0.39359105 0.7108371
