pth/takada_model_50.pth (torch, 168856 bytes, 6 tensors)

weight f4 [128, 128]
0	0x3f06eb43	0.5270273
1	0x3e5843d5	0.21119626
2	0x3eaaa150	0.33326197
3	0xbe103cd8	-0.1408571
4	0x3e9ce067	0.30639955
5	0x3d8dd502	0.06925394
6	0xbeb81331	-0.35952142
7	0x3d8151fa	0.06314464
8	0xbeaab43f	-0.33340642
9	0xbf139d00	-0.5766144
10	0x3ddc9633	0.10770836
11	0x3d370294	0.044680193
12	0x3e41b916	0.18918261
13	0xbf02df45	-0.5112193
14	0xbe3260bb	-0.17419712
15	0x3df6782f	0.12034642
16	0x3ebc1d76	0.36741227
17	0x3d8e5822	0.06950404
18	0xbe0b13da	-0.13581792
19	0xbdfbd192	-0.12295832
20	0xbe18bda5	-0.14916094
21	0xbe9e5d5f	-0.30930611
22	0xbe5cc4a6	-0.2155939
23	0x3e19f124	0.15033394
24	0x3e9f9e5d	0.3117551
25	0x3e295332	0.16535643
26	0x3ea07eb8	0.3134668
27	0x3e651cda	0.22374287
28	0x3cb4776a	0.022029597
29	0x3c7f27e9	0.01557348
30	0x3eb350fc	0.35022724
31	0x3c1f0e8d	0.009708059
32	0xbec99e93	-0.39378795
33	0xbeaaaa1a	-0.33332902
34	0x3efdeb87	0.49593756
35	0x3ec0c77c	0.37652194
36	0x3e5695f4	0.2095564
37	0x3e20cb36	0.15702519
38	0x3e33687e	0.1752033
39	0x3cd991a6	0.026558708
40	0x3ddac94a	0.10682924
41	0x3d2829e6	0.041055582
42	0x3eb985b5	0.36234823
43	0x3e6cac59	0.2311262
44	0x3e579fea	0.21057096
45	0x3e8b03e2	0.271514
46	0xbceeb431	-0.029138656
47	0x3e8f90ff	0.2804031
48	0x3e2b9944	0.16757685
49	0x3e458b92	0.19291523
50	0xbe1f33a5	-0.15547045
51	0x3cd3bf1b	0.025847962
52	0xbe6856f5	-0.22689421
53	0xbe3c6af7	-0.18400179
54	0x3eff50de	0.49866384
55	0xbd1b4077	-0.037903275
56	0xbc9bb5b7	-0.019007547
57	0x3ee69b8b	0.45040545
58	0xbf09d572	-0.53841317
59	0x3ecc60e7	0.3991768
60	0xbedebf4e	-0.4350533
61	0x3ea0c95f	0.31403634
62	0x3e860f64	0.26183617
63	0x3ce10912	0.027470145
64	0xbeb6e418	-0.35720897
65	0xbd93edf9	-0.07223124
66	0x3de77612	0.11301817
67	0xbebcd1ab	-0.36878714
68	0x3e624850	0.22097898
69	0x3ea73671	0.32658723
70	0xbe061bcb	-0.1309654
71	0x3e172d22	0.1476331
72	0xbf160e7b	-0.58615845
73	0x3e42bb39	0.19016732
74	0x3e750544	0.2392779
75	0x3e1c5e0f	0.15270256
76	0x3d5b463a	0.05353377
77	0xbe53afa8	-0.20672476
78	0x3e03d797	0.1287521
79	0x3b3ce60a	0.0028823637
80	0x3dd937c0	0.106063366
81	0x3e969b13	0.29415187
82	0xbe212f7c	-0.1574077
83	0x3ebaf91e	0.36518186
84	0x3d9f2cdc	0.07772228
85	0xbd341d2b	-0.04397313
86	0xbe5c0ddc	-0.21489662
87	0x3ee6f07b	0.45105347
88	0xbc2ef852	-0.010679321
89	0x3e67b6dc	0.22628349
90	0x3de424f5	0.111398615
91	0x3ddfc319	0.10925884
92	0x3e8ec724	0.27886307
93	0x3c6161a3	0.013756189
94	0x3ee434f4	0.4457165
95	0x3e4a9d0f	0.19786476
96	0x3e05743f	0.13032626
97	0xbdaf9c01	-0.08574677
98	0x3e2090b6	0.15680203
99	0xbe1e4951	-0.15457655
100	0x3ddd1809	0.107956
101	0xbdfc01fe	-0.123050675
102	0x3e860309	0.2617419
103	0x3e8bab1b	0.2727898
104	0x3e704ec2	0.23467544
105	0x3de0d78b	0.109786116
106	0x3e0d4db8	0.13799179
107	0x3db6ea72	0.08931436
108	0xbd0725aa	-0.032994904
109	0x3e8d4530	0.27591848
110	0xbecf8f23	-0.40538892
111	0x3f03ae19	0.51437527
112	0x3ea8bb34	0.32955325
113	0x3d258063	0.040405642
114	0x3caf6c42	0.021413926
115	0xbe1b5209	-0.15168013
116	0x3e6192be	0.22028634
117	0xbe0c8717	-0.13723408
118	0x3e91dd27	0.28489038
119	0xbdb12817	-0.08650225
120	0xbdc6ad84	-0.09701064
121	0x3f1d910d	0.61549455
122	0x3d135f10	0.03597933
123	0x3e58107d	0.2110004
124	0xbebc3cf9	-0.36765268
125	0x3ebe256d	0.3713793
126	0x3e321535	0.17390902
127	0x3d4d10be	0.050064795
128	0xbece765e	-0.40324682
129	0x3e4b9351	0.19880415
130	0x3e514545	0.2043658
131	0xbf0455ab	-0.5169322
132	0xbe970de1	-0.29502776
133	0x3e0a23b3	0.1349018
134	0xbd53756a	-0.051625647
135	0x3deff46e	0.11716543
136	0x3dd8c431	0.105842955
137	0xbf2b9b52	-0.67033875
138	0xbed6e197	-0.41968986
139	0xbeb2664d	-0.34843674
140	0xbe80e9a0	-0.25178242
141	0xbf0b61b0	-0.54445934
142	0xbd32c0a9	-0.043640766
143	0x3e593a10	0.21213555
144	0x3f1c5b42	0.6107675
145	0xbe0ebf1e	-0.13940093
146	0xbd499e36	-0.049223147
147	0xbcdaf743	-0.026729232
148	0xbf10566c	-0.5638187
149	0xbe6f5d40	-0.23375416
150	0x3e67a424	0.22621208
151	0xbf13b8d4	-0.577039
152	0x3cf7d33d	0.030252093
153	0xbe7795a3	-0.24178176
154	0x3f0deb67	0.5543732
155	0xbbe26314	-0.0069087837
156	0x3d0ef195	0.03489836
157	0x3f03f6fb	0.5154874
158	0xbdacedf1	-0.08443821
159	0xbd4e207e	-0.050323956
160	0x3e39bb1a	0.1813778
161	0x3e147a2a	0.14499727
162	0x3da3a98e	0.07991324
163	0xbdf31ce2	-0.11870743
164	0xbd09a753	-0.03360684
165	0xbea9ce61	-0.33165267
166	0xbec8afe9	-0.3919671
167	0x3e7a5dd2	0.24449852
168	0xbf178449	-0.59186226
169	0x3d936ee9	0.07198889
170	0x3ef08eca	0.4698394
171	0x3ded1a07	0.1157723
172	0xbcec047e	-0.028810736
173	0xbe32fe8c	-0.17479914
174	0xbde86023	-0.113464616
175	0x3eb3120d	0.3497471
176	0x3e47a811	0.19497706
177	0xbeda5826	-0.42645377
178	0xbeb5d5cc	-0.35514677
179	0x3e789024	0.24273735
180	0x3eb218ae	0.34784454
181	0xbd60e037	-0.054901328
182	0xbf32510f	-0.69654936
183	0x3e231213	0.15924864
184	0xbe684e52	-0.22686127
185	0xbe876ac5	-0.26448646
186	0x3e053266	0.13007507
187	0xbdbab97b	-0.09117409
188	0x3e7b2923	0.24527411
189	0xbf472f67	-0.77806705
190	0xbe60c09c	-0.21948475
191	0xbc99ca15	-0.018773118
192	0xbf5d4bc8	-0.8644376
193	0x3ef8d9e2	0.4860373
194	0x3d08e1c2	0.033418424
195	0xbd9fb187	-0.077975325
196	0xbe2e33b6	-0.17011914
197	0xbd93a327	-0.07208853
198	0x3e64314b	0.22284429
199	0x3e836afa	0.25667554
200	0xbcf6bb62	-0.030118648
201	0xbf70bd70	-0.9403906
202	0xbe9f6295	-0.311299
203	0xbe16df6f	-0.1473367
204	0xbeb0f04d	-0.34558335
205	0xbe66b172	-0.22528628
206	0x3e280e59	0.16411723
207	0x3de18e5e	0.110134825
208	0x3e9dfdca	0.30857688
209	0x3cac1b2e	0.021009054
210	0x3d3f9a2b	0.046777885
211	0xbd1fdf2d	-0.039031196
212	0x3e5a0a1c	0.21292919
213	0xbe8792b8	-0.26479125
214	0x3e82a510	0.25516558
215	0xbe781580	-0.24226952
216	0x3e6bea5a	0.23038617
217	0xbe8419af	-0.25800845
218	0x3e8b357a	0.27189237
219	0xbceb7520	-0.028742373
220	0xbdac7502	-0.08420755
221	0x3e3e7bf8	0.18601978
222	0xbe89f7d0	-0.26946878
223	0x3e1ab17d	0.15106769
224	0x3dfa7528	0.12229377
225	0xbb9eb689	-0.004843537
226	0xbe734e5c	-0.2376036
227	0xbcff90a0	-0.031196892
228	0xbca213c5	-0.019784817
229	0x3e0ab159	0.13544215
230	0xbec8e215	-0.39234987
231	0x3ec240b2	0.37939984
232	0xbe8aa11d	-0.27076045
233	0x3e54ab13	0.20768385
234	0x3e937613	0.2880102
235	0xbe39442d	-0.18092413
236	0x3e59d3b2	0.21272162
237	0xbebc19cf	-0.3673844
238	0xbeb6af97	-0.3568084
239	0x3ede2777	0.43389484
240	0xbd4b87e0	-0.049690127
241	0xbf08164f	-0.5315904
242	0xbe9898d2	-0.29804093
243	0x3ea9603f	0.33081242
244	0x3d8a0bf3	0.067405604
245	0xbf1d46a3	-0.6143591
246	0xbf37a435	-0.71734935
247	0x3e70923a	0.23493281
248	0x3ef7de1a	0.48411638
249	0xbeb4f202	-0.35340887
250	0x3e13aff0	0.14422584
251	0x3dffee81	0.12496663
252	0x3ecd94d3	0.40152606
253	0xbdd44656	-0.10364978
254	0xbd8cf8f7	-0.06883424
255	0xbf0c1114	-0.5471356

bias f4 [128]
0	0x3e24eb59	0.16105403
1	0x3d43a337	0.047763076
2	0xbdbc9812	-0.092086926
3	0x3e23a0fd	0.15979381
4	0xbdc72120	-0.09723115
5	0xbdbab64d	-0.09116802
6	0xbda557d3	-0.08073392
7	0xbde053d1	-0.10953487
8	0xbe0f8740	-0.14016438
9	0xbd80a3c3	-0.06281235
10	0x3e104c57	0.14091621
11	0xbddb9887	-0.10722452
12	0xbc2b1637	-0.010442308
13	0x3d4bb1d5	0.04973014
14	0xbbb62401	-0.005558491
15	0xbcb45b79	-0.022016274
16	0xbdf11d4a	-0.117731646
17	0xbde422a3	-0.11139419
18	0x3dc99795	0.09843365
19	0x3e6cae47	0.23113357
20	0xbd844e37	-0.06460231
21	0x3e1a433f	0.15064715
22	0x3de7099e	0.11281131
23	0x3e163671	0.14669205
24	0xbe64d310	-0.22346139
25	0x3d8ab16a	0.0677212
26	0xbe01322b	-0.12616794
27	0x3b2816cd	0.0025648356
28	0xbbf6d58b	-0.0075327805
29	0x3d118644	0.035528436
30	0x3e325d4f	0.17418407
31	0x3e5a0fa7	0.21295033
32	0xbe20ce5f	-0.15703724
33	0xbd6c48f2	-0.057686754
34	0x3d560379	0.052249406
35	0xbe7204c6	-0.23634633
36	0x3c9d17b8	0.019176349
37	0xbe017a1e	-0.1264424
38	0x3e6ec779	0.2331828
39	0x3cc88bc6	0.024480712
40	0xbd9085b4	-0.07056752
41	0xbd9bb00f	-0.0760194
42	0xbe05fc9c	-0.13084644
43	0x3e52ed91	0.20598437
44	0xbe66ae03	-0.22527318
45	0xbd97c141	-0.07409907
46	0xbdf4f4c1	-0.119607456
47	0x3e32e2e5	0.17469366
48	0x3e633a27	0.22190152
49	0x3d84748a	0.064675406
50	0xbd299372	-0.04140038
51	0x3b2407bc	0.0025029024
52	0x3e124932	0.14285734
53	0xbd062503	-0.03275014
54	0x3e1f3d3e	0.15550706
55	0x3e78d1ca	0.24298778
56	0x3d98f2db	0.07468196
57	0xbd843fd4	-0.06457487
58	0x3ddc83af	0.10767304
59	0xbca89e76	-0.020583373
60	0xbe20195e	-0.15634677
61	0xbe431e37	-0.19054495
62	0x3d838cde	0.06423353
63	0xbd43ba2f	-0.04778498
64	0xbe2789ca	-0.16361156
65	0x3d582c1a	0.052776434
66	0xbe261045	-0.16217144
67	0xbe461e61	-0.19347526
68	0xbc3281c0	-0.010895193
69	0xbde8f22b	-0.11374315
70	0x3e077d0c	0.13231295
71	0xbd47deb4	-0.04879637
72	0x3da76e2b	0.0817531
73	0x3e744978	0.23856151
74	0xbbbb52a9	-0.005716641
75	0xbe2a831b	-0.16651575
76	0x3e0102b4	0.12598687
77	0xbe3a0ef2	-0.18169764
78	0xbcf64f53	-0.030067122
79	0xbe441f70	-0.19152617
80	0x3d6f6a21	0.05845082
81	0x3e1188f0	0.14212394
82	0xbe127abb	-0.1430463
83	0x3d982fd9	0.07431001
84	0x3d9a74df	0.07541823
85	0xbd9798c3	-0.07402184
86	0xbd9cd246	-0.07657294
87	0xbdf9ade3	-0.121913694
88	0x3dc4cf13	0.09609809
89	0x3de221a2	0.11041571
90	0xbd5d38d4	-0.054009274
91	0xbe14de46	-0.14537916
92	0xbd042017	-0.032257166
93	0xbc9735d6	-0.018458288
94	0x3e0e49e5	0.13895376
95	0xbd815438	-0.063148916
96	0x3dfdb03e	0.12387131
97	0xbe39741f	-0.18110703
98	0x3e541cbb	0.20714085
99	0x3dbff7cc	0.093734354
100	0xbd46be82	-0.048521526
101	0xbbc06d60	-0.0058724135
102	0xbd34d2cb	-0.04414634
103	0xbcf2bcd1	-0.02963105
104	0x3e34c957	0.1765493
105	0xbd9a7ace	-0.075429544
106	0xbbe870c6	-0.0070935218
107	0x3df158a3	0.11784484
108	0xbe363364	-0.17793041
109	0x3e274b4e	0.1633732
110	0x3e6e528c	0.23273677
111	0xbd5adb29	-0.053431664
112	0x3e5efbbb	0.21775715
113	0x3e1e4924	0.15457588
114	0xbde1674d	-0.11006031
115	0x3dd5981c	0.10429403
116	0xba25cbc3	-0.00063246134
117	0x3e4ce94d	0.20010872
118	0x3d027f94	0.03185995
119	0x3dd28ab6	0.10280363
120	0x3de54f36	0.11196749
121	0x3dbff433	0.09372749
122	0xbe5e3c7d	-0.21702762
123	0x3daa7591	0.08323205
124	0x3e38dfa8	0.18054068
125	0xbe507963	-0.20358805
126	0x3d1a6914	0.037697867
127	0xbd8731aa	-0.066012695

weight f4 [128, 128]
0	0xbdcaa813	-0.09895339
1	0x3e8696c5	0.26286903
2	0xbe97e173	-0.29664192
3	0xbe1d7f3c	-0.15380567
4	0x3c1464d2	0.009057241
5	0xbe1d4ff2	-0.15362528
6	0x3e02d2a3	0.12775664
7	0x3dd21d8f	0.10259544
8	0x3d851eba	0.06500001
9	0xbe015500	-0.12630081
10	0x3d2fc8d4	0.042916134
11	0xbd3efb54	-0.046626404
12	0xbdc26f98	-0.09493941
13	0xbe875deb	-0.2643884
14	0xbe0438c4	-0.1291228
15	0xbe0deb7c	-0.13859361
16	0xbb53109f	-0.0032205952
17	0x3e3b4ce3	0.18291049
18	0x3e0eaec6	0.13933858
19	0x3e890a5d	0.2676572
20	0xbe012181	-0.12610437
21	0x3e559892	0.20858982
22	0x3e33e304	0.17567068
23	0x3bf6a5dc	0.007527096
24	0x3ec508d3	0.38483295
25	0xbe91cefe	-0.28478235
26	0x3d067615	0.032827456
27	0x3daa6d43	0.08321621
28	0x3e870436	0.263704
29	0xbe9f0be4	-0.3106376
30	0x3e1be692	0.15224674
31	0x3d99e6b2	0.07514705
32	0xbd64c83b	-0.055855017
33	0xbe198d58	-0.14995325
34	0x3e944e1e	0.2896585
35	0xbf16afb0	-0.5886183
36	0x3ee5d125	0.44886127
37	0xbe058339	-0.13038339
38	0x3e8d6126	0.2761318
39	0x3d3d2ce6	0.046185397
40	0x3e818e39	0.2530382
41	0xbebe3027	-0.37146112
42	0xbe9c2a50	-0.30501032
43	0x3e7a73a0	0.2445817
44	0xbe4f1c24	-0.20225579
45	0xbdf860c8	-0.121278346
46	0xbd549d00	-0.05190754
47	0x3da83889	0.08213908
48	0xbc981112	-0.018562827
49	0xbe95e4b9	-0.29276064
50	0xbe3896b8	-0.18026245
51	0x3e4ef306	0.20209894
52	0xbd2b128c	-0.041765735
53	0x3e90ad6b	0.28257307
54	0x3d904e23	0.070461534
55	0xbe3d940d	-0.18513508
56	0x3eb4d2c3	0.35317048
57	0xbda1df73	-0.07903948
58	0x3b07bc42	0.0020711576
59	0xbc65468a	-0.013993869
60	0xbe11693f	-0.14200304
61	0xbe662775	-0.22475989
62	0x3d42a9f7	0.047525372
63	0x3e1502fd	0.14551921
64	0x3dbf02bf	0.09326696
65	0x3e004cde	0.12529323
66	0x3e22735b	0.15864317
67	0xbdb00c74	-0.08596125
68	0x3e0e9776	0.13924965
69	0x3d808aa2	0.06276442
70	0x3e8bbccd	0.2729248
71	0xbe08a7d0	-0.13345265
72	0x3ec1c638	0.3784654
73	0xbdc668a2	-0.09687926
74	0xbc3d3e8b	-0.011550556
75	0xbe06b4ac	-0.13154858
76	0x3e40ff42	0.18847373
77	0xbe946da6	-0.28989905
78	0xbd4bfa37	-0.04979917
79	0xbe9d25a7	-0.3069279
80	0xbc9bb698	-0.019007966
81	0x3d9e67d3	0.07734647
82	0xbd94153e	-0.07230614
83	0x3e9c13ce	0.3048386
84	0xbd857fb2	-0.065184966
85	0x3d322aef	0.043497976
86	0xbc0a385d	-0.00843629
87	0xbe0b5e53	-0.136102
88	0x3e91642b	0.28396735
89	0x3e0910c5	0.13385303
90	0x3d9c25bc	0.07624385
91	0xbc711a44	-0.014715735
92	0xbe990c2a	-0.29892093
93	0xbb2d4a3f	-0.002644196
94	0xbe5bf7b6	-0.21481213
95	0x3e3b6624	0.18300682
96	0xbdeb85f3	-0.11500158
97	0xbe09f3be	-0.13471887
98	0x3e075244	0.13214976
99	0x3cbf326a	0.023339469
100	0x3e4b928f	0.19880126
101	0x3e300c0e	0.17192098
102	0xbeb71f81	-0.35766223
103	0xbd785431	-0.060627166
104	0xbd3b2aaa	-0.045694984
105	0x3e9ba216	0.303971
106	0xbe1b37be	-0.15157983
107	0xbdb33643	-0.08750584
108	0x3d98a1ff	0.07452773
109	0xbeaca572	-0.33719975
110	0x3e47aa45	0.19498546
111	0x3e6543ac	0.22389096
112	0xbeb776d2	-0.3583284
113	0xbc75ef35	-0.015010645
114	0x3d6bfc08	0.057613403
115	0x3d009898	0.031395525
116	0x3e710f50	0.23540998
117	0xbe919a6d	-0.2843813
118	0xbe878515	-0.2646872
119	0xbe33b277	-0.17548548
120	0x3e900279	0.28126886
121	0x3e762f7a	0.24041548
122	0xbc254d52	-0.010089235
123	0x3ed2b4fb	0.41153702
124	0x3d4d8f2e	0.050185375
125	0xbd1b32e8	-0.037890345
126	0xbdec6c3d	-0.11544082
127	0xbe33a543	-0.17543511
128	0xbe972979	-0.2952383
129	0x3e862680	0.26201248
130	0xbc44aebe	-0.012004552
131	0x3f03f2da	0.5154244
132	0x3c2d809e	0.010589747
133	0x3e7d8d07	0.24760829
134	0x3df55b54	0.1198031
135	0x3eb83060	0.35974407
136	0xbe18dae5	-0.14927252
137	0x3e187e6f	0.1489198
138	0xbeb8c179	-0.36085108
139	0x3d25435d	0.040347446
140	0x3e835e6a	0.2565797
141	0xbe9f55cd	-0.31120148
142	0x3db6021a	0.088871196
143	0xbed0216f	-0.40650508
144	0xbef45037	-0.4771745
145	0xbed72285	-0.42018524
146	0x3f118c3c	0.56854606
147	0xbea6ebfa	-0.3260191
148	0xbd79d889	-0.06099752
149	0xbf3b4d25	-0.7316459
150	0xbd101e80	-0.035185337
151	0x3dbbc06f	0.09167563
152	0xbe14285b	-0.1446852
153	0xbf0e1f78	-0.5551677
154	0xbe873939	-0.26410845
155	0xbef154c7	-0.47134992
156	0xbeab4f86	-0.3345911
157	0x3ea7039d	0.32619944
158	0x3dc9c4cd	0.0985199
159	0x3dfba483	0.122872375
160	0x3ea34e66	0.3189575
161	0x3f132b51	0.5748797
162	0x3e808ea2	0.2510882
163	0xbe56b6b2	-0.2096813
164	0x3e6951dc	0.22785133
165	0xbf0145cb	-0.5049712
166	0xbe38b0e8	-0.18036234
167	0xbd4a2fe3	-0.049362075
168	0x3e880272	0.26564366
169	0x3e9c12e3	0.3048316
170	0x3d3546fb	0.044257145
171	0x3dc7c7eb	0.09754928
172	0x3e5f0d68	0.21782458
173	0x3e92e9f9	0.28694132
174	0xbd4bb6ed	-0.049735
175	0x3ed01524	0.4064113
176	0x3e53310b	0.20624177
177	0x3e818984	0.2530023
178	0x3e29a35b	0.16566221
179	0x3dc64c59	0.09682531
180	0x3ec905aa	0.39262134
181	0xbe0e0349	-0.1386844
182	0xbe812341	-0.2522221
183	0x3ea6b2c9	0.32558277
184	0x3ee8ed17	0.45493385
185	0xbe8164cc	-0.25272214
186	0x3c1ec837	0.00969129
187	0xbb2212a1	-0.0024730342
188	0x3d106145	0.035249013
189	0x3e21955c	0.15779632
190	0x3d81518d	0.06314383
191	0x3ea2d4e0	0.31803036
192	0xbeaafa2f	-0.33394
193	0x3e68ed5d	0.22746797
194	0x3e5912ec	0.21198624
195	0xbe3ef859	-0.18649425
196	0x3db73b7d	0.08946893
197	0x3db1ed79	0.086878724
198	0x3e77e0c2	0.24206832
199	0x3e9b00ec	0.3027414
200	0xbeed687f	-0.46368787
201	0xbe20a1d0	-0.15686727
202	0x3e556c02	0.20841983
203	0xbdb453b8	-0.088050306
204	0x3e82a3c1	0.2551556
205	0x3edbbac1	0.4291592
206	0x3e822438	0.25418258
207	0xbe7c9434	-0.2466591
208	0xbe668eea	-0.22515455
209	0xbee1c898	-0.44098353
210	0xbeb5f570	-0.35538816
211	0xbe822ca9	-0.25424698
212	0xbdecbd44	-0.11559537
213	0x3b69299a	0.0035577775
214	0xbe2bfb4c	-0.16795081
215	0x3ee80e4b	0.45323405
216	0x3d92ffb0	0.07177675
217	0xbd44c406	-0.048038505
218	0xbcdd8ddd	-0.027045185
219	0xbd85e2ab	-0.06537374
220	0x3e945b99	0.28976133
221	0xbe274acb	-0.16337125
222	0x3e58d116	0.2117351
223	0x3d88d58b	0.06681355
224	0x3d6174e4	0.055043116
225	0xbe23c195	-0.15991814
226	0x3e4d148f	0.20027374
227	0xbe96f339	-0.2948244
228	0x3c3b540a	0.011433611
229	0x3eef34ac	0.46719873
230	0xbd66ff6b	-0.05639593
231	0x3ee6d822	0.4508677
232	0x3e2f3883	0.17111401
233	0x3e97e9de	0.29670614
234	0x3dfdf6c9	0.12400586
235	0xbc831b7a	-0.016004313
236	0x3e246f83	0.16058163
237	0x3ec01c83	0.37521753
238	0xbe82e3b8	-0.2556436
239	0xbe68d33f	-0.22736834
240	0x3f246dfb	0.64230317
241	0xbeb97533	-0.36222228
242	0xbdf941b3	-0.12170734
243	0xbe0204d9	-0.12697162
244	0x3ee6357f	0.4496269
245	0x3ef95c05	0.48703018
246	0x3e69034d	0.22755165
247	0x3c363704	0.011121515
248	0x3e013edc	0.12621635
249	0x3e82670d	0.25469247
250	0xbdaf5f07	-0.08563047
251	0x3c0165e3	0.007897827
252	0xbe7c603f	-0.2464609
253	0x3e82dd65	0.25559536
254	0xbe7dbf3a	-0.24779978
255	0x3bd8f521	0.0066210185

bias f4 [128]
0	0x3daec1b1	0.085330375
1	0x3e493f6c	0.196531
2	0xbd4dbf1a	-0.050231077
3	0x3d36211a	0.04446516
4	0xbb90cab6	-0.0044186963
5	0x3e437bf1	0.19090249
6	0xbd27e44d	-0.04098921
7	0x3dfd74d3	0.12375798
8	0x3e05b97c	0.13059038
9	0xbcb481b5	-0.022034505
10	0xbc5d2dc4	-0.013499681
11	0x3db64c5a	0.08901282
12	0xbdf7d46b	-0.121010624
13	0x3da2dafc	0.07951924
14	0xbde1dc85	-0.11028389
15	0x3d51417a	0.051087834
16	0xbd5a4074	-0.053284124
17	0x3d181275	0.037126977
18	0xbd40d711	-0.047080103
19	0x3e121c67	0.14268647
20	0x3ddd1832	0.107956305
21	0xbe2b3f18	-0.16723287
22	0x3cafd8d6	0.0214657
23	0xbd2c4381	-0.042056564
24	0xbcc62d83	-0.024191624
25	0xbe3d1320	-0.18464327
26	0x3e060308	0.13087094
27	0xbc49f35c	-0.012326088
28	0xbd9d1603	-0.07670214
29	0x3d685b50	0.056727707
30	0x3e0b474e	0.1360142
31	0x3dd0e312	0.1019956
32	0xbd801e98	-0.06255835
33	0x3d7e4bb9	0.062083934
34	0x3d7baf84	0.06144668
35	0x3dcbd619	0.09952945
36	0x3e29788d	0.16549893
37	0xbd18e7ed	-0.037330557
38	0x3e3a797c	0.18210405
39	0x3c9a5c94	0.018842973
40	0x3b8511a6	0.0040609417
41	0xbc300294	-0.010742802
42	0x3d543f0a	0.05181793
43	0x3dada566	0.08478813
44	0xbdc449ef	-0.09584414
45	0x3dcd09a0	0.100116014
46	0xbc0d28f3	-0.00861572
47	0xbdcb9549	-0.09940583
48	0xbb975916	-0.004618774
49	0x3c272dca	0.010203788
50	0x3d0f86df	0.035040732
51	0x3cbb2bd1	0.022848042
52	0xbc7ecfc8	-0.015552469
53	0x3d56fad1	0.05248529
54	0x3d1f2c03	0.038860332
55	0x3d8932da	0.06699152
56	0x3dc27e39	0.09496731
57	0x3e5dcf42	0.21661094
58	0x3dddbc3b	0.10826918
59	0x3d1c9459	0.038227413
60	0x3dd12949	0.10212953
61	0xbe10accb	-0.14128415
62	0x3d27c570	0.040959775
63	0xbd73605d	-0.05941807
64	0xbd0ac861	-0.033882502
65	0x3dccbe9c	0.09997293
66	0xbe44c148	-0.19214356
67	0xbdea8a94	-0.11452213
68	0xbdc198b0	-0.09452951
69	0x3bba3738	0.005682852
70	0x3d21f0b6	0.0395362
71	0xbd3eb327	-0.04655757
72	0xbe2563c8	-0.16151345
73	0xbde107e8	-0.10987836
74	0x3d97c1fb	0.07410046
75	0x3e2de407	0.16981517
76	0xbd4d5aa0	-0.050135255
77	0xbc463774	-0.012098182
78	0xbdd640c1	-0.104615696
79	0x3e017213	0.12641172
80	0x3e28c7fe	0.16482541
81	0x3da1ab20	0.07893968
82	0x3db3fd8b	0.08788594
83	0xbdd2ec52	-0.10298981
84	0xbd64aadd	-0.05582701
85	0x3dd9e1e2	0.10638787
86	0xbce73b5e	-0.02822655
87	0x3e6209aa	0.22073999
88	0xbde83c3f	-0.11339616
89	0x3e1328bb	0.14371006
90	0xbd2e34b5	-0.042530734
91	0xbd7a313c	-0.06108211
92	0x3d81180f	0.06303417
93	0x3e11c26c	0.14234322
94	0xbde688f8	-0.112565935
95	0x3d1af7d5	0.037834007
96	0xbcb650d5	-0.02225534
97	0x3dc8a37d	0.09796808
98	0x3ded00dc	0.115724295
99	0xbdc76dbf	-0.09737729
100	0x3e225987	0.15854464
101	0xbe77272b	-0.24136035
102	0x3d08458f	0.03326946
103	0x3d12bfb5	0.035827357
104	0x3ddc264d	0.10749493
105	0xbd908cfa	-0.07058139
106	0x3d481062	0.04884375
107	0x3e0595bb	0.13045399
108	0xbcae5a99	-0.021283435
109	0x3d11ef1a	0.035628416
110	0x3da44fa3	0.08023002
111	0x3d373e20	0.04473698
112	0x3ca65da5	0.020308325
113	0xbd62f57a	-0.055409886
114	0x3e057636	0.13033375
115	0xbe06e73b	-0.13174145
116	0xbc2dda52	-0.010611134
117	0xbd876377	-0.06610768
118	0x3dffa4f0	0.12482631
119	0xbcbe1b34	-0.02320633
120	0x3d714778	0.05890605
121	0xbd18da2e	-0.037317447
122	0x3dd3e810	0.10346997
123	0x3e028847	0.12747298
124	0x3ba3e9ba	0.0050022276
125	0xbd66d3dc	-0.05635439
126	0x3e082bbd	0.13297935
127	0x3e19f837	0.15036093

weight f4 [64, 128]
0	0x3e489b98	0.19590604
1	0x3e69d3df	0.22834729
2	0xbdc897e9	-0.097945996
3	0x3d494c56	0.049145065
4	0x3dae0f41	0.08499003
5	0xbfd45d39	-1.6590949
6	0x3de47fa0	0.11157155
7	0xbd96e97a	-0.07368751
8	0x3df17be9	0.11791212
9	0xbe2ddc88	-0.16978657
10	0xbcbc732d	-0.023004139
11	0xbc48ce11	-0.012256161
12	0xbdf6c94a	-0.120501116
13	0x3e4bb21d	0.19892164
14	0xbd94d360	-0.07266879
15	0xbd398ae7	-0.045298483
16	0xbcfb7595	-0.030695716
17	0x3d7d54d7	0.061848488
18	0xbe8019d6	-0.2501971
19	0x3e81cb53	0.25350437
20	0xbd100504	-0.035161033
21	0xbd85c3d9	-0.065314956
22	0x3d5d7729	0.054068718
23	0x3ce83913	0.028347528
24	0xbda684db	-0.08130809
25	0xbd53caf7	-0.051707234
26	0x3dba8cce	0.091088876
27	0x3d25804d	0.04040556
28	0x3d1e1449	0.038593564
29	0x3d4ff223	0.05076803
30	0xbd378beb	-0.04481117
31	0x3e603100	0.21893692
32	0xbc2f0f97	-0.010684869
33	0x3ea0ba52	0.3139215
34	0xbd91b4de	-0.07114576
35	0xbe3037cf	-0.1720879
36	0xbe5fb4e4	-0.21846348
37	0x3e828b49	0.2549689
38	0x3df0cb30	0.11757505
39	0xbda9dcbf	-0.08294057
40	0x3e836fa9	0.25671127
41	0x3e1d1c86	0.15342912
42	0x3e235e26	0.15953884
43	0x3e81a740	0.25322914
44	0x3d44393a	0.047906138
45	0xbf280ef3	-0.6564781
46	0x3e4a153c	0.19734663
47	0x3d940d8a	0.07229145
48	0xbeb4ac87	-0.35287878
49	0x3e23093c	0.15921491
50	0x3e4f8568	0.20265734
51	0x3e213e96	0.15746531
52	0xbd852991	-0.06502069
53	0xbe93a0b2	-0.28833538
54	0xbd8c520e	-0.06851588
55	0x3d9b3b85	0.07579712
56	0xbd8f73f8	-0.07004541
57	0x3d22f899	0.039787862
58	0xbec2ba04	-0.38032544
59	0x3d03c9f2	0.032175012
60	0x3ea76a0d	0.32698098
61	0xbdfff440	-0.12497759
62	0xbdea42de	-0.11438535
63	0x3e523b61	0.20530464
64	0x3de4ad1b	0.1116583
65	0x3d50806c	0.050903723
66	0xbd721034	-0.059097484
67	0x3d9b7092	0.075898305
68	0xbe855a6a	-0.26045543
69	0x3dfc876d	0.12330518
70	0x3dbbd2c7	0.09171062
71	0x3e0e5ef8	0.13903415
72	0xbd424542	-0.04742933
73	0x3e981547	0.29703733
74	0xbda51b7e	-0.08061884
75	0xbe58251f	-0.2110791
76	0x3e33d7cb	0.17562787
77	0x3e03d8a3	0.12875609
78	0x3ddf23d8	0.108955085
79	0xbdb88bcb	-0.090110384
80	0xbdcde0ff	-0.1005268
81	0xbf05274e	-0.520131
82	0xbca0ba7e	-0.019620176
83	0x3d942fb2	0.0723566
84	0x3e2bf5e6	0.16793022
85	0x3e6d6a5a	0.23185101
86	0xbd0d8e1c	-0.034559354
87	0x3e480f5f	0.19537114
88	0xbd5cb5e5	-0.053884406
89	0xbe15bfe2	-0.14623979
90	0x3ddae5c0	0.106883526
91	0x3e13ec18	0.14445531
92	0xbd1903a5	-0.03735699
93	0xbddb32ac	-0.10703024
94	0xbe9c161e	-0.30485624
95	0x3de8cb37	0.11366885
96	0x3e20b14c	0.15692633
97	0x3e8ab2e1	0.270896
98	0x3e04b91c	0.12961239
99	0xbe6d31e2	-0.2316356
100	0xbe7dea2a	-0.24796358
101	0xbe150996	-0.14554438
102	0xbdbd7a19	-0.09251804
103	0x3e91f114	0.2850424
104	0xbe609729	-0.21932663
105	0xbeb5634f	-0.3542733
106	0xbe270268	-0.16309512
107	0x3e3e9ef8	0.1861533
108	0x3d96a8b4	0.07356396
109	0xbfa428d3	-1.2824959
110	0x3e6b3856	0.22970709
111	0xbe0d87f1	-0.13821389
112	0xbdf00059	-0.11718816
113	0xbe884065	-0.2661163
114	0x3d2a219e	0.041535966
115	0xbe62a86b	-0.22134559
116	0x3e3c8734	0.18410951
117	0x3e855d8d	0.26047936
118	0xbe83e4ee	-0.25760597
119	0xbdf7ca65	-0.120991506
120	0xbe5667dd	-0.20938058
121	0xbec47690	-0.38371706
122	0x3ca29ccb	0.019850155
123	0x3da50dea	0.080592945
124	0xbdd0dbae	-0.101981506
125	0xbe5bcc8e	-0.2146475
126	0x3d0d7fe2	0.034545787
127	0xbd0aad2e	-0.033856563
128	0xbe102fbd	-0.1408071
129	0xbe85bca1	-0.26120475
130	0xbe919938	-0.2843721
131	0xbe0cbe14	-0.13744384
132	0x3e0cd671	0.13753678
133	0xbfdbe141	-1.7178117
134	0xbabaa7e0	-0.0014240704
135	0xbec47067	-0.38367006
136	0xbe77dacb	-0.24204557
137	0xbe36522f	-0.17804788
138	0x3dddf438	0.10837597
139	0xbdac9f4e	-0.084288225
140	0x3e84ba2a	0.25923282
141	0x3ea722f3	0.32643852
142	0xbe21cc00	-0.15800476
143	0x3e554c47	0.20829879
144	0xbe012962	-0.12613443
145	0x3d64e11c	0.055878744
146	0x3b10a9b6	0.0022073812
147	0xbdff3d85	-0.12462906
148	0x3e05ac0e	0.13053915
149	0x3ee4d24b	0.4469169
150	0xbc17febb	-0.009277041
151	0xbe1fc002	-0.15600589
152	0xbe7502b3	-0.23926811
153	0xbe881b97	-0.2658355
154	0xbdf509ee	-0.119647846
155	0xbd9467fb	-0.07246395
156	0x3d23e4fd	0.040013302
157	0xbda6a49f	-0.08136868
158	0x3e3e222d	0.18567725
159	0x3f17a569	0.5923677
160	0x3e854b81	0.26034167
161	0xbea03103	-0.31287393
162	0x3c66e09c	0.014091637
163	0x3e975ce1	0.29563048
164	0xbd3124c5	-0.043247957
165	0x3e870dfb	0.26377854
166	0x3e8d82a8	0.27638745
167	0x3dbccca1	0.09218717
168	0x3d9005a4	0.07032326
169	0xbe88e402	-0.26736456
170	0x3e6499a5	0.22324236
171	0x3e145581	0.14485742
172	0x3e87866c	0.26469743
173	0x3ce65376	0.02811597
174	0x3de85bdc	0.11345646
175	0x3e5c2d3e	0.21501634
176	0x3e8fd831	0.28094628
177	0xbe3260f3	-0.17419796
178	0xbe80c72c	-0.25151956
179	0xbe0a6022	-0.13513234
180	0xbe2a5b39	-0.16636361
181	0x3e8b3238	0.2718675
182	0xbeadc7b7	-0.33941433
183	0x3e42bf90	0.19018388
184	0x3daedfc9	0.085387774
185	0xbc1c3d3a	-0.009536082
186	0x3e1ea97e	0.15494344
187	0x3dc9855f	0.09839892
188	0x3d5e71cf	0.054307755
189	0xbc98f68a	-0.018672246
190	0xbdcbc8a3	-0.09950378
191	0xbdc2953f	-0.09501123
192	0x3dab6724	0.08369282
193	0xbe8b828d	-0.2724804
194	0x3e5b31b4	0.21405679
195	0xbc8d80f3	-0.017273402
196	0x3e1b6889	0.15176596
197	0xbd61dd72	-0.055142827
198	0xbd6570c5	-0.05601575
199	0x3dc2f0c8	0.09518582
200	0x3d8523c3	0.06500962
201	0x3e92b904	0.2865678
202	0xbeab99b3	-0.335157
203	0xbe974982	-0.2954827
204	0x3df106bb	0.11768862
205	0x3e3a8977	0.18216501
206	0x3dc30d4f	0.09524023
207	0x3eb405da	0.35160714
208	0xbdf1f47f	-0.11814212
209	0x3db8c25d	0.09021447
210	0x3ded0448	0.11573082
211	0xbdbc11aa	-0.09183057
212	0xbdb71411	-0.08939374
213	0xbdb32d24	-0.08748844
214	0x3d9c8fe5	0.07644633
215	0x3e2b82bc	0.1674909
216	0x3cf41e77	0.029799683
217	0xbe836dc6	-0.25669688
218	0xbc7a5ebc	-0.0152813755
219	0x3e05d188	0.13068211
220	0x3dcf2a31	0.10115469
221	0x3c767ea0	0.015044838
222	0x3eab00b7	0.33398983
223	0xbe185044	-0.14874369
224	0xbe0ee68a	-0.13955131
225	0x3e63222a	0.22181001
226	0xbe40b648	-0.18819535
227	0x3e8a0396	0.2695586
228	0x3d13d8e6	0.036095522
229	0xbd6117d2	-0.054954357
230	0x3e5a5a92	0.21323612
231	0x3d80b5cd	0.06284676
232	0x3e549e46	0.20763502
233	0x3e9454ee	0.28971046
234	0xbd8b04a7	-0.06787997
235	0xbe17d779	-0.1482829
236	0x3db69702	0.08915521
237	0xbece7e62	-0.40330797
238	0xbe6d5cf4	-0.2317999
239	0x3dd4941a	0.10379811
240	0xbe33b5b9	-0.1754979
241	0x3b1a4138	0.0023537409
242	0xbe7226d9	-0.23647632
243	0xbd78f8d3	-0.060784172
244	0xbd9b505d	-0.075836875
245	0xbe2aa4f1	-0.16664483
246	0x3ba25186	0.004953566
247	0xbe97e813	-0.29669246
248	0xbe65cdd7	-0.22441803
249	0x3e1ef559	0.1552328
250	0xbe94c089	-0.29053143
251	0x3dbe2894	0.092850834
252	0x3e072fa8	0.13201773
253	0x3e830789	0.25591686
254	0x3d2ef801	0.042716984
255	0xbce25a33	-0.027630901

bias f4 [64]
0	0xbd419795	-0.0472637
1	0xbd710c99	-0.058849905
2	0x3c05f467	0.008175946
3	0xbe03d5dd	-0.12874551
4	0x3de4894c	0.11159
5	0xbe435d29	-0.19078507
6	0xbd9231a3	-0.07138374
7	0x3d29c148	0.041444093
8	0x3d947842	0.072495
9	0xbcf782b0	-0.030213684
10	0xbe8fedb5	-0.28111044
11	0x3e7020ea	0.23450056
12	0x3c2aea4f	0.01043184
13	0xbe659356	-0.22419485
14	0x3d33c948	0.04389313
15	0x3dac2105	0.084047355
16	0x3d1e7771	0.038688127
17	0xbe037faf	-0.12841676
18	0xbbcc890f	-0.0062419246
19	0x3d06b2e4	0.032885447
20	0xbd47e482	-0.048801906
21	0xbdb1761c	-0.08665106
22	0xbda0ca78	-0.07851118
23	0xbc7afc1f	-0.015318899
24	0xbd4425b3	-0.047887515
25	0x3e78abf7	0.2428435
26	0x3e9d80ec	0.30762422
27	0xbd8f9c39	-0.07012219
28	0xbbe97060	-0.007123992
29	0x3d89a77f	0.067214005
30	0xbd27d58f	-0.04097515
31	0x3b78d03f	0.0037965921
32	0x3d9a821a	0.07544346
33	0xbdca3ddd	-0.09875081
34	0x3e2d17b9	0.1690358
35	0x3d31e770	0.043433607
36	0x3cfc2e57	0.030783815
37	0xbd270eea	-0.040785708
38	0xbde882da	-0.11353083
39	0x3e3c8360	0.1840949
40	0xbd125dcf	-0.035733994
41	0xbd659009	-0.056045566
42	0xbd05a067	-0.032623675
43	0xbe570cb1	-0.21000935
44	0x3e210b12	0.15726879
45	0x3e216c74	0.15764028
46	0x3ca94716	0.02066378
47	0x3e11da19	0.14243354
48	0xbc31a63a	-0.010842854
49	0xbe167454	-0.14692813
50	0xbe0f05a3	-0.13966994
51	0xbe30c2e1	-0.1726184
52	0x3b61dfda	0.0034465701
53	0xbd983239	-0.07431454
54	0xbdf15c60	-0.11785197
55	0xbb8a0242	-0.004211695
56	0x3d1b72d5	0.03795131
57	0xbc9d685b	-0.0192148
58	0xbe5cb247	-0.21552382
59	0x3d2ad448	0.041706353
60	0xbb71526a	-0.0036822804
61	0x3de73820	0.11290002
62	0x3e11f437	0.14253317
63	0xbc9801dd	-0.018555576
