pth/takada_model_30.pth (torch, 168856 bytes, 6 tensors)

weight f4 [128, 128]
000000 fa e9 95 c0 a3 00 99 c0 d9 99 9b c0 f9 ba a0 c0
       -4.6848116 -4.7813277 -4.86253 -5.022824
000010 97 49 a1 c0 5a 23 9f c0 c5 1f 96 c0 a9 27 91 c0
       -5.040233 -4.9730654 -4.691378 -4.5360913
000020 f8 51 a0 c0 fa af 9b c0 13 f8 a2 c0 d8 e6 a1 c0
       -5.010006 -4.8652315 -5.0927825 -5.059429
000030 3c e9 a3 c0 72 a3 9f c0 a3 23 8e c0 b9 83 96 c0
       -5.122221 -4.988702 -4.44185 -4.7035794
000040 d6 0e a2 c0 6c 65 a6 c0 79 aa af c0 f6 58 ac c0
       -5.064311 -5.1998806 -5.4895597 -5.3858595
000050 35 cb a9 c0 1e af aa c0 6c c2 a0 c0 7a d1 9c c0
       -5.3060555 -5.3338766 -5.023733 -4.900571
000060 41 77 a3 c0 97 28 a1 c0 3d be b3 c0 90 5c ba c0
       -5.1083074 -5.036205 -5.6169724 -5.823799
000070 3b 37 c2 c0 df 58 be c0 d4 8c a5 c0 9e 1f 97 c0
       -6.069242 -5.9483485 -5.173441 -4.7226095
000080 dd fa a2 c0 a4 02 aa c0 70 42 ae c0 ff a2 82 c0
       -5.093123 -5.3128223 -5.44561 -4.082397
000090 85 4e ba c0 d6 ad ae c0 7d 43 a6 c0 f9 67 9a c0
       -5.822085 -5.45872 -5.1957383 -4.825192
0000a0 80 69 a4 c0 69 65 a6 c0 09 38 ad c0 7f 06 b9 c0
       -5.1378784 -5.199879 -5.41309 -5.782043
0000b0 68 26 c0 c0 4c 99 b8 c0 62 f9 a6 c0 e5 bb 97 c0
       -6.0046883 -5.768713 -5.217942 -4.7416863
0000c0 ab 52 a3 c0 eb b1 a1 c0 48 45 a9 c0 22 ce a7 c0
       -5.1038413 -5.0529685 -5.289707 -5.2439127
0000d0 10 b2 ad c0 6a 1d a8 c0 f8 6a 98 c0 02 03 94 c0
       -5.427986 -5.2535906 -4.7630577 -4.625367
0000e0 c0 4a 9d c0 99 32 9f c0 5a 48 a4 c0 43 f0 a0 c0
       -4.9153748 -4.9749265 -5.133832 -5.029329
0000f0 e9 23 a2 c0 3a d4 a0 c0 1b 43 99 c0 58 e9 97 c0
       -5.0668836 -5.0259066 -4.7894416 -4.7472343
000100 19 8c 94 c0 60 a5 9d c0 23 b5 a4 c0 c0 b0 9f c0
       -4.642102 -4.9264374 -5.1471114 -4.990326
000110 c7 99 a1 c0 52 8f a0 c0 96 03 9a c0 c5 2a 94 c0
       -5.0500216 -5.017495 -4.8129377 -4.630221
000120 64 0c 9f c0 fc a2 9e c0 fb 52 a5 c0 63 e3 a2 c0
       -4.9702625 -4.9573956 -5.1663795 -5.090257
000130 db 79 a4 c0 e2 ff a1 c0 99 ab 9c c0 5e 8f a6 c0
       -5.139875 -5.0624857 -4.895947 -5.205001
000140 67 58 a1 c0 e0 c2 a3 c0 8b 14 b7 c0 a2 cf 71 c0
       -5.0420413 -5.1175385 -5.7212577 -3.778298
000150 61 21 bd c0 f6 3b a8 c0 20 90 a7 c0 7d 0d a7 c0
       -5.9103246 -5.2573195 -5.2363434 -5.2203965
000160 9d 8f a2 c0 ff 58 a2 c0 31 22 b7 c0 11 e6 93 c0
       -5.080031 -5.073364 -5.7229238 -4.6218343
000170 b2 51 cf c0 ec 36 bc c0 cc 35 a5 c0 5a 1b a7 c0
       -6.4787226 -5.8817043 -5.162817 -5.222089
000180 8d d3 9e c0 89 1c a3 c0 b1 34 b3 c0 37 c5 ca c0
       -4.963324 -5.0972333 -5.600182 -6.336574
000190 dd 55 d5 c0 09 bd b7 c0 98 6e a6 c0 88 0b a8 c0
       -6.6667314 -5.7418256 -5.201 -5.2514076
0001a0 68 58 a1 c0 06 dd 9e c0 fa 57 a9 c0 7c 32 b8 c0
       -5.042042 -4.9644804 -5.2919893 -5.7561626
0001b0 4e 13 ca c0 7c fe b2 c0 fe bd a5 c0 e2 c4 a7 c0
       -6.3148565 -5.593565 -5.1794424 -5.2427835
0001c0 a0 a5 9b c0 30 ea 96 c0 60 bf a0 c0 12 3d a9 c0
       -4.863968 -4.7160873 -5.023361 -5.288705
0001d0 69 0d ac c0 da b9 a5 c0 0d 71 97 c0 ae 66 a1 c0
       -5.376637 -5.178937 -4.73255 -5.043784
0001e0 ef 57 97 c0 2c 33 a3 c0 df 3d 9f c0 68 07 a6 c0
       -4.729484 -5.0999966 -4.9763026 -5.188404
0001f0 aa 30 a8 c0 bb 25 a3 c0 07 3d 9e c0 50 61 9d c0
       -5.2559404 -5.098356 -4.9449496 -4.918129
000200 57 11 de bf 56 45 d9 bf f6 a8 6a c0 0b 1b 6a c0
       -1.7349042 -1.6974285 -3.6665626 -3.6579006
000210 f3 16 69 c0 05 ec 65 c0 50 d0 71 c0 10 eb 6b c0
       -3.6420257 -3.5925305 -3.7783394 -3.686222
000220 31 ec df bf 42 21 f6 bf ee a1 68 c0 3b ba 67 c0
       -1.7493955 -1.92289 -3.6348834 -3.6207416
000230 3d a4 6f c0 55 62 6f c0 1e fb e8 bf 08 f0 e8 bf
       -3.7443993 -3.7403767 -1.8201635 -1.8198252
000240 92 ba 63 c0 75 72 ce bf f6 67 72 c0 e6 87 6a c0
       -3.5582623 -1.612868 -3.7875953 -3.6645446
000250 ca 10 6f c0 ca 3a 68 c0 54 98 6b c0 56 9e 73 c0
       -3.7353997 -3.6285882 -3.6811724 -3.806539
000260 07 6f 68 c0 c1 80 6b c0 ce c3 68 c0 1b ff 0d c0
       -3.6317766 -3.6797335 -3.636951 -2.2186954
000270 88 f5 09 c0 06 10 f2 bf dc 02 74 c0 2e 82 6b c0
       -2.155611 -1.891114 -3.8126745 -3.6798205
000280 ce 7a 66 c0 f7 bc 71 c0 74 34 6b c0 4b 80 12 c0
       -3.6012454 -3.7771585 -3.6750765 -2.2890804
000290 27 53 68 c0 d2 a6 74 c0 8f 44 76 c0 17 2b 6e c0
       -3.6300752 -3.822682 -3.8479345 -3.72138
0002a0 f7 f4 5e c0 36 69 5e c0 e2 ee 6e c0 af a0 fb bf
       -3.4837015 -3.4751716 -3.7333302 -1.9658412
0002b0 82 ca 72 c0 ea 94 73 c0 8f 69 6d c0 46 fc 68 c0
       -3.79361 -3.805964 -3.7095678 -3.6403975
0002c0 e0 4b 6c c0 86 44 bc bf 5d 1b 60 c0 ba d9 6a c0
       -3.692131 -1.4708412 -3.5016701 -3.669539
0002d0 cd b6 64 c0 67 d7 67 c0 f3 0e ae bf 69 76 6d c0
       -3.5736573 -3.622522 -1.3598312 -3.7103522
0002e0 b3 69 5a c0 41 9e 69 c0 aa 48 66 c0 7d c9 61 c0
       -3.4127014 -3.650284 -3.598185 -3.5279229
0002f0 26 ad 61 c0 74 09 5e c0 f7 83 c3 bf e8 7c bf bf
       -3.5261931 -3.469327 -1.5274647 -1.4959993
000300 8f d0 6f c0 96 7d c4 bf 0d 27 4f c0 e3 ec 60 c0
       -3.7471044 -1.5350826 -3.2367585 -3.5144584
000310 66 be 57 c0 8a da 66 c0 15 81 64 c0 6c 5e dc bf
       -3.370996 -3.6070886 -3.5703785 -1.7216315
000320 64 f2 be bf 6e 86 a5 bf 9c 7c 59 c0 2b ae 54 c0
       -1.4917722 -1.293165 -3.3982306 -3.3231304
000330 54 55 53 c0 94 80 61 c0 a6 5d b3 bf 27 bc bc bf
       -3.302083 -3.5234728 -1.4012954 -1.474492
000340 6d 4f 5c c0 93 bb 56 c0 a2 01 07 c0 d5 05 60 c0
       -3.4423478 -3.3551986 -2.1094747 -3.500356
000350 54 fc 62 c0 e2 c6 65 c0 89 dd 63 c0 cb 11 5c c0
       -3.546651 -3.5902638 -3.5603964 -3.438586
000360 91 db 59 c0 d8 35 56 c0 a6 4f 76 c0 71 e3 14 c0
       -3.4040263 -3.3470364 -3.8486114 -2.326382
000370 08 cb 0a c0 22 f7 6e c0 f6 74 64 c0 d8 4f 65 c0
       -2.168642 -3.7338338 -3.5696387 -3.5829983
000380 56 3f 5b c0 af b7 59 c0 11 9d 63 c0 41 e3 08 c0
       -3.4257407 -3.4018362 -3.5564616 -2.1388705
000390 11 7c 1d c0 68 a1 5b c0 85 cd 60 c0 0f b5 5c c0
       -2.4606974 -3.4317265 -3.512544 -3.448551
0003a0 02 c3 61 c0 f3 59 5f c0 e0 3b 68 c0 f2 1b 78 c0
       -3.5275273 -3.489865 -3.6286545 -3.8767056
0003b0 d7 d7 00 c0 f5 ac 65 c0 f2 4c 67 c0 2e fa 5d c0
       -2.0131738 -3.5886815 -3.6140714 -3.4683948
0003c0 f0 f9 e0 bf 86 f9 d3 bf 36 6a 67 c0 d2 46 6b c0
       -1.7576275 -1.6560524 -3.6158576 -3.6761975
0003d0 37 ad 72 c0 53 a2 6e c0 36 ff 77 c0 a2 be 6f c0
       -3.7918222 -3.7286575 -3.8749518 -3.7460103
0003e0 77 ab 93 bf aa de e0 bf 61 b3 5f c0 cf f7 67 c0
       -1.1536702 -1.7567952 -3.4953234 -3.6245
0003f0 d9 e9 70 c0 c8 2f 67 c0 43 42 f2 bf 3f 25 81 bf
       -3.764273 -3.6122913 -1.8926471 -1.0089492

bias f4 [128]
000000 ed 31 c7 c0 3c df 07 c0 62 5f 23 40 6e 6b db 40
       -6.2248445 -2.1230001 2.5526967 6.856864
000010 46 f4 b4 40 b4 4c c0 3f b7 6e 94 40 f0 b2 b1 40
       5.6548185 1.5023408 4.638515 5.553093
000020 15 20 1c 40 57 3d d8 40 43 ac 38 c0 29 b9 9f bf
       2.4394581 6.757488 -2.885514 -1.2478381
000030 00 35 9a 3f 99 ec 36 40 99 c2 c8 40 02 38 48 40
       1.2047424 2.8581908 6.2737546 3.1284184
000040 61 e6 a0 40 f8 7c 15 c0 60 c1 ac 40 c7 95 ba bf
       5.0281224 -2.3357525 5.3986053 -1.4576958
000050 a2 a1 a9 40 84 cc 5d c0 9f d5 24 c0 ba 30 1a 40
       5.3009806 -3.4656076 -2.5755384 2.409224
000060 42 f0 98 40 0e d5 ab c0 a6 7b 9d c0 b9 94 a7 c0
       4.7793283 -5.3697577 -4.921344 -5.2369046
000070 ba 1a 0d bf b7 cb 7f c0 9c 80 7d c0 e8 ea 35 c0
       -0.55118906 -3.9968088 -3.9609747 -2.8424625
000080 a5 e3 83 c0 bf 29 25 c0 50 bf b2 c0 8a 8c ee 40
       -4.1215386 -2.580673 -5.5858536 7.4546556
000090 77 29 c2 c0 db f2 c5 c0 9f 27 b9 bf e9 08 80 c0
       -6.0675616 -6.1858954 -1.4465216 -4.0010877
0000a0 0b 38 b5 c0 c7 8c 64 c0 63 58 5d c0 aa bd 64 c0
       -5.663091 -3.5710924 -3.4585197 -3.5740762
0000b0 37 e0 7b c0 2d 13 a6 c0 27 23 3d c0 df 5e 9a c0
       -3.93556 -5.189841 -2.9552705 -4.824081
0000c0 3d 35 76 40 aa 7f 43 c0 49 be b6 c0 e1 25 65 bf
       3.8469994 -3.054667 -5.710728 -0.89510924
0000d0 eb c3 99 40 03 19 e1 c0 fb fd 6f 40 1a 7e b0 c0
       4.805166 -7.034303 3.7498767 -5.5153933
0000e0 1d 7c 78 40 86 b1 9e 40 e9 75 f8 3d 85 95 ac 40
       3.8825753 4.9591703 0.121318646 5.393252
0000f0 3a 79 07 c0 60 6b cf c0 77 31 0d c0 fa 99 fe 40
       -2.116774 -6.4818573 -2.206144 7.956296
000100 bf fa 22 40 36 8e c5 c0 e9 88 02 c1 c7 85 55 c0
       2.5465543 -6.1736097 -8.158425 -3.3362901
000110 a3 cf 55 c0 df 5c be 40 7c 96 02 c0 06 0e c4 40
       -3.3407981 5.948837 -2.0404348 6.126712
000120 9b 17 98 40 e0 05 b2 c0 f3 fd 3a bf da e7 8e 40
       4.7528815 -5.563217 -0.73043746 4.465802
000130 6a 0f 0a 3f e3 ce a2 40 12 98 0b c0 7b df b1 c0
       0.5392977 5.0877547 -2.1811566 -5.5585303
000140 ae 50 e6 40 8b e7 77 40 b2 54 94 40 13 bb b3 40
       7.1973486 3.8735073 4.635339 5.616586
000150 1f 31 a8 c0 49 11 93 c0 2b 1c 09 40 ae 67 12 3f
       -5.255996 -4.59586 2.1423442 0.5718945
000160 af 42 17 c0 05 7c a2 c0 46 65 e8 40 4c 46 b7 40
       -2.363445 -5.077639 7.2623625 5.727331
000170 79 8b c8 c0 44 84 c5 40 85 5c 14 c1 59 a1 09 bf
       -6.2670255 6.1723957 -9.272588 -0.5376182
000180 9f 7f 61 bf 93 8b 8d c0 8c 70 d3 40 39 da f8 3f
       -0.8808536 -4.423288 6.6074886 1.9441596
000190 bb f3 eb be c5 67 b0 c0 95 97 9c c0 97 18 0f 40
       -0.4608439 -5.512667 -4.8935037 2.2358758
0001a0 9d d8 1e c0 92 7f 2f 40 59 0b 9a c0 62 7f a3 40
       -2.481971 2.7421613 -4.813885 5.1092997
0001b0 25 2d 83 40 60 df 94 c0 d7 29 b2 40 e4 8d 01 c0
       4.099261 -4.6522675 5.5676074 -2.0242853
0001c0 aa be 31 c0 ae b0 bf 3f 07 1c f0 40 8a 31 aa 40
       -2.7772622 1.4975793 7.5034213 5.3185472
0001d0 06 2c 97 c0 68 1f 4f 40 73 4a a3 c0 70 90 d7 40
       -4.724124 3.236292 -5.102838 6.7363815
0001e0 18 9b cc 40 e7 95 b8 c0 6e 85 ed 3f 46 af 43 40
       6.3939323 -5.7682986 1.8556345 3.0575728
0001f0 03 db 97 40 f8 be 13 3f 66 e7 0f 40 fc eb 61 c0
       4.745485 0.5771327 2.2484984 -3.5300283

weight f4 [128, 128]
000000 e5 ba e9 40 b5 10 79 3f 14 5d 07 c0 9a f5 e7 c0
       7.3040643 0.9729112 -2.115056 -7.2487307
000010 65 ae da c0 31 fd ab 3f d7 89 e6 c0 c4 58 ec c0
       -6.8337884 1.3436643 -7.204326 -7.3858356
000020 43 04 da c0 18 49 c3 40 33 63 5f be 5b 66 56 c0
       -6.81302 6.1026726 -0.21815185 -3.3499973
000030 26 67 b8 3c 85 c5 e9 3e 72 32 eb c0 45 6f cc c0
       0.022510123 0.45658508 -7.349908 -6.3885827
000040 57 c2 fa c0 8b 98 ea 40 5b 49 09 c1 2f fc b0 bf
       -7.836223 7.331121 -8.580409 -1.382696
000050 67 fc 0f c1 f3 3c df bf dc c5 72 3f 28 06 c4 c0
       -8.999122 -1.7440475 0.9483316 -6.1257515
000060 5d a2 1e c0 77 b1 99 40 9e be f2 40 b9 96 e5 40
       -2.4786599 4.802913 7.5857687 7.174649
000070 20 f6 02 c0 b3 13 ea 40 c0 bf 79 c0 43 4c c6 bf
       -2.0462723 7.3149047 -3.9023285 -1.5492023
000080 1f 55 0e 41 4b 5f ea 40 5b 4e c2 40 28 5f 18 c1
       8.8957815 7.3241324 6.072065 -9.5232315
000090 83 b4 10 41 0b 8b 16 41 26 b2 5f c0 0c c3 62 3f
       9.04407 9.408946 -3.4952483 0.8857887
0000a0 28 34 ed 3f 72 e4 12 c0 cc 9d e2 40 37 b9 d0 c0
       1.8531542 -2.2951932 7.0817623 -6.522609
0000b0 a5 bf 3e c0 a2 41 e5 40 cd 98 14 40 2d 1e 38 40
       -2.980447 7.164262 2.3218262 2.8768418
0000c0 c4 5b 14 c1 c6 09 15 41 4f f9 9a 40 a3 b3 53 3f
       -9.272404 9.314886 4.842933 0.8269598
0000d0 86 ad 4e be 56 a4 12 41 92 92 07 40 4a 5d f0 40
       -0.20183381 9.165121 2.118321 7.511388
0000e0 81 f9 c0 3f b3 c4 ee c0 b4 5d 77 c0 e1 08 ee c0
       1.5076143 -7.461511 -3.8650942 -7.438584
0000f0 f1 8f cd 40 28 cc 09 c0 2f f5 4c c0 63 53 d6 c0
       6.423821 -2.1530857 -3.2024648 -6.697679
000100 18 07 ad c0 16 f3 17 41 f9 13 d2 40 7f 92 22 c0
       -5.407116 9.496847 6.564938 -2.5401914
000110 74 fc 24 bf ea e1 de c0 90 ff 94 3e e9 31 a7 c0
       -0.6444771 -6.9650774 0.2910123 -5.2248425
000120 57 ec dd c0 12 07 e6 40 2e e1 48 c0 f3 57 5d bf
       -6.9351 7.188363 -3.1387439 -0.86462325
000130 41 93 db c0 8c b6 14 be 41 3f 7e be 46 75 f0 40
       -6.8617253 -0.14522761 -0.24828817 7.5143156
000140 47 f9 ef c0 df 5d 09 c0 9b 18 9c 3e da 26 0b c1
       -7.4991794 -2.1463544 0.30487522 -8.696985
000150 e9 a8 d8 40 6c 52 c1 3e cc 3d a6 bf ca dc ec bf
       6.770619 0.37758195 -1.2987609 -1.850488
000160 e6 e3 c7 bf 20 0f 8c 3e 48 42 04 c1 89 d1 e6 c0
       -1.5616424 0.2735529 -8.266182 -7.213078
000170 0e 18 15 41 b4 fc aa 3f 66 ee de 40 30 cc d3 bf
       9.318373 1.3358369 6.9666014 -1.6546688
000180 2e 7e 7d c0 4e 8f ed 40 fa 27 12 c1 0a 99 8e 3f
       -3.9608264 7.4237432 -9.13476 1.1140454
000190 1d 27 de 40 44 72 c9 40 1e 24 e2 40 59 08 78 3f
       6.9422746 6.2951984 7.066909 0.9688774
0001a0 83 da f9 bf fd b0 c4 3f 57 d2 04 41 b6 a7 a4 3f
       -1.951981 1.5366513 8.3013525 1.2863681
0001b0 7d b2 bf c0 de 7f 01 41 a1 99 de c0 9a c3 52 3e
       -5.990538 8.093718 -6.9562535 0.20582429
0001c0 80 b3 b0 bf 33 4d e8 c0 a0 ca 13 c1 8f 01 d8 c0
       -1.3804779 -7.2594237 -9.236969 -6.7501903
0001d0 01 a5 f1 40 15 a6 3c bf 61 f4 2e 40 9d e2 ae 40
       7.551392 -0.7369092 2.7336657 5.4651628
0001e0 f2 c2 e4 c0 7b a6 09 41 a2 58 87 3f 7c 90 00 c1
       -7.148797 8.603145 1.0573924 -8.0352745
0001f0 b1 8a bd c0 19 04 4a c0 1a 49 d4 3f 14 25 a8 40
       -5.92318 -3.1565 1.6584809 5.254526
000200 ed 34 11 41 e5 cc 0b 3f 85 eb d5 3f 1a a3 13 c1
       9.075421 0.5460952 1.67125 -9.22732
000210 b0 cd 7f c0 4e e4 3d 40 38 dc 11 c1 ce bf e8 c0
       -3.9969292 2.9670596 -9.116264 -7.2734137
000220 58 56 f2 c0 b1 e1 0c 41 cc 1a cc 3e a3 9d 56 bf
       -7.57304 8.8051 0.39864194 -0.83834285
000230 bf 5f 8d be cf 1a fc 3f 3b c4 13 c1 19 41 95 c0
       -0.2761211 1.9695681 -9.235408 -4.6641965
000240 71 51 f2 c0 61 4a 15 41 1e 5a c0 c0 60 86 9f 3d
       -7.5724416 9.330659 -6.0110006 0.07789302
000250 68 6e 06 c1 65 4e 1e c0 a4 2d 53 40 96 d1 d7 c0
       -8.401955 -2.4735348 3.2996607 -6.744334
000260 8d 1b e5 3f e9 f8 45 40 1f 44 e0 40 8c 5f c9 40
       1.7899033 3.0933173 7.0083156 6.2929134
000270 7a 3d 5c c0 c9 9c 14 41 3a 71 c7 bf b4 f5 87 bf
       -3.4412522 9.288278 -1.5581429 -1.0621858
000280 29 f9 e1 40 6e 14 10 41 ef 99 75 40 e3 e7 14 c1
       7.061665 9.004988 3.8375204 -9.306613
000290 3e 12 e3 40 e3 ef 14 41 19 05 87 bf a6 71 88 be
       7.095977 9.308566 -1.0548431 -0.26649207
0002a0 6a c3 f5 3d c1 fa 2d bf 66 32 d6 40 a3 32 d7 c0
       0.12000163 -0.67960745 6.693652 -6.7249312
0002b0 49 97 15 c0 b0 c8 d4 40 e6 b6 86 40 eb d4 dd 3f
       -2.3373587 6.649498 4.2098265 1.7330602
0002c0 9f 99 11 c1 f7 d2 12 41 1d ad 92 40 4b b4 f4 3f
       -9.100005 9.176505 4.583632 1.9117521
0002d0 2b d2 9b bf dc 49 df 40 60 12 9a 3e 31 d4 eb 40
       -1.2173513 6.977766 0.30092144 7.3696523
0002e0 ae 6c 2c 40 c5 90 13 c1 f8 29 4d c0 1e 94 e9 c0
       2.6941333 -9.222844 -3.2056866 -7.2993307
0002f0 31 7c a0 40 b5 38 2b bf 7d 5a 18 c0 0f 8c 0c c1
       5.01516 -0.66883403 -2.380523 -8.784194
000300 5f f7 9a c0 b3 7f e0 40 44 09 da 40 32 98 e7 bf
       -4.8426967 7.0155883 6.813631 -1.8093321
000310 98 a6 d9 3f 5c da bd c0 0b 8c 5d 3f c3 ab 61 c0
       1.7003965 -5.932905 0.86541814 -3.5261085
000320 ba 10 0c c1 04 0f 16 41 22 14 70 bf bd 01 1c c0
       -8.754084 9.378666 -0.9378072 -2.437606
000330 80 70 e3 c0 16 f3 df 3f 86 41 8a bf 67 7f c9 40
       -7.107483 1.7496059 -1.0801246 6.296802
000340 d5 ba eb c0 e9 57 5f c0 ac 74 62 3f 5d 2d 00 c1
       -7.3665566 -3.4897406 0.8845928 -8.011075
000350 ca a0 98 40 fd ad 45 3f 3a 5c b4 bf ef 72 52 c0
       4.7696276 0.7721861 -1.4090645 -3.288265
000360 bd 86 42 c0 41 2b a5 bf e4 58 09 c1 e8 29 e9 c0
       -3.0394738 -1.2903825 -8.584202 -7.2863655
000370 17 f9 e3 40 49 76 64 40 46 bf ca 40 2a f5 84 bf
       7.1241565 3.5697196 6.335849 -1.0387318
000380 52 c7 c0 bf cc e8 13 41 cf b1 0f c1 6f 43 2a 40
       -1.5060828 9.244335 -8.98091 2.6603658
000390 75 f6 15 41 7c cf e0 40 d3 67 d1 40 7c 79 06 40
       9.37267 7.0253277 6.543924 2.1011648
0003a0 8c 29 ec bf de f4 2a 3f ef 89 b5 40 a2 95 ed 3f
       -1.8450179 0.6677989 5.6730876 1.8561289
0003b0 cf 31 ea c0 46 fa b8 40 7f 59 e6 c0 8a ab 46 40
       -7.31858 5.780551 -7.198425 3.10422
0003c0 16 87 0b c0 63 6f 14 c1 0f a2 13 c1 92 fd c1 c0
       -2.18012 -9.277194 -9.227065 -6.0622034
0003d0 77 3b 14 41 fe 12 67 c0 67 f6 9d 40 a3 18 11 41
       9.264518 -3.6105342 4.9363284 9.068515
0003e0 0b 34 07 c1 d9 40 bf 40 a8 b6 8c bd f4 33 bd c0
       -8.450206 5.976666 -0.068707764 -5.912592
0003f0 27 fa ee c0 98 fe 85 c0 c7 8b 4c 40 82 7b d2 40
       -7.468036 -4.1873283 3.1960313 6.5775766

bias f4 [128]
000000 70 09 1e c1 8c 16 e1 c0 2b 07 0d c1 8d 13 86 c0
       -9.877304 -7.0340023 -8.81425 -4.1898866
000010 22 f6 fa c0 89 86 11 c1 11 c0 c0 3f 6d 30 14 c1
       -7.8425455 -9.0953455 1.5058614 -9.261823
000020 d8 4b 0a c1 cd 2a f2 c0 4f c5 09 c1 8c 64 70 c0
       -8.643517 -7.5677247 -8.610671 -3.756137
000030 71 df 21 3f f8 b7 ec c0 ad e7 00 c1 a2 e2 18 c1
       0.6323157 -7.397457 -8.056561 -9.55533
000040 5f 8c ad c0 11 0f 08 c1 e6 c8 e8 c0 f9 05 0b c1
       -5.423385 -8.503678 -7.2745237 -8.688958
000050 25 97 95 c0 b9 cb 6d c0 cd 53 b4 bf b4 dc 10 c1
       -4.6747003 -3.7155592 -1.4088074 -9.053883
000060 a0 05 18 c1 a1 bd 15 c1 28 8f 14 c1 e6 d5 c0 bf
       -9.501373 -9.358796 -9.28495 -1.5065277
000070 e7 d5 0a c1 55 1f 03 c1 79 75 10 c1 ef 0d 22 c1
       -8.677222 -8.195149 -9.02868 -10.128402
000080 28 de 0f c1 b5 7c f9 c0 de 1e d8 c0 27 ce ad c0
       -8.991737 -7.796473 -6.753768 -5.431415
000090 71 97 ca bf ba cd 7a 40 cd 8f 19 c1 ad 4d 19 c1
       -1.5827466 3.9188066 -9.597608 -9.581464
0000a0 e7 60 f2 c0 46 98 e8 c0 98 eb 25 c1 ef 45 10 c1
       -7.574329 -7.268588 -10.370018 -9.017074
0000b0 ee 4e 1d c1 8b 8d e3 c0 3c 46 14 c1 b9 d4 bb c0
       -9.83177 -7.111028 -9.267147 -5.869717
0000c0 f6 1a cb c0 49 17 1b c0 6b 2b dd c0 f8 9e 19 c1
       -6.347041 -2.4232962 -6.91155 -9.601311
0000d0 ff 35 1c c1 9a ca 14 c1 ad 38 11 c1 b8 81 c0 c0
       -9.763183 -9.299463 -9.076337 -6.015835
0000e0 e3 36 c9 c0 1c 1c 0b c1 9e fc 10 c1 fb e8 13 c1
       -6.28795 -8.694363 -9.061674 -9.24438
0000f0 41 ae 19 c1 f4 bd 20 c1 4e c5 b7 c0 27 79 d5 c0
       -9.605042 -10.046375 -5.742835 -6.671039
000100 6c 49 16 c1 1c c0 d0 c0 25 a8 76 c0 fc 63 14 c1
       -9.392925 -6.523451 -3.8540127 -9.27441
000110 1b e6 f0 bf 64 e2 d2 be 73 94 fb c0 c8 e2 13 c1
       -1.8820223 -0.41188347 -7.8618712 -9.2428665
000120 50 07 ec c0 b4 4c aa bf f5 4e d8 c0 f1 4a 0d c1
       -7.3758926 -1.3304658 -6.7596383 -8.830796
000130 13 72 e0 c0 39 48 bd c0 60 a1 14 c1 e9 8d ce c0
       -7.013925 -5.9150662 -9.289398 -6.454823
000140 00 c4 14 c1 91 8c fe c0 84 dc 08 3f 01 58 10 c1
       -9.297852 -7.954659 0.5346148 -9.021485
000150 00 b6 e3 c0 00 2c d2 c0 75 3e 1e c1 ae ac e8 c0
       -7.115967 -6.567871 -9.890248 -7.271079
000160 54 b7 5f c0 77 7d 62 c0 2f 64 da c0 63 b2 16 c1
       -3.4955645 -3.5389078 -6.8247294 -9.418551
000170 c3 c5 9d c0 be f4 40 bf 46 c3 01 c1 8f 22 14 c1
       -4.930391 -0.75373447 -8.110174 -9.258437
000180 90 f7 15 c1 42 29 00 c1 32 a7 0d c1 5a e6 0c c1
       -9.37294 -8.010073 -8.853319 -8.806238
000190 f6 2a 04 40 27 09 f7 c0 05 4d ae c0 f5 41 27 bf
       2.0651221 -7.719867 -5.446902 -0.6533502
0001a0 c0 d7 89 bf f5 24 ed bf 00 27 15 c1 43 e9 e8 c0
       -1.0768967 -1.8526903 -9.3220215 -7.2784743
0001b0 58 e6 e7 c0 18 d8 6e c0 aa 2d 14 c1 a7 27 fb c0
       -7.246868 -3.7319393 -9.261148 -7.8485904
0001c0 05 93 3b c0 df 43 13 c1 d5 d9 19 c1 d4 dc 0e c0
       -2.9308484 -9.20407 -9.615682 -2.2322283
0001d0 8b 94 48 c0 f4 4d 93 c0 24 de f7 c0 53 77 14 c1
       -3.1340663 -4.603266 -7.745867 -9.279132
0001e0 1c 36 ea c0 eb bb c4 c0 a0 bd 0b c1 ca bb 15 c1
       -7.319105 -6.147939 -8.733795 -9.358347
0001f0 07 65 b1 c0 a0 c1 18 c0 48 79 15 c1 6c 9d d4 bf
       -5.5435824 -2.386818 -9.34211 -1.6610541

weight f4 [64, 128]
000000 8e d5 08 41 16 91 6d 40 8e 41 02 41 b8 23 01 41
       8.552137 3.7119803 8.141005 8.07122
000010 fb 88 6d 40 c6 7d 01 41 03 11 02 41 18 f5 07 41
       3.7114856 8.093206 8.129153 8.497337
000020 7e 30 75 40 90 87 e9 40 88 d8 fe 40 03 45 df 40
       3.8310847 7.297798 7.963932 6.9771743
000030 b2 00 ec 40 42 dc 78 40 71 82 ef 40 61 19 08 41
       7.375085 3.8884435 7.484673 8.506196
000040 08 f3 05 41 50 81 00 41 c8 ab 09 41 24 ec 00 41
       8.371834 8.03157 8.604439 8.0576515
000050 7e 15 3a 41 c7 91 e2 40 06 d2 78 40 5d a6 fd 40
       11.630247 7.080295 3.8878188 7.926558
000060 bd f1 05 41 df b0 07 41 15 32 07 41 8c ee fd 40
       8.371518 8.480681 8.449727 7.9353695
000070 a9 f1 7b 40 a4 82 77 40 8d 57 cd 40 7b ac 20 41
       3.9366248 3.8673487 6.4169374 10.0421095
000080 30 8d 80 40 05 f3 09 41 ba 54 7a 40 ec 17 6b 40
       4.017235 8.621831 3.9114213 3.673335
000090 b4 48 01 41 ea d8 bd 40 5c 41 04 41 27 05 08 41
       8.08025 5.932729 8.265957 8.501258
0000a0 96 30 04 41 57 1e 06 41 0b b2 eb 40 63 6c f0 40
       8.261862 8.382407 7.3654838 7.513231
0000b0 57 4c 05 41 96 6d 68 40 be 78 00 41 4b 74 c8 40
       8.331138 3.6316886 8.029478 6.264196
0000c0 9f 3f d9 40 dc b7 a7 40 a1 9f 7c 40 26 ad 07 41
       6.7890162 5.241194 3.947243 8.479773
0000d0 54 e1 c5 40 fb a8 05 41 0d 9f dd 40 19 90 dc 40
       6.183756 8.353755 6.9256654 6.89259
0000e0 18 8d b8 40 fd a4 e0 40 5e 21 df 40 7f 38 d1 40
       5.7672234 7.02014 6.972823 6.5381465
0000f0 a9 cc c9 40 f5 d1 20 41 67 46 43 40 17 fc be 40
       6.306233 10.051259 3.051172 5.9682727
000100 e6 26 08 41 a6 57 0e 41 99 2a f0 40 e4 e2 06 41
       8.509497 8.896399 7.5052 8.430393
000110 d0 8c b3 40 6f 83 d1 40 3b 77 be 40 87 61 07 41
       5.610939 6.547294 5.9520545 8.46131
000120 68 0d e3 40 c8 95 27 41 6e 9e 04 41 89 d5 04 41
       7.0953865 10.474068 8.288679 8.302133
000130 6e 0e 0a 41 4f bd e1 40 8d 73 cb 40 7e 12 93 40
       8.628523 7.054359 6.3578553 4.5960073
000140 a9 de 0a 41 94 b8 06 41 69 02 8b 40 7d fb a1 40
       8.67936 8.420063 4.344044 5.0619493
000150 86 7a 06 41 ef 05 c2 40 3b 03 7b 41 8f 7a ce 40
       8.404913 6.0632243 15.688289 6.452461
000160 0a e6 f9 40 31 e9 a8 40 34 72 bf 40 13 47 08 41
       7.809331 5.2784657 5.982691 8.517352
000170 89 20 fc 40 94 c7 d5 40 82 0d 00 41 fe 57 07 41
       7.8789716 6.6806126 8.003298 8.458982
000180 01 93 08 41 06 b3 02 41 dd 22 fb 40 b8 48 fc 40
       8.53589 8.168707 7.848006 7.883877
000190 df 56 fc 3f 93 a2 02 41 b2 df e2 40 b2 eb c9 40
       1.9714011 8.164691 7.0898066 6.3100214
0001a0 ef 01 11 41 30 6f fc 40 04 69 7b 40 c3 d5 06 41
       9.062972 7.8885727 3.9282846 8.427188
0001b0 c1 c9 07 41 fa 63 e0 40 52 c8 00 41 ae 3f c2 40
       8.486756 7.012204 8.048906 6.0702734
0001c0 27 bf 07 41 78 e7 04 41 6a 06 76 40 53 da e8 40
       8.484168 8.306511 3.8441415 7.276651
0001d0 68 34 bb 40 fb 88 05 41 f4 3f c2 40 ed c1 05 41
       5.8501472 8.3459425 6.070307 8.359845
0001e0 79 8a 08 41 6e 5a 0f 41 1f 7e c9 40 7b c5 07 41
       8.533807 8.959578 6.2966456 8.485713
0001f0 57 3f e3 40 7f dc ae 40 f3 f4 09 41 5f ce 08 41
       7.101482 5.464416 8.622302 8.550384
000200 bc 13 08 41 0f 78 df 40 35 a3 00 41 29 73 02 41
       8.504818 6.9834056 8.039845 8.153115
000210 7e 1b 06 41 21 4b 00 41 8d 25 01 41 5e 57 0b 41
       8.381712 8.018342 8.071668 8.70883
000220 26 b2 07 41 0a ac dd 40 84 00 0e 41 13 65 6e 40
       8.480993 6.927251 8.875126 3.724919
000230 20 fe f6 40 c5 79 0e 41 fb 05 0d 41 76 34 08 41
       7.718521 8.904729 8.81396 8.512808
000240 ad f3 0a 41 1a 54 02 41 47 ef 14 41 26 9c 00 41
       8.684491 8.145533 9.308417 8.038122
000250 0c c6 16 41 35 ba e1 40 de 08 77 40 35 7a 1d 41
       9.423351 7.0539804 3.8599162 9.842336
000260 2d 38 06 41 9a ac 13 41 6f 1d 0e 41 1b 4d 15 41
       8.388715 9.229639 8.882186 9.331325
000270 04 34 7c 40 16 6c 06 41 4e 7a 07 41 99 52 1e 41
       3.9406748 8.401388 8.46736 9.895165
000280 fa 60 05 41 96 f8 09 41 f8 e1 06 41 37 45 66 40
       8.336176 8.62319 8.430168 3.5979745
000290 1d 64 f7 40 e6 c9 be 40 da 54 05 41 d1 d8 07 41
       7.730971 5.962146 8.333216 8.490434
0002a0 2d 47 07 41 b4 c0 0c 41 fd 19 0d 41 0a 4c 26 41
       8.454877 8.797047 8.818845 10.393564
0002b0 6e 66 08 41 ff e7 a7 40 22 66 02 41 2d 19 e0 40
       8.525007 5.24707 8.149935 7.003073
0002c0 df 6c e6 40 cc c3 da 40 54 5b 11 41 ec 44 0d 41
       7.20079 6.836401 9.084797 8.829327
0002d0 1c eb 04 41 b7 5b 06 41 01 48 0f 41 c0 1c de 40
       8.3074 8.397391 8.955079 6.9410095
0002e0 54 ef ee 40 77 b8 e0 40 a7 0d 22 41 af 7b d1 40
       7.466715 7.0225177 10.128333 6.546348
0002f0 96 38 d6 40 76 96 1f 41 1c b8 3f 40 f8 81 bf 40
       6.6944075 9.974234 2.9956121 5.9846153
000300 d7 cf 09 41 18 09 14 41 cf ad 00 41 54 44 0f 41
       8.613242 9.25222 8.042434 8.954182
000310 02 5a b5 40 ce 41 d1 40 d6 06 bc 40 e1 18 0c 41
       5.6672373 6.539283 5.8758345 8.756074
000320 04 b5 de 40 ae 3d 41 41 d4 49 05 41 ae f3 06 41
       6.9595966 12.0775585 8.330524 8.434492
000330 77 82 0f 41 52 62 e2 40 e5 7c 06 41 12 7f 92 40
       8.969352 7.074502 8.405492 4.5780115
000340 01 9d 11 41 a3 79 0e 41 23 13 25 41 55 9a 09 41
       9.100831 8.904696 10.317172 8.600179
000350 21 60 09 41 1f af bd 40 8f 3d 8f 40 75 c4 fd 40
       8.585969 5.927627 4.4762645 7.9302316
000360 11 10 03 41 a8 d8 d9 40 1e 28 c0 40 14 7c 0e 41
       8.191422 6.8076973 6.004897 8.9052925
000370 1e 17 fc 40 24 cc d3 40 d7 ec 1b 41 c2 64 07 41
       7.877822 6.6186695 9.745322 8.462099
000380 3e 95 0f 41 96 28 0d 40 99 2b 1e 41 1f 16 1d 41
       8.973936 2.2056022 9.885644 9.817901
000390 21 5f c2 40 58 74 00 41 df 04 e0 40 76 1b cd 40
       6.0741124 8.028404 7.0005946 6.409602
0003a0 96 a0 2b 41 51 2b 02 41 64 0c 06 41 40 14 10 41
       10.726706 8.135575 8.378025 9.004944
0003b0 b7 8f 11 41 b2 17 de 40 b3 04 02 41 6d 6c bd 40
       9.097587 6.9403925 8.126147 5.9194856
0003c0 cd ad d5 40 dc 73 08 41 f3 66 04 41 32 9d 26 41
       6.677466 8.528286 8.275134 10.413378
0003d0 f4 b1 bd 40 fc 2a 13 41 0a e3 be 40 2f b8 0a 41
       5.927973 9.197994 5.9652147 8.669967
0003e0 39 89 0d 41 8d 13 10 41 fa 71 ca 40 21 ef 0d 41
       8.846002 9.004773 6.326413 8.870881
0003f0 a9 96 e2 40 c4 3f d3 40 f9 58 0b 41 a2 e3 0a 41
       7.080891 6.601534 8.709222 8.680574

bias f4 [64]
000000 0e 49 99 40 a0 4a 8e 40 2a 56 90 40 c0 a5 8e 40
       4.790168 4.4466095 4.510518 4.457733
000010 94 73 8f 40 eb 6f 90 40 c1 a5 8e 40 5f 80 98 40
       4.4828587 4.513662 4.4577336 4.7656703
000020 7f 2a 8e 40 08 d4 87 40 3b 38 8e 40 4b 21 8e 40
       4.4426875 4.2446327 4.444364 4.441564
000030 a1 4a 8e 40 54 9f 8d 40 9e 1e 87 40 e7 39 8f 40
       4.44661 4.425699 4.2224874 4.475818
000040 73 15 90 40 ef 5c 8e 40 70 e9 8e 40 45 47 8f 40
       4.5026183 4.4488444 4.465996 4.47745
000050 b9 1a 8f 40 2f b4 90 40 da b7 8e 40 10 f7 8f 40
       4.472012 4.521995 4.459943 4.498909
000060 38 47 8f 40 f1 e4 8e 40 fe 77 8f 40 f3 64 cd c0
       4.4774437 4.465447 4.4833975 -6.418573
000070 c1 7f c7 c0 1a fc 90 40 fd 00 8e 40 b4 4b 8f 40
       -6.234345 4.530774 4.4376206 4.477991
000080 0a 8e 8f 40 b6 4b 8f 40 1d 26 91 40 dc d2 ca c0
       4.4860888 4.477992 4.5359025 -6.3382397
000090 67 8a c7 c0 4c e1 8f 40 44 d7 8d 40 03 ea 8f 40
       -6.235645 4.496252 4.4325275 4.497316
0000a0 5a 04 8f 40 b0 b6 8d 40 dd 8d 90 40 6e b8 90 40
       4.469281 4.4285507 4.5173173 4.5225134
0000b0 83 7e 8d 40 95 b5 8f 40 74 41 8e 40 ef dc 8f 40
       4.4216933 4.490916 4.44549 4.4957194
0000c0 f9 58 8f 40 a3 d9 87 40 6f e9 8e 40 cd b7 8e 40
       4.479611 4.245317 4.4659953 4.4599366
0000d0 1a 04 90 40 77 cb 8f 40 27 85 87 40 db c0 8e 40
       4.5005007 4.493587 4.235004 4.461042
0000e0 3a 1f 98 40 01 a4 8f 40 c3 ff 8f 40 11 28 8f 40
       4.753812 4.48877 4.499971 4.473641
0000f0 08 a4 8f 40 f2 e4 8e 40 69 c5 8e 40 43 ea 98 40
       4.4887733 4.4654474 4.461598 4.7785964
