pth/takada_model_120.pth (torch, 859042 bytes, 6 tensors)

weight f4 [512, 128]
0	0x3d39672d	0.04526441
1	0x3c9798a0	0.018505394
2	0xbe351865	-0.17685087
3	0xbe0fcb1c	-0.14042324
4	0xbd739f37	-0.05947801
5	0xbd916b68	-0.07100564
6	0xbc3d62b6	-0.011559179
7	0xbe01b28e	-0.1266577
8	0x3d279f64	0.04092349
9	0xbc74a42f	-0.014931723
10	0xbd8da7c2	-0.06916763
11	0xbe89f916	-0.2694785
12	0xbda2a53e	-0.07941674
13	0xbe75d7cb	-0.240081
14	0x3cac36ef	0.021022288
15	0xbd580a69	-0.052744303
16	0xbdd63e97	-0.10461157
17	0xbdb70416	-0.08936326
18	0x3b0032c8	0.0019561518
19	0xbd0e7e91	-0.034788672
20	0xbe183172	-0.14862612
21	0xbe3c62a9	-0.18397011
22	0xbe5921a3	-0.21204238
23	0xbda1d203	-0.07901385
24	0xbe58a156	-0.21155295
25	0xbe03765c	-0.1283812
26	0xbcb4feff	-0.022094248
27	0xbd097ab9	-0.033564303
28	0x3c917d14	0.017759837
29	0x3c956ef7	0.018241389
30	0xbe4598ee	-0.1929662
31	0xbe74c6c7	-0.23903953
32	0xbd964086	-0.073365256
33	0xbe4371ea	-0.19086424
34	0xbddae690	-0.106885076
35	0xbb32b14f	-0.0027266329
36	0x3d057c0f	0.032589015
37	0xbccab5f2	-0.024744961
38	0xbe1c04dd	-0.1523623
39	0xbe77f172	-0.24213198
40	0xbe49cf63	-0.19708018
41	0xbe1c3420	-0.15254259
42	0xbdafd083	-0.08584692
43	0x3d748a44	0.059702173
44	0x3d3af9a7	0.045648243
45	0x3d704ba4	0.058665887
46	0xbe056742	-0.13027671
47	0xbe0a8a2c	-0.13529271
48	0xbddc6807	-0.10762029
49	0xbdddaad0	-0.108235955
50	0xbe3e83d3	-0.18604974
51	0xbdabfb57	-0.08397549
52	0xbe42d154	-0.19025165
53	0xbe56de5a	-0.20983258
54	0xbc4a0507	-0.0123303
55	0xbe31dd59	-0.17369594
56	0x3c033018	0.008007072
57	0xbe819adf	-0.2531347
58	0xbdde125e	-0.10843347
59	0xbe1f0df1	-0.15532662
60	0xbdb2d322	-0.08731677
61	0xbe64e86e	-0.2235429
62	0xbdbc3212	-0.09189238
63	0xbd8625f9	-0.065502115
64	0xbdeb044a	-0.114754274
65	0xbdb98429	-0.09058411
66	0xbe61dfc0	-0.2205801
67	0xbe544552	-0.20729569
68	0xbe887a38	-0.26655746
69	0xbda6cd1d	-0.08144591
70	0xbe383fec	-0.17993134
71	0xbe4e7e4d	-0.20165367
72	0xbd5e623c	-0.054292902
73	0xbdc00cb1	-0.09377421
74	0xbdbd04ab	-0.09229406
75	0xbe7ed747	-0.2488681
76	0xbe8e3705	-0.27776352
77	0xbe2b3177	-0.16718088
78	0x3d010efb	0.031508427
79	0xbd9d5a76	-0.0768327
80	0xbe5d86fa	-0.2163352
81	0xbdf9158e	-0.12162314
82	0xbdcea528	-0.10090095
83	0xbdea043e	-0.114265904
84	0x3922f979	0.0001554246
85	0xbe031211	-0.1279986
86	0xbdd1eca2	-0.10250212
87	0xbe9822b7	-0.29713985
88	0xbe474360	-0.19459295
89	0xbe4fa7f4	-0.20278913
90	0xbc762d6a	-0.015025476
91	0xbe319fea	-0.17346159
92	0xbe746392	-0.23866108
93	0x3dc5beb6	0.09655516
94	0xbe15573f	-0.14584063
95	0xbe84980a	-0.25897247
96	0xbe4a09c7	-0.19730292
97	0xbe313d00	-0.17308426
98	0x3aef187e	0.0018241552
99	0xbe5bb524	-0.21455818
100	0xbdf73f55	-0.120726265
101	0xbdad4223	-0.0845988
102	0xbe518612	-0.204613
103	0xbe3c1f95	-0.18371423
104	0xbe111a9f	-0.14170311
105	0xbe7c45dd	-0.24636026
106	0xbe0ebf0d	-0.13940068
107	0x3d4a0e86	0.049330257
108	0xbe0f8838	-0.14016807
109	0xbcad14cb	-0.021128079
110	0xbe0fe59f	-0.14052437
111	0xbe7b4a2c	-0.24540013
112	0x3b6d45d2	0.0036204946
113	0xbde918cd	-0.113816835
114	0xbd6c3c29	-0.05767456
115	0xbe3270ef	-0.17425893
116	0xbdc7e7f3	-0.09761038
117	0xbddb3f1a	-0.10705395
118	0xbeac7f3d	-0.33690825
119	0xbe498017	-0.19677769
120	0xbd14dbc2	-0.03634239
121	0xbe24e28f	-0.1610205
122	0xbe193bf4	-0.14964277
123	0xbe834b66	-0.25643462
124	0xbe57b04d	-0.21063347
125	0xbe5402bb	-0.20704167
126	0xbe1b7678	-0.15181911
127	0xbe37ae25	-0.17937525
128	0xbf192895	-0.5982755
129	0xbf0563ac	-0.5210521
130	0xbf23d978	-0.64003706
131	0xbf2c75c6	-0.6736721
132	0xbf1a4252	-0.60257447
133	0xbf200c6f	-0.6251897
134	0xbf1e6058	-0.6186576
135	0xbf1031a6	-0.5632576
136	0xbf142c20	-0.5787983
137	0xbefaa3f7	-0.4895322
138	0xbf3ab1cf	-0.72927564
139	0xbf2cebf0	-0.6754751
140	0xbf30637f	-0.6890182
141	0xbf4320e2	-0.7622205
142	0xbf0c3335	-0.54765636
143	0xbf110ef9	-0.5666347
144	0xbf0b87fc	-0.5450437
145	0xbf4218e8	-0.75819254
146	0xbf450b8f	-0.7697076
147	0xbf4c2abd	-0.79752713
148	0xbf5e1c34	-0.86761785
149	0xbf6a1cc1	-0.91450125
150	0xbf3da0bf	-0.74073404
151	0xbf2eff02	-0.6835786
152	0xbf2728e1	-0.6529675
153	0xbf54ae15	-0.8307813
154	0xbf4fcbde	-0.8117045
155	0xbebbef07	-0.367058
156	0xbf5c5536	-0.8606752
157	0xbeb7e5fc	-0.35917652
158	0xbf2f1a02	-0.6839906
159	0xbf432218	-0.762239
160	0xbf3abb75	-0.72942287
161	0xbf792edc	-0.97337127
162	0xbf5d7d41	-0.8651925
163	0xbfa13222	-1.2593424
164	0xbf6b7658	-0.91977453
165	0xbf388351	-0.7207537
166	0xbf2f6da9	-0.68526703
167	0xbf52dc96	-0.8236784
168	0xbf245b70	-0.6420202
169	0xbf2bf249	-0.6716657
170	0xbf4ef60c	-0.8084419
171	0xbf1d2daa	-0.613978
172	0xbf74c4cb	-0.9561278
173	0xbf493a16	-0.7860426
174	0xbf6cb770	-0.92467403
175	0xbf0e9856	-0.55701196
176	0xbf0a5bf7	-0.5404658
177	0xbedbe5f8	-0.4294889
178	0xbf53908c	-0.82642436
179	0xbf4dbfe5	-0.8037093
180	0xbf73a9d0	-0.9518099
181	0xbf692e77	-0.91086525
182	0xbf29a2ea	-0.6626421
183	0xbf40f0eb	-0.7536761
184	0xbf00455f	-0.5010585
185	0xbf3cde3f	-0.7377662
186	0xbf474728	-0.7784295
187	0xbf6a1020	-0.91430855
188	0xbf4442b6	-0.7666429
189	0xbf56789d	-0.8377779
190	0xbf581d29	-0.84419495
191	0xbf56b9eb	-0.8387744
192	0xbf0fac34	-0.56122136
193	0xbf361eb5	-0.71140605
194	0xbf4b1c28	-0.7933984
195	0xbf69d172	-0.91335213
196	0xbf1f9ca8	-0.62348413
197	0xbf39598e	-0.72402275
198	0xbf192022	-0.59814656
199	0xbf193530	-0.5984678
200	0xbf4aa433	-0.791568
201	0xbf43d6d2	-0.76499665
202	0xbf4dde4e	-0.80417335
203	0xbf45d75a	-0.77281725
204	0xbf6bbaba	-0.920818
205	0xbf332679	-0.6998058
206	0xbeeef14b	-0.46668467
207	0xbf29c088	-0.66309404
208	0xbf5b770b	-0.8572852
209	0xbf66240a	-0.8989874
210	0xbf24ad37	-0.64326805
211	0xbf44bc3a	-0.7684971
212	0xbf534d96	-0.8254026
213	0xbf577fb7	-0.8417925
214	0xbf707d50	-0.9394121
215	0xbf31c72d	-0.69444543
216	0xbf44d06b	-0.7688052
217	0xbf522949	-0.82094246
218	0xbf348589	-0.7051626
219	0xbf6f6e55	-0.9352773
220	0xbee73ace	-0.45162052
221	0xbf2cba58	-0.6747184
222	0xbf4d763d	-0.8025854
223	0xbf655d28	-0.8959527
224	0xbf45f74b	-0.77330464
225	0xbf555271	-0.8332892
226	0xbf39c85e	-0.7257136
227	0xbdc43033	-0.09579506
228	0xbf06550d	-0.5247353
229	0xbf4f8441	-0.8106118
230	0xbf4374d4	-0.7635014
231	0xbf64eb72	-0.8942176
232	0xbf4d0e8d	-0.8010033
233	0xbf56507d	-0.83716565
234	0xbf74c1fb	-0.9560849
235	0xbeffc697	-0.499562
236	0xbe81def2	-0.25365406
237	0xbf425248	-0.759068
238	0xbf3781e8	-0.71682596
239	0xbf16c22e	-0.58890045
240	0xbf3ea19c	-0.74465346
241	0xbf2df7e2	-0.67956364
242	0xbf338b9d	-0.7013491
243	0xbf4368ad	-0.763316
244	0xbf37326d	-0.7156132
245	0xbf222b58	-0.6334739
246	0xbf0e58f3	-0.55604476
247	0xbf12298b	-0.5709464
248	0xbf039b18	-0.5140853
249	0xbf5e02d9	-0.86723095
250	0xbf63d471	-0.88996035
251	0xbf772418	-0.9653945
252	0xbf2b3a7c	-0.66886115
253	0xbf1ff740	-0.6248665
254	0xbf67ae1c	-0.90500045
255	0xbf4bf8c1	-0.79676443

bias f4 [512]
0	0xbe51ac93	-0.20475988
1	0xbf23d6fe	-0.6399993
2	0xbea5cb27	-0.32381555
3	0x3c3e52c8	0.011616416
4	0xbecd6006	-0.40112323
5	0x3a3ee7bb	0.00072824553
6	0xbe0f2afc	-0.13981241
7	0xbf28c9b5	-0.6593278
8	0xbdcb5cca	-0.099298075
9	0x3ed0e72a	0.40801364
10	0x3f2e18d1	0.68006617
11	0xbe57bd7b	-0.21068375
12	0x3e155286	0.14582261
13	0xbebe4399	-0.37160948
14	0x3b9f3ba9	0.004859407
15	0x3f006d98	0.50167227
16	0xbd99e244	-0.0751386
17	0x3f67bfad	0.9052685
18	0x3ec84edd	0.39122668
19	0xbe36d395	-0.1785415
20	0xbe4d6692	-0.20058659
21	0xbe8bb668	-0.27287602
22	0xbe85ddfc	-0.26145923
23	0x3ea249f7	0.31697056
24	0xbe988227	-0.29786798
25	0x3e0930e9	0.13397564
26	0x3ec2b7b6	0.38030785
27	0x3d4711c9	0.048600946
28	0xbe497788	-0.19674504
29	0x3e6c9662	0.23104241
30	0xbf0c5c2a	-0.5482813
31	0x3ee12c81	0.43979266
32	0xbec8deda	-0.39232522
33	0xbed55b2d	-0.41671124
34	0x3e89bde3	0.26902685
35	0xbe0cc489	-0.13746847
36	0xbeddbe5e	-0.433093
37	0x3df82e07	0.12118154
38	0xbf48d169	-0.78444535
39	0x3e23f1ac	0.16010159
40	0xbc812d29	-0.015768604
41	0xbe5f3c01	-0.21800233
42	0x3dc72474	0.0972375
43	0x3e2750a0	0.1633935
44	0xbdcb88d9	-0.09938211
45	0x3f4a0d84	0.78926873
46	0x3de75936	0.112963125
47	0x3db8b30f	0.09018528
48	0x3ece7e0d	0.40330544
49	0x3d9cf0be	0.076631054
50	0x3e867321	0.2625971
51	0xbdcceb02	-0.10005762
52	0x3e590c0b	0.21196
53	0xbe5f7b86	-0.21824464
54	0x3d9fd17e	0.07803629
55	0x3cd3e107	0.025864137
56	0x3e08e8f1	0.1337011
57	0x3e88a753	0.26690158
58	0x3d47e9df	0.04880702
59	0xbdd13dfb	-0.102169
60	0x3e0b79b0	0.13620639
61	0x3c7aca88	0.015307076
62	0xbce7a212	-0.028275523
63	0xbe235281	-0.15949441
64	0x3ed6265a	0.41826135
65	0x3c683772	0.014173375
66	0x3eadba11	0.3393102
67	0xbe92a108	-0.28638482
68	0xbed1dc09	-0.40988186
69	0x3e537b8a	0.20652595
70	0x3eb556c6	0.35417765
71	0x3ea37b5f	0.31930062
72	0x3ead0b96	0.33797902
73	0xbe88b17f	-0.2669792
74	0xbea7ed32	-0.32798153
75	0xbe36d03c	-0.17852873
76	0xbd47cbc7	-0.04877832
77	0xbdf57a9d	-0.11986277
78	0x3ca276ac	0.019831978
79	0x3ea82d63	0.32847127
80	0x3cc08723	0.023501938
81	0xbf5f5754	-0.8724263
82	0x3dc76d49	0.09737641
83	0xbd033c7e	-0.03204011
84	0xbe02bbdb	-0.12766974
85	0xbe6034d0	-0.21895146
86	0x3dda1ee5	0.10650424
87	0x3e887a83	0.2665597
88	0xbe80345f	-0.25039956
89	0xbdc7d34b	-0.09757098
90	0x3e05b73b	0.13058178
91	0xbee14b4c	-0.4400276
92	0xbef0bc7a	-0.47018796
93	0xbe4780ac	-0.19482678
94	0xbef85add	-0.48506823
95	0xbe9b9279	-0.30385187
96	0x3e9e88dd	0.30963793
97	0x3d335be8	0.04378882
98	0xbe8ba31d	-0.27272883
99	0x3e867b1d	0.26265803
100	0x3df819a8	0.121142685
101	0x3e06aec8	0.13152611
102	0x3e9fd369	0.3121598
103	0xbe43f6ce	-0.19137117
104	0x3e4d74b7	0.20064054
105	0xbdef40d7	-0.11682289
106	0x3ee92923	0.45539197
107	0xbeaf2534	-0.3420807
108	0xbe87ebec	-0.26547182
109	0x3e3afa5b	0.18259566
110	0xbe63df13	-0.22253065
111	0x3d9fcff5	0.078033365
112	0x3ea02a71	0.3128238
113	0x3d4e5d95	0.050382216
114	0x3eaf692b	0.34259924
115	0xbde19bed	-0.110160686
116	0x3ebddd4b	0.37082896
117	0x3ec8db23	0.39229688
118	0xbedd2bbf	-0.43197438
119	0x3e5d12d8	0.2158922
120	0x3e645c22	0.22300771
121	0x3dedd7b4	0.11613408
122	0xbcec5cb3	-0.028852796
123	0xbd4207fa	-0.04737089
124	0xbeeb8cc2	-0.46005827
125	0x3e26902b	0.16265933
126	0x3f356caf	0.70868963
127	0x3e664655	0.22487767
128	0xbd541455	-0.051777203
129	0xbca6d824	-0.020366736
130	0x3e3ddb65	0.18540724
131	0x3e411a6f	0.1885774
132	0x3ef671fc	0.48133838
133	0xbdd9c504	-0.10633281
134	0x3e9d5ca0	0.3073473
135	0xbf27baad	-0.6551922
136	0xbec3e25a	-0.3825863
137	0xbed0d735	-0.4078919
138	0xbe9c63e1	-0.30544952
139	0x3ec5ff39	0.38671282
140	0xbec31752	-0.3810373
141	0x3edde210	0.43336535
142	0xbd3f71a5	-0.04673924
143	0x3cb35f8d	0.021896148
144	0xbe7a1b5c	-0.244245
145	0x3e8d3597	0.27579948
146	0xbdb4d14a	-0.08828981
147	0x3d87dfb7	0.06634467
148	0x3dcbee47	0.09957557
149	0xbea5d1f7	-0.32386753
150	0xbce45374	-0.027871825
151	0xbe87afce	-0.26501316
152	0xbeb8809f	-0.3603563
153	0x3ebf05f7	0.37309238
154	0xbf180da2	-0.593958
155	0xbe9cb625	-0.30607715
156	0xbdff211c	-0.12457487
157	0x3e92bc84	0.2865945
158	0xbf38e86b	-0.7222964
159	0xbf1dc335	-0.6162599
160	0xbe69bd79	-0.22826184
161	0xbd2ebf04	-0.042662635
162	0x3ddcba56	0.10777728
163	0xbe26e3fb	-0.16297905
164	0x3ecd358f	0.40079924
165	0xbe64384f	-0.22287105
166	0xbea2185c	-0.3165921
167	0x3ebf4b3d	0.3736209
168	0x3f02f856	0.5116018
169	0xbe00402d	-0.12524481
170	0xbed9f580	-0.42570114
171	0xbe0224bd	-0.12709327
172	0x3e8354dd	0.25650683
173	0x3d92973f	0.07157754
174	0x3e2f524b	0.17121236
175	0x3d3779c8	0.044793874
176	0xbefee8fb	-0.49787125
177	0x3e8c4a4e	0.2740044
178	0xbe3f2604	-0.18666846
179	0xbd2c869f	-0.042120572
180	0xbea03d70	-0.31296873
181	0x3ec47404	0.38369763
182	0xbe1f9014	-0.15582305
183	0x3dee866b	0.11646732
184	0x3e4b071f	0.19826935
185	0xbea31673	-0.31853065
186	0xbed7155b	-0.4200848
187	0xbdd2132c	-0.10257563
188	0xbe90c66f	-0.28276393
189	0x3df2e722	0.11860491
190	0xbdac0868	-0.08400041
191	0x3e95a5cd	0.29228058
192	0xbec82e5c	-0.3909787
193	0x3f37a8ad	0.71741754
194	0x3dcbef19	0.09957714
195	0x3eabf2db	0.33583722
196	0x3ccb97d5	0.024852673
197	0xbd93209d	-0.07183955
198	0xbeb06196	-0.34449452
199	0x3eea3bc1	0.45748714
200	0xbe64af8c	-0.22332591
201	0x3e4189db	0.18900244
202	0xbf099f9b	-0.53759164
203	0xbed03e68	-0.40672612
204	0xbc91f06c	-0.017814837
205	0x3eaede68	0.34154058
206	0x3e95b95c	0.2924298
207	0x3d987375	0.07443897
208	0xbe65cc28	-0.2244116
209	0x3dd4f142	0.10397579
210	0x3f1bf8c2	0.6092645
211	0x3f24bd21	0.6435109
212	0xbeb2436f	-0.34817073
213	0x3d5a4633	0.053289603
214	0x3ea05895	0.31317583
215	0xbe4fb681	-0.20284463
216	0xbdfe5ef7	-0.12420457
217	0xbde02686	-0.10944848
218	0x3e369867	0.17831574
219	0xbd8d3465	-0.06894759
220	0xbe73895b	-0.23782866
221	0xbeb92aa7	-0.36165354
222	0x3e49e04b	0.19714467
223	0xbebb721b	-0.36610493
224	0xbe98a985	-0.29816833
225	0xbf36c2e1	-0.7139111
226	0x3e532081	0.20617868
227	0x3e94ba89	0.29048565
228	0x3ef1f8ad	0.47260037
229	0x3e4b433f	0.19849871
230	0x3d0cb93e	0.03435635
231	0xbdc96a7a	-0.09834762
232	0xbe8c2d61	-0.2737837
233	0x3e2cf946	0.16891965
234	0xbd3c4cf2	-0.04597182
235	0xbde17ceb	-0.11010154
236	0xbe201f89	-0.1563703
237	0xbed3be60	-0.41356182
238	0x3d803289	0.06259639
239	0x3e9b70a8	0.30359387
240	0x3ea04ee9	0.31310204
241	0x3e325ccb	0.1741821
242	0xbe3c6186	-0.18396577
243	0x3e4584bb	0.19288914
244	0x3d16b557	0.036794033
245	0x3e8dc0f3	0.2768627
246	0xbdc401fe	-0.095706925
247	0xbdf5658a	-0.11982258
248	0x3e480166	0.19531783
249	0xbe1e2d62	-0.15447
250	0xbdcc1b2f	-0.09966122
251	0xbd63c67d	-0.055609215
252	0xbe2bbbf5	-0.16770919
253	0x3ebe555a	0.37174493
254	0x3e611532	0.21980742
255	0x3ede9649	0.43474033

weight f4 [256, 512]
0	0xbf274982	-0.6534654
1	0x3f1f3ab4	0.6219895
2	0x3f61aead	0.8815716
3	0x3f2e83b3	0.6816971
4	0x3e41d458	0.18928659
5	0xbf54ab6a	-0.8307406
6	0x3f1a5a38	0.6029391
7	0x3f50a4e3	0.815016
8	0x3f2accfc	0.6671903
9	0x3ee3fc09	0.44528225
10	0xbee3442a	-0.44387943
11	0x3f5068bf	0.8140983
12	0xbe3806c0	-0.17971325
13	0x3eeda5b6	0.4641549
14	0x3ec9fbd9	0.39449957
15	0xbed5dbe2	-0.4176932
16	0xbf1e60aa	-0.6186625
17	0xbe2424b2	-0.16029623
18	0x3e397a98	0.18113172
19	0xbe1340a1	-0.14380123
20	0xbe36e336	-0.17860112
21	0xbd96ee95	-0.07369725
22	0x3ecdcc5c	0.40194976
23	0xbf58afc3	-0.8464319
24	0x3ebe20ab	0.371343
25	0x3e90b9fc	0.28266895
26	0xbe61a4db	-0.22035544
27	0xbf2beb54	-0.6715596
28	0x3e506aa3	0.20353179
29	0xbf1c85f3	-0.6114189
30	0x3f5c0f09	0.8596044
31	0xbf722d0d	-0.9459999
32	0xbdf3646b	-0.118843876
33	0xbdd8868e	-0.10572539
34	0x3e1136ea	0.14181104
35	0x3f2eb3d9	0.68243176
36	0x3f2ba4dc	0.6704843
37	0xbf227924	-0.63466096
38	0x3f5b1466	0.85578
39	0xbf1eca9b	-0.620279
40	0xbde69827	-0.112594895
41	0x3f4ca1fd	0.79934675
42	0xbf1dab81	-0.6158982
43	0xbf5b22f0	-0.85600185
44	0x3f1bde8b	0.6088645
45	0xbf1c1e5a	-0.6098381
46	0x3e15404e	0.14575312
47	0x3e40201f	0.18762253
48	0xbeceabfc	-0.4036559
49	0xbf2afb42	-0.6678964
50	0x3ed7380f	0.42034957
51	0x3ef99905	0.48749557
52	0xbf1e7326	-0.6189445
53	0xbebd6b39	-0.36995867
54	0x3f1a9a75	0.6039193
55	0x3ee60ffb	0.44934067
56	0x3f645f81	0.8920823
57	0xbebfc3f9	-0.37454203
58	0xbed20dd2	-0.4102617
59	0xbf69a09c	-0.91260695
60	0x3e0b9d7c	0.13634294
61	0xbded2ce0	-0.11580825
62	0x3f187b33	0.5956299
63	0x3f657682	0.89633954
64	0x3e44e95f	0.19229649
65	0xbf265c65	-0.6498473
66	0xbe4d92f2	-0.20075586
67	0x3f2979c6	0.66201437
68	0xbdc6551b	-0.09684201
69	0x3df075d7	0.11741226
70	0x3e050df3	0.12993602
71	0xbf302819	-0.68811184
72	0x3e08ca18	0.13358343
73	0x3f2e8048	0.6816449
74	0x3f1ba168	0.6079316
75	0xbf20d316	-0.6282209
76	0x3f2cfedf	0.675764
77	0xbed8b4c1	-0.42325404
78	0xbf281ef9	-0.6567226
79	0x3e2cd012	0.16876248
80	0x3e3effaf	0.18652223
81	0xbeb52d7f	-0.35386273
82	0x3f2202dd	0.6328562
83	0xbf1358a3	-0.57557124
84	0x3f5cd956	0.8626913
85	0xbf378f97	-0.71703476
86	0x3e56a7c8	0.20962441
87	0xbf201920	-0.6253834
88	0x3f60f8ef	0.8787984
89	0x3e1bf380	0.15229607
90	0x3ed4ea9d	0.41585246
91	0xbed3b43a	-0.4134844
92	0x3f1a4598	0.6026244
93	0x3f2d236b	0.6763217
94	0x3ece7d96	0.4033019
95	0x3f63bdfc	0.8896177
96	0x3d539248	0.051653177
97	0x3f1c04d1	0.6094485
98	0x3f25ff33	0.6484253
99	0xbf595c93	-0.8490688
100	0xbf541adb	-0.8285348
101	0xbf1ed5a2	-0.6204473
102	0xbf633c97	-0.8876433
103	0x3f60707e	0.8767165
104	0x3f53dcbd	0.82758695
105	0x3f2bd03c	0.67114615
106	0x3f61c294	0.8818753
107	0xbf1bd907	-0.6087803
108	0x3f20f352	0.6287128
109	0xbf5598c8	-0.8343625
110	0xbed2b8e1	-0.41156676
111	0xbe35b8ec	-0.17746323
112	0x3e127f7a	0.14306441
113	0x3e255ca2	0.16148618
114	0xbe46b243	-0.19403939
115	0xbecd16ed	-0.40056553
116	0x3ecbf174	0.39832652
117	0x3e110b26	0.14164409
118	0x3f1c592c	0.61073565
119	0x3ed62c0a	0.41830474
120	0xbf17ea33	-0.59341735
121	0xbf27347c	-0.6531446
122	0xbf767061	-0.96265227
123	0x3f5da661	0.86582
124	0xbd04000d	-0.03222661
125	0xbf634845	-0.8878215
126	0xbf17d6f2	-0.59312356
127	0xbf292142	-0.6606637
128	0xbe5786ef	-0.21047567
129	0xbf513b4a	-0.8173109
130	0x3ed0a11c	0.40747917
131	0xbf56c99c	-0.8390138
132	0xbe2a24ca	-0.16615596
133	0x3ed5c7c5	0.41753975
134	0x3f547e82	0.83005536
135	0x3f530d81	0.8244248
136	0x3f5ad523	0.8548147
137	0x3f623356	0.8835958
138	0xbe390231	-0.18067242
139	0xbf5556f6	-0.83335817
140	0xbf1c09ee	-0.6095265
141	0xbe35a631	-0.17739178
142	0x3f181fd4	0.59423566
143	0xbf2a6e34	-0.66574407
144	0xbf253bec	-0.6454456
145	0x3e0ff9c5	0.14060123
146	0xbe0f578d	-0.13998242
147	0xbf243060	-0.64136314
148	0xbe58a059	-0.21154918
149	0xbde6eaad	-0.112752296
150	0x3eaad1bf	0.3336315
151	0x3e3a4a91	0.18192507
152	0x3f576e59	0.8415275
153	0x3e0727c6	0.13198766
154	0x3f70f375	0.94121486
155	0xbe5cdc32	-0.21568373
156	0xbe146637	-0.14492117
157	0x3edbaf04	0.42906964
158	0x3f61d58d	0.8821648
159	0x3f6b1f60	0.9184475
160	0xbe123a5f	-0.1428008
161	0x3f1720b2	0.59034264
162	0xbf226fe2	-0.6345197
163	0xbe085faf	-0.1331775
164	0x3ec534ec	0.3851694
165	0x3eda07b9	0.42584017
166	0x3f204cc2	0.62617123
167	0xbf54fc69	-0.8319765
168	0xbf664b8d	-0.8995903
169	0x3f51440e	0.8174447
170	0x3f18f2ea	0.5974566
171	0xbf68d1b4	-0.9094498
172	0xbf21aba8	-0.6315255
173	0x3ee1b04f	0.44079825
174	0xbdf95d38	-0.12175983
175	0x3f3e1eed	0.7426594
176	0xbec342ed	-0.38136998
177	0xbf280398	-0.65630484
178	0xbecb8a6b	-0.39754042
179	0xbecac7d6	-0.39605588
180	0x3ece52fe	0.40297693
181	0xbf547d71	-0.8300391
182	0x3f6042b0	0.8760176
183	0xbe3595f2	-0.17732981
184	0xbe54d8e0	-0.20785856
185	0xbea81340	-0.32827187
186	0x3ed04437	0.40677044
187	0x3f180cf0	0.5939474
188	0x3f1d6cc6	0.614941
189	0xbf2d9a0a	-0.6781317
190	0x3f26a7e8	0.65099955
191	0xbf21c7fb	-0.6319577
192	0x3f1c21a8	0.60988855
193	0xbf551a7a	-0.83243525
194	0xbe37f123	-0.1796308
195	0x3db9b815	0.09068314
196	0x3eff3c6b	0.49850783
197	0x3f5a85a4	0.8536017
198	0xbe07f53a	-0.1327714
199	0x3ee521e7	0.44752428
200	0xbec046c9	-0.37554005
201	0xbf53f653	-0.82797736
202	0x3f5c40f6	0.8603662
203	0x3f26ad15	0.6510785
204	0x3f308428	0.68951654
205	0xbf234905	-0.63783294
206	0xbf27e641	-0.65585715
207	0xbed88d7c	-0.42295444
208	0x3f5d9e00	0.86569214
209	0x3f032c1b	0.51239175
210	0xbf53f561	-0.82796293
211	0xbf555970	-0.83339596
212	0x3f5c8168	0.8613496
213	0x3dd9b99e	0.10631107
214	0xbf1e4c72	-0.61835396
215	0xbe02ab51	-0.12760665
216	0x3f5f2214	0.87161374
217	0xbe4c9e71	-0.19982316
218	0x3e3d64ec	0.1849553
219	0x3eb20b39	0.34774187
220	0xbf1c48b7	-0.61048454
221	0xbe5df75b	-0.2167639
222	0xbf5a7ffa	-0.85351527
223	0xbdc2bf28	-0.095091164
224	0x3f3d306a	0.73902
225	0xbe448037	-0.19189535
226	0x3ebae680	0.36503983
227	0xbf587f94	-0.8456967
228	0xbf16bf23	-0.588854
229	0xbf5d4e4a	-0.86447585
230	0x3f210460	0.628973
231	0x3f295508	0.6614537
232	0x3f59dac1	0.85099417
233	0xbf54a972	-0.83071053
234	0xbf21cf3c	-0.6320684
235	0xbe8aa16e	-0.27076286
236	0xbe1bc6f2	-0.1521261
237	0x3f4d5251	0.8020373
238	0xbf5ef2ae	-0.8708905
239	0xbf1fe0ae	-0.6245221
240	0xbf2d4448	-0.67682314
241	0xbebea70b	-0.3723682
242	0xbed0111d	-0.40638056
243	0x3eb7dcec	0.35910738
244	0xbf5b20c6	-0.85596883
245	0x3e1a3af9	0.15061559
246	0x3f5d8e02	0.8654481
247	0x3f1d19ee	0.6136769
248	0xbf55712d	-0.8337582
249	0x3f4d8b1d	0.80290395
250	0x3f19acec	0.6002948
251	0xbe2f56c1	-0.17122938
252	0xbf05ab5b	-0.5221459
253	0x3f696f82	0.9118577
254	0x3ed25561	0.41080764
255	0x3e053c3f	0.13011263

bias f4 [256]
0	0xbf59f51d	-0.8513964
1	0xbee2b12a	-0.4427579
2	0xbf2a69ac	-0.6656749
3	0xbf6d9b24	-0.9281485
4	0xbf482cdf	-0.7819347
5	0xbf593b14	-0.8485577
6	0xbf4b32f5	-0.7937463
7	0xbf3d0c48	-0.73846865
8	0xbf3af5f0	-0.7303152
9	0xbf1be934	-0.60902715
10	0xbf0efe92	-0.55857193
11	0xbddef22c	-0.10886034
12	0xbf3a59b5	-0.7279313
13	0xbf3ca64c	-0.7369125
14	0xbeef39f0	-0.4672389
15	0xbef55788	-0.47918344
16	0xbefeb251	-0.4974542
17	0xbf306bc9	-0.6891447
18	0xbf10cb56	-0.56560266
19	0x3deafaa8	0.1147359
20	0xbf3d10f6	-0.73854005
21	0xbee56d82	-0.4481011
22	0xbf824852	-1.017832
23	0xbf27900b	-0.6545417
24	0xbec9d226	-0.39418143
25	0xbf02b262	-0.5105344
26	0xbf0f9f8a	-0.5610281
27	0xbf0d6032	-0.5522491
28	0xbf2f823a	-0.68558085
29	0xbf620ea5	-0.88303596
30	0xbf120ba5	-0.5704902
31	0xbeaf15c9	-0.34196308
32	0xbf558479	-0.8340526
33	0xbed041e9	-0.40675285
34	0xbf33e690	-0.70273685
35	0xbf331dea	-0.6996752
36	0xbd3d2f60	-0.04618776
37	0xbf4a5ca7	-0.79047626
38	0xbd9281de	-0.071536765
39	0xbf1d3f18	-0.614244
40	0xbf1794fd	-0.59211713
41	0xbf387c40	-0.7206459
42	0xbf6332d3	-0.88749427
43	0xbf413032	-0.75464165
44	0xbf0083cb	-0.502011
45	0xbf219e9f	-0.6313266
46	0xbf39d512	-0.72590744
47	0xbf6c6213	-0.9233715
48	0xbef447a5	-0.4771091
49	0xbe7d2787	-0.2472211
50	0xbe1c76ec	-0.1527974
51	0xbf35d618	-0.71029806
52	0xbed77a44	-0.4208547
53	0xbf038df2	-0.51388466
54	0xbf14b4d8	-0.58088446
55	0xbf464d2d	-0.7746151
56	0xbf0f7e4c	-0.5605209
57	0xbed80449	-0.4219077
58	0xbf3e9620	-0.7444782
59	0xbf5365b5	-0.8257707
60	0xbf2ddc82	-0.67914593
61	0xbf107660	-0.56430626
62	0xbf2dff5a	-0.6796776
63	0xbf4dc3ea	-0.80377066
64	0xbf332fbd	-0.6999472
65	0xbf0682c9	-0.5254331
66	0xbf2c65d3	-0.6734287
67	0xbf1177ec	-0.5682361
68	0xbf327736	-0.6971315
69	0x3d414167	0.047181513
70	0xbeec162f	-0.46110675
71	0xbf3efe8a	-0.74607146
72	0xbf15734e	-0.58379066
73	0xbf1f417e	-0.6220931
74	0xbf5beef1	-0.8591147
75	0xbf4d7991	-0.8026362
76	0xbed580fb	-0.41699967
77	0xbec09750	-0.37615442
78	0xbf66859c	-0.9004762
79	0xbd637cf3	-0.055539083
80	0xbf54f337	-0.83183616
81	0xbf45261a	-0.77011263
82	0xbee32969	-0.4436753
83	0xbf68c57e	-0.9092635
84	0xbf65815a	-0.896505
85	0xbf125ff6	-0.57177675
86	0xbf303643	-0.68832797
87	0xbf30f1ea	-0.6911913
88	0xbe5f1e79	-0.21788968
89	0xbf0de83e	-0.554325
90	0xbf25ed26	-0.64814985
91	0xbf3bee69	-0.7341066
92	0xbf764bb8	-0.9620929
93	0xbf3b8b08	-0.7325902
94	0xbf4245c7	-0.7588772
95	0xbf009ac2	-0.5023614
96	0xbf2a4b6b	-0.6652133
97	0xbf354c3c	-0.7081945
98	0xbf2806ac	-0.6563518
99	0xbeede6d6	-0.46465176
100	0xbefffd50	-0.4999795
101	0xbf142fda	-0.57885516
102	0xbf38b2bb	-0.7214772
103	0xbf113eb2	-0.5673629
104	0xbf002efe	-0.50071704
105	0xbf2da095	-0.67823154
106	0xbf31b6e2	-0.6941968
107	0xbf48605a	-0.7827202
108	0xbf590bfa	-0.847839
109	0xbf72b073	-0.9480049
110	0xbef06401	-0.46951297
111	0xbf68cf44	-0.9094126
112	0xbedc4140	-0.43018532
113	0xbf372646	-0.71542776
114	0xbf00fca2	-0.5038549
115	0xbf42de8b	-0.76120824
116	0xbe9fcdec	-0.31211793
117	0xbef8879d	-0.48540965
118	0xbf094169	-0.5361543
119	0xbf274e53	-0.6535389
120	0xbf1a8b5a	-0.60368884
121	0xbf33c4c5	-0.7022212
122	0xbf318a11	-0.693513
123	0xbe7d2ace	-0.2472336
124	0xbee8974b	-0.45427927
125	0xbf06615b	-0.524923
126	0xbf5b1756	-0.8558248
127	0xbf3ce851	-0.73791987
128	0xbf67bcd9	-0.90522534
129	0xbf69dbe7	-0.9135117
130	0xbf26779e	-0.6502627
131	0xbf35eef6	-0.7106775
132	0x3f5e3024	0.86792207
133	0xbf2a415a	-0.6650597
134	0xbf42a5f3	-0.7603447
135	0xbf2796b5	-0.65464336
136	0xbed8a3cc	-0.42312467
137	0xbf0fdff9	-0.5620113
138	0xbf37040a	-0.7149054
139	0xbf427b39	-0.7596927
140	0xbed6a47a	-0.4192236
141	0x3ef9fa6c	0.4882387
142	0xbed84be7	-0.4224541
143	0xbf2f66ee	-0.68516433
144	0xbecaf8e4	-0.39643013
145	0xbf039c1f	-0.51410097
146	0xbf15e0f9	-0.58546406
147	0xbf25cb81	-0.6476365
148	0xbf669b71	-0.90080935
149	0xbede0051	-0.43359616
150	0xbf418c46	-0.75604665
151	0xbe7312a2	-0.23737577
152	0xbf30de62	-0.6908933
153	0xbeec2054	-0.46118414
154	0xbe4a8899	-0.1977867
155	0xbf050b88	-0.5197072
156	0xbf2cf460	-0.67560387
157	0xbf6f32d1	-0.93436915
158	0xbf30a456	-0.69000757
159	0xbf6a2feb	-0.91479367
160	0xbf3d2806	-0.73889196
161	0xbf4e5db6	-0.8061174
162	0xbf2cbae2	-0.6747266
163	0xbf31bba4	-0.6942694
164	0xbf03efb5	-0.5153764
165	0xbf474b16	-0.7784895
166	0xbf591f82	-0.848137
167	0xbf2c962d	-0.6741665
168	0xbf0f2a02	-0.55923474
169	0xbf6cf270	-0.9255743
170	0xbf170185	-0.58986694
171	0xbf2cf3d3	-0.67559546
172	0xbf3a17ea	-0.7269274
173	0xbf756988	-0.9586415
174	0xbf195280	-0.5989151
175	0xbf3cd23e	-0.73758304
176	0xbec02a0a	-0.37532073
177	0xbf021c16	-0.50824106
178	0xbf1f5e09	-0.6225286
179	0xbf32c6a8	-0.69834375
180	0xbf3bc445	-0.7334636
181	0xbf340959	-0.70326763
182	0xbf068266	-0.5254272
183	0xbf333f60	-0.7001858
184	0xbf49e788	-0.78868914
185	0xbf2afab0	-0.6678877
186	0xbf6bf6bd	-0.9217337
187	0xbf5db856	-0.866094
188	0xbf2ee846	-0.6832317
189	0xbef85f2b	-0.48510107
190	0xbf358b44	-0.7091563
191	0xbea84180	-0.32862473
192	0xbef9f7d9	-0.48821905
193	0xbee7ff95	-0.4531218
194	0xbe97a8a1	-0.2962084
195	0xbf36a2e9	-0.7134233
196	0xbf267813	-0.6502697
197	0xbedfbc82	-0.43698508
198	0xbec5a72e	-0.3860411
199	0xbef993a6	-0.4874546
200	0xbef69262	-0.48158556
201	0xbf3576a8	-0.7088418
202	0xbf27f88a	-0.65613616
203	0xbf238190	-0.6386957
204	0xbf367678	-0.7127452
205	0xbf18ba3c	-0.5965917
206	0xbf165070	-0.5871649
207	0xbf413141	-0.7546578
208	0xbf6ca0b6	-0.92432725
209	0xbf2de03e	-0.6792029
210	0xbdaef1dd	-0.085422255
211	0xbeb5f7cb	-0.35540614
212	0xbf0b5757	-0.54430145
213	0xbee5dda2	-0.44895655
214	0xbf3817dd	-0.7191141
215	0xbf7b55d8	-0.9817786
216	0xbf089ad6	-0.5336126
217	0xbf29a2ba	-0.66263926
218	0xbf3c77f9	-0.73620564
219	0xbf27137c	-0.65264106
220	0xbf174828	-0.59094477
221	0xbc9a04b4	-0.01880107
222	0xbf7fff18	-0.9999862
223	0xbf10f80d	-0.56628495
224	0xbede0b86	-0.43368167
225	0xbf27137c	-0.65264106
226	0xbef1936b	-0.47182783
227	0xbf30fa58	-0.69131994
228	0xbf3e03c8	-0.7422452
229	0xbf242972	-0.6412574
230	0xbf67de32	-0.9057342
231	0xbf3ee4e5	-0.74568015
232	0xbf27f327	-0.65605396
233	0xbf2abdd9	-0.66695935
234	0xbf0f4d29	-0.5597711
235	0xbf36fc39	-0.7147861
236	0xbeee6039	-0.46557787
237	0xbf39b7f2	-0.72546303
238	0xbf0f5c6d	-0.56000406
239	0xbf614f12	-0.88011277
240	0xbf1b2961	-0.60610014
241	0xbf2fb92c	-0.68641925
242	0xbf4c88d3	-0.7989628
243	0xbf2c7a7e	-0.6737441
244	0xbf43c6f0	-0.7647543
245	0xbedd2671	-0.4319339
246	0xbf2c077d	-0.67198926
247	0xbdcc6e01	-0.09981919
248	0xbf316b9a	-0.6930481
249	0xbeecf214	-0.4627844
250	0xbf1f7cd3	-0.6229984
251	0xbee5a20e	-0.448502
252	0xbf156c4d	-0.5836838
253	0xbcf98c96	-0.030462544
254	0xbf7d73a1	-0.9900456
255	0xbd46a2bd	-0.048495043

weight f4 [64, 256]
0	0x3ee0ea6b	0.43928847
1	0x3f712233	0.9419281
2	0x3dccc705	0.099988975
3	0x3f333249	0.69998604
4	0x3f06af1a	0.52610934
5	0x3f3f5375	0.7473672
6	0x3f19c0d7	0.60059875
7	0x3f313cf3	0.69233626
8	0x3f270870	0.6524725
9	0x3f5e48cc	0.8682983
10	0x3f72862a	0.9473597
11	0x3f867eae	1.050741
12	0x3f63c727	0.8897576
13	0x3f381991	0.7191401
14	0x3f1f75fb	0.622894
15	0x3f189e41	0.59616476
16	0x3f714446	0.942448
17	0x3f3047b6	0.6885942
18	0x3f25174c	0.64488673
19	0x3ef0d733	0.47039184
20	0x3f25a5dd	0.6470621
21	0x3f0d9d37	0.55318016
22	0x3f622530	0.88337994
23	0x3f2af0be	0.66773593
24	0x3f248737	0.6426882
25	0x3f7f4266	0.9971069
26	0x3eb36a2d	0.35041943
27	0x3f67d008	0.90551805
28	0x3f09fdb3	0.5390274
29	0x3ecbe727	0.39824793
30	0x3f4747e8	0.77844095
31	0x3f0863c1	0.5327721
32	0x3f26f753	0.65221137
33	0x3f9be545	1.2179343
34	0x3ebe7a2c	0.37202585
35	0x3edb080c	0.42779577
36	0x3f1dbfc8	0.6162076
37	0x3f3504c5	0.707104
38	0x3f5792be	0.84208286
39	0x3f683891	0.90711313
40	0x3f6cca32	0.92496026
41	0x3ed02ced	0.40659276
42	0xbd710b68	-0.05884877
43	0x3e6e62b6	0.23279843
44	0x3f564c8b	0.83710545
45	0x3f609579	0.8772808
46	0x3f6808bd	0.90638334
47	0x3f3078e8	0.6893449
48	0x3f7e94a1	0.9944554
49	0x3f19ff5d	0.6015528
50	0x3f365c36	0.7123445
51	0x3eb6305d	0.35583773
52	0x3f182a27	0.5943932
53	0x3f7734db	0.96565026
54	0x3f733ee2	0.95017827
55	0x3f27e11d	0.6557787
56	0x3f6d0992	0.9259273
57	0x3fb668eb	1.4250768
58	0x3edd4661	0.43217757
59	0x3f7f3a9c	0.99698806
60	0x3f5209cc	0.820462
61	0x3f76834c	0.96294093
62	0x3ea381c1	0.31934932
63	0x3fa50078	1.2890768
64	0x3f37d973	0.71816176
65	0x3f605932	0.876361
66	0x3f2ce4c7	0.67536587
67	0x3e9edbb2	0.3102699
68	0x3f6f8f85	0.9357837
69	0xbecf2ef6	-0.40465516
70	0xbedb7def	-0.42869517
71	0x3f28df1e	0.6596545
72	0x3e139d8e	0.14415571
73	0x3f1a84d2	0.6035892
74	0x3f26d285	0.6516498
75	0x3f37886e	0.7169255
76	0x3ece95d4	0.40348685
77	0x3f332eb5	0.69993144
78	0x3ed80bab	0.42196402
79	0x3f8f5dc0	1.1200485
80	0x3f57d42e	0.84308136
81	0x3f1d8de6	0.61544645
82	0x3f73e7e5	0.9527572
83	0xbeee39f1	-0.4652858
84	0x3f5c9680	0.86167145
85	0x3f6dfd6f	0.92964834
86	0x3f2718e6	0.65272367
87	0x3efacbf0	0.48983717
88	0x3ecd94b0	0.40152502
89	0x3f677c03	0.904236
90	0x3ef2c1aa	0.4741338
91	0x3eaf3782	0.34222037
92	0x3f69f93a	0.91395915
93	0x3f60bc9a	0.87787783
94	0x3f2fafd5	0.68627673
95	0x3eafc716	0.34331578
96	0x3f2c33f8	0.672668
97	0x3f389f32	0.7211791
98	0x3f874fa7	1.0571183
99	0x3f751da7	0.9574837
100	0x3e885a55	0.26631418
101	0x3f5a6484	0.85309625
102	0x3ec7a6d4	0.38994467
103	0x3f60fa94	0.8788235
104	0x3f6cba1f	0.924715
105	0x3f43ecce	0.7653321
106	0x3f3d35cd	0.7391022
107	0x3f3480df	0.7050914
108	0x3f435d5a	0.7631432
109	0x3f419503	0.75618
110	0x3f6f6651	0.935155
111	0x3f6b0228	0.91800165
112	0x3f18f0c1	0.5974236
113	0x3f361603	0.7112734
114	0x3f6634ba	0.89924204
115	0x3f66391d	0.899309
116	0x3f56909e	0.8381442
117	0x3f2e2a2e	0.6803311
118	0x3f72bbb5	0.9481767
119	0x3f2f554e	0.6848954
120	0x3f69bd80	0.9130478
121	0x3f239b15	0.6390851
122	0x3f38fd0a	0.72261107
123	0x3f827be2	1.0194056
124	0xbdc75e9f	-0.097348444
125	0x3f3485ea	0.70516837
126	0x3f532034	0.82471013
127	0x3ed48bf6	0.41513032
128	0x3f31a986	0.693993
129	0x3f27679d	0.65392476
130	0x3ee50a5a	0.4473446
131	0x3f516379	0.8179241
132	0x3e59d797	0.21273647
133	0x3f6dd001	0.92895514
134	0x3f3bdd11	0.73384196
135	0x3f6a5594	0.9153683
136	0x3f749723	0.95543116
137	0x3fc4e151	1.5381261
138	0x3f35e222	0.71048176
139	0x3f428023	0.7597677
140	0x3f1eb703	0.61998004
141	0x3ef8b22e	0.4857344
142	0x3f050c8a	0.5197226
143	0x3f7332cf	0.949994
144	0x3f53593a	0.82558024
145	0x3eada2cc	0.33913267
146	0x3f56638d	0.8374565
147	0x3f6ffbc4	0.9374354
148	0x3f627170	0.8845434
149	0x3f8095d0	1.0045719
150	0x3f190381	0.5977097
151	0x3efe299b	0.49641117
152	0x3f2a6428	0.66559076
153	0x3f68a409	0.908753
154	0x3e2bd7c7	0.16781531
155	0x3f8d7c71	1.1053602
156	0x3f59b3f8	0.85040236
157	0x3f58fc4a	0.8475996
158	0x3ee5d138	0.44886184
159	0x3f2ce477	0.6753611
160	0x3ec14dda	0.3775471
161	0x3f3203e0	0.6953716
162	0x3e970ddb	0.29502758
163	0x3f286d17	0.6579146
164	0x3f33ce14	0.70236325
165	0x3f27f2f5	0.656051
166	0xbcc3f65b	-0.023921182
167	0x3ea8df18	0.32982707
168	0x3f5fb367	0.8738312
169	0x3f10cc95	0.5656217
170	0x3f623df2	0.8837577
171	0x3ec518b6	0.38495415
172	0x3eb67fb1	0.35644296
173	0x3f612469	0.8794618
174	0x3f5b995f	0.857809
175	0x3f32387d	0.69617444
176	0x3ec53bba	0.3852213
177	0x3f6c6deb	0.9235522
178	0x3f660f7e	0.8986739
179	0x3f41ee52	0.7575427
180	0x3f280fb6	0.65648973
181	0x3ebe6d3d	0.37192717
182	0x3f7a168c	0.97690654
183	0x3f3f238b	0.7466361
184	0x3f5e7a14	0.86905026
185	0x3f38d750	0.7220354
186	0x3f0f3286	0.5593647
187	0x3f5083ab	0.8145091
188	0x3f3a3b89	0.72747093
189	0x3f386dc4	0.7204249
190	0x3f30d83d	0.69079953
191	0x3f451505	0.769852
192	0x3f22a7a2	0.6353704
193	0xbee9513d	-0.45569792
194	0x3fbb24fe	1.4620664
195	0x3f437c78	0.763618
196	0x3f1b1007	0.6057133
197	0x3f6206da	0.88291705
198	0x3ed34fe4	0.4127189
199	0x3f285d57	0.65767425
200	0x3f003c1a	0.5009171
201	0x3eb6fb29	0.35738495
202	0x3f5edc3d	0.87054807
203	0x3f2840b2	0.6572372
204	0x3f635bbb	0.88811845
205	0x3f6fd802	0.93688977
206	0x3f375522	0.7161428
207	0x3f36c790	0.7139826
208	0x3f26e8bf	0.6519889
209	0x3f265c7e	0.6498488
210	0x3f60b9e5	0.8778365
211	0x3ebc52bb	0.36781868
212	0x3f60c41d	0.87799245
213	0x3f2121ad	0.6294201
214	0x3f226b49	0.63444954
215	0x3eed6f9f	0.46374223
216	0x3f6f8043	0.93555087
217	0x3f33cc8e	0.70234
218	0x3f2ad19b	0.6672608
219	0x3ed113b6	0.4083535
220	0x3f58072e	0.84385955
221	0x3f6992ee	0.9123982
222	0x3f6f64e3	0.93513316
223	0x3f5d44ad	0.86432916
224	0x3f20f756	0.62877405
225	0x3e96a539	0.2942293
226	0x3f561f33	0.83641356
227	0x3f326bbd	0.69695646
228	0x3f50b62c	0.8152797
229	0x3ea8c435	0.32962194
230	0x3f20e436	0.6284822
231	0x3f60c71b	0.8780381
232	0x3e7c8f77	0.24664102
233	0x3f3c05c3	0.7344629
234	0x3f704687	0.93857616
235	0x3f0ccb47	0.54997677
236	0x3f2e081b	0.6798112
237	0x3f2748d8	0.65345526
238	0x3f59c725	0.85069495
239	0x3f15d924	0.58534455
240	0x3f5ade6c	0.8549564
241	0x3f5e7992	0.8690425
242	0x3f17307a	0.59058344
243	0x3e0c2cba	0.13688937
244	0x3f3eb8b4	0.74500585
245	0x3ee59be1	0.4484549
246	0x3ec42056	0.3830592
247	0x3f435a09	0.7630926
248	0x3efbcd50	0.49180079
249	0x3f351d7c	0.70748115
250	0x3fc72c41	1.556038
251	0x3f249f4e	0.6430558
252	0x3f51fe04	0.8202822
253	0x3f82dafd	1.022308
254	0x3f66ffcb	0.9023406
255	0x3f6101cf	0.87893385

bias f4 [64]
0	0x3f42e3b9	0.7612873
1	0x3ed5dfb6	0.4177224
2	0x3ef697f7	0.48162815
3	0x3edb88f4	0.42877924
4	0x3ee856f4	0.4537884
5	0x3ef81dfc	0.48460376
6	0x3edb91d3	0.42884693
7	0x3f3c9e49	0.73679024
8	0x3ed3ddda	0.41380197
9	0x3e5cedba	0.2157506
10	0x3ed4b950	0.41547632
11	0x3ed347f6	0.4126584
12	0x3ed5dd5a	0.4177044
13	0x3ecb281c	0.3967904
14	0x3e463f6f	0.19360135
15	0x3ee4d24a	0.44691688
16	0x3ef28c93	0.47372875
17	0x3ed7004e	0.4199242
18	0x3edfa571	0.4368091
19	0x3ee4ed78	0.44712424
20	0x3ee2c1cd	0.44288483
21	0x3efc686f	0.49298427
22	0x3edcae9f	0.43101975
23	0x3ef0a12f	0.46997973
24	0x3ee5a975	0.44855848
25	0x3edf8280	0.4365425
26	0x3ee8aa7c	0.4544257
27	0xc100c2ee	-8.04759
28	0xc1014a12	-8.080584
29	0x3f0059e8	0.50137186
30	0x3ed14475	0.4087254
31	0x3ee5ee1d	0.4490823
32	0x3eea1662	0.45720202
33	0x3ee5eafb	0.44905838
34	0x3f01c52b	0.5069148
35	0xc10126ad	-8.071942
36	0xc100213e	-8.008116
37	0x3e0610eb	0.13092391
38	0x3ecea811	0.403626
39	0x3eefd0a0	0.46838856
40	0x3ee178d1	0.44037488
41	0x3ecc9e70	0.39964628
42	0x3ef9fd2b	0.48825964
43	0x3efcb9e8	0.49360585
44	0xc0ca1929	-6.3155713
45	0x3eec737f	0.46181867
46	0x3ed54b26	0.41658896
47	0x3eef0283	0.46681604
48	0x3ee6c627	0.45073053
49	0x3e5da151	0.21643569
50	0x3edfbc28	0.4369824
51	0x3edcb1e5	0.43104473
52	0x3ef1762a	0.47160465
53	0x3eedeaf3	0.46468315
54	0x3e531133	0.2061203
55	0x3edd42e5	0.432151
56	0x3f399557	0.724935
57	0x3eeb6f58	0.45983386
58	0x3ef12e77	0.47105762
59	0x3ee3aee0	0.44469357
60	0x3eeb7410	0.45986986
61	0x3edf7978	0.4364736
62	0x3edd84df	0.43265435
63	0x3f3fe5d8	0.7496009
