pth/takada_model_80.pth (torch, 300440 bytes, 6 tensors)

weight f4 [256, 128]
0	0xbe1f84f5	-0.15578063
1	0x3c890ecd	0.01673069
2	0x3e431c44	0.19053751
3	0xbe995aa3	-0.29951963
4	0xbd6b6e29	-0.057478104
5	0x3e8af654	0.27141058
6	0xbd9b75d6	-0.07590835
7	0x3f0059b5	0.5013688
8	0xbd0811ff	-0.033220287
9	0xbda03d6b	-0.078242145
10	0x3e169e08	0.14708722
11	0xbde4fb6b	-0.11180767
12	0x3e864135	0.26221624
13	0xbe209142	-0.15680411
14	0xbe8933fd	-0.26797476
15	0xbed6d4d1	-0.4195924
16	0x3e3ee8d2	0.18643501
17	0xbe8c5b6d	-0.27413502
18	0x3e61ddeb	0.22057311
19	0xbec441bc	-0.383314
20	0x3d80234d	0.06256733
21	0x3e9c0207	0.30470297
22	0x3ea5f253	0.3241144
23	0x3d3c8e7b	0.046034317
24	0xbe8ee9ed	-0.27912846
25	0x3d89111d	0.06692717
26	0x3de7c54b	0.113169275
27	0x3ccfebb7	0.025380952
28	0xbe48ca6b	-0.19608466
29	0x3c4029d2	0.011728721
30	0xbe004852	-0.12527588
31	0x3e634371	0.22193696
32	0xbe043c46	-0.12913617
33	0xbd823f17	-0.0635969
34	0xbe401a71	-0.18760087
35	0x3d524222	0.0513326
36	0xbe7761d8	-0.24158418
37	0x3eb6b9aa	0.35688525
38	0x3e916ed7	0.28404877
39	0x3e6ea0cb	0.23303525
40	0xbc6b6dbf	-0.014369427
41	0x3e8c7d7a	0.2743948
42	0x3e212ac8	0.15738976
43	0x3e53af6f	0.20672391
44	0xbe2e4078	-0.1701678
45	0x3e7611c6	0.24030218
46	0xbece5b50	-0.4030404
47	0x3eb8fc28	0.3612988
48	0x3f1e7c9e	0.619089
49	0xbdb057c4	-0.0861049
50	0xbd2d7c6a	-0.04235498
51	0x3cdbce1e	0.026831683
52	0x3d064ca6	0.03278794
53	0x3db19599	0.086711116
54	0x3e23ca08	0.15995038
55	0xbe849066	-0.25891417
56	0x3ed05fdc	0.40698135
57	0x3d454411	0.048160616
58	0xbe47e628	-0.19521391
59	0x3e27183b	0.16317837
60	0x3dda9676	0.106732294
61	0x3e608f36	0.2192963
62	0xbed6df64	-0.4196731
63	0xbec11fc1	-0.3771954
64	0xbf0494f9	-0.51789814
65	0x3e2e7709	0.17037596
66	0x3e6ed91f	0.23325013
67	0xbe20e7d9	-0.15713443
68	0xbe8130bd	-0.25232497
69	0xbe811a17	-0.25215217
70	0x3f104e7c	0.5636976
71	0x3ebea0b4	0.37231982
72	0x3ed42c5b	0.4144009
73	0xbded4fbd	-0.115874745
74	0x3ea4c4fb	0.32181534
75	0xbe6fad59	-0.2340597
76	0x3ed74b9b	0.4204987
77	0xbe7acc36	-0.24491963
78	0xbed41041	-0.4141865
79	0x3c7b328e	0.015331877
80	0xbba8287c	-0.0051317792
81	0xbe087689	-0.13326468
82	0x3e2c2120	0.16809511
83	0xbd084eed	-0.033278394
84	0x3ece4ad0	0.40291452
85	0x3e172aff	0.14762495
86	0x3ddaf623	0.10691478
87	0xbe714504	-0.23561484
88	0xbe152514	-0.14564925
89	0x3d5e6601	0.054296497
90	0xbebffcb0	-0.37497473
91	0xbd40640e	-0.04697042
92	0x3d343101	0.043992046
93	0x3eb7e518	0.35916972
94	0x3d7f3534	0.062306598
95	0x3d5e265e	0.05423581
96	0xbe09b229	-0.13446869
97	0x3d65cec1	0.05610538
98	0x3e13ac6f	0.14421247
99	0xbe557f81	-0.2084942
100	0xbdaa451a	-0.08313961
101	0x3e1e0ea4	0.15435272
102	0x3e27f843	0.16403298
103	0xbc89772c	-0.016780458
104	0x3d510072	0.051025815
105	0x3d42ec01	0.047588352
106	0x3ee1ddaa	0.4411443
107	0xbe649c02	-0.22325137
108	0x3ca6dea6	0.020369839
109	0x3e4b11af	0.19830965
110	0xbecb0d21	-0.39658454
111	0xbb0fef83	-0.0021962828
112	0x3f51b8a3	0.8192236
113	0xbf14621a	-0.5796219
114	0xbea39e5b	-0.31956753
115	0xbe44484f	-0.19168209
116	0x3dbc79f2	0.09202947
117	0x3d1c20ab	0.038117092
118	0x3ecf014e	0.40430683
119	0x3e942a9c	0.28938758
120	0x3f1738a3	0.59070796
121	0x3ce11248	0.027474537
122	0x3dd1e66d	0.10249028
123	0x3da1c674	0.0789918
124	0x3dddfc0a	0.10839088
125	0x3d2afcad	0.041744877
126	0xbefacbcc	-0.4898361
127	0xbf08eac2	-0.5348321
128	0x3d5f7571	0.05455536
129	0xbe8dded4	-0.27709067
130	0x3da2951f	0.07938599
131	0xbc380b7f	-0.01123321
132	0xbe571cf8	-0.21007144
133	0xbe2a6fcd	-0.16644211
134	0x3dfbcfec	0.12295517
135	0xbe06c420	-0.13160753
136	0x3e19d493	0.15022497
137	0xbe187450	-0.1488812
138	0x3d93b1eb	0.072116695
139	0xbdb5594c	-0.08854923
140	0xbd33ca06	-0.043893836
141	0x3dec20a6	0.11529665
142	0xbede5b4e	-0.43429035
143	0xbdc08e3e	-0.094021305
144	0xbdadc11b	-0.084840976
145	0xbeb1610d	-0.34644356
146	0xbde04649	-0.10950906
147	0x3dfef137	0.12448352
148	0xbe816fa1	-0.2528048
149	0x3e499b2c	0.196881
150	0xbe163306	-0.14667901
151	0xbed59b53	-0.41720065
152	0xbde87ccd	-0.11351929
153	0xbf02b185	-0.51052123
154	0xbed76f4a	-0.42077094
155	0xbe80f8b1	-0.25189736
156	0xbe6a43f6	-0.22877488
157	0x3e72a586	0.23695955
158	0xbeb6ead2	-0.3572603
159	0xbebc5e71	-0.36790803
160	0x3da50507	0.080575995
161	0x3dcb175e	0.09916566
162	0xbe9d370e	-0.30706066
163	0xbe781e99	-0.24230422
164	0xbdd0914c	-0.10183963
165	0xbe0789cb	-0.13236158
166	0xbdf7e1a6	-0.12103586
167	0xbe207a06	-0.15671548
168	0xbe7611cd	-0.24030228
169	0x3d40b796	0.04705008
170	0xbea8587f	-0.32880017
171	0xbe6d50cd	-0.23175354
172	0xbe7aead2	-0.2450364
173	0xbe2641ad	-0.16235991
174	0xbdde7b0a	-0.108633116
175	0xbe98e919	-0.2986534
176	0xbe0b3d37	-0.1359757
177	0xbe03ba34	-0.12864
178	0xbde39492	-0.11112322
179	0xbec69bbc	-0.3879069
180	0xbe4bda75	-0.19907553
181	0xbea8ac4c	-0.32943952
182	0xbd890528	-0.066904366
183	0xbeafe8a5	-0.3435718
184	0x3e0223dd	0.12708993
185	0x3edde0eb	0.4333566
186	0x3c91a005	0.017776499
187	0xbe398a9d	-0.18119283
188	0x3e1fb653	0.15596895
189	0x3e0f41de	0.1398997
190	0x3aa63612	0.0012680909
191	0x3d5bdc02	0.053676613
192	0xbedb2df4	-0.42808497
193	0xbe4d491e	-0.20047423
194	0x3e5ce610	0.21572137
195	0xbe83ac84	-0.25717556
196	0xbeecc440	-0.46243477
197	0xbe648fe1	-0.2232051
198	0x3e32a7cc	0.17446822
199	0xbe0a6aad	-0.13517256
200	0xbdb42a35	-0.08797113
201	0x3e90a033	0.28247222
202	0xbd8d1725	-0.0688918
203	0xbebf1e7d	-0.37327948
204	0x3d734b81	0.059398178
205	0x3e420871	0.18948533
206	0xbecfc0a3	-0.40576658
207	0x3e47488e	0.19461271
208	0x3e6b4d04	0.22978598
209	0x3d5eebad	0.054423977
210	0x3dd55961	0.10417438
211	0x3d780db1	0.060559932
212	0xbe05b616	-0.13057742
213	0xbe421eb7	-0.1895703
214	0xbeb11a81	-0.34590533
215	0x3d07440c	0.03302388
216	0x3df06b53	0.117392205
217	0xbdf85748	-0.121260226
218	0x3e029185	0.12750824
219	0xbd0d885a	-0.034553863
220	0xbe29ea5a	-0.16593304
221	0x3d8f3c7f	0.069939606
222	0xbca32497	-0.019914908
223	0xbe58fceb	-0.2119023
224	0xbd4c7f41	-0.049926046
225	0x3e634539	0.22194375
226	0xbe77c484	-0.24196059
227	0xbd66aa49	-0.05631474
228	0xbe7790b4	-0.24176294
229	0xbe8bfa85	-0.2733957
230	0x3dda5a1e	0.1066172
231	0xbe514a61	-0.2043853
232	0xbedc2d4e	-0.43003315
233	0xbcfc0445	-0.030763755
234	0xbe4d6dbc	-0.20061392
235	0xbd97b188	-0.07406908
236	0xbe4c20d3	-0.19934396
237	0xbec070be	-0.37586015
238	0xbe6a776a	-0.22897115
239	0xbe8b2629	-0.2717755
240	0xbe893d4f	-0.26804587
241	0x3e3c26f3	0.18374233
242	0xbdc6ac05	-0.09700779
243	0xbe9bb831	-0.30413964
244	0xbd869c56	-0.065727875
245	0xbdfe6a67	-0.124226384
246	0xbe142688	-0.14467824
247	0xbe6f2aa1	-0.23356105
248	0xbe65f9ec	-0.22458619
249	0xbe47da43	-0.19516854
250	0xbe11dc80	-0.1424427
251	0xbe840f37	-0.25792858
252	0xbd0c3555	-0.03423055
253	0xbcdfc559	-0.027315782
254	0xbd567d69	-0.052365694
255	0x3b1187e5	0.0022206244

bias f4 [256]
0	0xbc424f5b	-0.01185974
1	0xbe3354cd	-0.17512818
2	0xbe3b8143	-0.18311028
3	0xbe4a3bc6	-0.19749364
4	0xbdaafb31	-0.08348692
5	0xbe0ef129	-0.13959183
6	0xbd881fba	-0.06646676
7	0x3e56c148	0.20972168
8	0x3e0504aa	0.1299006
9	0xbe0bfe8b	-0.13671319
10	0x3e2c089c	0.16800159
11	0x3d5ad0e5	0.053421874
12	0xbd9e73b2	-0.07736911
13	0xbc828b64	-0.015935607
14	0x39fcc9ed	0.00048215632
15	0x3dc34b98	0.09535903
16	0x3e295f22	0.16540197
17	0x3dd34f39	0.10317845
18	0xbdcf54f1	-0.10123623
19	0xbdf50dc3	-0.119655155
20	0xbe408241	-0.18799688
21	0xbdf8860e	-0.12134944
22	0xbc3e1cd0	-0.011603549
23	0x3d078039	0.033081267
24	0x3df4828e	0.11938964
25	0xbd396f27	-0.04527202
26	0xbe34d21b	-0.17658274
27	0xbe49a89e	-0.19693229
28	0x3de3a496	0.11115377
29	0xbb77e7d0	-0.003782738
30	0x3dee65dd	0.11640523
31	0xbdb9c3a4	-0.090705186
32	0xbdcac613	-0.09901061
33	0x3e1f2560	0.15541601
34	0xbe2e735e	-0.17036197
35	0x3e1e4e77	0.1545962
36	0xbd3330f5	-0.04374786
37	0xbb25ef36	-0.0025319583
38	0x3e3d2f80	0.18475151
39	0x3df9349b	0.12168237
40	0x3d361bb1	0.044460002
41	0x3d9a8d75	0.07546512
42	0xbdfa6af9	-0.12227435
43	0xbe62b227	-0.22138272
44	0x3e0c44ce	0.13698122
45	0x3bdcf05b	0.00674252
46	0x3de90d1c	0.113794535
47	0x3d85f295	0.065404095
48	0x3d7c8ad1	0.061655823
49	0xbde97355	-0.11398951
50	0xbda080c3	-0.07837059
51	0x3e3d8d6b	0.18510978
52	0x3e5f9876	0.21835503
53	0x3d88fb22	0.06688525
54	0xbdc52581	-0.09626294
55	0x3e099a7b	0.13437836
56	0x3d6f2960	0.058389068
57	0xbdae975d	-0.08524964
58	0x3d9b4cf6	0.075830385
59	0x3e171064	0.14752346
60	0x3e01c4d7	0.12672745
61	0x3e0c13b3	0.1367939
62	0xbd27fefe	-0.041014664
63	0xbdfa1beb	-0.12212356
64	0xbdb5ac47	-0.0887075
65	0x3e1237b2	0.14279059
66	0x3d7d9350	0.061908066
67	0x3d349fd0	0.04409772
68	0xbdd0f071	-0.102021106
69	0x3e011ead	0.12609358
70	0xbdd77661	-0.10520626
71	0xbd7834b9	-0.060597155
72	0xbe4a6a22	-0.19767049
73	0x3e175cc3	0.1478148
74	0x3de806fa	0.11329456
75	0x3d928abe	0.07155369
76	0x3e0368ce	0.12832949
77	0x3d03ddbc	0.032193884
78	0xbe1be85b	-0.15225355
79	0xbdfa4ab3	-0.12221279
80	0xbd631d3e	-0.05544781
81	0xbd06c130	-0.03289908
82	0xbc64ebef	-0.013972267
83	0xbdc979bf	-0.09837674
84	0x3da82042	0.08209278
85	0xbe0de14c	-0.13855475
86	0xbc05364f	-0.008130624
87	0xbd54bf58	-0.051940292
88	0x3c1b7766	0.009488916
89	0x3d58dd92	0.05294568
90	0x3e4321e3	0.19055896
91	0x3c87fbc9	0.016599553
92	0x3db4f42f	0.08835637
93	0xbe215110	-0.15753579
94	0xbe2a218a	-0.16614357
95	0xbd9feb4f	-0.078085534
96	0xbd3ac5a0	-0.045598626
97	0x3ded9a22	0.11601664
98	0x3c829394	0.015939511
99	0xbdf1f669	-0.11814577
100	0x3e0f0597	0.13966976
101	0xbddeddeb	-0.10882171
102	0x3dfdc655	0.123913445
103	0x3da8813a	0.08227773
104	0x3e09ba09	0.13449873
105	0xbc955a2d	-0.018231476
106	0x3e3dfcda	0.18553486
107	0xbb90727d	-0.0044081793
108	0xbd728d94	-0.05921705
109	0x3e45bd23	0.19310431
110	0x3e09df20	0.13464022
111	0xbd1726ee	-0.03690236
112	0xbdb62a8a	-0.088948324
113	0xbdcd2561	-0.10016895
114	0xbcdbe9be	-0.026844855
115	0x3b47298b	0.0030389752
116	0xbdeba65e	-0.115063414
117	0xbe804499	-0.25052336
118	0xbe035b3d	-0.12827773
119	0xbd03ba0b	-0.032159846
120	0x3cf42277	0.02980159
121	0xbd6adebb	-0.05734132
122	0xbe002e10	-0.12517571
123	0xbdd1e4fd	-0.10248754
124	0x3d5d5acc	0.05404167
125	0xbdd67db6	-0.10473196
126	0x3da5b9a0	0.08092046
127	0xbe6d3759	-0.23165645
128	0xbe060550	-0.13087964
129	0x3d68f99d	0.056878675
130	0x3e356139	0.17712869
131	0x3e495ffa	0.19665518
132	0xbd33f846	-0.043937944
133	0x3e2661c3	0.1624823
134	0xbe53fd86	-0.2070218
135	0x3e174551	0.14772536
136	0xbd01e826	-0.031715535
137	0xbe4ef607	-0.2021104
138	0xbb526c1b	-0.0032107893
139	0xbe425790	-0.18978715
140	0xbd97c388	-0.074103415
141	0xbe08384a	-0.13302723
142	0xbc428f52	-0.011874991
143	0xbe4e3fd0	-0.2014153
144	0x3dbb3f43	0.091429256
145	0x3e6d3ae9	0.23167004
146	0xbe10924c	-0.14118308
147	0x3d412342	0.047152765
148	0x3d8f2402	0.0698929
149	0x3e239c89	0.15977682
150	0xbd77b5e5	-0.060476203
151	0x3808c7a3	3.2610853e-05
152	0xbdfa27cc	-0.12214622
153	0x3d8ea19d	0.06964419
154	0x3e03f64a	0.1288692
155	0x3e316c0e	0.17326376
156	0x3e02ab9c	0.12760776
157	0xbdb8b155	-0.090181984
158	0xbe244a94	-0.16044074
159	0xbcc02abd	-0.02345788
160	0xbcccd32c	-0.025003038
161	0xbe0fca5f	-0.14042042
162	0x3db065f4	0.08613196
163	0x3c8c7cae	0.017149296
164	0xbca15250	-0.01969257
165	0xbd85ef3a	-0.065397695
166	0xbda16b01	-0.078817375
167	0x3dde7334	0.10861817
168	0x3e362138	0.1778611
169	0x3e3d8fa7	0.1851183
170	0xbd62e936	-0.05539819
171	0xbe038c9a	-0.12846604
172	0xbcb1e183	-0.021713978
173	0xbda906c4	-0.082532436
174	0x3d1a84f8	0.037724465
175	0xbe6d17da	-0.2315363
176	0x3e237d30	0.15965724
177	0xbdab38dd	-0.08360455
178	0x3d43f456	0.04784044
179	0x3da17a87	0.07884698
180	0x3bcfbf79	0.006339964
181	0x3e3e8c1b	0.18608133
182	0x3df38c1e	0.118919596
183	0x3dc776ec	0.097394794
184	0xbe474784	-0.19460875
185	0xbe1a5eb9	-0.15075196
186	0xbe18ae91	-0.14910342
187	0x3da5197f	0.080615036
188	0x3e1fa5b0	0.15590549
189	0x3b390534	0.002823186
190	0xbde017d0	-0.10942042
191	0x3c9a7d87	0.018858684
192	0x3c943a09	0.01809408
193	0xbddef490	-0.1088649
194	0xbe355ce7	-0.1771122
195	0x3db24443	0.08704426
196	0xbdc9854a	-0.09839876
197	0xbcb4b52d	-0.022059048
198	0xbd9a7548	-0.07541901
199	0x3deae5f3	0.114696406
200	0xbe4117f0	-0.18856788
201	0x3e81a0a7	0.2531788
202	0xbd547164	-0.05186595
203	0x3dca8d75	0.09890262
204	0x3e463a4a	0.19358173
205	0xbe1d61bf	-0.15369318
206	0x3d8ea1dd	0.06964467
207	0x3dda600a	0.10662849
208	0xbdff4777	-0.12464803
209	0xbdd389a0	-0.10328984
210	0x3e101dcc	0.14073867
211	0x3debd645	0.11515478
212	0xbb29f28b	-0.002593192
213	0xbe1c1b00	-0.15244675
214	0xbe914352	-0.28371674
215	0xbd762e89	-0.060102973
216	0x3b8321e4	0.004001843
217	0xbe35244c	-0.17689627
218	0x3d3487b0	0.044074714
219	0xbe5801fd	-0.21094508
220	0x3e9b5461	0.30337813
221	0xbdb0b83e	-0.086288914
222	0xbe23f3ee	-0.1601102
223	0x3da6bff7	0.08142083
224	0x3e0ba61a	0.13637581
225	0xbcc2ebe1	-0.023794116
226	0x3c6e2438	0.014535002
227	0xbe07dabd	-0.13267036
228	0xbe28ff94	-0.16503745
229	0x3e3b1cce	0.18272707
230	0xb9b983d1	-0.0003538416
231	0xbd8c22aa	-0.06842549
232	0x3d9de622	0.0770991
233	0x3dbe63c4	0.092963725
234	0x3e01b8f0	0.12668204
235	0x3d315a44	0.043298975
236	0x3da0d20f	0.078525655
237	0xbe0e771d	-0.13912626
238	0xbe04f56b	-0.12984245
239	0x3e2f2673	0.17104511
240	0xbd8d881d	-0.06910727
241	0x3d7ae9b5	0.061258037
242	0xbc65a0d6	-0.014015397
243	0xbcfcc834	-0.030857183
244	0xbe58f90f	-0.21188758
245	0x3df2a4a6	0.118478104
246	0x3dca19b6	0.09868185
247	0xbe60ef66	-0.21966323
248	0xbdea2a70	-0.114338756
249	0x3e0c7c5e	0.13719317
250	0x3e26c322	0.16285375
251	0x3e0f2b04	0.13981253
252	0xbd2b4694	-0.041815355
253	0xbe1e71b4	-0.15473062
254	0xbdedb092	-0.11605944
255	0xbe2b9eea	-0.1675984

weight f4 [128, 256]
0	0xbe61299f	-0.21988533
1	0xbe44f747	-0.19234954
2	0x3c10ffc9	0.008850046
3	0xbe3d057b	-0.18459122
4	0xbecf1c21	-0.40451148
5	0x3e8d9ebf	0.27660176
6	0x3e071e4c	0.13195151
7	0xbe3b4f35	-0.18291934
8	0x3e58a122	0.21155217
9	0xbe6820f6	-0.22668824
10	0x3e2d1e4a	0.16906086
11	0x3e8a950a	0.27066833
12	0xbe396489	-0.18104757
13	0xbd6eee1c	-0.058332548
14	0x3e72e256	0.23719153
15	0x3e9f193c	0.3107394
16	0xbdae00c8	-0.08496243
17	0x3e0209bc	0.12699026
18	0x3dffd425	0.12491635
19	0x3eac091a	0.33600694
20	0xbe277a53	-0.16355257
21	0x3d45496c	0.048165724
22	0x3e2b9275	0.16755088
23	0x3c97f36b	0.018548688
24	0x3ec84baf	0.39120242
25	0xbe91694a	-0.28400642
26	0xbdb8accd	-0.09017334
27	0x3d9dd30b	0.07706269
28	0x3dfc22e3	0.123113416
29	0x3e4df3e7	0.20112573
30	0xbec8f092	-0.3924604
31	0x3ea6fd5d	0.32615176
32	0x3de44217	0.11145418
33	0xbe2cd712	-0.16878918
34	0x3d2d3129	0.04228321
35	0xbc8fb63f	-0.017542956
36	0x3f19cb33	0.6007568
37	0xbdb92309	-0.090398856
38	0x3ed0fd27	0.4081814
39	0xbe046972	-0.12930849
40	0xbe19c3e1	-0.15016128
41	0x3e2a8930	0.16653895
42	0xbc49cf8e	-0.012317551
43	0xbf235b75	-0.6381143
44	0xbeb1c58d	-0.34721032
45	0x3e45257d	0.19252582
46	0xbe008080	-0.12549019
47	0xbdb421c3	-0.08795502
48	0xbefba139	-0.4914644
49	0xbea23f7c	-0.3168906
50	0x3d39acd8	0.045330852
51	0xbeed17b4	-0.46307147
52	0x3d43afd7	0.047775116
53	0x3d2db824	0.04241194
54	0xbe01e68f	-0.12685607
55	0x3f38a704	0.72129846
56	0x3e1602c3	0.14649491
57	0xbeb4477f	-0.35210797
58	0x3e02ed5f	0.12785862
59	0x3d9b906c	0.07595906
60	0x3e666872	0.2250078
61	0x3db4074b	0.087904535
62	0xbd2fe5fa	-0.042943932
63	0xbd8e00bf	-0.06933736
64	0xbe9ac849	-0.3023093
65	0x3e7e4053	0.24829225
66	0xbe7d254c	-0.24721259
67	0xbead6284	-0.33864224
68	0x3e34002b	0.17578189
69	0x3e8d7e0e	0.27635235
70	0xbe8ae54d	-0.27128068
71	0xbed31076	-0.41223496
72	0x3ef756b7	0.48308346
73	0x3e4da1b6	0.20081219
74	0x3e9e608c	0.30933034
75	0x3eed9027	0.46399042
76	0x3e4be766	0.1991249
77	0xbd9070ff	-0.07052802
78	0x3eaf97a2	0.34295374
79	0xbe964230	-0.29347372
80	0xbe9755ab	-0.29557547
81	0xbd1ee849	-0.038795743
82	0x3e84dae7	0.2594826
83	0x3e59ea2c	0.21280736
84	0x3d6154dd	0.055012573
85	0xbddf840c	-0.10913858
86	0x3d6e382d	0.058159042
87	0xbf4610ea	-0.7736956
88	0xbdfe2f41	-0.12411357
89	0xbc96e149	-0.018417971
90	0x3d99eae7	0.07515507
91	0x3e7cb625	0.24678858
92	0x3ec754da	0.38931924
93	0xbed6fc72	-0.41989475
94	0xbd1df3ca	-0.038562573
95	0xbd75898d	-0.05994563
96	0xbdbff940	-0.093737125
97	0x3e42ef9b	0.19036715
98	0xbe22a515	-0.15883286
99	0xbeaee05c	-0.34155548
100	0xbe2a19e5	-0.1661144
101	0xbeb9204a	-0.36157447
102	0xbd61b709	-0.055106197
103	0xbe34648d	-0.17616482
104	0x3e093c96	0.13402018
105	0x3e1d48c6	0.15359792
106	0xbe8fc12c	-0.28077066
107	0x3e6926f2	0.22768763
108	0x3e3a2771	0.18179108
109	0x3cafa35e	0.021440204
110	0x3ddbb8c4	0.107286006
111	0x3b7967d8	0.003805628
112	0x3e68a370	0.22718596
113	0x3e23703f	0.15960787
114	0x3df51e4c	0.11968669
115	0xbf0167ae	-0.5054883
116	0xbedb14f3	-0.4278942
117	0xbd8bdeee	-0.0682963
118	0xbda373b3	-0.07981052
119	0x3eb95e79	0.3620489
120	0xbce0d9d8	-0.027447626
121	0xbe8d568d	-0.27605096
122	0xbe0d3904	-0.13791281
123	0xbd3bda48	-0.045862466
124	0x3e571b79	0.21006574
125	0xbe4248b8	-0.18973053
126	0x3dc4cbb4	0.09609166
127	0x3f1423a9	0.57866913
128	0x3d77b465	0.060474772
129	0xbe8b1857	-0.27167007
130	0xbdb954f1	-0.090494044
131	0xbe86f1bf	-0.26356313
132	0xbe2369d9	-0.15958346
133	0x3e06261e	0.13100478
134	0xbe619f87	-0.22033511
135	0xbe105c99	-0.14097823
136	0x3e2a4c3b	0.16630642
137	0xbe58b759	-0.21163692
138	0xbd51b7f2	-0.051200815
139	0x3d9db2a9	0.07700092
140	0x3f281bc0	0.65667343
141	0x3e5af8d7	0.21383987
142	0xbe203bf4	-0.1564787
143	0x3e38d070	0.18048263
144	0xbe1c28c5	-0.15249927
145	0x3f003dbf	0.5009422
146	0xbe37a363	-0.17933421
147	0x3e24f37e	0.1610851
148	0xbe5aa929	-0.21353592
149	0x3e7af5fe	0.24507901
150	0xbe0c3c50	-0.13694882
151	0x3d625066	0.055252455
152	0x3e7fec4b	0.24992482
153	0xbed80aa1	-0.4219561
154	0x3f26a8d5	0.6510137
155	0x3bfb65cc	0.0076720472
156	0x3e01bbfb	0.12669365
157	0xbe0a34fa	-0.13496771
158	0xbe09d8df	-0.13461636
159	0xbdcb415b	-0.09924575
160	0x3f321b0e	0.6957253
161	0x3debd80c	0.11515817
162	0x3c473506	0.012158638
163	0xbe9e9693	-0.30974254
164	0xbea5e197	-0.32398674
165	0x3e2127fb	0.15737908
166	0x3d507a7f	0.05089807
167	0x3899df3a	7.337188e-05
168	0xbd2e47de	-0.042549007
169	0xbdb09b69	-0.08623392
170	0xbe55e43a	-0.20887843
171	0x3cb3f1e4	0.021965928
172	0xbe9e40e6	-0.3090889
173	0xbf2ff3cd	-0.68731385
174	0x3f27fc1a	0.6561905
175	0xbe7ba383	-0.24574094
176	0xbda59c72	-0.0808648
177	0xbe1793f5	-0.14802535
178	0x3c573e5f	0.013137429
179	0x3ea9e459	0.33182028
180	0xbe68c410	-0.22731042
181	0x3e820c82	0.25400168
182	0xbe76c23d	-0.24097534
183	0x3d7eb0fd	0.062180508
184	0x3e5c7f3a	0.21532908
185	0xbe6d3900	-0.23166275
186	0x3f1cb0b6	0.6120714
187	0x3c0cf802	0.008604052
188	0xbe178b00	-0.14799118
189	0x3dc70723	0.09718158
190	0xbc025630	-0.007955119
191	0xbf49c0ef	-0.7881002
192	0xbeaefb83	-0.34176263
193	0xbcfb9b59	-0.030713724
194	0xbe94085f	-0.28912637
195	0x3e179427	0.1480261
196	0xbe8768dd	-0.26447192
197	0x3ecf7f65	0.40526882
198	0x3d67482c	0.056465313
199	0xbe844a71	-0.25838044
200	0xbdfd8d56	-0.12380473
201	0x3eebcaee	0.4605326
202	0xbe5f84ce	-0.21828005
203	0x3e5a6577	0.21327768
204	0x3d222f04	0.03959562
205	0x3db93b9d	0.090445735
206	0xbda4dbc9	-0.08049733
207	0xbccc3ce1	-0.024931373
208	0xbc107bdb	-0.008818592
209	0x3d26f12e	0.04075735
210	0xbe62c494	-0.22145301
211	0x3e062b57	0.1310247
212	0xbe705562	-0.23470071
213	0xbcdc0828	-0.026859358
214	0x3ece150c	0.40250432
215	0xbda4d8ee	-0.080491886
216	0x3c11f06b	0.008907418
217	0xbe32966b	-0.17440192
218	0xbd94e4a9	-0.07270176
219	0x3cf9b81e	0.030483302
220	0x3ec0bb12	0.37642723
221	0xbe2eb246	-0.17060193
222	0xbefcede5	-0.4940025
223	0x3ef40c39	0.47665575
224	0x3e2f0d3e	0.17094895
225	0xbec3fb0d	-0.38277474
226	0xbea1c27e	-0.31593698
227	0x3d81aa23	0.06331279
228	0xbe696d92	-0.22795704
229	0x3e9b73f5	0.30361906
230	0xbf27304f	-0.6530809
231	0xbdadea51	-0.08491958
232	0xbdfdb84f	-0.1238867
233	0xbeb70bde	-0.3575124
234	0xbe533681	-0.2062626
235	0xbec0f287	-0.37685034
236	0xbc51c6ab	-0.012803714
237	0xbeeb5d1a	-0.45969468
238	0x3e44b6d3	0.19210367
239	0xbc87e55d	-0.016588861
240	0x3f3328a5	0.69983894
241	0xbd9ddcaa	-0.07708104
242	0xbe6312bf	-0.2217512
243	0xbec9e7b9	-0.39434603
244	0x3eaea8bc	0.3411311
245	0xbce13dcc	-0.027495287
246	0x3e7563b2	0.23963812
247	0x3e3be9c6	0.18350896
248	0xbe10a70e	-0.14126226
249	0x3daecacd	0.08534775
250	0xbe0ea671	-0.1393068
251	0x3efc12e3	0.4923316
252	0xbe786e5a	-0.24260846
253	0x3d2c9680	0.042135715
254	0xbe298be8	-0.16557276
255	0xbee5c090	-0.44873476

bias f4 [128]
0	0x39e4f6b4	0.00043671357
1	0x3c2f1441	0.010685981
2	0x3d8b1171	0.06790436
3	0xbc46b944	-0.012129132
4	0x3e311317	0.17292438
5	0x3d5a6ea5	0.053328175
6	0x3da8d460	0.08243632
7	0x3cf2b7e9	0.02962871
8	0xbdb8d4e8	-0.09024984
9	0x3d27b151	0.040940586
10	0x3d112812	0.035438605
11	0x3e34ac29	0.17643799
12	0x3d7f98e0	0.062401652
13	0x3cf293d4	0.029611506
14	0x3c885836	0.016643625
15	0x3d51aac6	0.051188253
16	0x3c1a7654	0.009427626
17	0x3c97e8fc	0.018543713
18	0xbc3c8e11	-0.011508481
19	0xbd0dd573	-0.03462739
20	0x3da07470	0.07834709
21	0x3d9e6a7a	0.077351525
22	0xbc1ea791	-0.009683506
23	0xbd21547c	-0.03938721
24	0x3dcc0260	0.099613905
25	0x3e1944e8	0.14967692
26	0x3dc28048	0.09497124
27	0x3d61cd20	0.055127263
28	0x3d8a2d92	0.06746973
29	0x3d8c9dcd	0.068660356
30	0x3cf8557f	0.030314205
31	0xba961c5b	-0.0011452542
32	0x3d60e69e	0.054907434
33	0xbc74124f	-0.014896943
34	0xbc400da7	-0.011722005
35	0xbd7baf6d	-0.061446596
36	0x3dc3ce46	0.09560828
37	0x3e03099a	0.12796631
38	0x3d3e5636	0.046468936
39	0xbd5e7fcf	-0.054321107
40	0x3c7fa9ad	0.015604419
41	0xbb05e340	-0.002042964
42	0xbdc49496	-0.09598653
43	0xbe06d9a5	-0.13168962
44	0x3d93e4f7	0.07221406
45	0x3d176c2c	0.036968395
46	0x3e007ec7	0.12548362
47	0x3e06c9c1	0.131629
48	0xbd5613d4	-0.052265003
49	0xbd87892b	-0.066179596
50	0xbd749a76	-0.059717618
51	0x3dc37e6a	0.09545596
52	0x3ca9f0e8	0.020744756
53	0x3df805bf	0.12110471
54	0xbdb619e3	-0.08891656
55	0x3e20b43a	0.15693751
56	0xbd5f1f35	-0.05447312
57	0xbd953808	-0.07286078
58	0x3daadb93	0.08342662
59	0x3dddfdeb	0.10839447
60	0x3d24ce2e	0.04023569
61	0x3d77cc70	0.0604977
62	0x3d9ec4cb	0.07752379
63	0x3d8bd632	0.06827964
64	0xbbaab431	-0.005209469
65	0x3cfa7bd4	0.030576624
66	0x3dbe863b	0.09302946
67	0xbd76afcb	-0.060226243
68	0xbdb0a3f1	-0.08625019
69	0xbdcb73cf	-0.09934198
70	0x3d9e88a0	0.07740903
71	0xbdb07476	-0.08615963
72	0x3e068f92	0.13140705
73	0x3d9ec2a0	0.077519655
74	0xbc727466	-0.014798259
75	0xbd9fd1ed	-0.07803712
76	0xbc87b793	-0.016567027
77	0xbbcabaec	-0.0061868336
78	0x3d571f23	0.05251993
79	0x3cdbf999	0.026852416
80	0x3dd9b7aa	0.10630734
81	0x3d6e489e	0.058174722
82	0xbbf5249c	-0.007481171
83	0xbd596323	-0.05307306
84	0xbcbf124c	-0.023324154
85	0x3d131983	0.035913
86	0x3e151dfe	0.14562222
87	0xbdaa2a3a	-0.08308835
88	0x3b91098e	0.004426188
89	0x3d8587ec	0.06520066
90	0xbd9be055	-0.07611147
91	0xbc0a4df7	-0.00844144
92	0xbc62a2e9	-0.013832786
93	0x3da8a9ef	0.08235537
94	0x3c50580c	0.0127163045
95	0x3e03401e	0.12817428
96	0x3d0a9c26	0.03384032
97	0x3c7d4a67	0.015459633
98	0xbd0933c3	-0.03349663
99	0xbcec276b	-0.02882739
100	0x3d1d296d	0.038369585
101	0x3daf6e43	0.08565953
102	0x3d9f6595	0.07783047
103	0x3c7bcf25	0.015369211
104	0x3cef7411	0.02923015
105	0x3befb650	0.0073154345
106	0x3d9b1636	0.07572596
107	0x3d26f344	0.04075934
108	0xbd8dba0b	-0.069202505
109	0xbd378f8f	-0.044814643
110	0x3dc240f6	0.094850466
111	0x3d114714	0.035468176
112	0xbd9bf946	-0.076159045
113	0xbc2641a4	-0.010147486
114	0x3d978f7d	0.07400415
115	0x3de06118	0.10956019
116	0x3c568bad	0.013094825
117	0x3e0086a9	0.12551369
118	0x3d30fc80	0.043209553
119	0xbd3f1eca	-0.046660222
120	0x3dc5493f	0.09633111
121	0x3cc20328	0.023683146
122	0xbc60d31c	-0.013722207
123	0x3a499d45	0.00076909765
124	0xbc32c87f	-0.01091206
125	0x3be0f3c3	0.006864996
126	0x3e0ec9b1	0.13944127
127	0xbd0ca82d	-0.034340072

weight f4 [64, 128]
0	0xbd86051f	-0.065439455
1	0xbd01f865	-0.031731028
2	0xbdb86fea	-0.09005721
3	0x3dee1a57	0.11626118
4	0xbe16159c	-0.14656681
5	0xbca70583	-0.02038837
6	0x3df82627	0.12116652
7	0x3d6dee65	0.05808868
8	0xbe49dad7	-0.19712387
9	0x3d02b4ba	0.031910636
10	0xbca67f41	-0.020324351
11	0xbd248925	-0.040169854
12	0xbdb17aea	-0.08666022
13	0x3e80d86c	0.25165117
14	0x3e076ed8	0.13225877
15	0x3d51090d	0.051034022
16	0xbd42edee	-0.04759019
17	0xc10e0a9c	-8.87759
18	0x3c356308	0.011070974
19	0xbeb7d960	-0.3590803
20	0x3d97d2ff	0.07413291
21	0x3e006d45	0.12541683
22	0xbe74a109	-0.23889555
23	0x3ca6bc74	0.020353533
24	0x3c1d8106	0.009613281
25	0x3c6ba4b5	0.014382531
26	0x3d3fe0c4	0.046845213
27	0x3e0577f4	0.1303404
28	0xbe826c55	-0.25473276
29	0x3da12656	0.0786864
30	0xbeb21c45	-0.34787193
31	0x3d1cc95a	0.03827796
32	0x3eae87c6	0.34087962
33	0x3cd72b06	0.026265632
34	0xbdea8555	-0.11451212
35	0x3d844d01	0.0646
36	0xbd8eae48	-0.06966835
37	0xbc99198b	-0.018688938
38	0x3d9dbd52	0.077021256
39	0x3dca6ab8	0.09883636
40	0xbd7f53f4	-0.062335923
41	0x3de4b04c	0.111664385
42	0xbdb5e060	-0.08880687
43	0x3e340575	0.17580207
44	0x3e0e2784	0.13882262
45	0xbd40db7b	-0.047084313
46	0xbe762396	-0.24037012
47	0xbe32eb8c	-0.17472667
48	0x3e044702	0.12917712
49	0x3e284f39	0.16436471
50	0xbe7c9571	-0.24666382
51	0xbe793d56	-0.24339804
52	0x3d4d4cc1	0.050122026
53	0x3e9cf915	0.30658785
54	0xbe2ec0b5	-0.170657
55	0xbe1171d8	-0.14203584
56	0x3df686c1	0.12037421
57	0x3d52c83e	0.051460497
58	0xbe7a77ce	-0.24459764
59	0xbd3f5ffa	-0.04672239
60	0xbe738e76	-0.23784813
61	0xbdd55018	-0.10415667
62	0xbde7eb69	-0.11324198
63	0xbd8d8695	-0.06910435
64	0xbe2344ff	-0.15944289
65	0x3c27bef0	0.010238394
66	0x3ddbf22c	0.1073955
67	0x3e24585d	0.16049333
68	0xbd2dbdc3	-0.0424173
69	0x3c302ce0	0.0107528865
70	0x3e5fe6e3	0.2186542
71	0x3bd6b4de	0.006552323
72	0xbe082e8a	-0.13299003
73	0x3da8ce0b	0.082424246
74	0xbcafd98f	-0.021466045
75	0x3ca64866	0.020298194
76	0x3da2dc16	0.07952134
77	0xbe00499d	-0.12528081
78	0xbe736566	-0.23769149
79	0x3e654572	0.22389773
80	0x3e31f556	0.17378744
81	0x3cb374ac	0.02190622
82	0x3e0171fd	0.1264114
83	0xbdd0c69c	-0.10194132
84	0x3d24a76d	0.040198732
85	0x3e00c30e	0.12574407
86	0xbdd2c016	-0.10290544
87	0x3e07fbe3	0.13279681
88	0xbd178b3d	-0.036998022
89	0x3d24fe2e	0.040281467
90	0x3e84a694	0.2590834
91	0xbcf6372e	-0.030055609
92	0x3e1f59d9	0.15561618
93	0x3e990980	0.2989006
94	0x3d962f07	0.073331885
95	0xbc1e50f8	-0.009662859
96	0x3e94cf61	0.29064468
97	0xbe35f5ff	-0.17769621
98	0xbd89b299	-0.06723518
99	0x3e1544bd	0.14577003
100	0x3ee9cb37	0.45662853
101	0x3e5ade35	0.21373828
102	0x3e553115	0.20819505
103	0x3e13bcfe	0.14427564
104	0xbdb85857	-0.090012245
105	0x3dca1f3a	0.09869237
106	0xbe963fd3	-0.2934557
107	0xbe91f62f	-0.28508136
108	0x3d289d5b	0.04116569
109	0xbde11d37	-0.109919004
110	0x3f465b14	0.77482724
111	0x3c723bbd	0.0147847505
112	0xbe1a8026	-0.15087947
113	0x3dac5c4b	0.08416041
114	0x3d4c15d9	0.049825523
115	0x3e9019f6	0.28144807
116	0x3d0759b0	0.033044517
117	0x3d89be11	0.067257054
118	0x3e5080b1	0.20361592
119	0x3e198ae5	0.1499439
120	0x3e696158	0.2279104
121	0xbe40da31	-0.18833233
122	0xbedc4f33	-0.43029174
123	0x3dc976da	0.09837122
124	0x3d78731a	0.060656644
125	0xbe3f9265	-0.18708189
126	0x3da053f1	0.078285106
127	0xbb2ec7b2	-0.002666932
128	0x3dd99f60	0.106261015
129	0xbd042366	-0.03226032
130	0xbe07878a	-0.13235298
131	0x3eab4cb0	0.33456945
132	0xbe8faaf4	-0.28060114
133	0xbdb0bba7	-0.08629542
134	0x3dceb00f	0.10092174
135	0xbd548bef	-0.051891264
136	0xbdd277cb	-0.10276755
137	0xbd4e3e21	-0.05035222
138	0xbe5a6b17	-0.21329914
139	0xbdfe6c33	-0.12422981
140	0x3db513b6	0.0884165
141	0xbcf80f01	-0.030280592
142	0xbda9fd75	-0.08300296
143	0xbe702ce9	-0.23454632
144	0xbe79159e	-0.24324653
145	0xc106ea3f	-8.432189
146	0x3e0b5ccd	0.1360962
147	0x3dee8ee4	0.11648348
148	0x3bb16681	0.0054138307
149	0xbdea4944	-0.114397556
150	0xbeb2b3a2	-0.34902674
151	0x3e9bea3f	0.30452153
152	0xbd288f96	-0.04115256
153	0xbe9a4562	-0.3013106
154	0x3d575d84	0.052579418
155	0xbe2438ed	-0.1603734
156	0xbe109b84	-0.14121825
157	0x3e0c248e	0.1368582
158	0x3db63a06	0.08897786
159	0x3c03c653	0.00804289
160	0xbdcaf008	-0.099090636
161	0xbe40e08f	-0.18835662
162	0x3d7ddf90	0.061980784
163	0x3e1dc0bf	0.15405558
164	0xbcef7c96	-0.029234212
165	0xbe66e0df	-0.22546719
166	0x3d48424c	0.04889135
167	0x3dde0a38	0.10841793
168	0x3e8acd27	0.27109644
169	0x3dc70358	0.09717435
170	0x3e5d18ca	0.21591488
171	0x3e5b9238	0.21442497
172	0xbcc49b98	-0.023999974
173	0xbc53e35f	-0.012932627
174	0x3e4438d2	0.191623
175	0xbe2a1e3d	-0.16613097
176	0xbb927084	-0.0044689793
177	0x3db60518	0.0888769
178	0xbe081996	-0.1329101
179	0x3b8b1a02	0.0042450437
180	0x3d0c31eb	0.034227293
181	0x3dc92b2a	0.09822686
182	0x3e04dd45	0.12975033
183	0xbd847afd	-0.06468771
184	0xbe553743	-0.20821862
185	0x3e0b0da6	0.13579425
186	0x3e78a1e6	0.2428051
187	0x3e0f5e9e	0.14000937
188	0xbdeab65d	-0.11460564
189	0xbe0e614c	-0.13904303
190	0x3dbf2c04	0.09334567
191	0xbd042ac7	-0.03226736
192	0xbc946c1f	-0.018117962
193	0x3e988dbe	0.2979564
194	0xbe89417f	-0.26807782
195	0x3e7efd61	0.24901344
196	0xbe1190f2	-0.14215448
197	0x3e636c34	0.22209245
198	0x3d49079f	0.049079534
199	0x3e85b4aa	0.26114398
200	0x3ed83178	0.42225242
201	0x3c8e6d04	0.017385967
202	0xbe0209a3	-0.12698989
203	0xbda94237	-0.082645826
204	0xbd81d81b	-0.06340047
205	0xbe0404a2	-0.12892392
206	0x3e92b72e	0.2865538
207	0xbeaa8af3	-0.33309135
208	0x3e0709b5	0.13187297
209	0xbe18f7c0	-0.14938259
210	0xbe9741e4	-0.29542458
211	0x3e595b2b	0.21226184
212	0x3e70e60b	0.23525254
213	0x3dc2ff8b	0.09521397
214	0xbe7f068d	-0.24904843
215	0xbcf43021	-0.029808106
216	0x3de998ea	0.11406119
217	0xbd69352a	-0.056935467
218	0xbdec13e8	-0.11527234
219	0x3c22537e	0.009907601
220	0x3dcabf1d	0.09899733
221	0x3e134061	0.14380027
222	0x3e980f5c	0.29699218
223	0x3dc712d3	0.09720387
224	0xbe0640e3	-0.1311069
225	0xbd206d89	-0.03916696
226	0xbdc9fc12	-0.09862532
227	0xbda7848e	-0.0817958
228	0x3ef5f1b3	0.48035964
229	0x3e2441c5	0.16040714
230	0xbeb17379	-0.3465841
231	0xbd8f65f4	-0.07001868
232	0xbcb3c059	-0.021942304
233	0xbd510652	-0.05103142
234	0xbe5c5d6d	-0.21520014
235	0x3e072f58	0.13201654
236	0x3d784a92	0.06061799
237	0xbd3acb8a	-0.045604266
238	0x3e689b0e	0.22715399
239	0xbe4fa106	-0.2027627
240	0xbc39e793	-0.0113467155
241	0x3e3dfa9e	0.18552634
242	0x3d5c5496	0.053791605
243	0x3e07d3b6	0.13264355
244	0xbe242e62	-0.16033319
245	0x3e600b51	0.21879317
246	0x39da39d4	0.00041623286
247	0x3efc0fe2	0.49230868
248	0x3c60f3c3	0.013729992
249	0xbd6b863d	-0.057501066
250	0x3c9dbc22	0.019254748
251	0xbb66d0f6	-0.0035219765
252	0xbe78b55c	-0.24287933
253	0xbdbec523	-0.093149446
254	0x3dfa739e	0.122290835
255	0x3e9c6b66	0.30550689

bias f4 [64]
0	0xbdef4cd4	-0.11684576
1	0x3d8e7afd	0.06957052
2	0xbd7a7d7b	-0.061154824
3	0xbd92f9e8	-0.07176572
4	0x3d9fa03e	0.07794236
5	0x3e3663ae	0.17811462
6	0xbd5f40a2	-0.054504998
7	0xbe53ccdd	-0.20683618
8	0x3e94c870	0.29059172
9	0xbe8ffc5e	-0.28122228
10	0xbeb19ecb	-0.34691462
11	0x3ea114d9	0.31461218
12	0xbc8ce07c	-0.017196886
13	0xbea7b646	-0.3275625
14	0xbe6a806c	-0.22900552
15	0xbd0af866	-0.033928297
16	0x3e0fd531	0.1404617
17	0xbe87adb1	-0.26499704
18	0x3e83cd8d	0.2574276
19	0x3e284940	0.16434193
20	0xbdb71401	-0.08939362
21	0x3b96ba01	0.00459981
22	0xbe919c4a	-0.28439552
23	0x3dc47911	0.09593404
24	0x3ed1eff9	0.41003397
25	0xbe9af970	-0.3026843
26	0xbd247e64	-0.040159598
27	0x3b993845	0.0046758973
28	0x3d182620	0.037145734
29	0xbdf492fc	-0.119420975
30	0x3db1d526	0.08683233
31	0xbeb29b4c	-0.34884107
32	0xbeb56af8	-0.35433173
33	0xbe340d1c	-0.17583126
34	0xbe2b1c22	-0.1670995
35	0x3d4bdaec	0.049769327
36	0x3ceb7b4e	0.02874532
37	0x3e052a99	0.13004531
38	0xbedf9d64	-0.43674767
39	0x3eed8c4d	0.46396104
40	0x3e08f214	0.13373595
41	0xbd0b7e70	-0.034056127
42	0x3e2c7f95	0.16845544
43	0x3da6cc4b	0.081444345
44	0x3e23f44d	0.16011162
45	0xbd47f5bc	-0.048818335
46	0x3e9ac216	0.302262
47	0x3d7fe63e	0.062475435
48	0xbe0990fa	-0.1343421
49	0xbdc8cd3c	-0.0980477
50	0x3bbe56eb	0.0058087013
51	0xbe3916bc	-0.18075079
52	0xbe3c25c7	-0.18373786
53	0xbde05567	-0.10953789
54	0x3d9b90f5	0.07596008
55	0x3eefbeff	0.46825406
56	0xbe01622e	-0.12635109
57	0xbd501e70	-0.050810277
58	0xbde6e0f5	-0.11273376
59	0x3e5a2ab8	0.21305358
60	0x3e3ad6a1	0.18245937
61	0x3d3896c2	0.04506565
62	0x3ed46b1d	0.4148797
63	0x3d9df3b0	0.07712495
