pth/takada_model_85.pth (torch, 300440 bytes, 6 tensors)

weight f4 [256, 128]
00000000: abeb 2a3d 67a8 e2bc 62c9 b03e 65c9 093e
00000010: 38df 693e f166 75be 9880 4a3d 7ab6 70be
00000020: 56d1 bb3d a7d7 44be 211b 3c3e 900c 86bd
00000030: dae7 113e 5c80 7ebe 87af 583e 5c5e be3d
00000040: 43bd ec3d e2c1 923e 5aaf 1cbe 0486 abba
00000050: 13bc 3c3e 7675 893c 9db6 a03e 1078 1c3d
00000060: 8b37 c53d ba63 513e 79f2 4c3e 0e6f 3fbe
00000070: 5b7f 02be 19e1 a0be d6d4 fe3d 349b e6bb
00000080: 5a75 02bd d525 623e 2648 a3be 3222 0cbe
00000090: 5250 01be b7f3 973d 5162 423e a8bd e4ba
000000a0: 7566 35bd a162 0bbe 5480 5a3e 5cb9 90bc
000000b0: b35e 3c3e 71d8 dcbd 12cb dcb8 6972 c53d
000000c0: 1ab9 f13d 2474 8c3d dfa2 4c3e d77f 85be
000000d0: 4415 b5bd a723 2c3e e954 29bd b9f2 1a3d
000000e0: 1016 713e decb f93d 668c bf3c 5f76 0e3d
000000f0: ba3e 97bd f433 23be f09f 4b3e f101 823c
00000100: 284e 8a3e e67b 80bd 4af9 7a3e 117f 383d
00000110: d446 e13d 327e 9bbd 4885 b1bd 5d9e 4bbe
00000120: ad2f 153e e467 15be 431d 523e c99b 2dbe
00000130: 79ff ab3e d2df 2dbd dc44 ba3d 62de 9f3d
00000140: c2d3 f03d f0e5 16bd 7023 e03d a23d 27be
00000150: 3faf efbd d8ee 773e 14c1 523e b3d4 b5bd
00000160: e8dd dc3d 8161 453e cf1a dbbb 6746 9abd
00000170: e68c de3b fa4e c7bd e295 873e f79c 043d
00000180: 7727 873d 74b4 9e3e ac29 cebd d382 503d
00000190: 599b dd3b a87d 49bd 2612 973e 3ac7 0ebe
000001a0: fe2d d5bd 1d85 6fbd 340b 853e 1249 693e
000001b0: 2ccf 37bd a801 1d3d 8f33 253e 738f 083e
000001c0: 7a78 0dbd 3795 cc3c 9c22 913e d45c 5fbe
000001d0: c3bc 87be 551b 2b3e d06c a33d dc53 afbd
000001e0: b4a3 59bd 9451 ea3d 0474 8a3c 87b2 96bd
000001f0: 701f 1bbe 641c dfbd 8c41 353e 368c ca3d
00000200: 526c 08be e436 4f3d ddef 94be e17e 44be
00000210: e6e8 b03d 5904 20be f2b6 ddbd 36a1 e43d
00000220: 8a7c 853e ae3b c8bd 093a 64be 9934 1fbe
00000230: 1627 263d 9a08 ad3c e89d 1ebe 4a89 29bd
00000240: 1664 293e abeb 0e3e 06c5 353c 8c55 c73b
00000250: ad1f 8e3e 1c37 9f3e 51fd 32be 8290 c7bd
00000260: ba32 683d 77df 88be 7230 a1be 3fe4 00be
00000270: 05a8 a23e 4d94 5f3e 550c 1fbe a429 5a3e
00000280: 1c51 4b3d 11a4 d13d 29f8 88be c4aa f7bb
00000290: d368 9e3d 1d42 1bbe c3fb 463d 7296 9d3d
000002a0: 0c57 84be dbdc 23be 8715 74be dbfc 283e
000002b0: 3569 43be 5b97 57be 7020 85be bf37 933e
000002c0: 772f 433d 8dad 17be e994 aebd d463 20be
000002d0: 5f3a b4bd 887f 5c3e 1546 16be 88e6 20be
000002e0: 6fad c6bb 5785 58be 8bcb 263e ae07 65be
000002f0: 3f3e c9bd 2915 243d d50b 5d3e 06dd 043e
00000300: 642e 86bd a85e d53d 41fd 73be a392 26be
00000310: 7b90 d33c 36fe 0b3d 15c4 273c d9b8 df3c
00000320: 7848 c23d f949 60be eb02 8b3c 8304 b7bd
00000330: ad14 5abe f803 f9bd d6ea 9abe ac52 27bb
00000340: 0550 f9bc 7a01 9f3e 4aa5 42bc 8e1a c0bd
00000350: ae44 173e 5ef8 b3bc 4b47 bcbd c305 f5bd
00000360: 4c33 3d3e 49df 37be 661e 033e a0e3 da3c
00000370: 889b 7abe 1209 2ebe 147b 92be bfe1 403e
00000380: 5fa6 dc3d 1770 a73d 045e 0ebe 86a8 493d
00000390: f024 c7bc 3f47 05be 9284 8bbe f3e0 9e3d
000003a0: e206 dbbd 3676 fbbd 4b44 7dbe d4d5 6f3e
000003b0: 65ce 14bc c3d1 edbd 1ac3 d3bd 4599 2cbe
000003c0: ef1c 613e d2f9 b93c 38fd cf3d d5ee ac3c
000003d0: 7ddc 2dbe 4225 fc3d f4fc 28be 9091 bcbd
000003e0: 921e 40be fec8 70bd 7e8a 443e 5f03 2bbe
000003f0: c618 9a3b 716f fbbd bb29 443e 630f 7b3e
0.041728657 -0.027668191 0.34528643 0.13455732 0.22839057 -0.2396505 0.049439043 -0.2350711
0.09170787 -0.1922289 0.18369724 -0.06545365 0.142486 -0.24853653 0.21160708 0.09295341
0.11559536 0.28663546 -0.15301266 -0.0013086204 0.1843112 0.016779643 0.31389323 0.038200438
0.096297346 0.20448199 0.20014371 -0.18694708 -0.12743895 -0.31421736 0.12442939 -0.0070375446
-0.031850196 0.22084744 -0.31890982 -0.1368492 -0.12628296 0.07419532 0.18982817 -0.0017451541
-0.044287164 -0.13611843 0.21338016 -0.017666511 0.183955 -0.107834704 -0.00010528242 0.09640963
0.118028834 0.068580896 0.19984005 -0.26074097 -0.08841947 0.16810475 -0.041340742 0.037829135
0.23543572 0.12197088 0.023382377 0.034780856 -0.07385011 -0.15937787 0.1988523 0.015870066
0.27012753 -0.06273632 0.24509159 0.045043055 0.109998375 -0.07592429 -0.086679995 -0.1988463
0.14568968 -0.14590412 0.20518975 -0.16953959 0.33593348 -0.04244978 0.09095165 0.07806088
0.117591396 -0.03684038 0.10944259 -0.16332105 -0.117033474 0.24212205 0.20581466 -0.0887846
0.10784513 0.19275476 -0.0066865454 -0.075329594 0.0067916987 -0.097318605 0.2648154 0.032376256
0.06599324 0.3099705 -0.10066542 0.050906014 0.0067629036 -0.0491921 0.29506034 -0.13943186
-0.10409163 -0.058476556 0.2598511 0.2278178 -0.04487531 0.038331658 0.1613295 0.13335972
-0.034538724 0.024973495 0.28346717 -0.21812755 -0.265112 0.16709645 0.07979739 -0.08560917
-0.053134635 0.11441341 0.016901024 -0.0735827 -0.15148711 -0.10894087 0.17700785 0.09890024
-0.13322571 0.050589457 -0.2908925 -0.19189025 0.08638172 -0.15626658 -0.1082591 0.11163561
0.26071578 -0.09777008 -0.22287764 -0.15547408 0.04056462 0.021122266 -0.15489924 -0.041390695
0.16542086 0.13957088 0.011094337 0.006083196 0.27758542 0.31096733 -0.17479445 -0.097443596
0.056689 -0.2673299 -0.31482273 -0.12587069 0.31768814 0.21833916 -0.15532048 0.21304947
0.0496379 0.10236371 -0.2675183 -0.0075581986 0.077348374 -0.15161939 0.048579942 0.07694711
-0.25847661 -0.16002218 -0.23836337 0.16502707 -0.19083102 -0.21053831 -0.2600131 0.28753468
0.047652688 -0.14812298 -0.08524496 -0.15663081 -0.08800196 0.21533024 -0.14675172 -0.1571294
-0.0060631554 -0.21144615 0.16288583 -0.22366211 -0.098263256 0.040059242 0.21586545 0.12974939
-0.06551817 0.10418445 -0.23827077 -0.16266875 0.02582573 0.03417798 0.010239621 0.027309822
0.094864786 -0.21903218 0.016969165 -0.089364074 -0.2129695 -0.1215896 -0.3025729 -0.0025531454
-0.030433664 0.31055814 -0.011880228 -0.09380065 0.14772293 -0.021969017 -0.091932856 -0.119639896
0.184766 -0.1795627 0.12804565 0.026719868 -0.24473393 -0.16995648 -0.28609526 0.18836115
0.1077392 0.08175676 -0.13903052 0.049232982 -0.024309605 -0.1301546 -0.2724958 0.077577494
-0.10694672 -0.12278406 -0.24733083 0.23421413 -0.009082411 -0.116122745 -0.10339947 -0.16855343
0.21983694 0.022702131 0.101557195 0.021109978 -0.16978641 0.12311794 -0.16502744 -0.09207451
-0.18761662 -0.05878543 0.19193456 -0.16700505 0.0047026603 -0.12277115 0.19156544 0.24517588

bias f4 [256]
00000000: 4bea 0abe b682 cb3d 4bab 4fbe 26ff b2bd
00000010: ce45 fb3d af00 0abd fc36 02be dc92 debd
00000020: a4ee d9bc b21a 1d3e 8164 3a3d 6274 0abe
00000030: 71ab 44bd 2248 e93d ab8d 0d3e b5e1 b43d
00000040: 77a7 72bd d7af d93c 15a5 003e e36e 61bd
00000050: 7c19 803d f89b 3b3e cbe2 793c 36f7 2abe
00000060: a10f f83d 57a2 c73d 87c5 3e3e 79f1 26bd
00000070: 7b07 273e 1292 84bd b557 5fbd a149 2ebe
00000080: 699b 233d 3ab4 3f3e 10ca 9d3d 1ac1 e13d
00000090: 73ae 813d c6ee 3a3d 4a5a 483d 8e7d d9bd
000000a0: d930 14be 6b84 6fbc 64fd 0b3e d713 acbd
000000b0: 9577 a4bd a53a f9bd f6e9 10bd 264a fd3d
000000c0: 917b 43bd 1c4c cdbc 410b d73d e8b1 983d
000000d0: c87c 313e a617 923d 6f1d 5cbd 1819 f23d
000000e0: 6c12 8cbd 8739 3d3e 4154 683d 6c76 093e
000000f0: c6a7 16be 6049 2dbd c65a 3dbe b97b cfbd
00000100: a479 f8bd 15c0 19bc e117 bfbd c8d6 4abd
00000110: dd1a 283e dc7b 43bd cd89 55be 6d33 a0bd
00000120: 0c79 c53d 161a e93d 7cca d53c 35e3 ad3c
00000130: 1858 34bd d2ba a0bd f47b fc3d 3654 b2bd
00000140: 96d8 413e 6994 003e 38d9 b13d f9c5 e0bc
00000150: e169 64be 74a6 503d be3f 3abe f60e 183e
00000160: 17b6 203e ef26 cebd 6e23 103e bb27 b6bc
00000170: e854 f1bd 4ab0 783b ea6d 27bb 7731 36bd
00000180: 5c2d ec3d 8315 ac3d 70c8 093e 1853 3ebe
00000190: d99e 85bd eaac 12bd 44c5 2b3d f09f 16be
000001a0: 54b0 18be b5e3 2fbe 722d 09be 2a11 3dbd
000001b0: 8307 b4bd 7b1b 52bc 2704 32be ab29 843c
000001c0: 971d dabd 5f31 b63a d921 af3d 7609 053e
000001d0: d866 9cbd b2c9 86bd bb16 80bc ac32 cbbd
000001e0: 6ae5 093e c25e 3c3e de1c 8b3d 2848 e43d
000001f0: a6fa e23d 494c 1bbe af62 6dbc 25d2 a2bd
00000200: a824 073e c87d cabd 6759 1fbe c302 f53c
00000210: 2635 8d3d d17a 84bd b4f3 db3d 7c8d e53d
00000220: 5f8c fdbd b2d9 2e3e 3592 4cbd f47d eebc
00000230: 59cc c53d 5fe1 893d 5fb5 5a3d a9f9 243e
00000240: 71c3 f9bd a7ae 06be 048b 6ebc dd35 ed3c
00000250: cdea c53b 6c4a 13be 0228 0dbe cae0 54bd
00000260: 2fbe b0bd 0e3e 6f3d 63ca 0a3e fb82 f93d
00000270: cb04 39be 521c b03d 2fae 45bc 7f47 60bd
00000280: 51fd 31bd 395b abbd 24eb ef3d a116 ec3c
00000290: db00 7d3d 300d ddbd b274 283e 3f84 a83d
000002a0: ab4f 90bc 383a 54be 449a 603c b775 18be
000002b0: eca4 e33c 158d e1bd 67c2 933d aa6a 00bd
000002c0: f1a1 fc3c 2502 213e 0b47 353d 856a bc3d
000002d0: 9dda 91bd ba90 debd cae5 3fba 5326 903d
000002e0: 63a9 4c3e 8893 0fbe b3b3 163d 6c4e 3fbe
000002f0: 4a93 fa3d 8f6e 33be 42c8 1f3e 1b57 183e
00000300: a13a 2c3d d052 b93d 2945 cd3d c42d e9bc
00000310: a8f1 923d 4478 2e3d d7be 04bc e346 16bd
00000320: db72 9e3d a340 01be 5468 04be d295 fd3c
00000330: 70e8 a4bd 8fe0 33bc 4eb0 363c bedc 2abd
00000340: 36a7 d4bd 449b 153d f473 3d3d 6b49 d13d
00000350: a061 1ebe e299 9b3d 5798 d5bd 8caa e33d
00000360: ee6a fe3d 8729 1e3e e4a2 113e 3df0 f03d
00000370: 5748 f83b d7ba b73d 155e 833c e392 de3d
00000380: 5bc8 2d3e d5be a03d b207 e63d 3eb1 90bd
00000390: 11c7 133e fa7d 8f3d 3e90 e6bd 5556 b7bc
000003a0: 8543 7dbd 69f4 613d aaf7 20bc 465d 1c3e
000003b0: cf37 4ebe e8e3 0e3e 4c8b 08be 409d 1a3e
000003c0: 82a7 1c3d 05e9 a6bd e795 32be be23 cc3c
000003d0: bebc ce3d 7e18 dcbd 903d 30be f68e efbd
000003e0: 917f bbbd 18b3 9e3b d3a2 8f3d 8e25 ddbd
000003f0: 7e77 0c3e edaf a7bd ec7d 7bbd fad8 4abc
-0.13565938 0.099370405 -0.20280187 -0.08740072 0.122691736 -0.03369206 -0.12716287 -0.10867855
-0.02660305 0.15342215 0.045506004 -0.13520959 -0.04801506 0.11390711 0.13823573 0.08832113
-0.05924174 0.026573105 0.12562974 -0.05503739 0.06254861 0.18321216 0.015251826 -0.16695866
0.12112356 0.09747761 0.18630038 -0.04075763 0.16311447 -0.06473173 -0.054527003 -0.17020275
0.039943133 0.18721095 0.07704556 0.11023159 0.06332102 0.04563787 0.04891423 -0.10619651
-0.14471759 -0.014618973 0.1367088 -0.08402222 -0.08030621 -0.12169389 -0.035379373 0.12367658
-0.047725264 -0.025060706 0.105001934 0.07455808 0.17332757 0.07133417 -0.053739008 0.118211925
-0.06839451 0.18478976 0.056720976 0.1342408 -0.14712438 -0.042306304 -0.18491659 -0.1013102
-0.12132576 -0.009384175 -0.093307264 -0.049521238 0.16416498 -0.047725543 -0.20853348 -0.07822309
0.096422285 0.113819286 0.026097529 0.021226505 -0.044029325 -0.07848133 0.1232833 -0.08707468
0.18930277 0.12556614 0.08684009 -0.02743815 -0.22306015 0.050939992 -0.18188378 0.14849457
0.15694462 -0.1006602 0.14076015 -0.022235742 -0.11783773 0.0037946873 -0.0025547692 -0.044480767
0.11532089 0.084025405 0.13455367 -0.18586385 -0.065244384 -0.035809435 0.041936174 -0.14709449
-0.14911014 -0.17176707 -0.13396242 -0.046158947 -0.08790495 -0.012823935 -0.17384396 0.01613315
-0.10650175 0.0013900212 0.08551378 0.1299189 -0.076368034 -0.06581439 -0.015635839 -0.09921774
0.13466421 0.18395522 0.06792615 0.11146575 0.11082964 -0.15165819 -0.01448886 -0.07950238
0.13197577 -0.09887272 -0.15561448 0.029908543 0.06894903 -0.06468738 0.10739842 0.11208627
-0.12380289 0.17075232 -0.04994412 -0.029112794 0.09658117 0.06732439 0.053395625 0.16110863
-0.121954806 -0.13152562 -0.014559511 0.028956348 0.0060399533 -0.14383858 -0.13784793 -0.051972188
-0.08630025 0.05840879 0.13553767 0.12183186 -0.18068235 0.08599152 -0.012065454 -0.054755684
-0.043454472 -0.08367009 0.117147714 0.028819384 0.061768394 -0.10793531 0.16450766 0.08228349
-0.017616114 -0.20725334 0.013708655 -0.14888655 0.027788602 -0.110132374 0.07214814 -0.031351723
0.030838938 0.15723474 0.044257205 0.092000045 -0.07121775 -0.10867448 -0.0007320313 0.0703856
0.19986491 -0.14021122 0.03679247 -0.1868226 0.122351244 -0.17522644 0.15603736 0.14876978
0.0420481 0.09048998 0.10022957 -0.028464206 0.071749985 0.042595163 -0.00810214 -0.036688697
0.07736751 -0.12622313 -0.12930423 0.030955229 -0.080521464 -0.010978832 0.011150433 -0.041714422
-0.103834555 0.036525026 0.04625316 0.102190815 -0.15466928 0.0759771 -0.10429447 0.111165136
0.12422739 0.15445529 0.14222294 0.11764572 0.007576983 0.08971184 0.016036073 0.1086786
0.16970961 0.07848898 0.112319365 -0.07065056 0.14431407 0.0700645 -0.11257981 -0.022380034
-0.06183197 0.05516473 -0.009824673 0.15269956 -0.20138477 0.13954127 -0.13334388 0.15099049
0.038245685 -0.08149914 -0.17439996 0.024919387 0.100945935 -0.10746859 -0.17210984 -0.116971895
-0.09155191 0.004843127 0.07013478 -0.107981786 0.13717458 -0.08187852 -0.061399385 -0.012380833

weight f4 [128, 256]
00000000: b128 083e f016 e53c 8811 cb3c 6f62 1c3e
00000010: 44ff 4f3e 2c2e 6cbe e9e4 693e dddd 543e
00000020: 9881 0c3e c02d 693e f842 4cbd 04a0 bcbd
00000030: 62a8 19be 1b48 ef3c 5228 59be 7ba9 83be
00000040: 1d47 a2bd a86e 563e a0ae 303e ced6 1fbe
00000050: c200 103e 480d c6bd 9bd3 273e da74 213d
00000060: b56a 8f3e b47f 193e 8b10 85bd bd45 4b3e
00000070: 2b45 e33d ea7f 243e 280c dcbd aa06 8ebd
00000080: 32f1 b2bc a130 54be 272a 08be eabd 3abe
00000090: 8da7 c1bd 76a9 4abe bc4a 92bd 9e88 003e
000000a0: 5105 c6bc 7668 2dbd 5fcb 45be 351e 423e
000000b0: ba88 dfbd 2220 29be 5356 d33d 9d55 563b
000000c0: 89cc a9bd d060 123e 58b6 8cbe cb1f 7239
000000d0: 992f 993c 5fdb 52be a405 963e f4ad ccbd
000000e0: 133c 51be 78ab cc3d dc75 99be c318 133e
000000f0: 8306 e53d 901d 893e 9a8b de3d 7274 af3c
00000100: 7ec3 a83c bc1c 43be 546a 00bd 90ad 61be
00000110: 8abc 66be 777c 373d 73fa 083e 45f9 503e
00000120: 4788 183d fb9a adbd f0c5 f93d e482 553e
00000130: 905d 013d 1405 5bbd 2b55 50be 1a6c b03d
00000140: 99c0 513e b50b febd 9714 3dbe b524 083e
00000150: 856d be3d 5724 ddbb 00d2 473e fe26 76be
00000160: b4ab 823e e0a0 52bd c332 27be 69b1 b1bd
00000170: 8825 a13d d4c5 08be 6997 16be e259 38be
00000180: 0668 443e dfeb 913d 176b 4a3e c9b0 7cbe
00000190: fc15 2f3e 34cd 5d3e 031a 27be 7f04 b03d
000001a0: d9e0 293e 56fa 073e 5f54 8fbc 13ff 193e
000001b0: b638 ba3d 4edd 273e 5cc5 653e 5522 2c3d
000001c0: 3476 583e 5470 483e d28a 6e3e 3e1d 61be
000001d0: 5a0c 703e 1022 ff3d d822 ca3d c0d4 1ebe
000001e0: 54db 0cbe 153f d03c 354b a6bd 1735 2dbe
000001f0: 8414 863e 1a52 85bc a5ed 89bd df4f 44be
00000200: 6fee 20be dbda e03d 75b8 ffbd 262f 06be
00000210: 1e53 96be 9c34 793e 237a d63d f13d 28be
00000220: c481 68be bcbc 4fbe 87a0 7fbd f48b 133e
00000230: 7fab 093e ec47 e4bd 5620 563d a0ba 0e3d
00000240: bc3b 65be d6aa 8fbd 9862 70be 3465 cfbd
00000250: 76da d73d a74e adbd ccb1 e4bd 27e3 6a3e
00000260: e925 a13c 823d 963e 4b72 cdbd b4f6 31be
00000270: 6fbd 40be 95a4 803e 1e2b 333d 1f30 31be
00000280: 05ef 1ebe e03a c7bd 7331 ac3d d892 3bbe
00000290: 65b9 5b3e cbf4 54bd a7c1 b1bd a82a 47be
000002a0: c198 e93d 2e79 693c 33a9 bbbd 88d9 873e
000002b0: a523 35be d2d1 69be 0715 f7bd 77c9 453e
000002c0: ffdd 4bbc 80b9 5d3d 8b29 6abe bbe9 b1bc
000002d0: dd29 6b3e 668d cc3d 65bf 17be 0a08 20bc
000002e0: 0dcb 1b3d a520 ed3d a0c8 1e3e b6ab 65bd
000002f0: 9790 96be cbe1 fd3d b5bc 6e3e 2fea 2b3c
00000300: 012d 10be 28c6 e7bc f4e2 aebc e191 1c3d
00000310: 263c 88bd 2a14 a5be 8334 0f3e 258d 193e
00000320: 2a5c 313e 68bd 3fbe 2a92 5abc e7e2 463e
00000330: 7535 9d3e 7362 4e3c 5826 1cbd 9776 0dbe
00000340: 637e 51bc 0c8d 123e 9eb8 69be 3875 2abe
00000350: 473d 85bd d339 78be be0b 223e f421 373e
00000360: 8c9b 083e 4186 b9bd 177c 8ebe 60e8 68be
00000370: 7223 b63d ccd9 143d d6ec cc3d 5382 34bd
00000380: 1f7f 243e afd6 06bd 7707 94be 28b1 5fbe
00000390: bdef 0a3e fff0 453e f73d 2bbe 3f55 6d3d
000003a0: 2112 993e 9c67 85be bda1 a0bb 2a0c 90bd
000003b0: 424c 17bb 77f6 64bc e9bb b63c 28a5 45be
000003c0: 044b 3c3e e119 f53a df5c 483e b76a d0bd
000003d0: 0999 7cbe 57aa 363e 4cdb 5ebe 7576 e0bd
000003e0: d5f4 6e3e e499 243e f1bb 7c3e 2f26 85bd
000003f0: 09a9 17bd 1953 b53d e878 cdbd 0afb 3d3e
0.13296773 0.027965039 0.024788633 0.15271924 0.2031222 -0.23064488 0.22841229 0.20787759
0.13721311 0.22771358 -0.049868554 -0.09210208 -0.15005639 0.029209187 -0.21206787 -0.2571524
-0.0792372 0.2094065 0.17254114 -0.15609285 0.14062789 -0.09670502 0.16389315 0.03941808
0.28011099 0.14990121 -0.06497296 0.19850822 0.11097177 0.1606442 -0.10744506 -0.06934865
-0.021843527 -0.20721675 -0.1329733 -0.18236509 -0.09455786 -0.19791207 -0.07143161 0.12552115
-0.024172457 -0.04233595 -0.19315861 0.18956836 -0.109147504 -0.16516164 0.103191994 0.0032704838
-0.08290965 0.14294744 -0.27482867 0.00023090762 0.018699454 -0.20591496 0.29301178 -0.099941164
-0.20433073 0.099936426 -0.29972732 0.14364915 0.11182883 0.26780367 0.10866471 0.02141783
0.02060103 -0.1905393 -0.031351402 -0.22038865 -0.2253286 0.044796433 0.13376789 0.20407589
0.03723934 -0.08476826 0.12195957 0.20850712 0.03158337 -0.05347164 -0.20344989 0.08614369
0.20483626 -0.12404577 -0.18464886 0.13295253 0.09298233 -0.006748717 0.19513702 -0.24038312
0.25521624 -0.051422954 -0.16327958 -0.086764164 0.07868487 -0.13356715 -0.14706196 -0.18003038
0.19180307 0.07125067 0.19767414 -0.24676813 0.1709823 0.2166031 -0.16318516 0.085946076
0.16589679 0.1327909 -0.017496286 0.1503871 0.09092848 0.16393015 0.22438568 0.04202493
0.21138841 0.195741 0.23295143 -0.21983811 0.23442212 0.12457669 0.09869927 -0.15510845
-0.13755542 0.025420705 -0.08119813 -0.16914783 0.26187527 -0.0162745 -0.0673478 -0.19171093
-0.15715955 0.10979243 -0.12486354 -0.13103923 -0.29360288 0.24336475 0.104725145 -0.16429879
-0.22705752 -0.2028684 -0.06240895 0.14408857 0.13444327 -0.111465305 0.05227693 0.03484595
-0.22386068 -0.07015006 -0.2347511 -0.10126725 0.10539715 -0.08462267 -0.111667246 0.22938214
0.019671397 0.29343802 -0.10031565 -0.17379266 -0.18822263 0.25125566 0.04374229 -0.17303513
-0.15520866 -0.097280264 0.08407869 -0.18317735 0.21457441 -0.051991265 -0.086795144 -0.19449866
0.114060886 0.014250083 -0.091631316 0.2653315 -0.17689379 -0.22833946 -0.120645575 0.19315134
-0.012443065 0.054131985 -0.2286741 -0.021717897 0.22965188 0.09987907 -0.14819105 -0.009767542
0.03803544 0.11578492 0.1550622 -0.05607196 -0.29407188 0.12396582 0.23314174 0.010492845
-0.14079668 -0.02829273 -0.021348454 0.03822506 -0.066520974 -0.32241946 0.13984875 0.14995249
0.17320314 -0.18724597 -0.013340512 0.19422494 0.30704847 0.012596714 -0.038122505 -0.1381477
-0.012786481 0.14311618 -0.22824332 -0.16646278 -0.06505828 -0.24240808 0.15824792 0.17884046
0.13340586 -0.0905881 -0.27829048 -0.22744894 0.088934794 0.03634052 0.1000611 -0.0440696
0.16064118 -0.032919582 -0.28911945 -0.21844923 0.13568015 0.19330214 -0.16722856 0.057942625
0.29896644 -0.2605561 -0.004902093 -0.0703357 -0.0023086225 -0.013974777 0.0223064 -0.19301283
0.18387991 0.0018699729 0.19566678 -0.10176604 -0.24667753 0.17838417 -0.21763343 -0.10960094
0.23335584 0.1607433 0.24681069 -0.065014236 -0.03702644 0.0885374 -0.10032827 0.18552795

bias f4 [128]
00000000: e61c 20bd 2cf3 923b 8187 85bd 1cd0 063b
00000010: 6a2e 273d 1096 a13d f7fe bbbd dc36 d53d
00000020: 46e7 92bc 847e 0c3d 311e dcbd 22d2 7ebd
00000030: 8964 213e 359f 603c 7917 dcb7 c1b9 f93c
00000040: 6757 a73d 8ec0 18be a589 31bd e5e4 9d3d
00000050: 560a 04bd 828c ab3d a60b 07be 2681 023e
00000060: 45e1 b6bd f617 c33d 907e acbd b8b0 583c
00000070: c402 1cbd cbaa 0f3d fc6c 063d 302e de3b
00000080: 2e75 c73d e85d dcbc 99b6 b13d 9dcc a23d
00000090: c402 b63c 066c d63d 25e4 333d b9fe 053e
000000a0: 9dbf 263e e5b6 c03d cf9e 993d 0871 ddbd
000000b0: ad49 c8bd e359 cc3b e91e 6e3b edbd d23d
000000c0: e0dc c7bd 4038 a53d 1e5c a93d 7f2d 95bd
000000d0: c026 6fbd cdb1 233d d069 cf3c 306c 18be
000000e0: a7a8 4c3e 1026 533d d809 633d 87eb 2d3e
000000f0: aa7d cbbd 079d 6dbd 6223 2cbc 4d00 e33c
00000100: 1013 51bd e99c 393d 29ad 293c 5304 a63d
00000110: 0cc7 fdbd c3c7 e03b 3c7b d53d ce5a a03c
00000120: 87e1 a5bd ab19 183d ab58 413d 3eac f13d
00000130: 0d6b ec3d a000 073d 9086 b7bc d0f1 98bc
00000140: 7c78 e0bc 3118 bfbb e8ed b73d de44 81bd
00000150: 51d7 9a3c 5147 573c 5b8a 07bb dc97 af3c
00000160: 95ad d9bd abec da3d a772 ec3c f069 1bbd
00000170: 3ca6 873d 36fd 69bd 5e1e 5abe c413 1ebd
00000180: 7e03 4a3d dfa1 3cbd 4a84 e1bc bee1 d3bd
00000190: dddb 39bd 55e3 c8bc d651 9f3d 613e 9d3d
000001a0: b113 173d f86f 4e3d 997d 14bd d913 b7bd
000001b0: 62ac 1f3e 06e1 9d3d 6612 103e 209a c63d
000001c0: b9c7 eb3d 2716 163d 453e 70bc 47b3 1bbc
000001d0: 4e8f 0cbc c974 94bc 7af0 853c fc09 203c
000001e0: dd01 fb3c 84b9 e23d ea9f bdbd 3b80 0a3d
000001f0: c232 33be d335 8d3d e588 503e 7e3f 0bbe
-0.03909006 0.0044845548 -0.06519986 0.002057082 0.04081575 0.0788995 -0.0917949 0.10410854
-0.017932545 0.034300342 -0.10747946 -0.062212117 0.15761007 0.013709833 -2.6236974e-05 0.030484082
0.081709675 -0.14917204 -0.04334416 0.07709674 -0.03223642 0.08376409 -0.13188037 0.12744579
-0.089296855 0.095260546 -0.084225774 0.013225727 -0.038088575 0.03507499 0.03281878 0.0067804083
0.09739147 -0.026900247 0.08677406 0.07949183 0.022218116 0.104698226 0.043918747 0.1308545
0.16284032 0.09409884 0.075009935 -0.108125746 -0.097796775 0.0062363013 0.0036334342 0.10290132
-0.097589254 0.080673695 0.08269523 -0.07284068 -0.058386564 0.039964486 0.02531901 -0.1488502
0.19986211 0.05154997 0.05542931 0.16984378 -0.09936078 -0.05801108 -0.010506483 0.027710104
-0.05104357 0.045315657 0.010356226 0.081062935 -0.12391481 0.006859751 0.10423896 0.019574549
-0.080996566 0.037133854 0.0472037 0.11800431 0.11543856 0.03295958 -0.022403032 -0.018669993
-0.027401201 -0.0058317413 0.08980924 -0.063119635 0.018901499 0.013139562 -0.0020681832 0.021434717
-0.10628811 0.10689672 0.028863264 -0.037942827 0.066235036 -0.057126246 -0.21300647 -0.03859307
0.049319737 -0.04605281 -0.0275289 -0.10345791 -0.045375694 -0.024522463 0.07779281 0.076779135
0.036884014 0.05039975 -0.03625259 -0.089393325 0.15593103 0.077089354 0.14069518 0.09697366
0.115127034 0.03664222 -0.014663284 -0.009503192 -0.008579088 -0.018122094 0.01635002 0.009768005
0.030640537 0.110705405 -0.09259017 0.033813696 -0.17499831 0.06895032 0.20364721 -0.13598439

weight f4 [64, 128]
00000000: 3173 fc3d 480e 5b3e 0805 21be 31c5 413e
00000010: 91fa 0bbe ac91 29be a4d8 28be 81d4 cd3b
00000020: 2361 a63d aaae 49be 451a f1bb a872 9dbd
00000030: c5a8 1a3e 343e e93d 9410 6e3c 18c8 c83d
00000040: 108f 4ebe b2fd 2ebe b7d4 dd3c d57b 84bd
00000050: a228 dfbc 8276 533c 838c 4b3e 3929 30be
00000060: dcd4 0c3e 4a33 18bd c82b 98be 0d1d 143e
00000070: 6d24 163d a2bb dc3d 7e24 0b3e 440c d7bd
00000080: 1b09 dbbd a5e6 b13d 334d 2abe dbc9 8e3e
00000090: afb7 18bd 0b7e 87be d390 3bbe 1065 7ebd
000000a0: 0f68 883e 2b40 263e 8122 87be 69ab b93d
000000b0: 71d0 cd3d cbd7 7c3e b612 fcbc 77dd 0b3e
000000c0: 41bc edbd cee4 03be e297 9b3e 0c42 143e
000000d0: e518 19be e9d9 003e 9a7b c73c 9ac7 d83c
000000e0: a797 71be 6234 ab3d f0d6 e9bd 7eb6 513e
000000f0: 9f0b a4be 4347 d03d ac8c 36bd 512c 3f3e
00000100: 8bb3 18be d534 09be 9ad8 6a3c 4188 18bd
00000110: dac6 933c a523 1d3e bc4b 92be 348f a2be
00000120: cd50 4fbe 9cbe 483c a6ee e03b c9a0 3a3e
00000130: d029 e83b 8681 b0bd 96cb a43e f61b 633e
00000140: 6fa7 1f3d bb2a fabd b688 2f39 e756 11be
00000150: 072f 84be 3318 43bd 7357 043e b9c5 963d
00000160: 1433 24be 6b5a 93bc 182f cb3d a506 9e3d
00000170: d9ca eebc 4637 06bd 1304 233c 95ae 643e
00000180: 641f a3be c489 65be c154 c2bd d3ca 583e
00000190: 88f3 d2bd 37de debc 573e 1fbe 4cc2 49bd
000001a0: bb3b 3b3e 4449 9a3b 69c5 c73d 1449 333e
000001b0: 81db ecbd 162c 523d bb74 e2bd ab6c 12be
000001c0: 9319 cbbd 6a85 493e cd9d 5f3d 1941 10be
000001d0: 62c7 333e 7c82 643e 7360 7b3d 59e3 653e
000001e0: a54b 3ebd 45ff 69be de9d 4ebe dc1a 81bc
000001f0: 84d2 d33c e929 333d 5ea9 c23d 5354 133e
00000200: 8b7a b7bd 8843 08be 649e e1ba 8e00 06be
00000210: 4a84 8fbe c466 3dbe 3fe7 ccbd 55b5 003e
00000220: 1fad 4c3e 6bbb 95be 9996 89be 96da e03d
00000230: 74ea 533e 6c48 3ebe 0084 8abc 1d61 043e
00000240: 5317 283e d329 383e 5d73 3d3e f995 e03d
00000250: d7d7 44be 27ee 5c3d 1906 34be d01c 52be
00000260: e5cb 543e 901b 04be 9210 62bd d977 9abd
00000270: a231 ad3d 118b d6bd 1b98 f9bd 33bf 4fbc
00000280: 75d3 e33d 7ac9 4abe 9e79 203d 151d 8c3e
00000290: 55a7 b6bd ad82 4bbe bc9e 74be 05ba cfbc
000002a0: 7b84 aebb 7c6b 13bd 8331 8a3e 485d 48be
000002b0: 202b 0abe fadd 923e ebf0 813e 6111 743e
000002c0: fb19 0ebe eb54 393d a2fb c03d cf78 843e
000002d0: 587a fc3d 7f2a bc3d 339f 82be 3e09 853e
000002e0: 02bc c7bd 8e6d 32be f8b2 a4be d52b 123e
000002f0: 5617 8dbe 78b3 d03d cdb1 213d 788f c7bd
00000300: 7ff8 27be 3f3e 953d 526a 013e 110b 673e
00000310: 0c19 61be 9473 0e3e 9853 16be 428c a5bc
00000320: 7ecc 133e 46df 503e 482e 60bd 7ff6 90be
00000330: 1844 a4be 16b6 203e fd90 053e 2001 63bd
00000340: 1c4b 433e 803c 9c3c 301b 10be 2c9d 39bc
00000350: f6f2 edbd cfe5 4b3d 15c7 4fbd cbe9 bbbd
00000360: 4bae 473d 5d8e 1fbe ce34 033e 1685 69be
00000370: 2f5f 373e a859 a53d fcc2 0d3c 9742 4d3e
00000380: ff6e 8b3d 2a45 363e 21e3 a73d a611 44bd
00000390: 7596 a9be f23e 793c c9be 253e ec3e 9f3d
000003a0: 731e 073e 5c5d 3c3d e77b f1bd a54c 1fbe
000003b0: 0ddd 433e ab2b 703e 5cd8 a33d 9ca7 52bd
000003c0: 91ba d6bc eaf5 fbbd 9508 613e f367 383e
000003d0: a61b 6fbd 196c 8fbd 57f3 d93c f69f 5ebc
000003e0: beec ef3c 6ac8 303e 67be fc3c eb03 9fbe
000003f0: 2b2c 67be 8125 31be 34a4 2dbe 110c 8c3b
0.123266585 0.21392167 -0.15724576 0.18922879 -0.13669802 -0.16559476 -0.16488892 0.006281436
0.08123996 -0.19695535 -0.007357868 -0.076878846 0.15103443 0.113888174 0.01453032 0.0980379
-0.20171762 -0.17088965 0.02707897 -0.064689316 -0.027241055 0.012906672 0.1987782 -0.17203225
0.13753074 -0.037158288 -0.29720902 0.14464207 0.036655832 0.107779756 0.1358814 -0.10500386
-0.10695096 0.0868657 -0.16631012 0.27888379 -0.03728455 -0.2646335 -0.18316965 -0.0621081
0.2664189 0.16235416 -0.26393512 0.09065897 0.10049523 0.24691693 -0.03077064 0.13658701
-0.11608172 -0.12880251 0.30389315 0.1447832 -0.14950903 0.12583126 0.02435093 0.026462365
-0.23593007 0.083596006 -0.11417949 0.20479771 -0.32040116 0.10169842 -0.04456775 0.18669249
-0.1491224 -0.1339906 0.014333868 -0.037239317 0.018039156 0.15345629 -0.28573406 -0.3174988
-0.20245667 0.012252476 0.0068643866 0.18225397 0.0070850626 -0.08618455 0.32186574 0.22178635
0.038978036 -0.122151814 0.0001674023 -0.14193307 -0.2581713 -0.0476305 0.12923984 0.07361931
-0.1603511 -0.01798745 0.09921092 0.07716111 -0.02914946 -0.032767557 0.009949702 0.22332223
-0.31859887 -0.22415835 -0.09488822 0.21171121 -0.10300356 -0.02720557 -0.15551125 -0.04925756
0.18284504 0.004708441 0.0975445 0.17508346 -0.115653045 0.051311575 -0.11057421 -0.14299266
-0.09916987 0.196798 0.05459385 -0.14087333 0.17556527 0.22315401 0.061371278 0.22450007
-0.04645886 -0.22851284 -0.20177409 -0.015759878 0.025857218 0.04374114 0.095049605 0.14387636
-0.0895892 -0.13307011 -0.0017213342 -0.13086149 -0.28030616 -0.18496233 -0.10005044 0.12569173
0.19987915 -0.2924455 -0.2687271 0.10979192 0.20694906 -0.18582314 -0.016908646 0.12927671
0.16415147 0.17984705 0.18501039 0.10966105 -0.19222961 0.053938057 -0.17580451 -0.20518804
0.20780905 -0.1290114 -0.055191584 -0.075423904 0.08456732 -0.104757436 -0.12187215 -0.012679863
0.111243166 -0.1980342 0.039178483 0.27365938 -0.08918635 -0.19874068 -0.23888677 -0.025357256
-0.0053258515 -0.035991177 0.269909 -0.19566834 -0.13493013 0.2868498 0.25379118 0.23834755
-0.13877098 0.045247 0.09422995 0.2587342 0.12328023 0.09187793 -0.25512084 0.25983614
-0.097526565 -0.17424604 -0.32167792 0.14274533 -0.27556866 0.10190481 0.039476205 -0.09744161
-0.16403387 0.07287263 0.12638214 0.22562815 -0.21982211 0.13911277 -0.14680326 -0.020208482
0.14433476 0.20397672 -0.054731637 -0.28313062 -0.320832 0.1569446 0.1304359 -0.055420995
0.1907162 0.019071817 -0.14072871 -0.011328977 -0.11618607 0.04977971 -0.05072697 -0.09175452
0.048750203 -0.15581651 0.12813112 -0.22804675 0.17907403 0.08073741 0.008652445 0.20044933
0.0680828 0.17799821 0.08197618 -0.047868393 -0.33122602 0.015212761 0.1618606 0.07775673
0.13195209 0.045987472 -0.117912106 -0.15556581 0.19127293 0.23454158 0.08000252 -0.051429376
-0.026212009 -0.12302764 0.2197593 0.18008403 -0.058375977 -0.0700304 0.026605291 -0.013587942
0.029287692 0.17263952 0.03085251 -0.31057677 -0.22575442 -0.17299463 -0.1695717 0.0042738994

bias f4 [64]
00000000: 35f6 74bc c2f4 273e d2a2 4ebd 852a df3d
00000010: 4341 8b3c 7f5a 04be 98f4 dc3d f5db bfbd
00000020: 1088 373d f812 5abc dd92 45be a26a 8b3d
00000030: 1ead 03bc a7b0 f8bd d85d 433e 5888 473d
00000040: 3a9b d4bd 5a46 a23d 92a4 f73b d3ed 8e3c
00000050: 73af d03d 8697 b1bd 9b78 ff3c 11c8 31bc
00000060: aeb5 513d 2cc7 0bbe 9557 89bd 9ad3 4d3d
00000070: d09d bd3c a7fe 963d f16e 30be 0b6c 3fba
00000080: 76e4 9e3c 8ec0 06be 92f4 87bb 4d51 063d
00000090: 1ae9 74bd 7015 b8bd d593 13be 965c 05bd
000000a0: d2e0 ef3c dabb 953c aedb f0bd ad37 6c3e
000000b0: 8a2e 2f3e 29e8 223e 2883 64be 2e2f f7bd
000000c0: 08cd ce3d 53c3 153e 222f c2bd 9f18 65bd
000000d0: 2aaa bf3d 78d1 10be 8491 a73d 306f 823d
000000e0: 433e 0f3e 3c72 e5bd 1c17 bfbd d288 46bd
000000f0: c87b c83a 418f 12be 2226 81bc a0a5 e5bd
-0.014951278 0.16401961 -0.050448246 0.10896782 0.016998893 -0.12925147 0.1078884 -0.09368125
0.044807494 -0.013310187 -0.19294305 0.06807448 -0.00803688 -0.12143069 0.19078767 0.048714012
-0.103811696 0.07923575 0.00755746 0.017447388 0.10189714 -0.08671479 0.031185439 -0.010850922
0.051198654 -0.13650197 -0.06706158 0.050250627 0.02314654 0.0737279 -0.17229821 -0.00073021714
0.019396048 -0.13159391 -0.004149028 0.03279238 -0.059792615 -0.08988464 -0.14411862 -0.032559
0.029282007 0.018278051 -0.117606506 0.23068114 0.17107597 0.15908875 -0.22315657 -0.12069546
0.100977 0.14625292 -0.09481646 -0.055931684 0.09358628 -0.14142406 0.08182052 0.063688636
0.13988595 -0.11203429 -0.0933058 -0.048470326 0.0015295679 -0.1431246 -0.015765253 -0.11213231
