pth/takada_model_125.pth (torch, 859042 bytes, 6 tensors)

weight f4 [512, 128]
000000 34 f0 74 bf 0c b6 b3 bf 71 67 80 bf 03 a3 29 bf
       -0.9567902 -1.4039931 -1.0031568 -0.6626436
000010 17 e6 6a bf ea 7b 25 bf 3e 62 3e bf 62 52 0e bd
       -0.9175734 -0.646422 -0.74368656 -0.034746535
000020 09 1d 70 bf 75 c1 90 bf 44 20 83 bf 36 b4 08 bf
       -0.93794304 -1.1309038 -1.0244222 -0.5339998
000030 2b c1 a9 bf 1b 0f 45 bf 79 34 1e c0 f3 28 88 bf
       -1.3262075 -0.76976174 -2.4719527 -1.0637497
000040 c5 23 94 bf 0f 44 4a bf 19 61 03 bf a2 94 99 bf
       -1.1573416 -0.790101 -0.51320034 -1.1998484
000050 33 8a 81 bf 27 0a 16 bf 8b e0 6d bf e0 29 38 bf
       -1.01203 -0.5860924 -0.9292075 -0.71938896
000060 af f1 5f bf 74 c9 3f bf 39 d8 c7 bf d7 c6 19 bf
       -0.87478155 -0.7491677 -1.5612861 -0.6006903
000070 b6 67 83 be 5d 04 a8 bf 3c 51 18 bf 4a bb 2e bf
       -0.25665063 -1.3126332 -0.59498954 -0.6825453
000080 45 81 5d bf e9 5f 3d bf 09 ee 29 bf ad a1 c4 3e
       -0.86525375 -0.7397447 -0.6637884 0.384046
000090 a3 cf f3 be b8 02 88 bf c8 c0 00 bf a6 24 4c bf
       -0.47619352 -1.062583 -0.5029416 -0.7974342
0000a0 c9 31 3c bf 4c f4 88 bf 91 a0 64 bf 1e 39 67 bf
       -0.73513466 -1.0699553 -0.89307505 -0.9032153
0000b0 b9 24 b5 be 10 42 71 bf 93 cb 38 bf 7b 92 bf bf
       -0.3537958 -0.9424143 -0.7218563 -1.4966577
0000c0 f0 84 1b bf e5 27 59 bf 75 5f 6d bf d7 92 1d bf
       -0.6074972 -0.848265 -0.9272378 -0.61552185
0000d0 63 9e 65 bf 1d 3f ee be 6e b9 9f bf ce 32 8a bf
       -0.89694804 -0.46532527 -1.2478464 -1.0796754
0000e0 f5 f5 c7 be d6 02 1a bf 54 63 4a bf b5 4a 9d bf
       -0.39054838 -0.6016058 -0.7905781 -1.2288424
0000f0 e1 2a 4f bf 84 86 4e bf bd 8c 70 bf bf af 04 bf
       -0.80924803 -0.80674005 -0.9396475 -0.5183067
000100 f0 c7 6b bf 4b 03 61 bf 36 ff c4 be 33 00 cd be
       -0.92101955 -0.8789565 -0.3847596 -0.40039214
000110 86 d7 90 bf 9c ba 5d bf 95 ae 39 bf 1c e1 5f bf
       -1.1315773 -0.8661287 -0.72532016 -0.87452865
000120 71 76 ab bf bc 7b 26 bf 6b 41 71 bf 31 95 62 bf
       -1.339552 -0.65032554 -0.94240445 -0.885089
000130 25 e3 b3 bf a3 c7 83 bf 2d 53 c7 bf b5 34 c0 bf
       -1.4053694 -1.0295299 -1.5572258 -1.5016085
000140 98 66 ca be 00 e8 57 bf 72 b3 9f bf 7e 73 b2 bf
       -0.39531398 -0.8433838 -1.2476637 -1.3941495
000150 34 e2 94 bf 79 1e 23 bf 0f b4 51 bf d9 b1 14 bf
       -1.1631532 -0.6371837 -0.8191537 -0.58083874
000160 20 24 9c be 77 d2 4e bf 33 76 60 bf 0a 9d 95 3e
       -0.3049631 -0.80789894 -0.8768036 0.29221374
000170 93 86 29 be 6a c3 a0 bf 81 30 27 bf 87 86 ff be
       -0.16555242 -1.2559636 -0.65308386 -0.49907324
000180 f3 ac 62 bf ad 08 0b bf 3f 5b 23 bf ed aa 0b bf
       -0.8854515 -0.54310113 -0.63811105 -0.5455769
000190 7c a5 8b 3d 01 09 7f bf 8a 89 9e be 71 87 4c bf
       0.06818673 -0.99623114 -0.3096431 -0.7989417
0001a0 94 68 91 bf 2f 25 95 bf 92 e2 8e bf 49 65 c2 bf
       -1.136004 -1.1651973 -1.1162894 -1.518716
0001b0 91 40 09 bf 88 84 a2 bf 2d bb 6a bf 23 d3 86 bf
       -0.53614146 -1.2696695 -0.9169186 -1.0533184
0001c0 9b a0 8b bf b7 b9 70 bf 09 c1 a5 bf 7f ef 20 bf
       -1.0908388 -0.9403338 -1.2949535 -0.6286544
0001d0 18 16 8b bf e0 0e 2c bf d7 07 a6 bf e5 0e 67 bf
       -1.0866117 -0.672102 -1.2971143 -0.902571
0001e0 3f 8d 72 3e 2c c7 8f bf db 37 70 bf d3 f2 85 bf
       0.23686694 -1.1232657 -0.9383523 -1.0464729
0001f0 88 5c 27 bf 32 21 45 bf ec a0 8e bf 68 8a 10 bf
       -0.65375566 -0.7700378 -1.114286 -0.5646119
000200 4a 30 27 bf 5e 1a 27 bf 8e a2 84 bf cd ec 32 bf
       -0.6530806 -0.6527461 -1.0362108 -0.6989258
000210 0a 47 85 bf ca e3 fe be 01 d4 8d be f9 c3 3f bf
       -1.0412304 -0.49783164 -0.2770081 -0.74908406
000220 ce 3d ae bf 81 3b 25 bf 63 e2 10 3f fa 5a 4f bf
       -1.3612611 -0.6454392 0.5659544 -0.80998194
000230 e2 ea 02 be e7 64 be 3d e6 91 4b 3c a5 a1 98 be
       -0.12784913 0.09296589 0.012424922 -0.29810825
000240 01 7a 8d 3b 4d 9d 58 bf ff a0 07 be 48 7d e5 3c
       0.0043175225 -0.8461502 -0.13245009 0.02801384
000250 ea d4 13 bf 3f fe a0 3c 2b ff 74 bf dd 91 00 be
       -0.57746756 0.019652484 -0.95701855 -0.12555642
000260 2a 56 2d bf 64 a8 ff bd 2f 71 33 bf 7f 9b 02 be
       -0.677096 -0.1248329 -0.7009458 -0.1275463
000270 6b 3c 27 3f b3 ce fd be 6f 0c 69 3d a3 c2 94 3d
       0.65326566 -0.4957176 0.056896623 0.072636865
000280 80 bd 83 bf 46 5e 79 bf 94 e7 34 bf e4 9c 0d 3e
       -1.0292206 -0.97409475 -0.7066586 0.1382938
000290 36 3d 92 be 90 1d 22 3c 01 73 57 bf e8 0e 40 bf
       -0.28562325 0.009894744 -0.8415986 -0.75022745
0002a0 92 4d 12 bf 5b a9 32 bf e0 94 99 bf e3 c1 88 3f
       -0.5714961 -0.69789666 -1.1998558 1.068417
0002b0 7d 29 8c be 7c 4f 95 bc 08 cf 74 bf b4 e7 ec be
       -0.27375403 -0.018226378 -0.95628405 -0.46270525
0002c0 ed b4 21 bf 0b 8f 26 bf f6 64 67 bf ed 61 05 bf
       -0.63166696 -0.65062016 -0.9038843 -0.5210255
0002d0 5f c5 e6 3d 7e 02 d0 be 7c fe 6b bf 6a 37 11 bf
       0.11268114 -0.406269 -0.9218519 -0.5672518
0002e0 05 9b e3 3c 21 e1 ff be 95 c3 3b bf da 1a d1 be
       0.02778388 -0.49976447 -0.7334531 -0.408408
0002f0 79 b5 86 bf 9d 49 b7 be 52 4a 13 bf 18 a9 20 bf
       -1.0524131 -0.3579835 -0.5753528 -0.62758017
000300 20 29 05 bf c6 84 55 bd c9 70 5b bf 08 5f 45 bf
       -0.52015877 -0.052128576 -0.8571897 -0.7709813
000310 82 1a 09 bf 41 42 f7 be 25 fd 18 bf bd e4 23 bf
       -0.5355607 -0.48292735 -0.5976127 -0.640209
000320 f3 c8 91 bf 42 33 da be 0b 28 c3 be 7f 80 c7 bf
       -1.138945 -0.42617232 -0.38116488 -1.5586089
000330 a9 71 e8 bd e4 db 3d bf bc 46 29 be cf cc 92 be
       -0.11349804 -0.7416365 -0.1653089 -0.28671882
000340 c1 7c 2d bd 2e 90 39 bf ca c1 9e 3e 54 b2 52 3e
       -0.042355303 -0.72485626 0.31007224 0.2057584
000350 6f 36 00 3f e5 e6 92 3f 2a 82 04 bf 7f d0 38 bf
       0.5008306 1.1476713 -0.51761115 -0.7219314
000360 89 f4 bd be 84 b4 5a be 33 6c 0e be 8f f3 64 3e
       -0.37100628 -0.21357924 -0.13908462 0.22358535
000370 88 d1 93 be 46 11 1d bf 7d b0 a3 3e dd 34 5f bf
       -0.28870797 -0.6135448 0.31970587 -0.8719004
000380 4c da 1a bf 06 4a 67 bf fc 7a 07 bf df 2f bf be
       -0.60489345 -0.90347326 -0.52922034 -0.3734121
000390 38 ec 6b bd 2f 5e 41 3f 2d 5c 31 bf 77 f3 94 bf
       -0.057598323 0.7553434 -0.69281274 -1.16368
0003a0 43 ed 00 bf 98 37 bd be ae 08 12 3e 17 19 6a 3f
       -0.5036203 -0.36956477 0.14261124 0.91444534
0003b0 27 fe f9 be 85 b1 84 3e 3b 72 c1 3e de 20 21 bf
       -0.48826715 0.25916687 0.37782463 -0.62940776
0003c0 35 42 a2 be f3 d7 01 bf 33 d3 0c bf 54 36 90 bd
       -0.31691137 -0.5072014 -0.55009764 -0.07041612
0003d0 b7 2f 5d 3f be a4 19 bf 63 51 84 bf 15 22 30 bf
       0.8640093 -0.60017 -1.0337337 -0.68802005
0003e0 f5 cb 9f be 3b b5 24 bf 67 89 2b bf 27 19 9b bf
       -0.31210294 -0.64339036 -0.67006534 -1.2117051
0003f0 26 91 71 bf db 1b 01 bf 33 28 ad be c8 d7 b5 be
       -0.94362104 -0.5043313 -0.33819732 -0.3551619

bias f4 [512]
000000 57 7b 46 be 2c db 5d be 17 3b a1 bf 62 40 89 be
       -0.19382988 -0.21665639 -1.2596158 -0.26806933
000010 2b f7 60 3e 28 09 25 bf f8 92 c1 3e 06 ae 8c be
       0.21969287 -0.64467096 0.3780744 -0.2747652
000020 76 92 9c be 17 47 92 be b2 e3 66 3e f6 86 b9 be
       -0.3058049 -0.28569862 0.22547796 -0.3623578
000030 e0 b0 f7 3d 46 77 2c bf af 3e 68 3d c8 52 6a be
       0.12094283 -0.67369497 0.056700405 -0.22883141
000040 7b 2a 3d be 87 08 0e 3f 8b 47 d2 bc a7 2b b0 be
       -0.18473236 0.5548176 -0.02566888 -0.34408304
000050 68 8c 4d be ed bd 91 be 39 4e bd bd d6 e4 1f 3e
       -0.20073092 -0.28465214 -0.092434354 0.15614638
000060 8c 87 92 be 97 3e 78 be 8e c6 3b bd 6b e0 47 3e
       -0.2861904 -0.24242626 -0.045843653 0.19519202
000070 2d ad b5 be a9 9f de be 26 2f bd 3d b8 b9 e4 3b
       -0.35483685 -0.43481186 0.092375085 0.006980147
000080 a0 69 22 bf 8c fa b7 be 55 78 ce 3f ff 74 fa 3d
       -0.6344242 -0.3593334 1.6130472 0.122293465
000090 c8 c6 20 3d d7 09 27 be 87 1f 12 3e 39 5c 36 3f
       0.039252073 -0.16312347 0.14269839 0.7123447
0000a0 68 8c 98 3e 88 a1 cd be de 01 ce be f7 48 bb be
       0.2979462 -0.401623 -0.402358 -0.36579105
0000b0 01 84 e0 bd 2a 0c 5b be ae b1 92 3f 89 e7 8e be
       -0.10962678 -0.21391359 1.1460474 -0.27911022
0000c0 28 16 4f be 6f e2 ba be 15 54 70 be ad b7 05 bf
       -0.20223296 -0.3650088 -0.23469575 -0.5223339
0000d0 50 d4 f3 3e 22 54 53 be 13 17 63 3e 37 a0 90 3d
       0.4762292 -0.20637563 0.22176771 0.070618086
0000e0 c0 6c c4 be 79 2d 21 3e 81 cd a0 3e 5b e8 6c bd
       -0.3836422 0.15740003 0.31406787 -0.05783878
0000f0 00 d8 95 3e c9 77 e1 be 0d 9a 45 bf 74 fa 8e 3e
       0.29266357 -0.440367 -0.7718819 0.27925456
000100 61 fd 27 3d 89 39 13 be 8e 27 d7 3e 71 03 3f be
       0.041013125 -0.14377417 0.42022365 -0.18653657
000110 f4 21 b4 bd da dc dc 3d ba 4d 51 3f 2c f8 9a be
       -0.087955385 0.107843116 0.81759226 -0.30267465
000120 f6 fa 8e be 92 02 d9 be bb a7 3e bd f7 b9 ff bd
       -0.27925843 -0.42384773 -0.04654668 -0.12486642
000130 a9 3c 19 3e f0 27 ed bd 5b 5b 53 3e 09 2f 57 be
       0.14964546 -0.11579883 0.20640318 -0.21014036
000140 dd 6e 50 bd 05 3d 5b 3e 13 a8 15 bf bf f3 9d 3d
       -0.050886977 0.21409996 -0.58459586 0.077125065
000150 81 8b 79 be fa 0b 85 3e ae c9 19 3e 52 1d 63 be
       -0.24369623 0.259857 0.15018341 -0.22179154
000160 5b 02 22 3f 7f 04 e7 3c ee 0f f2 be 22 61 09 3f
       0.63284844 0.028200386 -0.47277778 0.5366384
000170 e2 1c f2 be 14 52 08 3f 16 ed c1 3c 72 36 fe 3d
       -0.4728766 0.5325024 0.023672622 0.12412728
000180 ac 31 72 3e 97 23 7a bd 5c 56 3d be d1 c1 82 be
       0.23651761 -0.061069097 -0.18489975 -0.25538495
000190 50 2c c0 bd 8a 7f 95 3e 31 f9 a7 3d ff f8 34 3d
       -0.09383452 0.29198867 0.08201826 0.044182774
0001a0 76 d5 cb bd 28 c5 ab bb 94 87 08 3f f7 74 94 3d
       -0.09952824 -0.0052420087 0.53331876 0.07248872
0001b0 9e 8d 97 bc 50 22 ba bc 2e 21 c1 3c 51 dd 8f 3f
       -0.018500146 -0.02272144 0.023575392 1.1239415
0001c0 19 68 97 bd 2d 91 91 be 57 18 1e be 1d 3b d9 3e
       -0.07392902 -0.28431073 -0.15438972 0.42427912
0001d0 01 9b 4e 3d b8 39 c0 3c 89 1e 45 3f e9 0e b5 be
       0.050440792 0.023465022 0.7699972 -0.35362938
0001e0 07 82 63 3e ba 55 c7 be c0 8b 02 be 41 e4 eb 3c
       0.2221757 -0.38932592 -0.12748623 0.028795363
0001f0 24 98 31 bd e3 6c 18 bf fd f8 87 3d 2e 4c 7c 3e
       -0.043357983 -0.5954115 0.066392876 0.24638435
000200 40 50 c0 be 10 b3 68 3e 95 31 9e 3e a3 34 d2 3d
       -0.37561226 0.22724557 0.30897203 0.10263946
000210 c1 95 93 be f7 76 9b be 8a 78 e4 3d 23 2e 9d bd
       -0.2882519 -0.303642 0.111558035 -0.076748155
000220 18 7f 20 3e 1b 69 d6 bd 54 3a ba be 09 fd 52 3f
       0.15673482 -0.10469266 -0.36372626 0.8241735
000230 0e 74 3f bb df 36 07 bf 00 61 09 bf 1e 5d 00 3f
       -0.002921346 -0.528181 -0.53663635 0.50142086
000240 3a 93 2f bf e9 e2 e5 3d 03 6c b7 bd 37 c4 c2 bd
       -0.68584025 0.1122492 -0.089561485 -0.09510081
000250 18 62 e5 3d b5 3d 13 3e 78 10 20 be 23 55 58 be
       0.112003505 0.14379008 -0.15631282 -0.21126227
000260 dd f6 8d 3e bd 50 97 bf 62 25 13 3e 8f 4d 02 be
       0.27727404 -1.1821514 0.14369729 -0.12724899
000270 70 3a db 3f a6 b1 e5 3e 62 3c fb 3d 28 58 ad bd
       1.7127209 0.44862098 0.122673765 -0.0846408
000280 aa b1 11 be cc 3c fe be 5a df 9c 3d e3 25 59 be
       -0.1422793 -0.4965576 0.076597884 -0.21205859
000290 8a d3 fd 3e 40 bb 80 3e a5 0a 13 be 6b b4 27 be
       0.49575454 0.2514286 -0.1435953 -0.16377418
0002a0 ff 97 98 bd 43 87 ce be c2 e1 f6 bd 76 c2 49 bd
       -0.07450866 -0.40337572 -0.12054779 -0.049257718
0002b0 ab 53 ef bd 22 0e 60 bf f9 2f a1 3e b8 a4 08 bf
       -0.1168588 -0.87521565 0.31481913 -0.5337634
0002c0 82 09 10 be 20 2f d1 be fd 9a 2e 3d bb 8a 00 3f
       -0.14066127 -0.40856266 0.042628277 0.50211686
0002d0 ad b5 ad 3d 7b 3e 89 be 4a eb a2 be 28 5f a1 bf
       0.084819175 -0.2680548 -0.31820136 -1.2607164
0002e0 73 ea 02 3e 10 19 82 3e f8 84 29 3f b2 99 6f be
       0.12784748 0.25409746 0.6621852 -0.23398474
0002f0 2b 81 6f bd 99 63 92 bd 04 05 dd bd b6 51 57 be
       -0.058472794 -0.07147903 -0.10791972 -0.21027264
000300 aa 04 23 bf a0 0d cf be 7c 3c 8b bf 74 b4 ae 3e
       -0.6367899 -0.40440083 -1.0877833 0.3412205
000310 0b b5 99 3e bc 4c c7 be 5f 37 17 be 30 76 39 3f
       0.30020937 -0.3892573 -0.14767216 0.72445965
000320 af 07 c7 be 3a f2 3d be 5d eb 47 3e 8d 22 2f bf
       -0.3887305 -0.18549433 0.19523378 -0.68412095
000330 ae 4f 97 bf da 93 bf 3e e7 e5 13 3e e3 94 30 3e
       -1.1821191 0.3741749 0.1444317 0.17244296
000340 a8 72 36 bc 01 b9 11 be b5 33 92 be e6 1d c0 bd
       -0.011135735 -0.1423073 -0.28555074 -0.09380703
000350 41 48 55 3f 14 31 24 3e 1e 90 10 3f 03 3b 02 3f
       0.83313376 0.16034347 0.56469905 0.50871295
000360 50 95 7c 3e f9 e8 ab 3e ae ef cd be 7e b0 0c 3e
       0.24666333 0.33576182 -0.40221924 0.13739201
000370 fc 20 91 3d 61 13 13 3f 33 58 3f 3e fd a2 34 bd
       0.070863694 0.57451445 0.18685989 -0.04410075
000380 55 06 1a 3f 94 b5 73 3e 99 76 52 bf ba 74 86 3e
       0.6016591 0.23799735 -0.82212216 0.2626093
000390 d7 d0 4d 3f c0 9f 85 3d ef 9f 21 3e 81 65 9e 3e
       0.8039679 0.065246105 0.15783666 0.30936816
0003a0 92 e3 90 3e 19 93 b5 be ad 1e 84 bf fc 76 09 be
       0.28298622 -0.3546379 -1.0321862 -0.13424295
0003b0 63 97 90 bd 48 fa e9 be ba 8c 3f 3c 04 c1 84 be
       -0.07060125 -0.45698762 0.011691267 -0.2592851
0003c0 de f3 c2 bc 27 e0 08 bf 42 50 40 3e 5d 2e 09 bf
       -0.023797926 -0.5346703 0.18780616 -0.5358637
0003d0 55 09 bd 3f 2d d3 9c be c6 18 02 3f af 2e 67 be
       1.4768473 -0.30629864 0.5081905 -0.22576402
0003e0 8f 4d b6 bd fa 1f 8a be 59 c2 0b 3d 59 cd d0 bd
       -0.08901512 -0.2697752 0.03412089 -0.10195417
0003f0 d4 f9 e6 39 82 9a 4a 3e 49 00 21 bf 44 66 3b 3e
       0.00044055155 0.19785503 -0.6289106 0.1830073

weight f4 [256, 512]
000000 89 b3 c1 bd 88 3e 91 be 77 be 52 3e 26 b6 00 3e
       -0.09458072 -0.2836802 0.20580469 0.12569484
000010 c2 ae ea be 38 c6 0a bf 81 3b 5e 3d 4e aa 27 bd
       -0.45836455 -0.5420871 0.054255966 -0.0409339
000020 7d 21 35 bf d2 38 8a be b8 fb 3f 3e 2b 95 30 3f
       -0.70754224 -0.26996475 0.18748367 0.6897761
000030 f9 16 81 3d e9 a9 20 3f 4a 8c a8 be 67 69 32 3f
       0.0630321 0.6275926 -0.32919532 0.6969208
000040 9d 49 8a 3e f7 49 dd be 4e c1 ac 3d 43 6c aa be
       0.27009287 -0.43220493 0.084353074 -0.33285722
000050 a6 1f bf 3e ae 4a 0f 3f e7 a2 84 be a2 6c 07 bf
       0.37328833 0.5597333 -0.25905535 -0.52900136
000060 5b 46 89 3e b5 6f d1 bb 72 ad 03 be 4e 57 b6 be
       0.2681149 -0.0063914903 -0.12859133 -0.35613483
000070 ad 7e 38 3f 38 f7 20 be f2 fc 14 3e d8 a1 17 3f
       0.7206829 -0.15719306 0.14549616 0.5923133
000080 bc d9 ca 3e 63 24 b5 be 11 a1 4c bf 06 05 e2 be
       0.39619243 -0.35379323 -0.7993327 -0.44144458
000090 31 97 72 3f 37 eb da be 22 f6 f2 be 37 a8 15 3d
       0.9476195 -0.4275758 -0.4745341 0.036537375
0000a0 10 61 be bd bc a8 e5 be 4d 5c 92 3c 02 6c f4 3e
       -0.09295857 -0.44855297 0.017866278 0.47738653
0000b0 70 ff 37 bf 10 98 c7 3c 91 b1 97 be e4 cf b2 bd
       -0.7187414 0.024364501 -0.2962766 -0.08731058
0000c0 7c c1 4c 3f be 68 01 3b 06 77 ef 3e e3 df fb 3e
       0.79982734 0.001974627 0.46770495 0.4919425
0000d0 fc 37 d2 3e a2 48 73 bc 5d 5e a9 3e ee 34 f2 3e
       0.41058338 -0.01484886 0.33079806 0.47306007
0000e0 a9 76 4b be 7b 3f f4 be 6e d0 76 bd 5e 45 49 3e
       -0.19869484 -0.47704682 -0.060257368 0.19655368
0000f0 7f a9 2d bf bb 2f 07 bf 7e e2 72 3e 6e 3a 30 bf
       -0.67836756 -0.52807206 0.23719212 -0.68839157
000100 64 df 84 be de 4a 13 bd a4 f8 8b bd a3 0f 99 be
       -0.25951684 -0.03596007 -0.06834534 -0.29894742
000110 86 af 18 3e ed 86 d5 3e b6 5f 45 bf 10 50 71 3e
       0.14910707 0.41704503 -0.7709917 0.23565698
000120 48 a9 84 3e b7 9b af bc c8 b3 a4 3e 74 e2 ad 3e
       0.259104 -0.021436555 0.32168412 0.33961833
000130 23 af 71 be da 96 ee bd 7c 18 f8 3d 5e b8 80 3f
       -0.23601966 -0.116498664 0.12114045 1.0056264
000140 90 ab a4 be dc 74 ce bb e8 c1 47 3f f3 86 9f be
       -0.32162142 -0.006300552 0.7803025 -0.31157646
000150 84 b8 54 bf e1 0d e9 be b1 30 82 be 84 af 82 3e
       -0.8309405 -0.455184 -0.25427774 0.25524533
000160 73 80 f4 3b 57 69 06 3f 58 38 d7 3e 4a 49 a1 bd
       0.0074616014 0.52504486 0.42035174 -0.07875307
000170 8b 35 2b bd 7a bb 2a be d3 11 07 3f b8 91 ab 3d
       -0.04179911 -0.16673079 0.5276157 0.08377403
000180 58 0e 13 bf c5 65 14 3f 78 45 61 bd 01 38 d0 be
       -0.5744376 0.5796779 -0.05499789 -0.40667728
000190 df df c6 3e 71 56 f3 be 4e 3d c7 3e 82 4a c3 be
       0.38842675 -0.47526887 0.3891396 -0.38142782
0001a0 f7 e2 bf 3e e9 12 0e bf 3b 34 7f be e5 08 85 3e
       0.37477848 -0.55497605 -0.24922268 0.25983348
0001b0 ef 4a 8e 3e 4f bc b0 be f4 78 0f 3e 9b f0 af 3e
       0.27791545 -0.34518668 0.14010984 0.34363255
0001c0 2a 2e a7 3e 28 de 17 bf 9a 04 e0 be 29 d0 88 39
       0.32652408 -0.5932336 -0.4375351 0.00026095033
0001d0 35 91 80 bf dc 50 bf 3d 95 9a 24 bf 3b 0e a3 3e
       -1.0044314 0.093415946 -0.64298373 0.31846794
0001e0 e7 45 27 be e8 2c 9d be ff 56 8a be 54 b7 c6 be
       -0.1633526 -0.30698323 -0.27019498 -0.38811743
0001f0 f3 f4 33 3e d1 d6 10 bf c0 e5 a7 3d 00 64 02 bf
       0.1757391 -0.56577784 0.08198118 -0.5093384
000200 39 2a 52 bc 1d cb 99 bc 15 72 2e bf 9e d7 da be
       -0.0128274495 -0.01877361 -0.68142825 -0.42742628
000210 bb f3 87 3c 1b 29 58 3e bf 32 a9 3f 67 1c a8 3e
       0.016595712 0.2110943 1.3218611 0.3283417
000220 15 35 b1 3e e2 2b 64 bf 34 fd a6 3e eb 07 06 bf
       0.3461081 -0.8912946 0.32615054 -0.5235583
000230 91 9b 37 3f db 8a 03 3f 6e df 3b 3e 58 ed d9 3e
       0.7172175 0.5138375 0.1834695 0.4256389
000240 00 62 7e be c4 ec eb 3a 2d dc 64 be 3f 4e e9 3e
       -0.24842072 0.0017999639 -0.22349615 0.4556751
000250 8f df 83 3e a1 86 14 3f ec 1d 75 3f 9e a6 b9 3e
       0.257565 0.5801793 0.9574878 0.3625993
000260 a3 04 c8 3d b2 76 8a 3e 43 38 0b be 36 14 06 bd
       0.097665094 0.27043682 -0.13595681 -0.03273412
000270 a7 b2 1e bf f2 d0 8c be 9e 7b a3 bd 23 d5 76 3d
       -0.6199135 -0.27503163 -0.079825625 0.060261857
000280 59 cd 0b 3f c1 19 7b 3e e0 2d aa be 4a b2 73 be
       0.5461021 0.24521543 -0.33238125 -0.2379848
000290 10 38 99 bb 94 62 17 3e 6a 9b 1d bf ef 6a 78 be
       -0.0046758726 0.14783698 -0.6156527 -0.24259542
0002a0 cc cd 22 bf 6c 31 55 be 91 d6 2f 3e c2 25 b4 3e
       -0.6359527 -0.20819634 0.17171694 0.35185057
0002b0 c6 0e 31 3e 6c 0f 97 bc 24 cc 78 be ce 80 01 3f
       0.17290792 -0.01843997 -0.24296623 0.50587165
0002c0 9e be 76 3e c9 83 92 3e 78 8b d7 be 9e b2 4f 3e
       0.24096152 0.2861617 -0.42098594 0.20282981
0002d0 1d bd 28 3f d4 ce 35 3d cf f8 cf 3e d5 43 58 3f
       0.65913564 0.0443867 0.40619513 0.84478503
0002e0 80 c8 30 bf 24 7f 90 3e 98 6f d3 3e 8e c2 11 3e
       -0.6905594 0.28222 0.41296077 0.14234373
0002f0 05 e8 e2 3c d9 21 97 be a0 8a 8c 3e 10 34 64 3e
       0.027698526 -0.2951801 0.27449512 0.22285485
000300 2c 63 07 3e 2f ae 63 3e 3e 84 18 3f ca 6c 43 3e
       0.13221425 0.22234415 0.59576786 0.19084468
000310 6e 8a bd be 3f 05 e2 3e ea cf 10 3d 4d 06 db 3d
       -0.37019676 0.44144627 0.035354532 0.10694561
000320 28 3e b9 be 62 37 6c bd ed 37 86 be 98 0e 8b bf
       -0.36180234 -0.057670005 -0.26214543 -1.0863829
000330 87 86 b4 3d 85 f9 61 3e 5f b8 96 bd 4e b5 d7 be
       0.088147216 0.2206784 -0.07359385 -0.42130512
000340 39 3f 05 3e 36 4c 80 3e 65 18 0e 3f c7 c2 0f 3e
       0.13012399 0.25058144 0.55505973 0.14039145
000350 fe 3d 42 bf f5 53 c5 3e 75 ce 4a be 12 9b d9 be
       -0.7587584 0.38540617 -0.1980532 -0.42501122
000360 ce d8 12 3d 42 b0 0a be 65 dc 18 be d6 71 22 3f
       0.035851292 -0.135438 -0.14927824 0.6345495
000370 a6 7c 8c be 59 8b 8c be e6 89 7d 3e ab b1 3f 3e
       -0.2743885 -0.27450064 0.24759635 0.18720119
000380 5b b9 81 be db b9 70 3e ee a0 3e be 3a cf 9c be
       -0.25336727 0.23508398 -0.18616077 -0.3062685
000390 c6 3b e2 be e0 68 9f 3e 8b fb bd be e2 06 0b be
       -0.4418623 0.311347 -0.37105975 -0.13576844
0003a0 a8 7d 34 bf ff 07 ec 3d 6d 1f 1d 3f 58 af de 3d
       -0.70504236 0.11524963 0.61376077 0.10873288
0003b0 c8 b6 00 bf 6f 99 ba 3e 0c 05 14 3b b0 e5 85 be
       -0.502789 0.36445186 0.0022586016 -0.261518
0003c0 f4 80 3b bf 96 0b 30 3f 27 30 e9 be 8b 5d ef 3c
       -0.7324364 0.6876768 -0.4554455 0.02921941
0003d0 54 71 69 bf 21 41 8e 3d 8e 05 ad be 85 64 6e 3f
       -0.9118855 0.06946016 -0.337933 0.9312213
0003e0 1d 49 77 bd f5 45 0b 3f b3 b6 00 3f dc 62 10 bc
       -0.06037246 0.5440362 0.50278777 -0.008812632
0003f0 75 cc ee bd ad 60 5b 3f e1 65 c7 3e c1 f6 a9 be
       -0.11660091 0.8569439 0.38944915 -0.3319607

bias f4 [256]
000000 8e 7d 5b bf 96 11 92 bf 6b 43 d1 be 36 d9 0c bf
       -0.85738456 -1.1411617 -0.40871748 -0.5501894
000010 24 6f 30 bf b9 9c 1a bf ef 49 29 bf 7d 85 ee bd
       -0.6891959 -0.6039539 -0.6612844 -0.116465546
000020 14 da 19 bf be c7 16 bf 2b a0 51 bd 77 58 e1 3d
       -0.60098386 -0.5889853 -0.05117814 0.110032015
000030 0c 2a be 3d a3 ec a4 be fa 0a 6f bd 8e db a7 bf
       0.092853636 -0.3221179 -0.058360077 -1.3113878
000040 94 cc 60 bf fc e6 2e bf 23 27 61 be 3e f4 b6 bd
       -0.8781216 -0.68321204 -0.21987586 -0.08933304
000050 69 3b 1a be 20 c0 b6 be aa 4e 05 be 40 53 0b bf
       -0.15061726 -0.35693455 -0.13018289 -0.54423904
000060 5b 6a 27 3c d8 c2 c8 be 7d 2d 8c be 57 80 35 bf
       0.010218228 -0.39211154 -0.27378455 -0.70898956
000070 ec d9 30 bf 2e f2 17 be 45 57 cc bd d4 f2 65 be
       -0.6908252 -0.14838478 -0.09977583 -0.22455913
000080 ac 7e 84 be b7 f2 85 be 00 55 d0 bd f3 b8 7c be
       -0.25877893 -0.2616174 -0.101724625 -0.24679928
000090 61 a2 10 bf 01 4d 55 be 15 dc ba bd b6 fc a3 3d
       -0.5649777 -0.20830156 -0.091240086 0.08007185
0000a0 f6 15 f3 be 21 6c d2 bc b2 ee c5 be 54 e9 08 3e
       -0.47477692 -0.025686326 -0.38658673 0.13370258
0000b0 40 1a 57 bf 6f 96 48 be d2 ce 73 3d 32 10 c6 3d
       -0.8402443 -0.19588636 0.05952341 0.09671058
0000c0 72 e7 5c be 4e 7f 3f bf 85 70 25 3e 1b 49 cf be
       -0.21572664 -0.74803627 0.16156204 -0.40485463
0000d0 7c 28 6b 3d 55 d6 7a bf 91 3c 2c bf c0 f6 4e bd
       0.057411656 -0.97983295 -0.67279917 -0.050528288
0000e0 a2 52 ec be ad 40 71 bf ac ed 05 bf 1f cd 9c be
       -0.46156794 -0.9423931 -0.52315784 -0.30625245
0000f0 94 1a 1b be d2 d0 9f 3e c1 c8 54 bf 99 26 44 3e
       -0.15146858 0.31214005 -0.83118826 0.19155349
000100 59 88 90 3e 03 0c be bf 05 f4 ad 3d 9b d7 90 3d
       0.28229025 -1.4847416 0.08493809 0.070723735
000110 a9 5a ab be 0b a5 b0 be d7 60 3a 3e 8d 3b c7 3d
       -0.33467606 -0.34500918 0.18201004 0.09728155
000120 6d df 93 be 1e ef 3d 3e 40 a3 e3 be d1 be 0a be
       -0.28881398 0.18548247 -0.44460487 -0.13549353
000130 eb 4b 63 be cf c5 5e be 77 61 10 be 1f e6 6a be
       -0.22196929 -0.21755145 -0.1409968 -0.22939347
000140 bf b0 ab be ed 01 15 bf c2 e2 6e bf 6a c8 5c bf
       -0.33533284 -0.58206064 -0.93314755 -0.8624331
000150 c9 09 a8 be 3f e1 30 be b7 89 67 bf 10 9f ad be
       -0.32819965 -0.17273425 -0.9044451 -0.33910418
000160 bd 87 4f 3e 6f af f3 bb bb 34 de 3d 4a 78 d2 be
       0.20266624 -0.007436685 0.10849901 -0.41107398
000170 7b c1 7b 3e 22 b3 39 be d5 fe dc be 71 39 8f 3d
       0.24585526 -0.1813474 -0.4316317 0.06993378
000180 8b 45 9e be 05 6a 71 be 6b b0 5a be ac ac 08 bf
       -0.30912432 -0.235756 -0.2135636 -0.53388476
000190 9b 1c 8e bf 2f c3 69 3d 1b fe 15 bf 0f f5 aa be
       -1.110248 0.057070907 -0.5859086 -0.3339009
0001a0 42 cc 81 3c 96 7a 4b be 30 49 c7 bb 9d 97 95 be
       0.015844468 -0.19870982 -0.0060817227 -0.29217234
0001b0 5e a4 80 bf 2e 95 7c 3e 53 17 32 be c3 3a 4f bf
       -1.0050161 0.24666283 -0.1739171 -0.8094904
0001c0 33 eb 25 bf 08 28 1c bf df 9b 21 bf c6 a8 7b 3c
       -0.6481201 -0.6099858 -0.63128465 0.015360063
0001d0 3c 5f 52 be 9a cd 71 bf ee ab 2d be fa bc 01 bf
       -0.20544142 -0.9445435 -0.16960117 -0.5067898
0001e0 fd cc 1c bf eb cf 84 3d 46 10 21 bf 6c 03 92 bd
       -0.6125029 0.0648497 -0.62915456 -0.07129559
0001f0 66 93 f9 be 75 4a 81 bd ec 1a 2f bf 7d 8e a8 be
       -0.4874527 -0.0631303 -0.68400455 -0.3292121
000200 d3 0d a6 3e 8e 50 89 be d8 c7 86 bd e7 11 1b bf
       0.32432422 -0.2681927 -0.06581086 -0.6057419
000210 c6 37 09 be c9 e9 b8 be b0 7d 40 bf 4e 97 0f bf
       -0.13400182 -0.36115864 -0.75191784 -0.5609025
000220 a0 b3 ed be 70 ce b8 bd 93 e2 39 be 96 b3 ff be
       -0.46426105 -0.0902375 -0.18152837 -0.499417
000230 60 db dd be 90 6c f2 be 49 2b 5b be 63 8e 50 bf
       -0.43331432 -0.47348452 -0.2140323 -0.81467265
000240 bf 5a f1 be 05 ed fc 3d 10 91 ac be e6 b4 57 bf
       -0.47139546 0.123498954 -0.33704424 -0.84260404
000250 a4 f3 3a be 81 17 07 bf e9 5e a3 be 49 7b 3b bf
       -0.18257004 -0.5277024 -0.31908348 -0.73234993
000260 49 59 84 bd 74 f2 7f be e6 75 90 bd 57 e3 37 3e
       -0.06462342 -0.24994832 -0.07053737 0.17957817
000270 35 84 a9 be f7 16 96 be a2 6c d5 bd 67 e8 73 be
       -0.33108678 -0.29314396 -0.10421111 -0.23819123
000280 68 0b 36 bf 70 42 53 be 71 4c 81 bf 9d ce 16 3a
       -0.71111155 -0.20630813 -1.0101453 0.00057528337
000290 ec 7d 33 3e b6 4d 1f be 6a cb cb be 77 a3 15 bf
       0.17528504 -0.15556988 -0.3980363 -0.5845255
0002a0 e6 45 8b be 0e 92 72 be 19 7a 9a be c7 13 87 bf
       -0.27201766 -0.23688528 -0.30171278 -1.055291
0002b0 dd 55 b1 bc 1a f5 a0 3d 1e 5a 03 be b7 6b 31 be
       -0.021647388 0.078592494 -0.12827346 -0.17326246
0002c0 3a 9a b3 be b3 fa d8 be f8 c2 5a bf 52 38 c0 3c
       -0.35078603 -0.42378768 -0.8545375 0.023464356
0002d0 52 89 cf be 43 ca bb 3d 19 60 82 3d e2 99 d9 bd
       -0.40534455 0.09169438 0.063659854 -0.10625054
0002e0 b2 5d 34 bf 02 bf 50 bf 13 ee 8a 3c a8 62 4a be
       -0.7045547 -0.81541455 0.016959226 -0.19764197
0002f0 53 47 e6 be ef e9 5b 3e 19 00 a2 bf 7d e8 8f be
       -0.4497629 0.21475957 -1.265628 -0.28107062
000300 95 0a da bd 75 c9 64 bd 34 ae 34 3f 64 e1 93 be
       -0.106465496 -0.055856187 0.7057831 -0.28882897
000310 68 99 47 be bf 0b 53 3d 97 c8 81 bf 5c 12 a1 bd
       -0.19492114 0.051524874 -1.013934 -0.0786483
000320 91 3e 59 bf d7 be f9 be 40 e8 46 bf 17 56 b9 be
       -0.84861094 -0.48778412 -0.77698135 -0.36198494
000330 27 2d ab 3d a4 77 2f bf ab ce 10 bf 26 6f 45 bf
       0.083582215 -0.6854193 -0.5656535 -0.77122724
000340 65 73 68 bf 04 01 13 bd fd 97 85 bf 8f c5 14 be
       -0.9080108 -0.03588964 -1.0437008 -0.14528488
000350 a3 73 cf be 9a 66 fc be de 06 f3 be 14 ae 70 be
       -0.4051791 -0.4929703 -0.47466177 -0.23503906
000360 75 3d 93 bd f4 30 6d bf 54 ad 0b be 11 ab 8f bf
       -0.071894564 -0.9265282 -0.13640338 -1.122408
000370 9a ec 87 be e8 e4 ba bc 32 e1 e5 be 21 fa e3 3d
       -0.265477 -0.02281423 -0.44898373 0.11131693
000380 0e c4 02 bf 27 e5 01 be 74 b2 a1 be 3c 7e c4 be
       -0.51080406 -0.12685071 -0.3158146 -0.3837756
000390 4d 6f dc bd 05 51 a0 be 05 a6 b2 be 1f e0 1e bf
       -0.107634164 -0.31311813 -0.34892288 -0.6206073
0003a0 5a b8 ad 3d b9 52 b2 be 03 2a 87 bf a6 b5 c8 be
       0.08482428 -0.34828737 -1.0559696 -0.39201087
0003b0 6f 3c 29 be fb a1 c0 be 66 cc 3c bf 3b 48 a7 be
       -0.1652696 -0.3762358 -0.7374939 -0.32672295
0003c0 2d b7 86 bf a2 61 f2 3e 01 64 b8 bc 47 d9 be be
       -1.0524651 0.47340113 -0.022508623 -0.37275144
0003d0 db 9c f4 be 16 99 7c be 92 28 e4 be c7 a3 03 bf
       -0.4777592 -0.24667773 -0.44562203 -0.5142178
0003e0 35 c5 d6 bc 0d 0e 06 bf bb b9 4b be dd 13 51 3d
       -0.026217083 -0.5236519 -0.1989507 0.051044334
0003f0 c4 56 38 be 99 f8 59 3d 64 6c 89 3e 2b a2 07 bf
       -0.18001848 0.053215597 0.26840508 -0.52981824

weight f4 [64, 256]
000000 4c 16 00 3b a2 28 d8 3d 20 af 8c 3e e3 16 97 3c
       0.001954454 0.10554625 0.2747736 0.01844353
000010 66 bf 84 3d da 67 f8 bd 85 7a 58 bd 23 cb 44 bf
       0.06481819 -0.12129183 -0.05285122 -0.7687246
000020 ea d9 04 3e 73 e2 de bd 33 5c 96 bd 0b a3 97 3e
       0.12973753 -0.108830355 -0.07341804 0.2961658
000030 9a d7 bd 3e 80 6c 3c 3e f3 a5 63 3d 8c cd b1 bd
       0.37078553 0.18400764 0.055578183 -0.08681783
000040 62 f7 19 3f 6e 68 09 3f 54 23 8c 3e fe 30 e3 3d
       0.601431 0.5367497 0.27370703 0.11093329
000050 98 8d b9 c0 b8 54 b3 3e 36 4b f0 bd 1d 0b 55 bd
       -5.7985344 0.35025573 -0.11733095 -0.05201255
000060 67 34 cf 3d 6f 25 97 3e ee ad bf 3d a7 f7 38 be
       0.10117417 0.29520747 0.09359346 -0.18063222
000070 4f 04 29 3e 4c bd 4a be 71 70 84 3e 23 98 69 3e
       0.1650555 -0.19798774 0.25867036 0.22811942
000080 ef cb 6c 3e f0 78 5f 3e 01 98 1b 3d 0f c1 a4 3e
       0.2312467 0.21823478 0.03798676 0.32178542
000090 fd 20 f4 3e e1 c7 79 3e e9 c6 18 be 43 f6 61 be
       0.47681418 0.24392654 -0.14919628 -0.22066598
0000a0 aa 30 87 3c 74 5d 48 3e 68 76 94 3d bb 23 c7 bd
       0.016502697 0.195669 0.07249147 -0.09723612
0000b0 ab 7a 56 3e 8c 83 6f 3e 30 2c f0 bd ea cf 9b bb
       0.20945232 0.23390025 -0.11727178 -0.00475501
0000c0 87 60 1d 3f f6 bc e2 3d b4 9a d9 3d 6c ec 98 3e
       0.61475414 0.11071198 0.106252104 0.29867876
0000d0 5b 22 0e c0 bf f6 1c be 1a f1 55 3e 7e bf 93 bf
       -2.220847 -0.15328501 0.20892754 -1.1542814
0000e0 7f 69 23 3d b2 be ed 3e 5e 58 e3 bd 4e b6 99 3e
       0.03989553 0.4643455 -0.11100839 0.300219
0000f0 4b 08 fa bd af ab 3d 3e f1 0e 12 bc b1 cc 58 3e
       -0.12208613 0.18522523 -0.008914695 0.21171834
000100 39 8e 23 be d2 4b 07 b9 f6 00 2c 3d 02 1a 4e be
       -0.15972222 -0.00012902849 0.041993104 -0.20127109
000110 e1 d4 1b 3d f1 e9 c5 be 67 77 9b ba 8b 3e 0f 3d
       0.038044814 -0.38655046 -0.0011861146 0.034971755
000120 47 9d eb 3e 4f 0a 47 3d ae 76 62 3e 42 a5 64 3e
       0.4601843 0.048593815 0.22115585 0.22328666
000130 ae 23 d8 3e 35 36 e3 3e 27 6e 96 3d ab 77 73 3d
       0.4221472 0.44377294 0.07345229 0.059440296
000140 de 9a 8d 3e 1b eb 75 3e a2 ef ee 3e bc aa fe 3d
       0.27657217 0.24015467 0.466672 0.12434909
000150 f7 11 6e bd ec 52 04 3e 2f e4 7c 3d db 2a b0 3e
       -0.0581226 0.12922257 0.06174105 0.34407696
000160 a2 50 9b be 6d ee cd 3e 4c e4 19 3e 7e 03 9d bd
       -0.30334955 0.40220967 0.15028495 -0.07666682
000170 f3 48 2d be e7 86 2a 3d 3c 88 d0 3e 63 8d 1f 3e
       -0.16922359 0.04163256 0.4072894 0.15581279
000180 09 6c b3 3e 9f 3d e8 3d 09 fc 0e 3d 8b 90 30 3e
       0.35043362 0.11339878 0.03490833 0.17242639
000190 06 55 db 3e 31 3b 6b bd 57 c1 2d 3e 52 85 5e bf
       0.42838305 -0.057429496 0.16968285 -0.8692218
0001a0 53 2d 08 3f 38 3d 99 3c 12 3d 39 bf 5d 61 33 3e
       0.5319416 0.01870595 -0.7235881 0.1751761
0001b0 e4 dd d3 3e b3 5f be 3e d0 36 d1 bc 4f e6 e6 3e
       0.41380227 0.37182388 -0.025538832 0.45097587
0001c0 fd 04 a2 3e 4f e5 c4 be 83 a8 e1 3e f2 0e c6 3d
       0.3164443 -0.384562 0.44073877 0.09670819
0001d0 cf 3d 8e 3e 64 74 8c bb 89 83 83 be 3a bc 62 be
       0.2778153 -0.004286336 -0.2568629 -0.22142115
0001e0 c3 9b 0a bd 18 86 ab 3e 0d ee 43 be c6 30 93 3e
       -0.033839952 0.33500743 -0.19133778 0.2874815
0001f0 9d 11 8c be 12 7c 34 bd 52 aa 0e 3e 11 d8 81 3d
       -0.27357188 -0.044063635 0.1393216 0.063400395
000200 3c be 8c 3e 2e 49 a9 3e cf 41 f6 bc 92 e2 ed 3e
       0.27488887 0.33063644 -0.030060677 0.46461922
000210 4a e0 79 bd f0 40 97 3e bc 13 9c be 5e 9a a9 be
       -0.061004914 0.2954173 -0.30483806 -0.33125585
000220 c3 16 0b 3f d0 d0 72 3e fe 7e 1e 3e 8a 3f ca 3d
       0.54331607 0.23712468 0.15478131 0.098754
000230 b6 21 7d 3d e1 05 19 3e c8 56 bf 3d 67 69 83 c0
       0.061799727 0.14943649 0.09342724 -4.1066165
000240 fd a9 9c 3e 40 97 c0 3d 15 43 8a 3c 81 a8 f2 3e
       0.3059844 0.09403849 0.01687769 0.47394183
000250 56 eb 7c 3d f7 bb f0 3e 08 f9 11 be 91 90 8f 3e
       0.06174787 0.47018406 -0.14255154 0.28039983
000260 aa eb 8f 3e e7 76 8d 3e ca e0 ea 3c 38 26 74 3d
       0.28109485 0.27629778 0.02867164 0.05960676
000270 e9 cc ad bd a4 98 b1 3d 66 48 fd bd b9 2b 91 3d
       -0.08486349 0.08671692 -0.123673245 0.070884176
000280 00 d2 e3 bc 30 68 19 bb 86 5f 0c be e6 d8 ac 3d
       -0.027810097 -0.0023408048 -0.13708314 0.084398076
000290 56 90 06 3e cb 83 2f 3c db bf 43 3c 7c 93 f6 be
       0.13140997 0.010712574 0.011947597 -0.48159397
0002a0 64 c5 19 3e 4d 8c 17 3e 63 be bb 3d 2b f8 2a 3f
       0.15016705 0.14799614 0.09167173 0.66784924
0002b0 6d 14 ee 3d 0b 2b 88 3e 95 3f 22 3e 29 78 4a 3e
       0.1162499 0.2659534 0.15844567 0.197724
0002c0 9b bd c2 3d e1 41 94 3c 12 ce c9 3d d8 eb 4c 3e
       0.095088206 0.01809782 0.09853758 0.20011842
0002d0 b1 9b 18 3f 28 48 96 bd a5 94 1c 3e ef f4 4a 3e
       0.59612566 -0.073379815 0.15291078 0.19819997
0002e0 4f 38 b6 be 77 6a b2 3d 33 08 41 3d d7 68 fd 3d
       -0.35589835 0.08711713 0.04712696 0.12373512
0002f0 ab 0d dd 3d 1a 54 5f 3c 4a b1 64 3e 2a f8 ae 3e
       0.107936226 0.013630891 0.22333255 0.3417371
000300 d1 e8 88 bd bf dd dc bd cf de 15 3e 80 a1 92 bd
       -0.06685031 -0.10784482 0.14635776 -0.0715971
000310 82 74 47 3e 78 cd 13 3e 56 88 2c 3f 14 f8 92 3e
       0.19478038 0.14433849 0.6739553 0.28704894
000320 86 d2 ae 3e 57 a2 37 bd 50 a3 0d be c0 2d be 3c
       0.34144992 -0.044832554 -0.1383183 0.023215175
000330 d9 22 fc 3d 2b 07 34 3e ca 0c 80 bb 87 16 78 3e
       0.12311334 0.1758086 -0.0039077746 0.24227343
000340 76 53 39 3e 9c 70 bf 3e f0 72 02 3e 4e b4 ca 3d
       0.18098244 0.37390602 0.12739158 0.09897672
000350 4d dc 71 3e e8 46 93 bd ea cd ab 3e c2 f0 a3 3c
       0.23619194 -0.07191259 0.33555537 0.020012263
000360 bf 74 31 3e da d5 bc 3d 53 7c 09 3e 37 d7 50 3e
       0.17329691 0.092204764 0.13426332 0.20394598
000370 68 d0 d2 be c8 2e 94 3e 3f 02 d4 3e d1 6d 81 be
       -0.41174626 0.2894194 0.41407964 -0.25279096
000380 98 18 8e 3d 2a 29 f8 bd 67 1d 26 3e ed 7e 88 be
       0.06938285 -0.121172264 0.16222154 -0.26659337
000390 ed 6b d1 3d e9 be 17 3f 09 44 52 3e 0a f3 f2 3e
       0.10225663 0.5927568 0.20533766 0.4745105
0003a0 ba dc 96 bb 83 1a a8 3e ee 8e 01 c0 ef f6 bd 3e
       -0.0046039494 0.32832727 -2.0243487 0.37102458
0003b0 c6 01 e2 3e cf 53 8a bb cd 7b a0 3d 6d 45 94 3e
       0.44141978 -0.0042214165 0.07836113 0.28959218
0003c0 ba 1e 33 3d f0 7b 80 bc 65 a8 01 3f 9a aa 8f 3d
       0.043730475 -0.015684098 0.50647575 0.070149615
0003d0 da 28 80 be ad b1 81 3e f5 8d 37 be 46 3f 0e 3f
       -0.25031167 0.25330868 -0.17925246 0.555653
0003e0 f7 c8 05 3e 60 31 7d bc cb 20 f5 3d 6f ab 15 3e
       0.13064943 -0.015453666 0.119691454 0.14616178
0003f0 56 27 23 3e ea 85 6a 3f dc cb 06 3e 42 d6 21 3f
       0.15932974 0.91610587 0.13163704 0.63217556

bias f4 [64]
000000 5d 53 4c 3f 45 a3 e7 3e cc 2f 04 3f 7e 4c ed 3e
       0.798147 0.45241752 0.5163543 0.4634742
000010 29 25 fa 3e af f5 04 3f a5 50 ed 3e d3 b7 45 3f
       0.48856476 0.51937383 0.4635059 0.7723362
000020 04 a2 e5 3e 19 3d 80 3e d6 90 e1 3e 4c e8 e3 3e
       0.4485017 0.25046614 0.44055814 0.44513166
000030 d9 b3 e2 3e 17 6c db 3e a2 c9 69 3e 72 93 f6 3e
       0.44277838 0.42855904 0.22830823 0.48159367
000040 c2 20 02 3f 71 c7 e8 3e af bb 0d 3e 65 e1 a3 be
       0.50831234 0.45464662 0.13841127 -0.320079
000050 5b 13 97 3e a4 28 00 3f 6d 76 ee 3e f2 2d 01 3f
       0.29506955 0.5006201 0.46574727 0.5046073
000060 43 60 f7 3e f9 2c f1 3e fb ad d4 bd 15 de 7b c1
       0.4831563 0.47104624 -0.10384747 -15.741719
000070 24 f3 7b c1 b2 4c 2a bf d7 ae e2 3e 3f 94 f7 3e
       -15.7468605 -0.6652328 0.44274017 0.4835529
000080 67 ce fb 3e 03 ba f7 3e 4c 41 09 3f 39 df 7b c1
       0.4918091 0.48384103 0.5361526 -15.741998
000090 24 df 7b c1 c3 bf fd 3e af 7f e0 3e fa cb 00 3f
       -15.741978 0.49560365 0.43847415 0.50311244
0000a0 01 34 f3 3e f4 60 de 3e a5 60 04 3f 5f 76 23 c0
       0.47500613 0.43433344 0.5170997 -2.5540998
0000b0 40 bb d5 c0 a5 59 21 3e e6 11 e7 3e ae 51 00 3f
       -6.6791077 0.15756853 0.45130843 0.50124633
0000c0 78 87 f8 3e 12 94 80 3e 38 91 f1 3e 10 83 ee 3e
       0.48540854 0.2511297 0.47181106 0.46584368
0000d0 c7 80 fb 3e 7d bf ff 3e ca 96 76 3e 74 01 ef 3e
       0.49121687 0.4995078 0.24080959 0.46680796
0000e0 2a 88 42 3f 62 33 fd 3e e4 79 01 3f 5d 77 f5 3e
       0.7598902 0.49453264 0.50576615 0.4794263
0000f0 45 32 fd 3e 22 43 f1 3e 64 48 ef 3e b3 e3 48 3f
       0.49452415 0.4712153 0.46734917 0.7847244
