pth/takada_model_60.pth (torch, 300440 bytes, 6 tensors)

weight f4 [256, 128]
0	0x408d9bbb	4.42526
1	0x40d7424e	6.726844
2	0x4109cf1c	8.613064
3	0x410a7ad2	8.654985
4	0x41076a5c	8.463467
5	0x4106df23	8.429477
6	0x408b7d8b	4.359075
7	0x404d2230	3.2052116
8	0x40e4e03c	7.1523724
9	0x40d0aec5	6.521334
10	0x412829f5	10.510243
11	0x412a2641	10.634339
12	0x41241825	10.255895
13	0x41161025	9.378942
14	0x4060fa22	3.515267
15	0x40bc03c1	5.8754582
16	0x41092133	8.570605
17	0x4127c45c	10.485439
18	0x415f4b7c	13.955929
19	0x4143dc04	12.241215
20	0x413d11f3	11.816882
21	0x4130a7cd	11.040967
22	0x411163ef	9.086898
23	0x40f7ca35	7.7434335
24	0x4106d234	8.426319
25	0x4129f1c8	10.621529
26	0x4146143e	12.379942
27	0x415de320	13.86795
28	0x416edf28	14.9294815
29	0x41712834	15.072315
30	0x4121e58a	10.11854
31	0x40fdb8e0	7.9288177
32	0x41088210	8.531754
33	0x41250a94	10.315083
34	0x4143c3b6	12.235281
35	0x41450447	12.313544
36	0x4164d3a9	14.301675
37	0x415d88ef	13.845931
38	0x412585e0	10.345184
39	0x411ebbaa	9.920816
40	0x41077727	8.46659
41	0x4139269e	11.571928
42	0x4138c33c	11.547665
43	0x416ab904	14.67017
44	0x413c2f6c	11.761578
45	0x415e3144	13.887028
46	0x413dba10	11.857925
47	0x412515b2	10.317797
48	0x40d411a5	6.627154
49	0x410361e7	8.211402
50	0x411e5fe7	9.898414
51	0x4147d80c	12.490246
52	0x412c9f44	10.788883
53	0x413ffaae	11.998701
54	0x40c56387	6.1683993
55	0x40d75a56	6.7297773
56	0x408ef771	4.4677052
57	0x40d827c3	6.7548537
58	0x41092515	8.571553
59	0x41079bd6	8.475546
60	0x4107e8d1	8.49434
61	0x4107a320	8.477325
62	0x40d9b899	6.803784
63	0x40c23346	6.068759
64	0x4059cabe	3.4029994
65	0x40e8ce8c	7.2752132
66	0x41085141	8.519837
67	0x4128c9da	10.54928
68	0x4107ae1e	8.480009
69	0x41066718	8.400169
70	0x40da9734	6.8309574
71	0x404b12a6	3.1730132
72	0x4111920b	9.098155
73	0x4066a9af	3.6041067
74	0x411b5708	9.708748
75	0x411e4526	9.891882
76	0x41202cb3	10.010913
77	0x41359105	11.347905
78	0x410cd66c	8.802349
79	0x40f4ce4b	7.6501822
80	0x41011862	8.068453
81	0x411752b0	9.457687
82	0x41653e21	14.327668
83	0x41671acf	14.444045
84	0x41684c7e	14.518675
85	0x41341d3f	11.25714
86	0x4139f76d	11.622907
87	0x410ec04e	8.921949
88	0x4106b799	8.419824
89	0x4121472f	10.079879
90	0x4166b72b	14.419719
91	0x41502131	13.008103
92	0x4146f350	12.434402
93	0x414026e6	12.009497
94	0x4150b8aa	13.045084
95	0x41179259	9.473229
96	0x410411ea	8.254374
97	0x411ffa8d	9.99867
98	0x416173d7	14.090781
99	0x414f8732	12.970507
100	0x41383514	11.512959
101	0x414726e6	12.446997
102	0x4135e898	11.369286
103	0x4114e0b1	9.304856
104	0x4124790d	10.279553
105	0x4118302d	9.511762
106	0x413c70a2	11.777498
107	0x4164e437	14.3057165
108	0x415bd7ad	13.740155
109	0x41471fa9	12.44523
110	0x4126b3ce	10.418898
111	0x41170773	9.439319
112	0x40c4554d	6.1354127
113	0x4084d269	4.150685
114	0x411d2eea	9.823954
115	0x41306d1a	11.026636
116	0x4136bd90	11.42128
117	0x4128e8f5	10.556874
118	0x407694cd	3.852832
119	0x40f087c1	7.5165715
120	0x40c91e2a	6.284932
121	0x40f43742	7.6317453
122	0x4117bf6e	9.484236
123	0x411b3580	9.700562
124	0x4121baea	10.108133
125	0x411b4096	9.703268
126	0x40fb5107	7.853641
127	0x404acbe8	3.1686954
128	0x3f2945dc	0.6612222
129	0xbf83e468	-1.0304079
130	0xbf73b99b	-0.95205086
131	0xbf5fd584	-0.87435174
132	0xbf51bd1d	-0.8192919
133	0xbf717fda	-0.9433571
134	0xbf222adb	-0.6334664
135	0xbf2a00a8	-0.6640725
136	0xbf59fc9e	-0.8515109
137	0xbf63d0a2	-0.88990223
138	0xbf9ca9f4	-1.2239366
139	0xbf973811	-1.1813985
140	0xbf958161	-1.1680108
141	0xbf547ce7	-0.83003086
142	0xbf15a8e2	-0.5846082
143	0xbf189947	-0.5960888
144	0xbf5d6de3	-0.864958
145	0xbf99084f	-1.195566
146	0xbf1ea8cf	-0.6197633
147	0xbf6058c0	-0.8763542
148	0xbf934d24	-1.1507916
149	0xbf9dfe93	-1.2343315
150	0xbf892c71	-1.0716687
151	0xbf4ee321	-0.8081532
152	0xbf889dd1	-1.0673162
153	0xbf883b49	-1.0643092
154	0xbf98db51	-1.194193
155	0xbf531802	-0.8245851
156	0xbff83a31	-1.9392759
157	0xbfd01e6b	-1.6259283
158	0xbf946421	-1.1593057
159	0xbf800913	-1.0002769
160	0xbf7acfb2	-0.9797317
161	0xbfa347d0	-1.275629
162	0xbf77f741	-0.96861655
163	0xbfa8f8df	-1.320095
164	0xbfa673cb	-1.3004087
165	0xbfaf2731	-1.3683835
166	0xbfa9dc80	-1.3270416
167	0xbf628acc	-0.8849304
168	0xbf7df153	-0.99196357
169	0xbf809d82	-1.0048068
170	0xbfabf213	-1.343325
171	0xbfc4380f	-1.5329608
172	0xbf8c1c58	-1.094615
173	0xbfc296bc	-1.520225
174	0xbfc0643f	-1.5030593
175	0xbf8dfc64	-1.1092649
176	0xbf2a70a0	-0.665781
177	0xbf03cf25	-0.5148795
178	0xbf9e4b52	-1.2366736
179	0xbfa97133	-1.3237671
180	0xbfaf603b	-1.3701242
181	0xbfa4623a	-1.2842476
182	0xbfb66f7d	-1.4252774
183	0xbf9333ef	-1.1500224
184	0xbf0c7356	-0.5486349
185	0xbf6efd33	-0.933551
186	0xbf8ad8c4	-1.0847402
187	0xbf9aa55a	-1.2081711
188	0xbf953fb7	-1.1660069
189	0xbf8d0dd6	-1.1019847
190	0xbf9fd99a	-1.2488282
191	0xbfc3927a	-1.5279076
192	0x3f89b82d	1.0759331
193	0xbf787e53	-0.97067755
194	0xbf8ffde8	-1.1249361
195	0xbfa50b37	-1.2894047
196	0xbf94eef0	-1.1635418
197	0xbf98ee92	-1.1947806
198	0xbf6711d2	-0.90261567
199	0xbfafaa41	-1.3723832
200	0xbed0950e	-0.4073872
201	0xbdc429d7	-0.09578293
202	0xbf8ea1ad	-1.114309
203	0xbf8af624	-1.0856366
204	0xbf95e1fc	-1.170959
205	0xbf83e89c	-1.0305362
206	0xbf8cf71b	-1.1012911
207	0xbf4a9451	-0.7913256
208	0xbefd7686	-0.4950449
209	0xbf51998c	-0.8187492
210	0xbfd1742c	-1.6363578
211	0xbfc10ef6	-1.5082691
212	0xbfc00840	-1.5002518
213	0xbfbeeb92	-1.491564
214	0xbfb2f251	-1.3980199
215	0xbf8552b8	-1.0415869
216	0xbf5130f3	-0.81715316
217	0xbf87ff56	-1.0624797
218	0xbfa54f76	-1.2914875
219	0xbff15f98	-1.8857298
220	0xbf803b40	-1.0018082
221	0xbf7eb5ed	-0.99496347
222	0xbfb46d75	-1.4095904
223	0xbf90a69d	-1.1300846
224	0xbf5b4d3c	-0.85664725
225	0xbfb21852	-1.3913672
226	0xbfc5d669	-1.5456058
227	0xbfcb0609	-1.5861217
228	0xbfc7a272	-1.5596449
229	0xbfbf3f76	-1.4941242
230	0xbf993036	-1.1967838
231	0xbf86d0b1	-1.0532438
232	0xbf6c2428	-0.9224267
233	0xbf850acf	-1.0393924
234	0xbfa155d2	-1.2604315
235	0xbfa20005	-1.2656256
236	0xbfc2384c	-1.517343
237	0xbfa360b0	-1.2763882
238	0xbf809c96	-1.0047786
239	0xbf8c95de	-1.0983236
240	0xbf510cd7	-0.8166022
241	0xbf9431a4	-1.1577649
242	0xbf96429e	-1.173908
243	0xbfa24070	-1.2675915
244	0xbf97e160	-1.1865654
245	0xbf6aa77c	-0.9166181
246	0x40070ff6	2.1103492
247	0xbf460996	-0.77358377
248	0xbe6aa692	-0.22915104
249	0xbf79b1e7	-0.9753708
250	0xbf63f6b1	-0.89048296
251	0xbf8eacd5	-1.1146494
252	0xbf8dcfe6	-1.107907
253	0xbeedda65	-0.46455684
254	0xbf2b833d	-0.6699713
255	0xbf546433	-0.8296539

bias f4 [256]
0	0x415a689a	13.6505375
1	0xbfbffad9	-1.4998428
2	0xbd8c956c	-0.068644375
3	0x405886cb	3.383227
4	0xbfc35172	-1.525923
5	0xbf562ebe	-0.8366507
6	0xc085c16c	-4.179861
7	0xc0fe2a01	-7.9426274
8	0x401cbf52	2.4491773
9	0x4069245f	3.642845
10	0xbfee9bb0	-1.8641262
11	0x4052929c	3.2901983
12	0xc07db8fd	-3.9644158
13	0x3fbb0a99	1.4612609
14	0x4008173d	2.1264184
15	0x3f425db1	0.7592421
16	0xc01a8908	-2.4146137
17	0x4025fce0	2.5935593
18	0x4039aa8e	2.9010348
19	0xc06bab88	-3.6823444
20	0xc036798a	-2.8511682
21	0x405d7860	3.460472
22	0x401113b3	2.2668273
23	0x402d9e2c	2.712779
24	0x40595400	3.395752
25	0xc00d2cd7	-2.2058618
26	0xc0067a36	-2.1012092
27	0xc0ed1d01	-7.4097905
28	0x3faecf09	1.3656932
29	0x3e8d0230	0.2754073
30	0x408bc815	4.368174
31	0x3f6ad225	0.91726905
32	0x409ff7cc	4.9989986
33	0xc08bf774	-4.3739567
34	0x40accdb6	5.400111
35	0x40f098cf	7.5186534
36	0x3f80abd6	1.005244
37	0x40cd4d3b	6.4156775
38	0xc115dcbc	-9.36639
39	0xc0bec89e	-5.9619894
40	0x404dcbe5	3.2155697
41	0xbf11a94b	-0.56898946
42	0xbfef6716	-1.8703334
43	0x40abd2dd	5.36949
44	0x3fa232f6	1.2671802
45	0xc03e3973	-2.9722564
46	0x403ac691	2.9183695
47	0x40049afc	2.0719595
48	0x40706b19	3.7565367
49	0xc03ff2db	-2.9991977
50	0x3ff267d6	1.8937938
51	0xc04efedf	-3.234306
52	0xc0ad60dc	-5.4180737
53	0x407da6f9	3.9633162
54	0x40a3e092	5.1211634
55	0x405785bc	3.3675375
56	0x40e56b5c	7.1693554
57	0x4058825f	3.3829572
58	0x41403e1b	12.015162
59	0xc02a8609	-2.6644309
60	0x40810bbb	4.032682
61	0xbffc3610	-1.9703999
62	0xc0eafb9a	-7.343213
63	0xbf178e35	-0.59201366
64	0x4091eb3d	4.5599656
65	0x407cc374	3.9494295
66	0x40e7c074	7.242243
67	0xc090fb19	-4.5306516
68	0xc03b4ee9	-2.9266913
69	0x4082139d	4.064894
70	0xbfc7524b	-1.5571989
71	0x40bcaf7d	5.896422
72	0xbebd143d	-0.36929503
73	0xc0758032	-3.8359494
74	0x3ee12e43	0.43980607
75	0x402f5174	2.7393465
76	0x4084d538	4.1510277
77	0x409511e3	4.6584334
78	0xc034724b	-2.819476
79	0x4078a554	3.8850908
80	0x404d85ff	3.2113035
81	0x403a340f	2.9094274
82	0xc05eba4a	-3.4801202
83	0x4063b578	3.557951
84	0xc03b6070	-2.927761
85	0x3f91c6a4	1.1388745
86	0xbf6ae7ac	-0.91759753
87	0xc004ca9d	-2.0748665
88	0xbf981f79	-1.1884605
89	0x40caf834	6.342798
90	0x3f16c95a	0.5890099
91	0xc038bc4d	-2.886493
92	0xbd4ad228	-0.049516827
93	0x405e8eba	3.4774613
94	0x3fede6d3	1.8586067
95	0xbfd2714f	-1.6440829
96	0xbee55e98	-0.44798732
97	0x404826c8	3.127367
98	0x3fff752d	1.9957634
99	0xbe2f59ec	-0.17124146
100	0x40066fe6	2.1005797
101	0xbf26a243	-0.6509134
102	0xbfd07e58	-1.6288557
103	0x403fe393	2.998265
104	0x411c6288	9.7740555
105	0xbf9c106d	-1.2192513
106	0xbfaa343e	-1.3297193
107	0xc0b83908	-5.756962
108	0x4055bc8d	3.3396332
109	0xc015a5b4	-2.3382387
110	0xc0a10424	-5.0317554
111	0x40980789	4.75092
112	0xc12e7a12	-10.904802
113	0xc09c3cfe	-4.8824453
114	0x40a7df41	5.2460027
115	0xc0c02bf5	-6.005366
116	0x40ea68ec	7.325308
117	0xc0ae73a7	-5.4516177
118	0xc1044549	-8.266915
119	0x40ea7b0b	7.32752
120	0xc0b43676	-5.631648
121	0xc10f965e	-8.974211
122	0xbe0056b4	-0.12533075
123	0xbf31b175	-0.694114
124	0xbfed4083	-1.8535312
125	0x4051f081	3.2803042
126	0xc02300a0	-2.5469131
127	0xc0931383	-4.596132
128	0xc00b7cee	-2.1795
129	0xc0789c11	-3.8845255
130	0xc015663b	-2.3343647
131	0xbffd8cb3	-1.9808563
132	0xbe4f77c5	-0.20260532
133	0xc0934f8f	-4.6034617
134	0x3f5892c2	0.84598935
135	0xbff5d77d	-1.9206387
136	0x3fedb5a5	1.8571059
137	0xc08b109d	-4.345778
138	0x40b3708d	5.607489
139	0xbfa0c9f9	-1.2561637
140	0x405c5c63	3.4431388
141	0xc0c8155b	-6.252607
142	0xc08a6698	-4.3250237
143	0xc088d2f2	-4.27575
144	0x3fa332d2	1.2749884
145	0x3fad8e5b	1.3559068
146	0xc0cc0bc8	-6.376438
147	0xc0b7b72d	-5.7411103
148	0x408046a0	4.008621
149	0xbeb8785b	-0.36029324
150	0xc04879b4	-3.1324282
151	0xc02565e7	-2.5843446
152	0xc04cc887	-3.1997392
153	0x407d210c	3.955142
154	0x40c2d1c6	6.088107
155	0xc073d7cd	-3.8100464
156	0x401ed04c	2.4814634
157	0xbe9849ab	-0.29743704
158	0xc0162a93	-2.3463485
159	0xc090b8a2	-4.522538
160	0xbfeef8df	-1.86697
161	0xc067af08	-3.620058
162	0xc0033d4a	-2.0506158
163	0x409fc7d8	4.993145
164	0xbf5a9179	-0.85378224
165	0xc00e27d6	-2.2211814
166	0xc0ef50c9	-7.4786115
167	0xc088b4f0	-4.272087
168	0xc040a85f	-3.0102766
169	0xc146c239	-12.422418
170	0xc066b393	-3.6047103
171	0xc13d3f5c	-11.827969
172	0x4067b0be	3.6201625
173	0x40253180	2.5811462
174	0xbe7f47da	-0.24929753
175	0xc0436a14	-3.0533495
176	0xc0cfbd14	-6.491831
177	0xc0a7f3af	-5.2484965
178	0x405c0350	3.4377022
179	0x3eebbc0d	0.4604191
180	0x40215bac	2.5212202
181	0x406f50d6	3.7393088
182	0x40ea0d37	7.314113
183	0xc0664547	-3.5979784
184	0x40f2802d	7.5781465
185	0xc0746ebd	-3.819259
186	0x406c3caa	3.6912026
187	0xbc503632	-0.012708234
188	0xc051d9a8	-3.2789097
189	0x4063ba25	3.5582364
190	0xc098beb1	-4.7732778
191	0xc036a37a	-2.8537278
192	0x400507a8	2.0785923
193	0xc0a136de	-5.0379477
194	0xc069c2c5	-3.6525128
195	0xc072215c	-3.783286
196	0x4032a051	2.791035
197	0xbfce7e3f	-1.6132277
198	0x40cc09ab	6.37618
199	0x3fffa82f	1.99732
200	0xbfb8bfb4	-1.4433503
201	0xc01d837d	-2.4611504
202	0x405e7d91	3.476414
203	0x3dce5db6	0.10076468
204	0xbfab8de3	-1.3402675
205	0xc00a67cf	-2.162586
206	0xc0f840e0	-7.7579193
207	0x40929c84	4.581606
208	0xc0d56258	-6.668255
209	0xc0d15380	-6.541443
210	0xc0c37406	-6.107913
211	0xc0599af9	-3.4000838
212	0xc048ead7	-3.1393335
213	0xc03382bb	-2.8048542
214	0xbfad8b90	-1.3558216
215	0x40895cd1	4.29258
216	0x40979a7b	4.7376075
217	0x3e58c081	0.21167184
218	0xbfd89d4d	-1.6923004
219	0x4098c28f	4.77375
220	0x4013ea76	2.3111854
221	0xc0febc7e	-7.9605093
222	0x4000888f	2.0083349
223	0xc0878cbb	-4.235929
224	0x40864f49	4.1971784
225	0xc039f285	-2.9054272
226	0xc04d6c66	-3.209741
227	0xbfa0a2cf	-1.2549685
228	0xbfa20694	-1.2658257
229	0xbf735775	-0.95055324
230	0x40b6ea36	5.71609
231	0x3eed3e5e	0.46336645
232	0x401ac694	2.4183702
233	0x404374f7	3.054014
234	0xc0850521	-4.156876
235	0xc062f082	-3.5459294
236	0x3fa39ff0	1.2783184
237	0x4017248e	2.3616061
238	0xc0ab379b	-5.350538
239	0xc034e8b2	-2.8267026
240	0xbff9cea7	-1.951619
241	0xc01d342c	-2.4563093
242	0xc05a53d2	-3.411366
243	0xbe12b1bb	-0.14325611
244	0x409076bb	4.5144935
245	0x40108893	2.2583358
246	0x3f857636	1.04267
247	0x401e5cee	2.474422
248	0xbfff331b	-1.9937471
249	0xc00db684	-2.2142649
250	0xc04d4333	-3.2072265
251	0x4058494c	3.3794737
252	0x40fab32e	7.8343725
253	0xc01f8e12	-2.4930463
254	0xbe0cb33d	-0.13740249
255	0x4002efb0	2.0458794

weight f4 [128, 256]
0	0x3ee6eafb	0.4510115
1	0x4082ae4d	4.083777
2	0xbfce63f3	-1.6124252
3	0x40a565b1	5.1686635
4	0x40c69b6e	6.2064734
5	0x406edae1	3.7321093
6	0xc0f434a0	-7.631424
7	0xc0882389	-4.254338
8	0x40b30548	5.5943947
9	0x41030f8c	8.191296
10	0x4064725d	3.5694802
11	0xc0b11a7e	-5.534484
12	0x40b9e21d	5.8088517
13	0xc085c371	-4.1801076
14	0x408d8bdc	4.4233227
15	0x4010a09c	2.2598028
16	0x408559eb	4.1672263
17	0xc0baf7c8	-5.8427467
18	0xc0f32684	-7.5984516
19	0x40c7e2d8	6.246441
20	0x4095e421	4.684098
21	0x40e18daf	7.0485454
22	0xc0ab5bed	-5.3549714
23	0xc08ab222	-4.3342447
24	0xc0ff159f	-7.9713893
25	0xc064719a	-3.5694337
26	0x408b07de	4.3447104
27	0x4102dcd4	8.178913
28	0xbe51e118	-0.20496023
29	0xc0f2d235	-7.58816
30	0xbfb22894	-1.3918633
31	0xc0bd3950	-5.913246
32	0xc10c1472	-8.754992
33	0x40dc6248	6.886997
34	0xc0fbc52f	-7.8678203
35	0xc0c565a9	-6.1686597
36	0xbf5379e0	-0.8260784
37	0xc0e9360a	-7.2878466
38	0x4083ba40	4.1164856
39	0xc09e8a6a	-4.9543962
40	0xc0680bca	-3.6257195
41	0x4050596d	3.255458
42	0xc0de8e07	-6.9548373
43	0x410aa067	8.664161
44	0x40c58549	6.17252
45	0x40c056bc	6.0105877
46	0xc0b7d7aa	-5.745076
47	0xc0d37a0d	-6.608649
48	0x4006804b	2.1015804
49	0x40ab3705	5.3504663
50	0xc091815d	-4.5470414
51	0x40cc1814	6.377939
52	0x40a1f4fb	5.061155
53	0xc082bd00	-4.0855713
54	0xc0948665	-4.6414056
55	0xc0b1df4e	-5.558509
56	0x40e2213a	7.066556
57	0xc0bfb2ca	-5.990575
58	0x40607b05	3.5075085
59	0x4096ce2e	4.7126684
60	0xc0acae7e	-5.3963003
61	0xbcfeb284	-0.031090982
62	0x3f5b26cd	0.8560608
63	0xc0c8ef80	-6.279236
64	0xc0e95342	-7.2914133
65	0xc1041c43	-8.2569
66	0xc1042c02	-8.260744
67	0xc07c38c3	-3.9409645
68	0x40f1473e	7.5399466
69	0xc0c8cb02	-6.274781
70	0x40dabe67	6.8357425
71	0x40649110	3.571354
72	0x402796e3	2.6185844
73	0x40d63249	6.6936383
74	0xc0d0b0a0	-6.5215607
75	0xc01f72d3	-2.4913833
76	0xc04d8149	-3.211016
77	0x40dd75db	6.9206367
78	0x407e7939	3.9761488
79	0xc0c6bcb0	-6.210533
80	0xc0bb201d	-5.84767
81	0xc0cbbb6f	-6.36663
82	0x408fe698	4.4968987
83	0xc0ce58a9	-6.448323
84	0xc10d30cf	-8.824416
85	0x3fb9c353	1.4512733
86	0xc000e818	-2.0141659
87	0x40c8f7b4	6.280237
88	0xc079568d	-3.8959076
89	0x3f45aeb3	0.77219695
90	0xc0b9e41e	-5.8090963
91	0x40bca032	5.894555
92	0xc0b5a4d2	-5.6763697
93	0x40d54b99	6.665478
94	0x40a36e1a	5.10719
95	0x4079d068	3.903345
96	0xc01e060c	-2.469119
97	0x40cdfc0f	6.437019
98	0x4065886a	3.586451
99	0x40c80b6c	6.2513943
100	0xc0b2287b	-5.5674415
101	0x40aec2c5	5.4612756
102	0x40960911	4.6886067
103	0xc0fc80d6	-7.890727
104	0x407268f6	3.7876563
105	0x40a2e5bd	5.090544
106	0x405d3b83	3.4567573
107	0x40dba2a4	6.8636036
108	0x401a4140	2.4102325
109	0x409769e0	4.731674
110	0x40905ccd	4.511328
111	0xc0ca4250	-6.320595
112	0x3f92b50c	1.1461501
113	0xc0a545a7	-5.1647525
114	0xc0e3754d	-7.108069
115	0x40bca60d	5.89527
116	0x40c8b431	6.271996
117	0xbd2d7d5c	-0.04235588
118	0xc0c974f2	-6.2955256
119	0xc0b47e43	-5.640413
120	0xc0dfdeb6	-6.9959364
121	0xc0877be4	-4.2338734
122	0x40c28022	6.078141
123	0xbfc3f2c4	-1.5308461
124	0x4056cb7d	3.35617
125	0xc06693ba	-3.6027665
126	0x40ce6e34	6.4509525
127	0x40e273a3	7.076616
128	0xc0b1cb37	-5.5560565
129	0xbf87fd44	-1.0624166
130	0x407aad07	3.9168108
131	0xc0953c9e	-4.6636496
132	0x4067c486	3.6213698
133	0x4100e015	8.054708
134	0xc0a88747	-5.2665133
135	0x40a1cbe3	5.0561385
136	0xc0bf51a0	-5.978714
137	0xc09afad9	-4.843121
138	0xc0a7b098	-5.240307
139	0xbfcf8ccb	-1.6214842
140	0x40d8d364	6.7758045
141	0xc07dfc7f	-3.9685361
142	0xc0af2f7e	-5.4745474
143	0x40b6653f	5.699859
144	0xbf46927e	-0.7756728
145	0x40da5349	6.8226666
146	0x40c0eaa2	6.0286417
147	0x3fd8d2e7	1.6939362
148	0x3fa7bf85	1.3105322
149	0xc0b2a7c2	-5.5829782
150	0x40c1b90f	6.05384
151	0x40972ece	4.7244635
152	0xc0dc259e	-6.879592
153	0xc03cc8ba	-2.9497514
154	0xc0ed1eaf	-7.4099956
155	0x40ecdc71	7.4019094
156	0xc0c51c55	-6.1597085
157	0x40a23069	5.0684094
158	0xc0555ce4	-3.3337946
159	0x40fad784	7.838808
160	0x40bf58d5	5.9795938
161	0xc05cc9ee	-3.4498248
162	0xc05cbffb	-3.4492176
163	0xc0b3b7f4	-5.616205
164	0x407e4ba6	3.9733672
165	0x3f1cfef9	0.6132656
166	0x40bd8d5c	5.923506
167	0xc0a795dd	-5.237044
168	0x40867c22	4.202653
169	0xc02124f3	-2.5178802
170	0xc0b940b5	-5.789149
171	0x40d638d6	6.694438
172	0xc00104d6	-2.0159202
173	0xbe13f121	-0.14447452
174	0xc07792c5	-3.868333
175	0x3f199b02	0.6000215
176	0x40b56847	5.668979
177	0x4076fc1b	3.8591373
178	0xc05c5fb9	-3.4433424
179	0xc099f049	-4.8105817
180	0xc0cc7eb3	-6.390466
181	0xc0be028f	-5.9378123
182	0x40a9a9ef	5.301994
183	0x3ffed491	1.990862
184	0xc0ff8f99	-7.986279
185	0x40bb1502	5.8463144
186	0x402518df	2.579643
187	0xc0fd5033	-7.91604
188	0x40ba6cb1	5.825768
189	0xc10b3c84	-8.702274
190	0x40ac6565	5.3873773
191	0x40be024f	5.937782
192	0xc0dbb086	-6.8652983
193	0x40e16f72	7.044854
194	0x40df25bc	6.9733562
195	0x40faab1f	7.833389
196	0xc0b6fb3b	-5.718168
197	0xc0ce066c	-6.438284
198	0xc0b49200	-5.6428223
199	0xc0b09dcc	-5.5192623
200	0xc0b037f9	-5.5068326
201	0x3fd793e1	1.6842004
202	0xc0b47590	-5.639351
203	0x40631aa9	3.5485022
204	0x40b4e613	5.653085
205	0x40f55880	7.667053
206	0x40cc7fa1	6.3905797
207	0x40d1855a	6.5475283
208	0x40b6beff	5.710815
209	0x40cd7de9	6.42162
210	0x4105d67f	8.364867
211	0xc0d5de47	-6.6833835
212	0x40b59e11	5.675545
213	0x409aadb7	4.8337054
214	0x408a4a78	4.3215904
215	0xc078b163	-3.8858268
216	0x40b97269	5.795216
217	0x40c43827	6.1318545
218	0x40cf4bfd	6.478026
219	0x3f85707f	1.0424956
220	0x40c9d90e	6.307746
221	0x40ddb8a8	6.928791
222	0xc0d74bab	-6.727987
223	0x410de125	8.867467
224	0xc0f73a57	-7.7258716
225	0xc0df7f98	-6.9843254
226	0x40a3cee2	5.1190042
227	0x409de1b1	4.9338
228	0x40f014ca	7.5025377
229	0x3fe74c14	1.8070092
230	0xc10c5a95	-8.772115
231	0xc0ac05a2	-5.3756876
232	0xc05766bf	-3.3656461
233	0xc0eede85	-7.464663
234	0x4003fb64	2.0622187
235	0xc0ddfd00	-6.937134
236	0x3f40b70a	0.75279295
237	0xc07a7903	-3.913636
238	0x41025edb	8.148158
239	0x3fd86d5e	1.6908376
240	0x3f8fae04	1.122498
241	0xbe4bd92b	-0.19907062
242	0xc0b2b2db	-5.584333
243	0xc0b77b62	-5.7338114
244	0xc108007d	-8.500119
245	0xc0be7912	-5.952279
246	0x406682e7	3.6017396
247	0xc0f1302f	-7.537132
248	0xc09bbe50	-4.8669815
249	0xc00f5f90	-2.2402077
250	0x408185a4	4.0475636
251	0xc03d31e7	-2.9561708
252	0xc0de205a	-6.941449
253	0x4071c9ad	3.7779343
254	0xbfac5b29	-1.346532
255	0x40f1a3a7	7.551227

bias f4 [128]
0	0xc10afd76	-8.68688
1	0xc10527c7	-8.322211
2	0xc0fea7a1	-7.9579625
3	0xc0a184b9	-5.0474515
4	0xc10b8b72	-8.721544
5	0xc0d0c49d	-6.5240006
6	0xc086bf1b	-4.2108283
7	0xc10b5d9a	-8.710352
8	0xc108ed10	-8.557877
9	0xc0274f84	-2.6142282
10	0xc093050b	-4.5943656
11	0xc0bcc7dd	-5.8993974
12	0xc0be0771	-5.9384084
13	0xc112a942	-9.166323
14	0xc08fdd72	-4.495782
15	0xc0f0a3e5	-7.5200067
16	0xc083c398	-4.117626
17	0xc0f484a6	-7.6411924
18	0xc0d1984b	-6.5498405
19	0xc0d319a3	-6.5968795
20	0xc0fa6314	-7.8245945
21	0xc0938d85	-4.6110253
22	0xc0432777	-3.0492837
23	0xc090d96e	-4.5265417
24	0xc0d4f3fd	-6.6547837
25	0xc104678f	-8.275283
26	0xc06ad889	-3.6694663
27	0xc08d58fc	-4.4171124
28	0xc0a1f1f1	-5.060784
29	0xc0927a08	-4.5773964
30	0xc0d098ed	-6.5186677
31	0xc10a7313	-8.653094
32	0xc06cd906	-3.700746
33	0xc102ead3	-8.18233
34	0xc0dc5623	-6.8855147
35	0xc0c377cf	-6.108375
36	0xc0907d54	-4.515299
37	0xc1008ce9	-8.034402
38	0xc0f8b58f	-7.772163
39	0x408db790	4.4286575
40	0xc0901af5	-4.5032907
41	0xc114de0a	-9.304209
42	0xc11bf5f6	-9.747549
43	0xc0e44481	-7.1333623
44	0xc09a6a07	-4.825443
45	0xc10045b1	-8.0170145
46	0xc1067a35	-8.404836
47	0x40c08667	6.0164065
48	0x3fbd2e06	1.477967
49	0xc102ce9b	-8.175441
50	0xc106ef6c	-8.433453
51	0xc0d6b691	-6.709786
52	0xc093290f	-4.598762
53	0xc0d888e1	-6.766709
54	0xc0c965e6	-6.293689
55	0xc0d902dd	-6.7815995
56	0xc0f1c27d	-7.5549912
57	0xc0765038	-3.8486462
58	0xc104ee24	-8.30814
59	0xc0dad50c	-6.8385067
60	0xc08fcb16	-4.493541
61	0xc10b66eb	-8.712626
62	0xc0982baf	-4.7553325
63	0xc10f9ddb	-8.976039
64	0xc01ea7dc	-2.4789953
65	0xc0d782e8	-6.73473
66	0xc10e84de	-8.907438
67	0xc0d14366	-6.5394773
68	0xbfb54186	-1.4160621
69	0xc08f1a2f	-4.4719462
70	0xc10e7e27	-8.905799
71	0xc0caaab0	-6.333336
72	0xc0e796b5	-7.237147
73	0xc110d455	-9.051839
74	0xc0b43b52	-5.6322412
75	0xc0d2bd60	-6.585617
76	0xc0bee10d	-5.964972
77	0xc09a867c	-4.8289165
78	0xc092619a	-4.5744143
79	0xc0b33b10	-5.60096
80	0xc09119b2	-4.5343866
81	0xc0b45e38	-5.6365013
82	0xc088e3ba	-4.2777987
83	0xc0b8a3e1	-5.7700047
84	0xc03bba17	-2.933233
85	0xc092071e	-4.563369
86	0xc06daa9d	-3.7135384
87	0xc0908690	-4.516426
88	0xc0f6632f	-7.6996074
89	0xc0932d16	-4.5992537
90	0xc109c5df	-8.610808
91	0xc1107d0d	-9.03053
92	0xc05a2ef4	-3.4091158
93	0xc1108f47	-9.03498
94	0xc0e74aba	-7.227872
95	0xc0d03d30	-6.507469
96	0xc03b594c	-2.9273252
97	0xc10efcca	-8.936716
98	0xc0feb345	-7.9593835
99	0xc0a4293c	-5.1300335
100	0xc0cff6d1	-6.498879
101	0xc0d18a9f	-6.5481715
102	0xc0d2a36b	-6.5824485
103	0xc091b7f9	-4.5537076
104	0xc0df6a56	-6.9817305
105	0xc0c6711c	-6.2013073
106	0xc102a909	-8.166268
107	0xc0916f4d	-4.5448365
108	0xc0b04e03	-5.509523
109	0xc06ae8cc	-3.6704588
110	0xc068fcbe	-3.6404262
111	0xc10ea60f	-8.915542
112	0xc09ec4b0	-4.9615097
113	0xc09d651b	-4.918592
114	0xc0939301	-4.611695
115	0x3f411691	0.7542506
116	0xc0938266	-4.609668
117	0xc0fa0040	-7.8125305
118	0xc08d078b	-4.407171
119	0xc1112995	-9.072652
120	0xc0f42b19	-7.630261
121	0xbfbca7bf	-1.4738692
122	0xc105efef	-8.371078
123	0xc110c12f	-9.047164
124	0xc101f189	-8.121469
125	0xc0aae77c	-5.3407574
126	0xc0f03196	-7.506053
127	0xc0e9b9cf	-7.3039317

weight f4 [64, 128]
0	0x40d1be7d	6.554503
1	0x40e722bf	7.2229915
2	0x40ed76e8	7.420765
3	0x412ccaad	10.799481
4	0x40cf7c46	6.48392
5	0x40d4825e	6.640914
6	0x4151770b	13.091563
7	0x40d03351	6.506264
8	0x40d1434f	6.5394664
9	0x406e6e44	3.72548
10	0x40d2eeff	6.5916743
11	0x4044ae80	3.0731506
12	0x40eb48ff	7.3526607
13	0x40d4488b	6.6338553
14	0x40d55f17	6.6678576
15	0x40c1ac65	6.0522943
16	0x40e7a3f3	7.2387633
17	0x40d18f62	6.548753
18	0x40d3f9cd	6.6242433
19	0x40d48cc7	6.6421847
20	0x40d2def0	6.589714
21	0x4094b24a	4.646764
22	0x40765eb5	3.8495305
23	0x40d442a4	6.633135
24	0x409097f3	4.5185485
25	0x40d571c6	6.6701384
26	0x40e1addd	7.0524735
27	0x40e3d9d1	7.120339
28	0x40f17c23	7.5464034
29	0x40cf7b26	6.483783
30	0x40d4acc7	6.646091
31	0x4102b1a1	8.168366
32	0x406f9366	3.7433715
33	0x40e87547	7.264316
34	0x4108ac9a	8.542139
35	0x40cfcb77	6.493587
36	0x40d4a439	6.6450467
37	0x408f2f9c	4.4745617
38	0x40eb41ba	7.3517733
39	0xc0b57768	-5.670826
40	0x40d46c46	6.638217
41	0x40d31deb	6.597402
42	0x411a041f	9.626006
43	0x40f97c6c	7.796438
44	0x410e1866	8.880957
45	0x40d0f602	6.5300303
46	0x40d5abdf	6.6772304
47	0x40c0b3c7	6.0219455
48	0x40f2f210	7.5920486
49	0x41063849	8.3887415
50	0x400c6096	2.1933951
51	0x40edeffc	7.435545
52	0x40d1894f	6.5480113
53	0x40912cea	4.5367327
54	0x40c87dac	6.265341
55	0x40f24551	7.5709615
56	0x40eda6a6	7.426593
57	0x40d218cf	6.5655284
58	0x40d12dd4	6.5368443
59	0x40d0a38d	6.5199647
60	0x40d4f1af	6.6545024
61	0x40e8a374	7.269953
62	0x40940b5b	4.626386
63	0x40d1c1b1	6.554894
64	0x40f88142	7.7657785
65	0x40f385c4	7.610079
66	0x41213d2b	10.077434
67	0xc0bf57a7	-5.9794497
68	0x414921de	12.570768
69	0x4108a0d1	8.539262
70	0x40d29e33	6.5818114
71	0x40946bf4	4.638178
72	0x40eeb8c6	7.4600554
73	0x40dac1dc	6.8361645
74	0x40eeb73a	7.4598665
75	0x40d0d597	6.526073
76	0x40ecf958	7.4054375
77	0x40fd6ba0	7.919388
78	0x4106fdd8	8.436974
79	0x40e7f353	7.2484527
80	0x40cf4262	6.4768534
81	0x40eb20bc	7.347746
82	0x40c73049	6.224644
83	0x40d4cf50	6.6503067
84	0x4068d672	3.6380887
85	0x40d27e49	6.5779157
86	0x41227925	10.154576
87	0x40eb6537	7.3561053
88	0x40ecb3df	7.396957
89	0x40d36e2a	6.6071978
90	0x40c2b1be	6.084197
91	0x40d47566	6.639331
92	0x406baced	3.6824296
93	0x40e327bf	7.098602
94	0x40f1042d	7.5317597
95	0x40d49bd7	6.6440234
96	0x40ed01c8	7.4064674
97	0x40b13830	5.538109
98	0x40d35082	6.6035776
99	0x40d2637f	6.5746455
100	0x40d37223	6.6076827
101	0x40cf8c78	6.485897
102	0x40ecdee0	7.4022064
103	0x40d1016d	6.531424
104	0x40edc11f	7.4298244
105	0x40ef685e	7.48149
106	0x40f78490	7.734932
107	0x40d122fd	6.535521
108	0x40d272c8	6.5765114
109	0x40e061d9	7.0119443
110	0x40e0e467	7.027881
111	0x40d61b6b	6.690847
112	0x40d17479	6.545468
113	0x40d09270	6.5178757
114	0x40d49446	6.6431
115	0x40b4a182	5.6447153
116	0x40d0951c	6.518202
117	0x40d4ca22	6.6496744
118	0x4110426f	9.016219
119	0x410d0af5	8.815175
120	0x40c3a51e	6.113906
121	0x40a24b00	5.0716553
122	0x40c9b2b7	6.303066
123	0x40d33737	6.60049
124	0x40e52d6f	7.161796
125	0x40d1d4e0	6.5572357
126	0x40cf91dd	6.4865556
127	0x40d15a71	6.54229
128	0x40d0ee2a	6.5290728
129	0x40d3486f	6.602592
130	0x40441880	3.0639954
131	0x412ddaec	10.865948
132	0x40d3b101	6.615357
133	0x40d085c3	6.5163283
134	0x4150de74	13.05431
135	0x40d2ba1c	6.5852184
136	0x40d3c98a	6.618352
137	0x40a10a9d	5.0325456
138	0x40d0b62d	6.5222383
139	0x4042f589	3.0462363
140	0x40ec4dec	7.384512
141	0x40db45df	6.852279
142	0x40cfb25a	6.4905214
143	0x40bfddf9	5.9958463
144	0x40778c68	3.8679447
145	0x40d0b41a	6.521985
146	0x40d0cdd2	6.5251245
147	0x40d45ab2	6.636071
148	0x40d42a73	6.630182
149	0x40d24f9e	6.572219
150	0x408e0d24	4.439104
151	0x40d01091	6.5020223
152	0x4091a5cd	4.5514894
153	0x40dcfc80	6.9058228
154	0x40e078b3	7.014734
155	0x410703bb	8.438411
156	0x40e7436e	7.226981
157	0x40d00cd3	6.5015655
158	0x40d2338d	6.568793
159	0x41007b17	8.030051
160	0x406d23fe	3.7053218
161	0x408b4b0a	4.35291
162	0x410d86ac	8.845379
163	0x4090cb8b	4.5248466
164	0x40cf2d69	6.474293
165	0x40941bc4	4.6283894
166	0x40eeaf7b	7.458921
167	0xc0c20d0f	-6.064094
168	0x40d0e645	6.528109
169	0x40e71d06	7.222293
170	0x411acdfb	9.675288
171	0x40bd803d	5.921904
172	0x410ff0ec	8.996319
173	0x40cf1dd6	6.472392
174	0x40db5f5c	6.8553905
175	0x40c0e103	6.0274673
176	0x40eeed49	7.4664655
177	0x41016d34	8.089161
178	0x40088912	2.133366
179	0x40462b5f	3.0963972
180	0x40d1bb22	6.5540934
181	0x4090d9cb	4.526586
182	0x40cd8da6	6.423541
183	0x40f220b9	7.5664945
184	0x40eebf01	7.460816
185	0x40d3f0c0	6.6231384
186	0x40d09dcd	6.519263
187	0x40cf368f	6.47541
188	0x40cf7ea2	6.484208
189	0x40fe62d1	7.9495625
190	0x40917d22	4.546525
191	0x40901441	4.5024724
192	0x40f7104d	7.72074
193	0x40aeb785	5.4599023
194	0x41201386	10.004766
195	0x40c0aa0f	6.020759
196	0x414844b8	12.516777
197	0x40625fbb	3.537093
198	0x40e54d60	7.165695
199	0x4090e1cd	4.5275636
200	0x40f626c1	7.6922307
201	0x40f1c18d	7.554877
202	0x40400427	3.0002534
203	0x40d3c483	6.6177382
204	0x40ef7741	7.4833074
205	0x4110a9ba	9.041437
206	0x40df41a6	6.9767637
207	0x40a728b2	5.2237177
208	0x40d2735f	6.5765834
209	0x403f70ed	2.9912674
210	0x40c7cb53	6.24357
211	0x40d1bb4b	6.554113
212	0x40691199	3.641699
213	0x40d4061a	6.625745
214	0x4123b9ba	10.232843
215	0x40d27a9f	6.5774684
216	0x40ed3cde	7.41368
217	0x40d240d8	6.5704155
218	0xc0bd656c	-5.9186306
219	0x40cfd6f8	6.4949913
220	0x40e30ceb	7.095327
221	0x40806770	4.0126266
222	0x40f2f4fd	7.592406
223	0x40d11161	6.5333714
224	0x40ec2b44	7.3802814
225	0x40b140af	5.539146
226	0x40d15f3f	6.5428767
227	0x40d039b6	6.507045
228	0x40d31a29	6.5969434
229	0x40d36377	6.6058917
230	0x40fa5221	7.8225255
231	0x40930a8c	4.5950375
232	0x40ec8c4d	7.3921266
233	0x40ee3dd3	7.445047
234	0x40f4f6e2	7.655137
235	0x40d1ca1f	6.555923
236	0x40d2a1c1	6.5822453
237	0x40e2093d	7.0636277
238	0x40dfe49c	6.9966564
239	0x40fc05ff	7.875732
240	0x40d0f4d8	6.529888
241	0x40d0210c	6.504034
242	0x40d229a5	6.5675836
243	0x40b97b9e	5.79634
244	0x40922288	4.5667152
245	0x40e49642	7.143342
246	0x405083c6	3.2580428
247	0x410a9bb9	8.663018
248	0x40c03fc1	6.0077825
249	0x40a123c7	5.0356174
250	0x40c0b631	6.02224
251	0x40da04a2	6.8130655
252	0x40d953df	6.791488
253	0x40d417aa	6.6278887
254	0x40d411a0	6.6271515
255	0x40d0256f	6.5045695

bias f4 [64]
0	0x408b26fd	4.3485093
1	0x40802890	4.0049515
2	0x4082341c	4.068861
3	0x408083ae	4.016074
4	0x40815181	4.041199
5	0x40824dd9	4.072003
6	0x408083b0	4.016075
7	0x408a5e4b	4.3240104
8	0x4080086d	4.0010285
9	0x407363f0	3.8029747
10	0x40801636	4.0027113
11	0x407ffe72	3.999905
12	0x40802890	4.0049515
13	0x407efa84	3.9840403
14	0x4071f918	3.7808285
15	0x408117c7	4.0341525
16	0x4081f34d	4.06095
17	0x40803ade	4.007186
18	0x4080c75e	4.024337
19	0x40812534	4.0357914
20	0x4080f8a6	4.0303526
21	0x40829219	4.080334
22	0x408095c7	4.0182834
23	0x4081d4fe	4.05725
24	0x40812536	4.0357924
25	0x4080c2e2	4.0237894
26	0x408155ea	4.0417376
27	0xc0cb9068	-6.3613777
28	0xc0ce0a51	-6.4387593
29	0x4082da08	4.089115
30	0x407fbdd8	3.9959621
31	0x4081299a	4.0363283
32	0x40816bf8	4.04443
33	0x4081299f	4.0363307
34	0x4083040c	4.094244
35	0xc0cf90d7	-6.4864306
36	0xc0cd2abb	-6.411466
37	0x4081bf3c	4.054594
38	0x407f6a6c	3.9908705
39	0x4081c7ec	4.0556545
40	0x4080e23a	4.0276155
41	0x407f293e	3.9868922
42	0x40826bca	4.075658
43	0x4082964c	4.080847
44	0x407eb8e7	3.9800355
45	0x40819383	4.049257
46	0x40801f64	4.003832
47	0x4081badd	4.0540605
48	0x408136f6	4.037959
49	0x40736f27	3.8036592
50	0x4080c754	4.024332
51	0x408095ca	4.018285
52	0x4081e208	4.0588417
53	0x4081a967	4.051929
54	0x4072c630	3.7933464
55	0x40809ed4	4.019388
56	0x4089fd2b	4.3121543
57	0x408181f9	4.047116
58	0x4081ddb2	4.0583124
59	0x40810607	4.0319858
60	0x408181f8	4.0471153
61	0x4080c2de	4.0237875
62	0x4080a35a	4.0199404
63	0x408ac837	4.3369403
