pth/takada_model_45.pth (torch, 168856 bytes, 6 tensors)

weight f4 [128, 128]
0	0x3e2387f2	0.15969828
1	0x3e617268	0.22016299
2	0xbd34dbd4	-0.044154957
3	0x3d83a690	0.06428254
4	0x3e4cc683	0.19997601
5	0x3ea7599d	0.32685557
6	0x3ef5e5ce	0.4802689
7	0xbc706c9b	-0.014674331
8	0x3c1dfc8e	0.009642733
9	0xbe1b9a2a	-0.15195528
10	0x3e948611	0.29008535
11	0xbcaded73	-0.021231389
12	0xbba83379	-0.005133089
13	0xbe5ab44a	-0.21357837
14	0x3e8e9bea	0.27853328
15	0x3f68d293	0.9094631
16	0xbf03cd44	-0.51485085
17	0x3ef3fd6d	0.47654286
18	0xbf0cf5d4	-0.55062604
19	0x3eaf33ed	0.34219304
20	0x3c8c22da	0.017106462
21	0xbf1848ee	-0.5948628
22	0x3f2368a1	0.63831526
23	0xbeba7c83	-0.3642312
24	0xbe0e7a08	-0.13913739
25	0xbd8b9894	-0.06816211
26	0x3b99921b	0.0046866066
27	0xbdefc9e3	-0.11708429
28	0x3ee088ff	0.4385452
29	0xbed54a74	-0.41658366
30	0xbd7e47c6	-0.062080167
31	0xbf623ab2	-0.8837081
32	0x3f14490f	0.5792398
33	0xbeaa3644	-0.33244526
34	0xbf000fa6	-0.5002388
35	0xbf02d38f	-0.5110406
36	0xbeb3be28	-0.35106015
37	0xbeb32946	-0.34992427
38	0x3ebbc24f	0.36671683
39	0x3f1ca044	0.61182046
40	0x3d0fc1b6	0.035096847
41	0x3f338ea1	0.7013951
42	0x3dc0396a	0.09385951
43	0xbf02df78	-0.51122236
44	0xbe84be94	-0.2592665
45	0xbe75cd54	-0.24004108
46	0xbdb33ca9	-0.087518044
47	0xbe72573c	-0.2366609
48	0xbf6cb5a3	-0.92464656
49	0x3ef55386	0.47915286
50	0xbe9f0dc1	-0.3106518
51	0xbea1b833	-0.31585845
52	0xbf1d0c4a	-0.61346877
53	0x3d8a09f5	0.067401804
54	0xbd2a9aa2	-0.041651376
55	0x3c77becf	0.015121176
56	0xbefe8b23	-0.49715528
57	0xbee210e9	-0.44153526
58	0xbdf4be9c	-0.11950418
59	0x3e3e0721	0.18557407
60	0x3eee09b8	0.4649179
61	0x3eaacb7d	0.33358374
62	0x3e343660	0.17598867
63	0xbf6ccb39	-0.92497593
64	0x3edd81e2	0.43263155
65	0x3f9e3e02	1.2362673
66	0x3ded872a	0.11598046
67	0xbd8db980	-0.06920147
68	0x3f07d2d0	0.5305605
69	0x3f059bcf	0.5219087
70	0xbf2638f8	-0.6493068
71	0xbf5327e4	-0.82482743
72	0x3cf8e407	0.03038217
73	0x3f49fc73	0.7890083
74	0x3e1fae11	0.15593745
75	0xbe16f35e	-0.14741275
76	0xbe1c0458	-0.15236032
77	0x3e7aecba	0.24504367
78	0xbdb1a94a	-0.086748675
79	0xbde1f82a	-0.11033662
80	0x3e82626f	0.25465724
81	0x3d897d3f	0.06713342
82	0xbdc89550	-0.09794104
83	0x3ec40aff	0.3828964
84	0xbe1ddd68	-0.15416491
85	0xbe59fb4b	-0.21287267
86	0x3e06721b	0.13129465
87	0xbf88240c	-1.0636001
88	0x3e897c97	0.26852867
89	0xbe8c509a	-0.27405244
90	0xbeca9fe4	-0.39575112
91	0x3e847137	0.25867626
92	0xbed4f31f	-0.41591737
93	0xbe3cf43b	-0.18452542
94	0xbe9d074b	-0.30669627
95	0xbdd76eb2	-0.1051916
96	0xbdfaf3ed	-0.122535564
97	0xbe49586d	-0.19662638
98	0x3dbccd02	0.0921879
99	0x3f0cf162	0.5505582
100	0x3ecd2e63	0.40074453
101	0xbeb4d80a	-0.35321075
102	0x3f41a88e	0.7564782
103	0x3e13def5	0.1444052
104	0xbcde5aa6	-0.027142834
105	0x3ebab3d6	0.3646533
106	0x3f701605	0.937836
107	0xbe4e2d76	-0.2013453
108	0x3c5e208c	0.0135575645
109	0xbe4287b7	-0.18997084
110	0xbe70b484	-0.23506361
111	0x3ca05e26	0.019576143
112	0x3d382fd2	0.04496748
113	0x3e98836b	0.29787764
114	0xbe6cd271	-0.23127152
115	0xbeb25516	-0.3483054
116	0xbef351d4	-0.47523367
117	0xbd77a8d7	-0.060463753
118	0xbe0c1937	-0.13681494
119	0xbddfcd6c	-0.10927853
120	0xbedd26b8	-0.43193603
121	0xbdc7d067	-0.097565465
122	0x3d1f24c3	0.038853418
123	0x3e5ed031	0.21759106
124	0x3f0f5897	0.5599455
125	0x3d5d397b	0.054009896
126	0xbe845ed5	-0.258536
127	0x3f2070a2	0.62671864
128	0xbe62b588	-0.22139561
129	0x3f5274d4	0.82209516
130	0x3e0c6d61	0.137136
131	0x3cad3f7c	0.021148436
132	0xbe3aa9b8	-0.18228805
133	0x3e55fb09	0.20896544
134	0x3eb7ba2d	0.35884228
135	0x3f7992c3	0.97489566
136	0x3f4193c6	0.7561611
137	0x3ebad886	0.3649332
138	0xbebf6de0	-0.37388515
139	0xbecc2811	-0.39874318
140	0xbdb39e2b	-0.087704025
141	0xbedb4508	-0.42826104
142	0xbf4bf6e9	-0.7967363
143	0xbe672a40	-0.22574711
144	0xbebb0dff	-0.36534116
145	0x3e85b0c9	0.2611144
146	0xbd809b3b	-0.06279608
147	0xbef7db53	-0.4840952
148	0x3e4feabe	0.20304391
149	0xbdb03a7c	-0.08604905
150	0x3d2348b7	0.03986427
151	0xbf72b088	-0.94800615
152	0xbfac1387	-1.3443459
153	0x3f0e7f56	0.5566305
154	0x3e9fb784	0.311947
155	0xbb26ca0e	-0.0025450024
156	0x3d449e2c	0.048002407
157	0x3ea04e89	0.31309918
158	0x3e808140	0.2509861
159	0x3e9f2f5c	0.3109082
160	0xbc8b13e4	-0.016977258
161	0x3e8f3e25	0.279771
162	0x3e6c9ac4	0.23105913
163	0x3d9b5794	0.075850636
164	0x3e8b00ee	0.27149147
165	0x3d7f92c9	0.062395845
166	0xbe0a2ca5	-0.13493593
167	0xbe674fe9	-0.22589077
168	0x3f73b7e5	0.95202476
169	0x3ee62991	0.44953588
170	0xbe4d36fc	-0.20040506
171	0xbead5878	-0.3385656
172	0xbe17c1cf	-0.14820026
173	0x3c9a0539	0.018801318
174	0x3efc7614	0.49308836
175	0x3e8172d4	0.2528292
176	0x3e20d60e	0.15706655
177	0xbf14bccd	-0.5810059
178	0x3e25e2c6	0.16199788
179	0xbe4469e1	-0.19181015
180	0xbe9f4032	-0.31103665
181	0xbc041754	-0.0080622025
182	0xbec07dcb	-0.37595972
183	0x3e18e293	0.14930181
184	0xbf45f53d	-0.7732733
185	0xbf8e7441	-1.1129228
186	0x3ebfb714	0.37444365
187	0x3e6fbb45	0.23411281
188	0xbdff73f7	-0.124732904
189	0xbe3d3d5a	-0.18480435
190	0xbe3926f7	-0.1808127
191	0x3ebf667d	0.3738288
192	0x3ee25173	0.44202766
193	0xbf2c9de2	-0.6742841
194	0xbeaf7497	-0.34268638
195	0xbed56393	-0.41677532
196	0x3ef676b3	0.48137435
197	0x3e658f6e	0.22417995
198	0x3e27352d	0.16328879
199	0x3e6fc65b	0.2341551
200	0xbe5f91b9	-0.21832933
201	0xbead7ec1	-0.33885768
202	0x3e2d897a	0.16946974
203	0xbe32cb76	-0.17460427
204	0x3d7f7bd5	0.062373955
205	0xbe0d16af	-0.13778184
206	0xbf85e2b1	-1.0459806
207	0x3df27000	0.118377686
208	0x3e33665a	0.17519513
209	0xbec3be41	-0.3823109
210	0xbdf26be3	-0.11836984
211	0xbe9d459b	-0.30717167
212	0x3ee3514f	0.4439797
213	0x3dc78af6	0.097433016
214	0x3d5dc673	0.054144334
215	0xbddd30c4	-0.10800317
216	0xbf3cc711	-0.7374125
217	0xbeb8733f	-0.36025426
218	0xbda88519	-0.08228511
219	0x3e4eafc0	0.20184231
220	0xbbd67be1	-0.0065455292
221	0xbed1ea47	-0.40999052
222	0x3e03ecd4	0.12883312
223	0x3c98fe00	0.018675804
224	0x3ccb0dca	0.024786849
225	0x3d366482	0.044529445
226	0x3d951e8e	0.072812185
227	0xbc6e9676	-0.01456224
228	0xbddc4660	-0.107556105
229	0x3d2d6071	0.0423283
230	0xbe6173cf	-0.22016834
231	0x3cea498c	0.028599523
232	0x3da86484	0.08222297
233	0x3e489807	0.19589244
234	0xbf5f3425	-0.8718894
235	0xbef1353d	-0.4711093
236	0xbc5d534a	-0.013508627
237	0x3e494a2a	0.19657198
238	0x3ecebdc0	0.40379143
239	0xbeae6481	-0.34061053
240	0x3f9926ae	1.1964929
241	0x3e7d708d	0.24749966
242	0x3c2b4c41	0.010455192
243	0xbf1053bb	-0.5637776
244	0xbec0bb58	-0.37642932
245	0x3db73d91	0.0894729
246	0x3e7ba13d	0.24573226
247	0xbdf9ae4c	-0.121914476
248	0xbfa8c593	-1.3185295
249	0xbd22d1fb	-0.039751034
250	0xbd3fe2c2	-0.046847112
251	0x3b1b98b9	0.0023742153
252	0x3ea47781	0.32122424
253	0x3d2548f4	0.040352777
254	0xbec7911f	-0.38977906
255	0xbedec262	-0.43507677

bias f4 [128]
0	0x3e0fb4d3	0.14033823
1	0x3e23008c	0.15918177
2	0xbe3c76bb	-0.18404667
3	0xbe13977b	-0.14413254
4	0xbd8aac0b	-0.06771096
5	0x3e13e919	0.14444388
6	0xbe05a0ba	-0.13049594
7	0xbe612977	-0.21988474
8	0xbbca1947	-0.006167564
9	0xbe6a9fce	-0.22912523
10	0xbe8d576b	-0.27605757
11	0x3c3117d2	0.010808902
12	0xbdb38fa2	-0.0876763
13	0x3cca79de	0.024716314
14	0x3d796259	0.060884807
15	0x3d5c286e	0.053749494
16	0xbe1b5593	-0.15169363
17	0xbc88e6d3	-0.016711628
18	0xbdcee35c	-0.10101959
19	0x3d4e9a47	0.0504401
20	0x3e168ea4	0.1470285
21	0x3e15b4bc	0.14619726
22	0x3e60b8bf	0.21945475
23	0x3e1dd6e5	0.15414007
24	0xbd66f0fe	-0.05638217
25	0x3e42a042	0.19006446
26	0x3dfd84fb	0.1237888
27	0xbccccaa7	-0.024998976
28	0xbe3421e4	-0.17591053
29	0xbdb533e1	-0.08847786
30	0x3d8bb1e7	0.068210416
31	0x3e4dd872	0.20102099
32	0xbdeb624e	-0.114933595
33	0xbead5f8e	-0.33861965
34	0xbdeffac7	-0.11717754
35	0x3da128af	0.07869088
36	0x3dabf0ab	0.08395513
37	0xbb9576d4	-0.0045612846
38	0x3e2deb35	0.16984256
39	0xbdb3e67d	-0.087841965
40	0xbe1fe638	-0.15615165
41	0x3d4a2aab	0.049357098
42	0xbd9aabef	-0.07552325
43	0x3e0a3a24	0.13498741
44	0x3d836792	0.06416239
45	0x3d1b125d	0.03785931
46	0xbdf8ad08	-0.12142378
47	0xbd9e8b85	-0.07741455
48	0x3de9476f	0.11390578
49	0x3c735b81	0.014853359
50	0xbe314e24	-0.17314965
51	0xbda321f2	-0.07965459
52	0x3dad5e0a	0.08465202
53	0xbdae5e26	-0.08514051
54	0x3e51cd42	0.20488456
55	0x3d2ce6fe	0.04221248
56	0x3d4a9294	0.049456194
57	0xbe7ffda7	-0.24999104
58	0x3daa135b	0.08304473
59	0xbe721a8e	-0.23642942
60	0xbe1befa8	-0.1522814
61	0xbe422e75	-0.18963034
62	0x3e125714	0.1429103
63	0x3dfd7849	0.12376458
64	0x3d30e39d	0.04318582
65	0xbd7aa7c6	-0.061195157
66	0xbc8137a5	-0.015773604
67	0x3e5a18d9	0.21298541
68	0xbdb85824	-0.090011865
69	0xbe0957d9	-0.13412417
70	0x3de433e7	0.11142712
71	0x3e4d53bc	0.20051473
72	0xbd84df29	-0.06487877
73	0xbe3b05ea	-0.18263975
74	0xbe2b3a9c	-0.16721576
75	0xbd1033ce	-0.035205655
76	0x3db85a52	0.09001602
77	0xbdb20441	-0.086922176
78	0x3e2418b3	0.16025047
79	0x3d7c2a42	0.061563738
80	0x3e51e025	0.2049566
81	0xbe747465	-0.23872526
82	0x3dc2d101	0.095125206
83	0xbd1f98fb	-0.038964253
84	0xbcbd0b68	-0.023076728
85	0xbd91816e	-0.07104765
86	0x3e0d5bf4	0.13804609
87	0x3dda086c	0.106461376
88	0x3de094a2	0.109658495
89	0xbd401106	-0.046891235
90	0x3dfebbd4	0.12438169
91	0x3d9b9eeb	0.075986706
92	0xbcc1b5cd	-0.02364626
93	0xbc90d017	-0.01767735
94	0x3d17ddf0	0.03707689
95	0x3df1cc21	0.118065126
96	0xbdd3a665	-0.103344716
97	0xbe42f6b0	-0.19039416
98	0x3e20ac80	0.15690804
99	0x3e0e41bc	0.13892263
100	0xbcf2cbcb	-0.029638192
101	0xbe961ebc	-0.29320323
102	0xbc983a0a	-0.018582363
103	0x3e07bad4	0.13254863
104	0x3e1bd330	0.1521728
105	0x3d3839e5	0.044977088
106	0xbe32b66c	-0.17452401
107	0xbdfbe965	-0.12300376
108	0x3c54f801	0.012998582
109	0x3dd70a8d	0.10500059
110	0x3e3e1a8c	0.18564814
111	0xbdf406cd	-0.1191536
112	0x3da49508	0.08036238
113	0x3df9dde0	0.122005224
114	0x3dde5ab4	0.10857144
115	0xbe030645	-0.1279536
116	0xbdf49600	-0.11942673
117	0x3dfd5842	0.123703495
118	0x3e54d0b0	0.20782733
119	0x3e0046ae	0.12526962
120	0x3d3c1451	0.045917813
121	0x3d0f5301	0.034991268
122	0x3cead7c9	0.028667348
123	0x3b13cf73	0.002255407
124	0xbdb110a2	-0.086457506
125	0xbdb34e72	-0.08755197
126	0xbe175caf	-0.1478145
127	0xbb398d94	-0.0028313147

weight f4 [128, 128]
0	0xbea83323	-0.32851514
1	0x3f1272df	0.5720653
2	0x3eb643ee	0.355987
3	0xbe8b6fe7	-0.27233812
4	0x3d427846	0.047477983
5	0x3c6bd176	0.014393201
6	0x3ea40399	0.32033995
7	0x3e329134	0.17438203
8	0xbea96f6e	-0.33092827
9	0x3f84d449	1.0377284
10	0xbeb10e77	-0.34581348
11	0x3da7eae7	0.08199101
12	0x3c62a594	0.013833422
13	0xbda8f6fc	-0.082502335
14	0xbe8ee280	-0.2790718
15	0x3eb953e7	0.36196825
16	0xbd3bac57	-0.045818653
17	0xbe32caca	-0.1746017
18	0x3eb463f5	0.3523251
19	0xbf0d5cfe	-0.5522002
20	0x3e5151f7	0.20441423
21	0xbe6f8d50	-0.2339375
22	0xbe9deb75	-0.30843702
23	0xbe0825ef	-0.1329572
24	0x3f18a88a	0.5963217
25	0xbf068399	-0.5254455
26	0xbe1235da	-0.14278355
27	0x3d133eae	0.035948448
28	0xbc52992c	-0.012853902
29	0xbe0392f2	-0.12849024
30	0x3e91daac	0.28487146
31	0x3d362370	0.04446739
32	0xbe62389a	-0.22091904
33	0x3f2e716c	0.6814182
34	0x3ea17646	0.31535548
35	0x3f0f573f	0.559925
36	0xbc6c9c73	-0.014441597
37	0x3dea1e7a	0.11431594
38	0xbf24182f	-0.640994
39	0xbf1c7012	-0.61108506
40	0x3ea85acc	0.32881773
41	0x3e024742	0.12722495
42	0x3c532f61	0.012889714
43	0xbeafff70	-0.3437457
44	0xbe6f9347	-0.23396026
45	0x3e2dff8b	0.16992013
46	0xbdc3c32a	-0.09558709
47	0x3e551d66	0.20811996
48	0x3e63d98c	0.22250956
49	0xbccb1061	-0.024788084
50	0x3eb349bd	0.35017195
51	0xbf3d3958	-0.73915625
52	0x3ee1473b	0.43999657
53	0xbf5fdf29	-0.8744989
54	0x3e06dfa6	0.13171253
55	0xbe08e12e	-0.13367149
56	0xbe02fbea	-0.1279141
57	0xbe3f762e	-0.18697426
58	0x3e4e0408	0.20118725
59	0x3f8a7951	1.0818273
60	0x3dc1c8d5	0.09462134
61	0x3e6353ee	0.22199985
62	0xbf103aeb	-0.563399
63	0xbe5421da	-0.20716038
64	0x3d3bfbf7	0.04589459
65	0xbdee9700	-0.11649895
66	0xbeb6721c	-0.35633934
67	0xbe8cb1b1	-0.27479318
68	0xbd217544	-0.039418474
69	0xbc9b2621	-0.01893908
70	0xbbdd333d	-0.006750493
71	0xbe170cd7	-0.14750992
72	0xbf2404f0	-0.64070034
73	0xbe94e781	-0.29082873
74	0x3dfcdb2b	0.123464905
75	0xbe59fff5	-0.21289046
76	0xbe87417b	-0.26417145
77	0xbeb53aee	-0.35396522
78	0xbe9b3d9e	-0.30320448
79	0x3dde12e2	0.10843445
80	0xbe0a916c	-0.13532037
81	0xbe4ed81a	-0.20199624
82	0xbed49c92	-0.41525704
83	0x3de42750	0.11140311
84	0xbeaa749f	-0.332921
85	0x3ed19fb0	0.40942144
86	0xbe3d4779	-0.18484296
87	0xbe52c009	-0.20581068
88	0x3f5eecd3	0.87080115
89	0x3d2aff78	0.04174754
90	0x3e86e265	0.263446
91	0x3dc653e2	0.09683968
92	0x3eefc9b7	0.46833584
93	0x3e5c05af	0.21486543
94	0xbce0ca23	-0.027440136
95	0xbd09ea11	-0.03367049
96	0xbeb2e921	-0.34943488
97	0x3e738e88	0.2378484
98	0x3e98d0c7	0.29846784
99	0x3daebd09	0.08532149
100	0x3e451f4a	0.19250217
101	0x3f086bba	0.5328938
102	0xbf13e53e	-0.5777167
103	0x3ec9d089	0.39416912
104	0xbe71dda6	-0.23619708
105	0xbf5fdcc4	-0.87446237
106	0x3ec5200d	0.38501015
107	0x3ed15798	0.4088714
108	0x3f48a790	0.7838068
109	0x3e6a14a1	0.22859432
110	0xbdaced23	-0.08443668
111	0x3f2cb957	0.67470306
112	0xbeece1a8	-0.46265912
113	0x3f2702fb	0.6523892
114	0x3e1d94a4	0.15388733
115	0x3ea4c6d3	0.3218294
116	0x3dad5c0e	0.08464824
117	0xbca8ad78	-0.020590529
118	0xbe807ab9	-0.2509363
119	0x3e06150e	0.13093969
120	0xbe5b09c0	-0.21390438
121	0x3e2ab63a	0.16671076
122	0x3ea162cd	0.31520692
123	0x3f15d07c	0.58521247
124	0xbe0a5104	-0.13507468
125	0xbe199d73	-0.15001468
126	0x3f12b3a9	0.5730539
127	0xbe7be903	-0.24600606
128	0xbe910d74	-0.28330576
129	0xbeafa82a	-0.34307986
130	0x3b682aa9	0.0035425818
131	0xbdf2879e	-0.11842273
132	0xbe4f5ffa	-0.20251456
133	0x3ebaa236	0.36451882
134	0x3dc752df	0.09732603
135	0xbdd7dc87	-0.10540109
136	0xbf0e6ac7	-0.5563168
137	0x3f81e045	1.0146567
138	0x3f0ef427	0.55841297
139	0xbda6732a	-0.081274346
140	0x3e0c9d0c	0.13731784
141	0x3e310626	0.17287502
142	0xbe45baed	-0.19309588
143	0xbd05a3f4	-0.03262706
144	0xbe63836b	-0.222181
145	0xbe2dc0b2	-0.16968039
146	0x3dd512c9	0.104039736
147	0x3f2a1d07	0.6645054
148	0x3e88a835	0.26690832
149	0x3b2c0f6c	0.002625431
150	0x3f316d9f	0.69307894
151	0xbeb2d83c	-0.349306
152	0x3d63f3bc	0.055652365
153	0xbe08c9a0	-0.13358164
154	0x3ea9517f	0.3306999
155	0xbd939f33	-0.07208099
156	0xbd23c0a6	-0.039978646
157	0xbea6f081	-0.32605365
158	0xbd8dc67e	-0.06922625
159	0xbd951b3f	-0.072805874
160	0xbe433933	-0.19064789
161	0x3e3030c1	0.17206098
162	0x3e5a8f2b	0.21343677
163	0xbef6720c	-0.48133886
164	0x3e3b04e8	0.1826359
165	0x3e8bed3b	0.2732943
166	0x3ef666a2	0.48125178
167	0x3ee127f2	0.43975788
168	0x3e3a2722	0.1817899
169	0xbe8cb150	-0.2747903
170	0x3e9ccf2b	0.30626807
171	0xbd91f758	-0.07127255
172	0xbf059140	-0.5217476
173	0xbe7cdc61	-0.24693443
174	0x3eae3982	0.3402825
175	0xbe4508a2	-0.19241574
176	0x3f1989a3	0.5997564
177	0x3ed347c3	0.41265687
178	0xbe630d00	-0.22172928
179	0xc00a8c10	-2.1647987
180	0x3e0bbe72	0.13646868
181	0x3e974517	0.295449
182	0xbd79a5b4	-0.060949042
183	0x3ddf4b1c	0.10902998
184	0xbe367037	-0.17816244
185	0xbe154aac	-0.14579266
186	0x3d5efd14	0.054440573
187	0xbf295e2e	-0.6615933
188	0xbe34bf65	-0.17651136
189	0x3e8700bc	0.26367748
190	0x3be6c075	0.0070419856
191	0xbc544af5	-0.012957324
192	0x3dea7ef3	0.11449995
193	0xbf903200	-1.1265259
194	0xbfc213e5	-1.5162321
195	0xbc208f1a	-0.009799743
196	0x3dc71850	0.09721434
197	0xbd706776	-0.058692418
198	0xbeab4981	-0.33454517
199	0xbe9a50ad	-0.30139676
200	0xbe74d3d1	-0.23908927
201	0x3bc7fbeb	0.006103029
202	0x3f6ba829	0.9205347
203	0xbe9fa1ef	-0.31178233
204	0xbe3b9871	-0.1831987
205	0x3ea20347	0.31643125
206	0xbe6a93d5	-0.22907956
207	0xbf3293ca	-0.6975676
208	0x3ed9bf9c	0.42529
209	0x3f66806b	0.900397
210	0x3e2112de	0.15729854
211	0xbea0310d	-0.31287423
212	0xbee70a07	-0.45124838
213	0xbe233d52	-0.1594136
214	0x3cff2a09	0.031147974
215	0xbc676569	-0.014123299
216	0xbeb45551	-0.3522134
217	0x3e98813d	0.297861
218	0x3e84b69d	0.25920573
219	0x3dc34d25	0.095361985
220	0x3e616d5b	0.22014372
221	0xbebd727d	-0.3700141
222	0x3e311932	0.17294767
223	0xbe552441	-0.20814611
224	0x3e18c330	0.14918208
225	0xbe8c55af	-0.2740912
226	0x3d93a3c7	0.072089724
227	0x3f875bd3	1.0574898
228	0xbe19ee06	-0.15032205
229	0x3f948a25	1.1604658
230	0xbe9c4370	-0.305202
231	0xbda68148	-0.08130127
232	0x3f36c8ca	0.7140013
233	0xbe9ffbe4	-0.31246865
234	0xbea752b6	-0.3268029
235	0x3ec1c58c	0.3784603
236	0x3fa5e564	1.296063
237	0x3f389131	0.72096545
238	0x3ea7bf71	0.32763246
239	0x3e249321	0.1607175
240	0x3f15c0c5	0.5849727
241	0x3ebc5de8	0.36790395
242	0xbe0370c2	-0.12835982
243	0x3ea3a580	0.31962204
244	0x3ea8d95a	0.32978326
245	0xbf160fb1	-0.58617693
246	0x3c7791a5	0.015110408
247	0xbdb24b8a	-0.08705814
248	0x3e40a1d4	0.18811733
249	0x3f02619f	0.5093021
250	0x3eb58bd3	0.3545824
251	0x3e8610bc	0.26184642
252	0x3e8b2070	0.27173185
253	0xbdd7eaf8	-0.105428636
254	0x3f313c68	0.692328
255	0xbdeba643	-0.11506321

bias f4 [128]
0	0xbde2e885	-0.11079506
1	0xbc88c13e	-0.016693708
2	0x3de014bf	0.10941457
3	0x3e199fa8	0.1500231
4	0x3cd87156	0.02642123
5	0xbe0e7cfa	-0.13914862
6	0x3de89fc3	0.11358597
7	0x3c433b7a	0.011916036
8	0x3e1b13e8	0.15144312
9	0x3dd90e44	0.10598424
10	0x3e5e0d20	0.21684694
11	0x3bbe87f3	0.0058145463
12	0xbc9bb564	-0.019007392
13	0x3a3dfead	0.00072477275
14	0xbde2a1d6	-0.11066024
15	0xbd72d071	-0.059280816
16	0x3dd78778	0.105238855
17	0x3e166f47	0.14690886
18	0xbc8b0632	-0.016970728
19	0x3d984dbb	0.07436701
20	0x3d525519	0.051350687
21	0x3c9b6308	0.01896812
22	0x3e89eefe	0.2694015
23	0x3ce3f1c8	0.027825251
24	0x3e06ddf8	0.13170612
25	0xbc96c471	-0.018404217
26	0x3df0d965	0.11760215
27	0xbac8252a	-0.0015269865
28	0xbe91c132	-0.2846771
29	0x3da6c491	0.08142961
30	0x3ba5cba1	0.005059675
31	0x3ead5226	0.33851737
32	0x3d32c714	0.043646887
33	0x3e29c845	0.16580303
34	0xbe39bebd	-0.18139167
35	0x3c8223be	0.015886184
36	0xbd71aca6	-0.05900254
37	0xbcfedfff	-0.031112669
38	0x3e7f0657	0.24904762
39	0x3d33e710	0.04392153
40	0x3d00c8e9	0.031441603
41	0x3e8e6d67	0.27817842
42	0xbd8ecb36	-0.06972353
43	0xbb9f10f3	-0.0048543154
44	0xbc3c57b5	-0.01149552
45	0x3cf0c313	0.029389894
46	0x3e554ead	0.20830794
47	0xbc0fa43e	-0.008767186
48	0x3daacf43	0.08340313
49	0x3ddf7240	0.10910463
50	0x3db5ff6c	0.088866085
51	0x3dced8d8	0.100999534
52	0x3e7e4645	0.24831493
53	0xbd6be67b	-0.05759285
54	0xbcce6c72	-0.025198195
55	0xbe1115a5	-0.14168413
56	0x3dc92718	0.0982191
57	0x3cc03112	0.023460899
58	0x3dee8ddd	0.11648152
59	0x3e561e89	0.20910086
60	0xbcf7def5	-0.030257681
61	0xbd83cc90	-0.064355016
62	0xbd6ee384	-0.058322445
63	0x3da63ca8	0.08117038
64	0x3e03eb41	0.12882711
65	0x3e29248f	0.16517852
66	0x3d0ec781	0.03485823
67	0x3daf0f32	0.0854782
68	0x3e1fc694	0.15603095
69	0x3cea51bd	0.028603429
70	0x3da7893e	0.08180474
71	0x3dbc6b06	0.092001006
72	0xbccae049	-0.02476515
73	0x3cc801ec	0.024414979
74	0xbce7c609	-0.028292673
75	0x3cfae4ac	0.030626617
76	0x3d471e0e	0.048612647
77	0xbdcb55c0	-0.09928465
78	0x3e8208d1	0.2539735
79	0xbd466b81	-0.048442367
80	0x3bd6f65b	0.0065601296
81	0x3d1a0ae3	0.03760804
82	0x3e18328f	0.14863037
83	0x3d90c89a	0.07069512
84	0x3d5466aa	0.05185572
85	0x3e421c05	0.18956001
86	0x3e59ea94	0.2128089
87	0x3c9ba6a4	0.019000359
88	0x3d3ac618	0.045599073
89	0x3c8de38a	0.017320413
90	0xbd193617	-0.0374051
91	0xbcc299d9	-0.023755
92	0xbc90699d	-0.017628485
93	0x3e66e3c4	0.22547823
94	0x3e088648	0.13332474
95	0xbd762008	-0.06008914
96	0x3e11a951	0.14224745
97	0x3c9e3955	0.019314447
98	0x3da10ccd	0.0786377
99	0x3d1c2797	0.038123693
100	0x3d7e2b6d	0.062053133
101	0xbc01fd24	-0.007933889
102	0x3ba03d73	0.004890138
103	0xbd9af457	-0.075661354
104	0x3d680d29	0.056653176
105	0x3e881572	0.2657886
106	0x3d9d3b97	0.076773815
107	0x3d53d1be	0.051713698
108	0x3dc29bf3	0.09502401
109	0x3d25af6b	0.040450495
110	0xbe173866	-0.14767608
111	0x3d71e76a	0.059058584
112	0xbd6d3c41	-0.05791879
113	0x3e4f4d77	0.20244394
114	0x3ded2fee	0.115814075
115	0x3e287815	0.16452058
116	0xbdf79acb	-0.12090071
117	0xbda91e93	-0.08257785
118	0xbd4d2297	-0.050081816
119	0x3c9dd81f	0.019268094
120	0x3ceef847	0.029171122
121	0xbd25b375	-0.040454347
122	0x3e202462	0.15638879
123	0x3e6c53d5	0.23078854
124	0x3dadb8d9	0.084825225
125	0x3bcfa5a2	0.0063368836
126	0x3d80bb73	0.06285753
127	0x3afe363b	0.0019394824

weight f4 [64, 128]
0	0xbe7706bf	-0.24123667
1	0xbed356da	-0.412772
2	0xbd80c86b	-0.06288227
3	0xc1f4039b	-30.50176
4	0xbcf8c126	-0.030365538
5	0xbec71f9c	-0.38891304
6	0x3e5afba3	0.21385054
7	0xbe5e1c1a	-0.21690407
8	0xbcfbbf2f	-0.030730812
9	0x3e4b0d85	0.19829376
10	0xbe7ff6fc	-0.24996561
11	0x3e377c95	0.17918618
12	0x3e4546bc	0.19265264
13	0x3ea53f7d	0.32275
14	0x3e579d0d	0.21056004
15	0xbe8510ff	-0.2598953
16	0x3dd2e9f2	0.10298528
17	0x3db665e6	0.08906154
18	0x3e061f7b	0.13097946
19	0xbd89b2a3	-0.067235254
20	0x3d376999	0.04477844
21	0xbd744653	-0.05963738
22	0xbd194d2a	-0.037427105
23	0x3ea20b11	0.31649068
24	0xbc3b4aef	-0.01143144
25	0x3eaed8b3	0.34149703
26	0x3e261697	0.16219555
27	0xbd2d5b17	-0.0423232
28	0xc1f636c1	-30.776735
29	0xc2257155	-41.360676
30	0x3df953c0	0.12174177
31	0x3dba9ecf	0.091123216
32	0x3d8d9a57	0.069142036
33	0x3e004e47	0.1252986
34	0x3db334ff	0.087503426
35	0x3ddd9d0c	0.1082097
36	0x3ed3ee23	0.4139262
37	0xbdc6e839	-0.09712262
38	0x3e26b62d	0.16280432
39	0x3e4ade82	0.19811442
40	0xc2255623	-41.334118
41	0xbe682e21	-0.22673847
42	0xbe4d63e4	-0.20057636
43	0xbcb45ed5	-0.022017876
44	0x3e51da1c	0.20493358
45	0xbf1a0940	-0.60170364
46	0xbe8834c0	-0.26602745
47	0x3e70b65e	0.23507068
48	0xbe65ba7f	-0.22434424
49	0x3e1c0c77	0.1523913
50	0x3ce9078e	0.028445985
51	0x3e3f0b45	0.18656643
52	0x3d9e26da	0.07722254
53	0x3fafe486	1.3741615
54	0x3d12f552	0.035878487
55	0xbd88d51e	-0.06681274
56	0x3e72ea61	0.23722221
57	0x3cfee649	0.031115668
58	0x3e5ef27f	0.21772192
59	0xbdbb1dba	-0.09136529
60	0x3eb87531	0.3602691
61	0x3dd871da	0.105685905
62	0x3eac17cc	0.33611906
63	0xbc482458	-0.012215696
64	0xbe80276e	-0.25030082
65	0xbe13855c	-0.14406341
66	0x3e96f2ec	0.2948221
67	0xbd8adfc0	-0.06780958
68	0xbe51b006	-0.20477304
69	0xbe8c2d7b	-0.2737845
70	0xbd9441d8	-0.07239121
71	0x3e106cf3	0.14104061
72	0x3eb5320c	0.35389745
73	0xbd6680ad	-0.05627506
74	0x3e8d5338	0.27602553
75	0x3e3f5ad9	0.18687
76	0x3ddaca28	0.106830895
77	0x3db937a1	0.090438135
78	0x3e949b96	0.29024953
79	0xbe9f6519	-0.3113182
80	0x3dae19d4	0.0850102
81	0x3e9ab887	0.30218908
82	0xbe52daa5	-0.20591219
83	0x3df6b5df	0.12046408
84	0x3b7469fc	0.0037294617
85	0xbd2c4761	-0.04206026
86	0xbdafa1e3	-0.08575799
87	0x3e3e2bf0	0.18571448
88	0x3e13a06c	0.14416665
89	0x3c334cb0	0.010943577
90	0x3dc30a36	0.09523432
91	0x3e0f8104	0.1401406
92	0x3e2102fe	0.15723798
93	0x3d9e24bc	0.0772185
94	0x3ef641c1	0.4809704
95	0x3dfaa5e9	0.12238676
96	0x3e01fc93	0.12694006
97	0x3dad91cb	0.084750734
98	0xbbcb3cf4	-0.0062023345
99	0xbe7ef035	-0.24896319
100	0xbe8dc0e5	-0.2768623
101	0xbe60950c	-0.21931857
102	0x3ed11c1a	0.40841752
103	0x3ded9a73	0.116017245
104	0xbe854012	-0.26025444
105	0xbea6b052	-0.32556397
106	0x3ddb0bfd	0.10695646
107	0xbe0f87a4	-0.14016587
108	0xbe92370f	-0.2855763
109	0x3d3b7ab6	0.045771323
110	0x3eae8fd1	0.34094098
111	0x3e0abd2c	0.13548726
112	0xbd7f9748	-0.062400132
113	0x3b049922	0.0020232876
114	0xbda0979c	-0.07841417
115	0x3ea38359	0.31936148
116	0xbbc3d3b1	-0.0059761633
117	0x3d1f77c7	0.038932588
118	0xbdac21a2	-0.084048524
119	0xc1ad3eb0	-21.65561
120	0x3e030b73	0.12797336
121	0xbe6a2158	-0.22864282
122	0xbe707fde	-0.23486277
123	0xbec116d8	-0.3771274
124	0xbf7ef235	-0.9958833
125	0x3e7466fa	0.23867407
126	0x3d018205	0.031618137
127	0xbeaa891d	-0.33307734
128	0xbd94ddfa	-0.07268901
129	0x3e895e93	0.26829967
130	0x3c72e235	0.01482444
131	0xbc0ad0e9	-0.00847266
132	0x3e441a98	0.1915077
133	0xbef201b6	-0.4726693
134	0x3b6307d2	0.0034642112
135	0x3e5859bd	0.21127982
136	0x3de93579	0.11387152
137	0x3d8fae82	0.070157066
138	0x3e40fe72	0.18847063
139	0xbebf36bd	-0.3734645
140	0x3e1a47d0	0.15066457
141	0xbe1bd81d	-0.1521916
142	0x3df83ec6	0.12121348
143	0x3e2e07c1	0.16995145
144	0xbe702361	-0.23450996
145	0x3e58eeca	0.21184841
146	0xbeb3f4c4	-0.3514768
147	0xbe89e838	-0.2693498
148	0x3de174be	0.11008595
149	0x3d1bc719	0.03803167
150	0xbe18d347	-0.14924346
151	0x3d131fff	0.035919186
152	0xbe9e6297	-0.30934593
153	0x3ea56fa7	0.32311746
154	0xbe8e1637	-0.27751324
155	0x3e4f1337	0.20222174
156	0xc26591cc	-57.39238
157	0xc2526975	-52.602985
158	0xbe00d3c6	-0.12580785
159	0xbd2d8197	-0.042359915
160	0xbcde5ec4	-0.027144797
161	0xbbdf643a	-0.006817368
162	0xbdf42c22	-0.1192248
163	0x3eae6eb7	0.34068844
164	0xbe8f9115	-0.28040376
165	0x3dafae79	0.085782
166	0xbe53a857	-0.20669685
167	0x3d3d505e	0.046219222
168	0x3e3d2573	0.18471317
169	0x3e51e82e	0.20498726
170	0x3eb2b7db	0.34905896
171	0x3dc01564	0.0937908
172	0x3e1c36e4	0.15255314
173	0xbd39454c	-0.045232102
174	0x3e660656	0.22463354
175	0xbe24dfa1	-0.16100933
176	0x3ca3c6c8	0.019992247
177	0x3d915f8f	0.070983045
178	0xbdb66133	-0.08905258
179	0xbeb4dcfb	-0.35324845
180	0x3e2c069b	0.16799395
181	0x3f64b2b6	0.8933519
182	0x3c38083c	0.011232432
183	0x3d9e42f7	0.07727616
184	0x3e05be48	0.13060868
185	0xbccc5156	-0.024941128
186	0xbe2f6f1f	-0.17132233
187	0x3e3df5cf	0.185508
188	0x3e9dbe72	0.3080936
189	0xbd43f7d8	-0.047843784
190	0x3d7eed10	0.0622378
191	0x3d313c1f	0.043270227
192	0xbea34fd6	-0.31896847
193	0x3e21a5b7	0.15785871
194	0xbe807eec	-0.25096834
195	0x3de6f666	0.112774655
196	0x3e111812	0.14169338
197	0xbe8ddc03	-0.27706918
198	0x3c9a9876	0.018871527
199	0x3b55e010	0.0032634772
200	0x3c831fe8	0.016006425
201	0xbe2cce31	-0.16875531
202	0x3f0950a7	0.5363869
203	0x3e648bb1	0.22318913
204	0x3de3ee31	0.11129416
205	0x3e1530f0	0.1456945
206	0xbecb2cee	-0.39682716
207	0xbd01782b	-0.03160874
208	0xbe2149e2	-0.1575084
209	0x3e242522	0.1602979
210	0xb8c98392	-9.608934e-05
211	0x3e0c3322	0.1369138
212	0xbe8d89c8	-0.2764418
213	0xbde0bbbd	-0.10973308
214	0x3ee419c9	0.44550923
215	0xbe8b00dc	-0.27149093
216	0xbd966470	-0.07343376
217	0xbe98d9d5	-0.29853693
218	0xbe8e3197	-0.2777221
219	0xbf341080	-0.70337677
220	0xbe82b0b0	-0.25525427
221	0x3d079215	0.0330983
222	0x3e3d1fc5	0.1846915
223	0x3e54e6f4	0.20791227
224	0xbea5a1cd	-0.32350007
225	0x3e67e455	0.22645696
226	0x3e29fd18	0.16600454
227	0xbd030240	-0.031984568
228	0xbe07e5e8	-0.13271296
229	0xbe36d274	-0.17853719
230	0x3e276212	0.16346005
231	0x3d0b4947	0.03400543
232	0x3c987569	0.018610673
233	0xbd14c247	-0.03631809
234	0x3e3acc79	0.18242063
235	0xbe7ac861	-0.24490501
236	0xbe1a718f	-0.15082382
237	0x3dad96d1	0.084760316
238	0x3de47f3a	0.11157079
239	0x3c734893	0.014848846
240	0xbea5ba2f	-0.3236861
241	0x3d63c940	0.05561185
242	0x3ddf7150	0.109102845
243	0x3e248c87	0.16069232
244	0x3d31b6c1	0.04338718
245	0xbcce6ae4	-0.025197454
246	0xbe1e8b0b	-0.15482728
247	0xc2122b1d	-36.542103
248	0x3e984fc1	0.29748347
249	0xbe81dcdd	-0.25363818
250	0x3d4ce478	0.050022572
251	0x3e22a0c4	0.1588164
252	0xbd3872e6	-0.04503145
253	0x3e8df992	0.2772947
254	0x3d2a27ff	0.04154205
255	0x3c90ee05	0.017691622

bias f4 [64]
0	0xbeffb233	-0.49940643
1	0x3d96ad98	0.07357329
2	0xbe09f845	-0.13473614
3	0x3e9c7f00	0.30565643
4	0xbf1c7488	-0.6111531
5	0x3e4a87de	0.19778392
6	0x3edb3ef3	0.42821464
7	0x3e4166ea	0.18886915
8	0x3ebf82ca	0.37404472
9	0xbee5321b	-0.4476479
10	0xbe6b4ce9	-0.22978558
11	0x3f125299	0.57157284
12	0xbdecadcb	-0.11556586
13	0xbe244b24	-0.16044289
14	0x3e6c0eb3	0.23052482
15	0xbd785602	-0.0606289
16	0xbe8583ba	-0.26077062
17	0xbeea6a37	-0.4578416
18	0xbd224c66	-0.03962364
19	0x3e7caba7	0.24674855
20	0xbea03ac5	-0.31294838
21	0xbdfcb2b3	-0.12338772
22	0x3d90b3cd	0.07065544
23	0xbe254f84	-0.16143614
24	0x3f71f76a	0.9451815
25	0x3d99af95	0.07504193
26	0xbefd50f2	-0.4947582
27	0xbd2f7794	-0.042838648
28	0xbb58d415	-0.0033085395
29	0x3f2756be	0.65366733
30	0xbeb6ca86	-0.35701388
31	0xbf6ca39a	-0.92437136
32	0x3d9dbc01	0.077018745
33	0xbe8445ad	-0.25834408
34	0x3eb6bada	0.3568943
35	0xbde906e7	-0.1137827
36	0xbd0ce540	-0.034398317
37	0xbf02cf47	-0.5109753
38	0x3ec41e05	0.38304153
39	0xbe031166	-0.12799606
40	0x3da6740c	0.08127603
41	0xbea833ec	-0.32852113
42	0x3e8c7e26	0.27439994
43	0x3f706c7c	0.93915534
44	0x3e148a98	0.14505994
45	0x3e89dada	0.26924783
46	0x3ddd3738	0.10801548
47	0xbd3ea7b3	-0.04654665
48	0xbe906b57	-0.28206894
49	0x3eb3181d	0.34979334
50	0xbf132b96	-0.5748838
51	0x3eb22e6c	0.34801042
52	0xbf0baebc	-0.545635
53	0x3e321542	0.17390922
54	0x3e6f2c94	0.23356849
55	0xbde4440e	-0.11145793
56	0x3f5a8b54	0.8536885
57	0xbe16cc98	-0.14726484
58	0x3e6e83e9	0.23292507
59	0xbea7d442	-0.32779127
60	0x3dc96093	0.09832873
61	0x3e5bbd64	0.21458966
62	0xbdfd3eca	-0.12365492
63	0xbde1e430	-0.110298514
