pth/takada_model_35.pth (torch, 168856 bytes, 6 tensors)

weight f4 [128, 128]
0	0xbe85e63a	-0.2615221
1	0xbeca5ad8	-0.39522433
2	0xbd582f5d	-0.052779544
3	0xbcf9b780	-0.030483007
4	0xbe2680b8	-0.1626004
5	0xbe1efdda	-0.15526524
6	0xbe7e7e14	-0.24852782
7	0xbe64d4b5	-0.22346766
8	0xbe157e5d	-0.14598985
9	0xbe0d2edd	-0.13787408
10	0xbe952319	-0.2912834
11	0xbe8252fe	-0.25453943
12	0xbeac8a3c	-0.33699214
13	0xbd9d43af	-0.07678925
14	0xbe391f69	-0.18078388
15	0xbe4647bf	-0.19363306
16	0xbdaafe4f	-0.08349287
17	0xbe595774	-0.21224767
18	0xbea8a669	-0.3293946
19	0xbebd0ca9	-0.3692372
20	0xbebe39c8	-0.3715346
21	0xbebe4380	-0.37160873
22	0xbe3a5f74	-0.18200475
23	0xbe3917dc	-0.18075508
24	0xbcf27e24	-0.029601164
25	0xbdcf51a2	-0.10122992
26	0xbe930890	-0.2871747
27	0xbed84497	-0.4223983
28	0xbf1c8624	-0.6114218
29	0xbf1918b0	-0.59803295
30	0xbe9caf34	-0.3060242
31	0xbda71d4b	-0.08159884
32	0xbd29eb87	-0.041484382
33	0xbc2a8ddb	-0.010409798
34	0xbe95a703	-0.29228982
35	0xbf16e9fb	-0.58950776
36	0xbeea65ab	-0.45780692
37	0xbe2d11fc	-0.16901392
38	0xbe8f0deb	-0.27940306
39	0xbe19fdc1	-0.15038206
40	0xbd4e5522	-0.050374158
41	0xbe220918	-0.15823781
42	0xbe6d7274	-0.23188192
43	0xbec4a06f	-0.3840365
44	0xbefd1fc0	-0.49438286
45	0xbec81349	-0.39077213
46	0xbd3cbdce	-0.04607945
47	0xbd407a19	-0.04699144
48	0xbdff6abd	-0.124715306
49	0xbe8d6c26	-0.27621573
50	0xbedb84a9	-0.4287465
51	0xbecc746b	-0.3993257
52	0xbeccfaef	-0.40035197
53	0xbe1f5225	-0.1555868
54	0xbe9f0de5	-0.31065288
55	0xbe7494d6	-0.23884901
56	0xbe4e8c4d	-0.20170708
57	0xbe16a969	-0.14713062
58	0xbed966c6	-0.42461222
59	0xbdec8912	-0.115495816
60	0xbe627a46	-0.22116956
61	0xbe058229	-0.13037933
62	0xbe383e2a	-0.17992464
63	0xbea43fa2	-0.32079798
64	0xbe2f1475	-0.17097647
65	0xbe25600d	-0.16149922
66	0xbb993d43	-0.0046764924
67	0xbbe12872	-0.0068712765
68	0xbcf3f426	-0.029779505
69	0xbea87448	-0.32901216
70	0xbe11a6e5	-0.14223821
71	0xbe38656a	-0.18007436
72	0xbe0e10d1	-0.13873602
73	0xbe1c37a1	-0.15255596
74	0xbe1dc247	-0.15406142
75	0xbe8a538b	-0.27016863
76	0xbe36671d	-0.17812772
77	0xbe8496f0	-0.25896406
78	0xbe9ff5d2	-0.31242234
79	0xbbf66270	-0.007519059
80	0xbdda68c8	-0.10664517
81	0xbc939db7	-0.01801954
82	0xbe174630	-0.14772868
83	0xbeb3ff72	-0.35155827
84	0xbe9ea165	-0.3098251
85	0xbedfa7de	-0.4368276
86	0xbe98406a	-0.29736644
87	0xbe6086e6	-0.2192646
88	0x3d1e2093	0.038605284
89	0xbe806d45	-0.25083366
90	0xbee88c5f	-0.45419595
91	0xbeffbe3a	-0.4994982
92	0xbedd9f15	-0.43285432
93	0xbf118913	-0.56849784
94	0xbde213fb	-0.11038967
95	0xbe65d4c1	-0.2244444
96	0xbc8fc596	-0.017550271
97	0xbe17d8db	-0.14828818
98	0xbe5bcf9e	-0.21465918
99	0xbee63e2c	-0.44969308
100	0xbede84d0	-0.43460703
101	0xbeb53967	-0.35395357
102	0xbec9eab4	-0.39436877
103	0xbe40bcab	-0.18821971
104	0xbd9fee20	-0.078090906
105	0xbe6a98b3	-0.22909813
106	0xbe6b18ee	-0.22958729
107	0xbebfc9f3	-0.37458763
108	0xbe348cad	-0.17631789
109	0xbeb65bca	-0.35616904
110	0xbd20ec2b	-0.039287727
111	0x3dad266c	0.08454594
112	0xbde90c30	-0.11379278
113	0xbdfb59f1	-0.12273014
114	0xbe9b392d	-0.3031706
115	0xbe667361	-0.22504951
116	0xbe4e023c	-0.2011804
117	0xbe7efbfb	-0.2490081
118	0xbd034245	-0.03204562
119	0xbe896a8a	-0.26839095
120	0xbe8569e8	-0.26057363
121	0xbdb0a6c2	-0.086255565
122	0xbe13449a	-0.14381638
123	0x3cd51fd8	0.02601616
124	0x3cbe6f45	0.023246417
125	0xbe224014	-0.15844756
126	0xbdbeb2aa	-0.09311421
127	0xbe147160	-0.14496374
128	0x3ed5909e	0.41711897
129	0x3e1f8abd	0.15580268
130	0x3e605533	0.21907501
131	0x3e3da725	0.18520792
132	0x3e383e99	0.17992629
133	0x3e87adab	0.26499686
134	0x3e8b5529	0.2721341
135	0x3ebe9431	0.37222436
136	0x3ee344d8	0.4438846
137	0x3e3b9344	0.18317896
138	0x3ee352f5	0.4439923
139	0x3ea6a3bf	0.32546803
140	0x3eedf309	0.46474484
141	0x3e54e319	0.20789756
142	0x3e86401b	0.26220784
143	0x3e717099	0.23578109
144	0x3e81d380	0.25356674
145	0x3ea25e86	0.3171274
146	0x3ea28a3d	0.31746092
147	0x3ed9306a	0.4241975
148	0x3ef571a8	0.47938275
149	0x3ee81447	0.4532797
150	0x3e8f9871	0.2804599
151	0x3e957ecd	0.29198304
152	0x3e95fd91	0.29295018
153	0x3ed8d9ab	0.42353567
154	0x3ef3c38c	0.47610128
155	0x3f1ad5b3	0.6048233
156	0x3f27a6ad	0.654887
157	0x3e8b29f8	0.27180457
158	0x3ec4330a	0.3832019
159	0x3e889300	0.26674652
160	0x3e9ea965	0.30988613
161	0x3eb5b5fa	0.354904
162	0x3ee309c6	0.44343394
163	0x3f1e0047	0.61719173
164	0x3edb6197	0.42847893
165	0x3ee9102a	0.45520145
166	0x3ebe6ffb	0.3719481
167	0x3e550337	0.20802008
168	0x3e9f20d3	0.3107973
169	0x3e9bf074	0.3045689
170	0x3f0b7ec8	0.5449033
171	0x3f0a42ab	0.5400798
172	0x3f30b530	0.6902647
173	0x3ee879af	0.45405337
174	0x3ecb6c8b	0.3973125
175	0x3e949df3	0.29026756
176	0x3e794b33	0.24345092
177	0x3e97d8b6	0.29657525
178	0x3eaeb049	0.3411887
179	0x3eb6db30	0.35714102
180	0x3eac63df	0.33669946
181	0x3ef28124	0.4736415
182	0x3e7e4a15	0.24832948
183	0x3e93bee9	0.2885659
184	0x3e781d7b	0.24229996
185	0x3e94c898	0.2905929
186	0x3ea62ee6	0.32457656
187	0x3ea6dbc6	0.3258955
188	0x3e846a0f	0.25862166
189	0x3e30c430	0.1726234
190	0x3e3a23d5	0.18177731
191	0x3e6f1150	0.23346448
192	0x3e8c272c	0.27373636
193	0x3e50f047	0.20404159
194	0x3e9ecd7c	0.31016147
195	0x3e4dc5e1	0.20095016
196	0x3e598d41	0.2124529
197	0x3e7b0b89	0.24516119
198	0x3e676bda	0.22599736
199	0x3e58015a	0.21094266
200	0x3e57f53a	0.2108964
201	0x3e792a5e	0.24332568
202	0x3eaa6fdc	0.33288467
203	0x3eb9fd25	0.36325946
204	0x3e367361	0.17817451
205	0x3ea314e4	0.31851876
206	0x3e2c18e9	0.16806377
207	0x3e459eff	0.19298933
208	0x3e6420d7	0.22278152
209	0x3e9bd986	0.30439395
210	0x3e97ef06	0.29674548
211	0x3ecbaa64	0.39778435
212	0x3e8f6d28	0.28012967
213	0x3f11cc6a	0.56952536
214	0x3e27f330	0.16401362
215	0x3ea54862	0.32281786
216	0x3e485da9	0.19566979
217	0x3e3ca92f	0.18423913
218	0x3eddf39a	0.43349916
219	0x3f239a7a	0.6390759
220	0x3f4e555a	0.80598986
221	0x3f0bed5a	0.54659045
222	0x3f28cf43	0.65941256
223	0x3e8b18a7	0.27167246
224	0x3e89f6e1	0.26946166
225	0x3e1ef2bc	0.15522283
226	0x3f0c90f1	0.54908663
227	0x3f20b0fc	0.62770057
228	0x3f4eb346	0.807423
229	0x3eac95ec	0.3370813
230	0x3ee847bb	0.45367226
231	0x3e5bde7d	0.21471591
232	0x3e850d43	0.2598668
233	0x3e80be57	0.25145218
234	0x3ed5e3bd	0.41775313
235	0x3ee52f23	0.44762525
236	0x3f211bc2	0.6293298
237	0x3eb53da2	0.35398585
238	0x3de132a6	0.109959885
239	0x3e3ed8d2	0.18637398
240	0x3ea8a4fd	0.32938376
241	0x3eabcfad	0.33556882
242	0x3eeff97e	0.46870035
243	0x3ebc1dfb	0.36741623
244	0x3ed2e54a	0.4119056
245	0x3ebaec4a	0.365084
246	0x3e846005	0.25854507
247	0x3e162de0	0.14665937
248	0x3e61f05b	0.22064345
249	0x3e75108d	0.23932095
250	0x3e606b16	0.2191585
251	0x3ec7207d	0.38891974
252	0x3efb52f6	0.49086732
253	0x3e94eca8	0.29086804
254	0x3e824cb0	0.25449133
255	0x3df320ce	0.118714914

bias f4 [128]
0	0xbf0146e1	-0.5049878
1	0x3f4583c3	0.7715418
2	0xbed8bd32	-0.42331845
3	0x3e1eebee	0.15519688
4	0x3deb4ff0	0.11489856
5	0xbe020f8b	-0.12701242
6	0xbe1c2b99	-0.15251006
7	0x3e7f4066	0.2492691
8	0xbca78fce	-0.020454314
9	0xbe9f9183	-0.31165704
10	0xbea565e7	-0.32304308
11	0xbe07e045	-0.13269146
12	0x3c68a3ec	0.014199238
13	0xbf10a669	-0.5650392
14	0x3ddbda36	0.1073498
15	0xbd227c67	-0.03966942
16	0xbc68741a	-0.014187837
17	0xbd66a8d3	-0.056313347
18	0xbe1af6de	-0.15133235
19	0x3e9c85c7	0.30570814
20	0xbd30d40f	-0.043170985
21	0xbe368b90	-0.17826676
22	0xbf01344c	-0.50470424
23	0xbf25310e	-0.64527977
24	0xbe8f0cc7	-0.27939436
25	0xbe54d320	-0.20783663
26	0x3e20fde8	0.15721858
27	0x3dc2a7bd	0.0950465
28	0x3f67ee1e	0.90597713
29	0x3ca59ce1	0.020216407
30	0x3e93fa68	0.28901982
31	0xbda8eda5	-0.08248452
32	0xbdaef04a	-0.08541925
33	0xbe0c986f	-0.13730024
34	0x3dd1e65a	0.10249014
35	0xbe258e3d	-0.16167541
36	0x3e9dd4cb	0.3082641
37	0xbf16499a	-0.5870606
38	0xbd10ab20	-0.035319448
39	0xbdd0d3aa	-0.10196622
40	0xbc1d598f	-0.009603872
41	0xbd8fe6ff	-0.07026481
42	0x3ee88d30	0.45420218
43	0xbe4badd6	-0.19890532
44	0x3e05159f	0.12996529
45	0xbc347bad	-0.011015815
46	0xbe8b8687	-0.27251074
47	0xbe8c6cca	-0.2742675
48	0x3ea5e73e	0.32402986
49	0x3f0554e8	0.5208268
50	0xbe62de8a	-0.22155204
51	0x3f2cbed0	0.67478657
52	0x3d52d78a	0.051475085
53	0x3f209cbb	0.6273915
54	0x3ecd9231	0.40150598
55	0xbdb66ece	-0.08907853
56	0x3d36a950	0.044595063
57	0xbf341a4a	-0.70352614
58	0xbe96cb00	-0.29451752
59	0xbd15d972	-0.036584325
60	0xbe857ebc	-0.26073253
61	0x3d8ddcc0	0.0692687
62	0xbee1963c	-0.44059932
63	0x3eab1fd0	0.3342271
64	0xbdeaa034	-0.114563376
65	0x3d354358	0.044253677
66	0x3dc9fdcb	0.0986286
67	0xbe17f389	-0.14838995
68	0x3e11676e	0.14199612
69	0xbe073993	-0.13205557
70	0x3e49ba7d	0.19700046
71	0x3e850ab3	0.25984725
72	0xbc5b2681	-0.013375879
73	0x3db00737	0.08595126
74	0xbf02c991	-0.51088816
75	0xbe44406e	-0.19165203
76	0xbd198640	-0.037481546
77	0x3e63fd67	0.22264634
78	0xbcbe7b3b	-0.02325212
79	0xbe3c4761	-0.18386604
80	0x3e3a9588	0.18221104
81	0xbe75b04a	-0.2399303
82	0xbeb61adc	-0.35567367
83	0xbf02a87c	-0.51038337
84	0x3e3ec504	0.18629843
85	0x3e0775d1	0.13228537
86	0xbc7967fa	-0.015222544
87	0xbd944426	-0.07239561
88	0xbe572147	-0.21008788
89	0xbbd91a35	-0.0066254386
90	0xbce61c2d	-0.028089607
91	0x3d01154a	0.031514443
92	0xbe8827ab	-0.26592764
93	0x3e926616	0.2859351
94	0x3f4ac656	0.79208887
95	0xbe6355a3	-0.22200637
96	0xbe338670	-0.17531753
97	0x3f2982be	0.6621512
98	0xbd9bc3c7	-0.07605701
99	0x3e548402	0.20753482
100	0xbc21b28c	-0.009869229
101	0x3e64dac3	0.22349076
102	0xbe165486	-0.1468068
103	0xbe90d999	-0.28291014
104	0xbdd1154a	-0.10209139
105	0xbe1c1c2d	-0.15245123
106	0xbc015b28	-0.0078952685
107	0x3ea9fc90	0.33200502
108	0xbf10ec91	-0.5661097
109	0x3d0dbf46	0.03460624
110	0x3e82a0aa	0.25513202
111	0xbe60e24d	-0.21961327
112	0x3dfddfa3	0.12396171
113	0xbd1a996d	-0.037743974
114	0xbf097ff3	-0.5371086
115	0xbe46dbad	-0.19419737
116	0xbe4f9150	-0.20270276
117	0xbe2efd31	-0.17088772
118	0xbf07da33	-0.5306732
119	0xbdc2aac6	-0.09505229
120	0xbc3773e7	-0.011197067
121	0x3f05a20c	0.5220039
122	0xbda1af6d	-0.07894788
123	0xbe1890c4	-0.14898974
124	0xbea49266	-0.32142943
125	0xbf41b7ad	-0.7567089
126	0xbdc90c62	-0.09816815
127	0xbe238ed9	-0.15972461

weight f4 [128, 128]
0	0x3f3d2f4d	0.739003
1	0x3f23a47d	0.63922864
2	0xbf1d515f	-0.6145229
3	0xbf07a688	-0.5298848
4	0xbef83a40	-0.4848194
5	0x3f08bca5	0.5341285
6	0x3f3775f0	0.71664333
7	0xbef7e808	-0.48419213
8	0xbf32366d	-0.696143
9	0x3f1df68b	0.6170432
10	0x3ec3bdf7	0.3823087
11	0x3efae35c	0.49001586
12	0xbf2aa70d	-0.6666115
13	0xbedf52b5	-0.43617788
14	0xbed42716	-0.4143607
15	0x3ed67500	0.4188614
16	0x3f0731d9	0.52810436
17	0x3f19e7d6	0.6011938
18	0x3f132795	0.5748227
19	0x3f245b6a	0.64201987
20	0x3eb5d066	0.35510558
21	0x3ec0eda2	0.376813
22	0x3f22f921	0.6366139
23	0xbf072712	-0.5279399
24	0x3f4f24c0	0.8091545
25	0xbee2e34f	-0.44314048
26	0x3f03495b	0.51283807
27	0xbf004fca	-0.5012175
28	0xbf348216	-0.70510995
29	0xbf2d2268	-0.67630625
30	0xbeebe769	-0.4607499
31	0xbf24750d	-0.64241105
32	0x3ef1dbfa	0.4723814
33	0x3ef2c2d4	0.47414267
34	0xbf302f68	-0.68822336
35	0x3f2d2b75	0.67644435
36	0xbf22f5df	-0.6365642
37	0x3ed672f6	0.41884583
38	0x3ee368e2	0.44415957
39	0xbf3e52fd	-0.7434538
40	0x3eff2057	0.4982936
41	0xbf025b1c	-0.5092027
42	0xbec5a79b	-0.38604435
43	0x3ebebe42	0.3725453
44	0xbf270e1b	-0.652559
45	0xbed97d08	-0.42478204
46	0xbf12a7f8	-0.5728755
47	0x3eeea6ad	0.4661154
48	0xbf2e8473	-0.6817085
49	0xbefb6015	-0.49096742
50	0xbede9d58	-0.4347942
51	0x3ebe51e6	0.3717186
52	0xbeec5b58	-0.4616344
53	0xbf2d4f0b	-0.67698735
54	0xbee165af	-0.4402289
55	0x3f2a30b4	0.66480565
56	0x3ef04836	0.46930093
57	0x3ee62dbf	0.44956776
58	0x3ef20140	0.4726658
59	0xbf03a403	-0.5142214
60	0xbeec2131	-0.46119073
61	0xbecf676e	-0.40508598
62	0x3f027c32	0.50970757
63	0xbf03964e	-0.5140122
64	0x3f1c4da4	0.6105597
65	0x3f08ef1e	0.53489864
66	0x3f08f8f5	0.5350488
67	0x3f050b38	0.51970243
68	0xbf322eee	-0.6960286
69	0xbecc05fc	-0.39848316
70	0xbf4010cb	-0.75025624
71	0xbefa07a5	-0.48833957
72	0xbec37b8a	-0.3818019
73	0xbee7ba88	-0.452595
74	0x3ee60b7c	0.44930637
75	0x3f0459e9	0.5169969
76	0xbf309340	-0.68974686
77	0xbf2873e8	-0.6580186
78	0x3f05727c	0.52127814
79	0x3eda85ee	0.42680305
80	0xbec1868f	-0.37797973
81	0xbf18e000	-0.59716797
82	0x3f332dbf	0.6999168
83	0x3ee64a17	0.449784
84	0xbf2da933	-0.678363
85	0x3f2b3c6a	0.6688906
86	0xbecd0a7e	-0.40047067
87	0x3f012c98	0.5045867
88	0xbf329c03	-0.69769305
89	0x3f358286	0.7090229
90	0xbefa6970	-0.48908567
91	0x3ebb39d8	0.3656757
92	0x3f3a0fb0	0.7268019
93	0xbf2de947	-0.6793408
94	0x3f0a989e	0.54139125
95	0x3f36b9bc	0.7137716
96	0xbf23a6db	-0.63926476
97	0xbf172b00	-0.5904999
98	0xbf1f9a4f	-0.6234483
99	0xbf0455ba	-0.5169331
100	0x3f047dd1	0.5175448
101	0xbebed804	-0.37274182
102	0x3f374990	0.7159662
103	0x3ed80243	0.42189226
104	0x3f23957e	0.6389998
105	0x3f3b01b6	0.73049486
106	0x3ee601a5	0.4492313
107	0xbf37f91d	-0.7186449
108	0x3eebf7bf	0.46087453
109	0xbf04256d	-0.5161961
110	0xbee93bd7	-0.45553467
111	0xbf1cbed3	-0.61228675
112	0xbefa2c7c	-0.48862064
113	0x3f3c8bcc	0.73650813
114	0xbf07b042	-0.53003323
115	0x3ebd8af7	0.37020084
116	0xbec1ee61	-0.3787718
117	0xbf21cb00	-0.6320038
118	0x3f253106	0.6452793
119	0x3f3fc5cc	0.7491119
120	0x3f3e7d56	0.7441
121	0xbf38788f	-0.7205896
122	0x3eea9dd1	0.4582353
123	0xbec2e9dd	-0.3806905
124	0xbf327c18	-0.697206
125	0x3f24f1a5	0.6443122
126	0x3ef4349c	0.47696388
127	0x3ee0d57e	0.43912882
128	0x3ee75e11	0.45188954
129	0x3f22ef99	0.63646847
130	0xbf1e3bfc	-0.6181028
131	0xbf295267	-0.6614136
132	0xbf497b06	-0.78703344
133	0x3f15e4da	0.58552325
134	0x3ea276c1	0.31731227
135	0xbf459ee0	-0.7719555
136	0xbec3f408	-0.3827212
137	0x3ebb1a8a	0.36543685
138	0x3ea4fd4b	0.32224497
139	0x3f3ff102	0.74977124
140	0xbea6d0f5	-0.32581297
141	0x3f2fab86	0.686211
142	0x3e69e381	0.22840692
143	0xbe9a8762	-0.30181414
144	0x3f311364	0.6917021
145	0x3f27f751	0.6561175
146	0x3e9d8050	0.30761957
147	0x3eaf0d9e	0.34190077
148	0xbee0f669	-0.43937996
149	0xbe96870d	-0.2939991
150	0x3eb3b047	0.35095426
151	0x3f14f5a9	0.5818735
152	0x3f43b872	0.76453316
153	0x3edf3414	0.4359442
154	0xbeb760c7	-0.35816023
155	0xbf41dc38	-0.7572665
156	0xbf41221c	-0.7544267
157	0xbe925e00	-0.2858734
158	0x3e9bedd3	0.30454883
159	0xbeb22102	-0.34790808
160	0x3f5c5c8d	0.8607872
161	0x3f4bf352	0.7966815
162	0xbec89bef	-0.39181468
163	0x3f38b74f	0.72154707
164	0xbeacd4d6	-0.3375613
165	0x3f15e7c6	0.58556783
166	0xbef4e5ce	-0.47831577
167	0xbebdea4f	-0.37092826
168	0x3f2002a2	0.6250402
169	0x3ebf74be	0.37393755
170	0x3e3a07ef	0.18167089
171	0xbe164b3d	-0.14677139
172	0xbeab7b6b	-0.33492598
173	0x3eb66657	0.35624954
174	0xbeafb337	-0.34316418
175	0x3f6bbd37	0.92085594
176	0xbea144b7	-0.31497738
177	0xbed771fe	-0.42079157
178	0x3f2ac712	0.6671001
179	0xbedaafcd	-0.4271225
180	0x3eaa062f	0.33207843
181	0xbf03d972	-0.5150367
182	0xbf416cf2	-0.7555686
183	0x3f4d9bcd	0.8031586
184	0x3f23370c	0.6375587
185	0x3f3d32c5	0.73905593
186	0xbe94e16d	-0.29078236
187	0x3eab0cf3	0.33408317
188	0x3ebb9539	0.36637285
189	0xbf3309da	-0.6993691
190	0x3f507ea9	0.8144327
191	0xbf2ac09e	-0.6670016
192	0x3eee0dcc	0.464949
193	0x3ed2e6d6	0.4119174
194	0x3f1ebcd3	0.6200687
195	0x3f4b0a8e	0.7931298
196	0x3f2673cf	0.6502046
197	0x3e6f1daf	0.23351167
198	0xbed1cdfc	-0.40977466
199	0x3f392f56	0.72337854
200	0xbf35a3b3	-0.7095291
201	0x3ecbc41b	0.39798054
202	0x3ed67d23	0.41892347
203	0x3f1ed523	0.6204397
204	0xbec3e849	-0.38263157
205	0xbf388b02	-0.7208711
206	0x3f4d9a53	0.80313605
207	0x3f218ec2	0.63108456
208	0xbf2e6d5b	-0.68135613
209	0xbed7d775	-0.42156568
210	0x3e87a4be	0.26492876
211	0x3f4665ce	0.7749909
212	0xbf281dd4	-0.65670514
213	0x3ea5f1c7	0.32411024
214	0x3f4d1907	0.80116314
215	0xbe9a7ba0	-0.30172443
216	0xbf25ecbb	-0.6481435
217	0x3ee911e3	0.4552146
218	0x3eb79587	0.35856268
219	0xbed308e8	-0.41217732
220	0x3ebc5e62	0.36790758
221	0xbeede473	-0.46463355
222	0xbed27d77	-0.41111347
223	0x3ebdce93	0.37071666
224	0xbeb297ad	-0.34881344
225	0xbebf5148	-0.373667
226	0xbee62ce1	-0.44956115
227	0x3e810d2f	0.2520537
228	0x3f34f018	0.70678854
229	0xbf32bd39	-0.6981998
230	0x3edc74e5	0.43057933
231	0xbea896b9	-0.32927492
232	0x3eb341bd	0.35011092
233	0x3ead96b6	0.33904046
234	0xbea9a54d	-0.33133927
235	0xbe97c07c	-0.2963904
236	0x3f3ef494	0.74591947
237	0x3f3992ce	0.7248963
238	0xbf2d4f72	-0.6769935
239	0xbed21601	-0.41032413
240	0x3e829748	0.25506043
241	0x3e9fe707	0.31230947
242	0x3eebbdec	0.46043336
243	0x3f59e6b2	0.8511764
244	0x3edd5120	0.43225956
245	0xbf2685be	-0.65047824
246	0x3eef2613	0.46708736
247	0xbf3732c4	-0.7156184
248	0x3f35a155	0.709493
249	0xbeea5b5a	-0.4577282
250	0x3f079640	0.5296364
251	0xbe25e5d1	-0.16200949
252	0xbec5eba9	-0.38656357
253	0x3ed14c89	0.40878704
254	0x3e9a9fa5	0.30199924
255	0xbea8d02a	-0.32971317

bias f4 [128]
0	0xbf341ac9	-0.7035337
1	0xbeb76d4e	-0.3582558
2	0xbf326a27	-0.69693226
3	0xbf1ce843	-0.61291903
4	0xbf0da806	-0.5533451
5	0xbef81020	-0.48449802
6	0xbf0f81a0	-0.5605717
7	0xbf2c2985	-0.67250854
8	0xbf6594f8	-0.89680433
9	0xbf2fe74c	-0.68712306
10	0xbf008bf1	-0.50213534
11	0xbf26f3d0	-0.6521578
12	0xbf60a11d	-0.8774584
13	0xbf8ab8d2	-1.0837653
14	0xbf60adf6	-0.87765443
15	0xbf6e7917	-0.9315352
16	0xbf280127	-0.6562676
17	0xbf35c57c	-0.7100446
18	0xbf2edb42	-0.6830331
19	0xbef45df6	-0.47727937
20	0xbf22915e	-0.6350306
21	0xbedc6e88	-0.4305308
22	0xbf440e8c	-0.76584697
23	0xbf2f4fcf	-0.68481153
24	0xbf36df51	-0.71434504
25	0xbf1160b1	-0.56788164
26	0xbf1aee0f	-0.605195
27	0xbf294666	-0.66123044
28	0xbf2f936f	-0.6858434
29	0xbf3b3984	-0.73134637
30	0xbf326f51	-0.69701105
31	0xbdd024c9	-0.10163266
32	0xbf4118b5	-0.75428325
33	0x3e66d1a1	0.22540905
34	0xbf4120fa	-0.75440943
35	0xbe8966b7	-0.26836178
36	0xbf3304d0	-0.6992922
37	0xbee2e045	-0.4431173
38	0xbd8ade8b	-0.06780728
39	0xbf025209	-0.50906426
40	0xbf19c93d	-0.6007269
41	0xbf3ee4d4	-0.74567914
42	0xbef2d566	-0.47428435
43	0xbf0f5804	-0.55993676
44	0xbf21d1bc	-0.63210654
45	0xbf0b9452	-0.54523194
46	0xbf2b4ca3	-0.66913813
47	0xbf13408d	-0.5752037
48	0xbf31e7be	-0.69494236
49	0xbf13e33c	-0.5776861
50	0xbf26b620	-0.6512165
51	0x3c12793e	0.008940039
52	0xbf370aa8	-0.71500635
53	0xbee6a4a9	-0.450475
54	0xbf2cf08c	-0.67554545
55	0xbf2e437b	-0.6807172
56	0xbf39e686	-0.72617376
57	0xbf1f0601	-0.62118536
58	0xbf132a1d	-0.57486135
59	0xbf157c87	-0.5839314
60	0xbf3dd552	-0.74153626
61	0xbf38c06f	-0.7216863
62	0xbef05410	-0.46939135
63	0xbf3444a0	-0.70417213
64	0xbf3d003d	-0.7382849
65	0xbf4d08c4	-0.800915
66	0xbf371a04	-0.7152407
67	0xbebd2e9d	-0.36949626
68	0xbec5e648	-0.38652253
69	0xbf6a0a76	-0.9142221
70	0xbf35dee2	-0.7104322
71	0xbf5d7501	-0.8650666
72	0xbf5bedca	-0.8590971
73	0xbf3bb8f7	-0.7332911
74	0xbf3a554d	-0.7278641
75	0xbf1f3fd4	-0.6220677
76	0x3e4e7b00	0.20164108
77	0xbf1b451a	-0.60652316
78	0xbf0ae431	-0.5425444
79	0xbf305eb1	-0.6889449
80	0xbf374536	-0.7158998
81	0xbf404546	-0.751057
82	0xbf592071	-0.84815127
83	0xbf156100	-0.58351135
84	0xbf368b48	-0.71306276
85	0xbf1cf8bb	-0.6131703
86	0xbf2354ae	-0.63801086
87	0xbf5cb65b	-0.8621575
88	0xbeb6995e	-0.35663885
89	0xbd3dc4ff	-0.04633045
90	0xbf1f77b9	-0.6229206
91	0xbf355838	-0.70837736
92	0xbf61cd9a	-0.8820435
93	0xbf06519e	-0.5246829
94	0xbeae7c9d	-0.34079447
95	0xbf221eb5	-0.63328105
96	0xbf2aff17	-0.66795486
97	0xbf05e829	-0.52307373
98	0xbf39359f	-0.72347444
99	0xbf24157d	-0.6409529
100	0xbf1c50f1	-0.61061007
101	0xbf1011c2	-0.56277096
102	0xbedced67	-0.43149874
103	0x3c0d74eb	0.008633832
104	0xbf3342ff	-0.700241
105	0xbf2355aa	-0.6380259
106	0xbf16dcfb	-0.5893094
107	0xbf05c456	-0.5225271
108	0xbf3080d1	-0.6894656
109	0xbf4e134c	-0.80498195
110	0xbf326b20	-0.6969471
111	0xbf3ac94d	-0.7296341
112	0xbf19c33f	-0.60063547
113	0xbf3378f4	-0.70106435
114	0xbfc18573	-1.511885
115	0xbf06558a	-0.5247427
116	0xbf3290b7	-0.6975207
117	0xbefb245f	-0.49051186
118	0xbee9873d	-0.4561099
119	0xbf375780	-0.7161789
120	0xbf2333dd	-0.6375101
121	0xbec1d3eb	-0.37856993
122	0xbf35918c	-0.7092521
123	0xbf3f075e	-0.74620616
124	0xbf280d15	-0.6564496
125	0xbf404c95	-0.75116855
126	0xbf6b0db8	-0.9181781
127	0xbf2370bc	-0.63843894

weight f4 [64, 128]
0	0x3f410f88	0.75414324
1	0x3f3cbf5d	0.737295
2	0x3f50f9e4	0.816313
3	0x3f18893f	0.5958442
4	0xbf15bc98	-0.58490896
5	0x3f191868	0.59802866
6	0x3f361637	0.7112765
7	0x3f325d19	0.69673306
8	0x3ebd9f97	0.3703582
9	0x3f205e1a	0.6264359
10	0x3f5246fd	0.8213957
11	0x3ee96e10	0.45591784
12	0x3f60b4ce	0.87775886
13	0x3f8c1495	1.0943781
14	0x3f43e48c	0.7652061
15	0x3ec2b44e	0.38028187
16	0x3f07dbd8	0.5306983
17	0x3f44cd31	0.768756
18	0x3f340a15	0.70327884
19	0x3f5d270f	0.86387724
20	0x3f2379e7	0.63857883
21	0x3f239c3d	0.63910276
22	0x3f34cf96	0.7062925
23	0x3f4030ee	0.7507466
24	0x3f38c1a1	0.72170454
25	0x3f12a433	0.572818
26	0x3f50d354	0.8157246
27	0x3f374027	0.71582264
28	0x3f25c1db	0.64748925
29	0x3f05e79f	0.5230655
30	0x3f07e80d	0.53088456
31	0x3f954779	1.1662437
32	0x3f4210fb	0.7580716
33	0x3e06cca6	0.13164005
34	0x3f3c4e9d	0.73557454
35	0x3f578859	0.84192425
36	0x3f0c2117	0.5473799
37	0x3f332ccf	0.6999025
38	0x3f90655f	1.1280936
39	0x3f3b4473	0.7315132
40	0x3f4c96b7	0.7991747
41	0x3f265555	0.64973956
42	0x3e1a7dc8	0.15087044
43	0x3f2b274b	0.6685683
44	0x3f3bf5d5	0.73421985
45	0x3f1db3af	0.616023
46	0x3f364934	0.7120545
47	0x3f1f2716	0.62169015
48	0x3f1fe960	0.62465477
49	0x3f48212d	0.7817562
50	0x3f197fc4	0.5996058
51	0x3f7a5d42	0.9779855
52	0x3f32309c	0.6960542
53	0x3f126661	0.5718747
54	0x3f26101a	0.6486832
55	0x3f2d4108	0.67677355
56	0x3f37473b	0.71593064
57	0xbeb86732	-0.36016232
58	0x3f3926b7	0.723247
59	0x3e344c35	0.17607196
60	0x3f292b86	0.66082036
61	0x3ef9c12c	0.4878019
62	0x3ecb1963	0.39667806
63	0x3ec24400	0.37942505
64	0x3f54c8d1	0.8311892
65	0x3efd10d0	0.4942689
66	0x3f37dd10	0.7182169
67	0x3f1c6729	0.6109491
68	0x3eff960e	0.4991917
69	0x3e6882ea	0.2270619
70	0x3f470af5	0.77751094
71	0x3e1900cb	0.14941709
72	0x3ed1fea2	0.41014582
73	0x3ec29e3c	0.38011348
74	0x3f2da7a8	0.6783395
75	0x3f297726	0.6619743
76	0x3f448a87	0.76773876
77	0x3eed9ce1	0.46408752
78	0x3f676cbd	0.90400296
79	0x3ee7aa37	0.4524705
80	0x3f1ea034	0.619632
81	0x3f665e2f	0.8998746
82	0x3f1f97ea	0.6234118
83	0x3ee1db80	0.44112778
84	0x3f699a92	0.9125148
85	0x3f2288ef	0.63490194
86	0x3f357590	0.7088251
87	0x3e68aa5b	0.22721235
88	0x3f20501b	0.6262223
89	0x3f1eac83	0.6198198
90	0x3f1c0cc6	0.6095699
91	0x3ef6eee9	0.4822915
92	0x3f377447	0.716618
93	0x3efe1367	0.49624178
94	0x3f13d039	0.577396
95	0x3f23a519	0.63923794
96	0x3f1f69d4	0.62270856
97	0x3f20fff6	0.62890565
98	0x3ee9f861	0.4569731
99	0x3f2cd6e1	0.6751538
100	0x3f66d55d	0.90169317
101	0x3f1f8d72	0.62325203
102	0x3f1a7a76	0.6034311
103	0x3ec99de5	0.39378276
104	0x3f4aa48e	0.7915734
105	0x3f396aca	0.7242857
106	0x3ef4ca86	0.47810763
107	0x3f3757f5	0.71618587
108	0x3f261770	0.6487951
109	0x3f408e36	0.75216997
110	0x3f27df47	0.6557507
111	0x3f687516	0.9080366
112	0x3f3314e5	0.6995376
113	0x3ea10900	0.3145218
114	0x3f3dc4e2	0.74128544
115	0xbf039872	-0.5140449
116	0x3ead5c89	0.3385966
117	0x3f4b2909	0.7935949
118	0x3f44311f	0.7663745
119	0x3f00bb48	0.5028577
120	0x3f1390e5	0.57642967
121	0x3eaada2a	0.3336957
122	0x3f25cc04	0.6476443
123	0x3f0a261e	0.5396441
124	0x3f19d9b3	0.6009781
125	0x3f2f0e56	0.6838125
126	0x3e4971e8	0.19672358
127	0x3f278cd7	0.6544928
128	0x3f358d4c	0.70918727
129	0x3f2c2891	0.672494
130	0x3f3ae38d	0.73003465
131	0x3f148038	0.58008146
132	0xbcfa49b9	-0.030552732
133	0x3f34c946	0.7061962
134	0x3f304f0b	0.6887061
135	0x3f2d0aca	0.6759459
136	0x3e8ab84a	0.27093726
137	0x3f47d1e7	0.7805466
138	0x3f363a74	0.7118294
139	0x3f31fc73	0.6952583
140	0x3f3fba14	0.7489331
141	0x3f8a76c8	1.0817499
142	0x3e29b5d1	0.16573264
143	0x3eca78c2	0.39545256
144	0x3f4e8fe8	0.80688334
145	0x3f281424	0.6565573
146	0x3f218385	0.6309131
147	0x3f24cce4	0.6437514
148	0x3f31bfb6	0.6943315
149	0x3f13471f	0.575304
150	0x3f2b6764	0.66954637
151	0x3f1ec5f4	0.620208
152	0x3f1aa24b	0.6040389
153	0x3f4787be	0.779415
154	0x3efa48f4	0.48883784
155	0x3f199e3b	0.60007066
156	0x3f3591bd	0.70925504
157	0x3f00df19	0.5034042
158	0x3f1b3314	0.60624814
159	0x3fa3a9e3	1.278622
160	0x3f2a4265	0.6650756
161	0x3e485c71	0.19566514
162	0x3f2a0d66	0.66426694
163	0x3f4d76d8	0.80259466
164	0x3f43867e	0.76377094
165	0x3f3b6e38	0.73215055
166	0x3f9892ae	1.1919763
167	0x3f2e0b7e	0.67986286
168	0x3f47602d	0.7788113
169	0x3f152fe8	0.58276224
170	0x3f612f06	0.8796238
171	0x3f3dbf93	0.74120444
172	0x3f20a94a	0.62758315
173	0x3f1de888	0.6168294
174	0x3f27828e	0.65433586
175	0x3ebddd07	0.37082693
176	0x3f242e08	0.6413274
177	0x3f479f7e	0.7797774
178	0x3f16ce6a	0.5890871
179	0x3f80eeb8	1.0072851
180	0x3f2695d7	0.6507239
181	0x3f25b2a3	0.64725703
182	0x3f388bbb	0.7208821
183	0x3f4042f7	0.7510218
184	0x3f29dbe5	0.6635116
185	0x3f273478	0.65314436
186	0x3f232dbd	0.63741666
187	0x3f0d59f6	0.55215394
188	0x3f17b25f	0.5925655
189	0x3ecd0807	0.40045187
190	0x3f245de9	0.64205796
191	0x3f43c05f	0.7646541
192	0x3f6878c5	0.9080928
193	0x3f1ea922	0.61976826
194	0x3f15d8c0	0.5853386
195	0x3f30c421	0.6904927
196	0x3f12a92a	0.57289374
197	0x3e5b6f6b	0.21429221
198	0x3f2e6706	0.6812595
199	0x3f5a7b85	0.85344726
200	0x3e966f63	0.29381856
201	0x3f29a3e7	0.6626572
202	0x3f1a5c16	0.6029676
203	0x3f46486e	0.7745427
204	0x3f3cc143	0.73732394
205	0x3f4c825a	0.798864
206	0x3efc911d	0.49329463
207	0x3f31f70b	0.6951758
208	0x3f3964dd	0.7241953
209	0x3f229eb6	0.63523424
210	0x3f15f2cd	0.5857361
211	0x3f23edfb	0.64035004
212	0x3f21f136	0.63258684
213	0x3f1e1754	0.61754346
214	0x3f36e9f0	0.7145071
215	0x3e287f8d	0.16454907
216	0x3f4822fa	0.7817837
217	0x3f1ac473	0.6045601
218	0x3f1ee76c	0.6207187
219	0x3f06f123	0.52711695
220	0x3f48065e	0.78134716
221	0x3ed9aa21	0.4251261
222	0x3f286d26	0.6579155
223	0x3ed324c6	0.41238993
224	0x3f158959	0.584127
225	0x3f1c2b02	0.61003125
226	0x3f2590b2	0.6467391
227	0x3f330bc2	0.69939816
228	0x3f4eaf3e	0.8073615
229	0x3eb1e60d	0.34745827
230	0x3f3aa22d	0.7290371
231	0x3eccc682	0.399952
232	0x3f322b68	0.6959748
233	0x3f4e30e0	0.8054333
234	0x3f0a70df	0.5407848
235	0x3f37c30d	0.71782
236	0x3f3cd43e	0.73761356
237	0x3f39fabc	0.72648215
238	0x3f29ddfb	0.6635434
239	0x3f58e826	0.8472923
240	0x3f34fe37	0.707004
241	0x3f2ed62e	0.6829556
242	0x3f3b1b6b	0.7308871
243	0xbeb39320	-0.35073185
244	0x3ebafbc0	0.36520195
245	0x3f50c82e	0.8155545
246	0x3f42b98c	0.7606437
247	0x3ec27404	0.37979138
248	0x3f3044cf	0.68854994
249	0x3f0fca26	0.5616783
250	0x3f1f18fd	0.62147504
251	0x3f2e6336	0.68120134
252	0x3f2f0b45	0.6837657
253	0x3f2af001	0.66772467
254	0x3e31c67c	0.17360872
255	0x3f21dce7	0.63227695

bias f4 [64]
0	0x3f20727f	0.6267471
1	0x3e90fdf6	0.28318757
2	0x3eb1b6cc	0.34709775
3	0x3e96b001	0.29431155
4	0x3ea386b5	0.3193871
5	0x3eb35218	0.3502357
6	0x3e96b008	0.29431176
7	0x3f1a2ab3	0.60221404
8	0x3e8efb9e	0.27926344
9	0x3da65243	0.08121159
10	0x3e8fce86	0.28087252
11	0x3e8e6867	0.27814028
12	0x3e90f9a0	0.2831545
13	0x3e86483e	0.2622699
14	0x3d71ed12	0.05906398
15	0x3e9ff0eb	0.31238493
16	0x3eadaac4	0.33919346
17	0x3e92230d	0.28542367
18	0x3e9aea36	0.30256814
19	0x3ea0c751	0.31402066
20	0x3e9dfe92	0.30858284
21	0x3eb7969f	0.35857102
22	0x3e97d16f	0.29651973
23	0x3eabc4d4	0.33548605
24	0x3ea0bb1a	0.31392747
25	0x3e9aa1cf	0.30201575
26	0x3ea3c2c5	0.31984535
27	0xc0ff2e0b	-7.9743705
28	0xc0ff0fa6	-7.97066
29	0xbf55ae3c	-0.83468986
30	0x3e8c62de	0.2741918
31	0x3ea10f57	0.31457016
32	0x3ea5348f	0.32266662
33	0x3ea10f62	0.3145705
34	0x3ebeb552	0.3724771
35	0xc0fd6fce	-7.919898
36	0xc0f9809a	-7.7969484
37	0x3eaa6814	0.3328253
38	0x3e89c883	0.2691079
39	0x3eaaef03	0.33385476
40	0x3e9c99be	0.30586046
41	0x3e87bef1	0.26512864
42	0x3eb52f09	0.35387447
43	0x3eb5aeb9	0.35484865
44	0x3e842dac	0.25816095
45	0xbb155d66	-0.0022791266
46	0x3e906b28	0.28206754
47	0x3eaa22ff	0.33229825
48	0x3ea1e42c	0.31619394
49	0x3da7b8fb	0.08189579
50	0x3e9ae950	0.30256128
51	0x3e97d1b7	0.29652187
52	0x3eac9031	0.3370376
53	0x3ea90bc3	0.33016786
54	0x3d92998a	0.071581915
55	0x3e986244	0.2976247
56	0x3f1723fc	0.5903928
57	0x3ea6945e	0.3253507
58	0x3eac5019	0.3365486
59	0x3e9ed45d	0.31021395
60	0x3ea6945d	0.32535067
61	0x3e9a9128	0.3018887
62	0x3e98aa6e	0.29817528
63	0x3f1d7b88	0.6151662
