pth/takada_model_130.pth (torch, 859042 bytes, 6 tensors)

weight f4 [512, 128]
0	0xbe878eaa	-0.26476032
1	0xbb591737	-0.003312541
2	0xbf0ad15e	-0.5422572
3	0x3d7927f8	0.060829133
4	0x3ed7949e	0.42105573
5	0x3e010530	0.12599635
6	0xbeb11044	-0.34582722
7	0xbf25ae69	-0.64719254
8	0xbec9e751	-0.39434293
9	0x3ec479c8	0.38374162
10	0xbea73acb	-0.32662043
11	0x3ec894e1	0.39176086
12	0xbec43aa3	-0.38325986
13	0x3de48a53	0.11159196
14	0xbed33342	-0.41250044
15	0xbef85ff0	-0.48510695
16	0x3f01674d	0.5054825
17	0x3e79c917	0.24393116
18	0x3cdd7006	0.027030956
19	0xbe89f34c	-0.26943433
20	0x3e4bb44e	0.19893
21	0xbe87ee88	-0.26549172
22	0x3e1abf69	0.1511208
23	0xbe4a94da	-0.19783345
24	0xbc1c446d	-0.009537798
25	0x3cc5b635	0.024134735
26	0x3c566f85	0.013088112
27	0xbd932445	-0.07184652
28	0xbe07ade4	-0.13249928
29	0x3e45e738	0.19326484
30	0xbe305dd4	-0.17223293
31	0x3e382f7c	0.17986864
32	0xbef4a597	-0.47782585
33	0xbe43c4ff	-0.19118117
34	0xbe87aae4	-0.26497567
35	0xbe1c8684	-0.15285689
36	0x3e45493b	0.19266216
37	0x3de623b8	0.112372816
38	0x3e997811	0.29974416
39	0x3e94a098	0.29028773
40	0xbec5c0f2	-0.38623768
41	0x3e9119bc	0.28339946
42	0xbcecb028	-0.028892592
43	0xbd14bb50	-0.036311448
44	0x3d0370f6	0.03209015
45	0x3c26a396	0.010170838
46	0xbd9e13d7	-0.07718628
47	0x3f1b6326	0.60698164
48	0x3ee60f77	0.44933674
49	0x3e070801	0.13186647
50	0xbe626aeb	-0.22111098
51	0x3d79fd26	0.061032437
52	0x3e55a1d3	0.20862512
53	0x3e018a9e	0.12650535
54	0x3ea7f8d7	0.32807037
55	0xbe747223	-0.23871665
56	0xbe8c4e95	-0.27403703
57	0x3e92e486	0.28689975
58	0x3e176aad	0.14786787
59	0x3e8583be	0.26077074
60	0xbeca1c24	-0.39474595
61	0xbe55084a	-0.20803943
62	0xbed2bff7	-0.41162083
63	0x3f1429a9	0.5787607
64	0xbe2120ac	-0.1573512
65	0xbe39b285	-0.18134506
66	0x3ea66bf0	0.32504225
67	0x3eaf1090	0.34192324
68	0xbedcb7f5	-0.43109098
69	0xbe348592	-0.17629078
70	0xbda489d0	-0.08034098
71	0xbdd6b2f9	-0.10483355
72	0x3e3f29f9	0.18668355
73	0xbe9d7904	-0.3075639
74	0xbe4c2312	-0.19935253
75	0x3d4a5ca9	0.049404774
76	0xbd1186dd	-0.035529006
77	0x3e9f3e26	0.31102103
78	0x3f28d8f2	0.6595603
79	0xbf13ec16	-0.57782114
80	0x3e432e18	0.19060552
81	0x3dee0af8	0.11623186
82	0x3d70163a	0.058614947
83	0xbeb2c572	-0.34916264
84	0x3d9926bb	0.074780904
85	0xbeb8baa6	-0.360799
86	0x3eb08301	0.34474948
87	0xbe625c8e	-0.2210562
88	0xbda06e9b	-0.07833596
89	0x3e8abe1a	0.2709816
90	0x3e4c9b70	0.1998117
91	0xbba18c1e	-0.0049300333
92	0x3cde220b	0.027115842
93	0x3e863f33	0.26220092
94	0x3dad0e39	0.084499784
95	0xbd0c483b	-0.03424857
96	0x3dd96220	0.10614419
97	0x3e724bba	0.236617
98	0xbea7c6e6	-0.32768935
99	0x3c886479	0.016649472
100	0xbe3554d7	-0.17708145
101	0x3b51cc1d	0.003201253
102	0x3e4d1db6	0.20030865
103	0xbe096336	-0.13416752
104	0xbc9c3b84	-0.019071348
105	0xbe23f5ac	-0.16011685
106	0xbe483992	-0.19553211
107	0x3ea6c3f5	0.32571378
108	0xbdb60daf	-0.08889329
109	0xbe82e48e	-0.25564998
110	0xbe825cfc	-0.25461566
111	0x3e84726e	0.25868553
112	0x3e7c4b6f	0.2463815
113	0x3f08b9ce	0.53408515
114	0xbd980fe1	-0.07424904
115	0x3ea8930b	0.32924685
116	0x3da5dce9	0.08098776
117	0x3cb7f86c	0.022457324
118	0x3f23c732	0.6397582
119	0xbf484c88	-0.7824178
120	0x3e62b286	0.22138414
121	0x3d3a3baf	0.045467075
122	0x3dbb261d	0.09138129
123	0xbe3298ea	-0.17441145
124	0xbf0abdf1	-0.5419608
125	0xbcd7f13f	-0.026360152
126	0xbf1e0f92	-0.6174251
127	0x3dd15982	0.102221504
128	0x3fa0dd11	1.2567464
129	0x3ce259c8	0.027630702
130	0x3f30354a	0.6883131
131	0x3e80f6a6	0.25188178
132	0x3e8508a7	0.25983164
133	0xbe0e4f5b	-0.13897459
134	0xbeeab29c	-0.45839393
135	0xbf376375	-0.71636134
136	0xbe5433e1	-0.20722915
137	0xbf02608d	-0.50928575
138	0x3e824801	0.2544556
139	0x3cfcdb2b	0.030866226
140	0xbefbdd66	-0.4919235
141	0xbea16eda	-0.31529886
142	0x3da57fdf	0.0808103
143	0xbdf30ac4	-0.11867288
144	0x3ecad510	0.3961568
145	0xbf0c1def	-0.54733175
146	0xbef99e7d	-0.4875373
147	0xbe3fdde9	-0.18736996
148	0x3d83910d	0.064241506
149	0x3ea9d299	0.33168486
150	0x3efeff3d	0.49804106
151	0x3e68ae95	0.22722848
152	0xbe940770	-0.28911924
153	0xbf0b9fed	-0.545409
154	0xbd66700e	-0.056259207
155	0xbe0f7d9b	-0.14012758
156	0x3dd3dfa2	0.10345389
157	0xbdfe2128	-0.12408668
158	0xbe281807	-0.16415416
159	0x3ebffbe1	0.37496856
160	0xbe157276	-0.14594445
161	0x3f08581b	0.5325944
162	0xbc389842	-0.01126677
163	0x3e3154f1	0.17317559
164	0x3e3a09ca	0.18167797
165	0x3ca53239	0.02016555
166	0x3ef85e9d	0.48509684
167	0x3f2885a3	0.65828913
168	0xbe80fc80	-0.25192642
169	0xbd9b857b	-0.07593819
170	0xbf16108f	-0.58619016
171	0x3e9da6c3	0.30791292
172	0x3d5083f7	0.0509071
173	0x3ea60e45	0.32432762
174	0xbe0601ec	-0.1308667
175	0xbf0349cf	-0.512845
176	0x3e8d04d5	0.2754275
177	0x3e79c935	0.2439316
178	0xbf115eea	-0.5678545
179	0x3e509367	0.2036873
180	0x3e4608bb	0.19339268
181	0x3ebbcba6	0.3667881
182	0x3e59a163	0.2125297
183	0xbeab0e24	-0.33409226
184	0x3f802758	1.0012007
185	0xbeae9b85	-0.34103027
186	0x3eef7094	0.46765578
187	0xbeb4a82b	-0.35284552
188	0x3e89224f	0.26783988
189	0xbeb30bb0	-0.34969854
190	0xbe49988f	-0.19687103
191	0x3d600d47	0.054700162
192	0x3f1b7826	0.60730207
193	0xbd61fec3	-0.0551746
194	0xbea1878e	-0.31548733
195	0xbe769bb4	-0.24082834
196	0xbd9edc25	-0.07756833
197	0xbec3f75e	-0.38274664
198	0xbc20bdad	-0.009810847
199	0x3da7c0b7	0.08191054
200	0xbf914d0f	-1.1351641
201	0xbec151ea	-0.37757808
202	0xbedf2a05	-0.43586746
203	0xbd21199b	-0.03933106
204	0x3e6a3b45	0.22874172
205	0xbf17a4dc	-0.5923593
206	0xbf1cd641	-0.61264426
207	0xbedc9bdc	-0.4308766
208	0x3e8bc67f	0.27299878
209	0xbe2941ed	-0.16529055
210	0xbdc96e54	-0.098354965
211	0xbec2811c	-0.37989128
212	0xbe325b26	-0.17417583
213	0x3eaeb703	0.34124002
214	0x3e492245	0.19641979
215	0x3e5f5db7	0.21813093
216	0xbe90fe51	-0.28319028
217	0xbe864871	-0.26227143
218	0x3e8c114f	0.27356955
219	0x3e4388ac	0.19095105
220	0x3e071d99	0.13194884
221	0xbde67266	-0.112522885
222	0xbcc9cf5f	-0.024635015
223	0xbe0aef5f	-0.13567875
224	0x3d791590	0.06081158
225	0x3dd7615a	0.10516615
226	0x3f43d784	0.76500726
227	0x3d7913cb	0.06080989
228	0xbd74d667	-0.059774783
229	0xbd5d538e	-0.054034762
230	0x3ee4b863	0.44671926
231	0xbea5b6d2	-0.32366043
232	0xbeb806a9	-0.3594258
233	0x3e82aa57	0.25520584
234	0xbf0fb711	-0.5613871
235	0x3da154fc	0.078775376
236	0x3e2ada2f	0.16684793
237	0x3d2a1b97	0.041530218
238	0x3e8ee954	0.2791239
239	0xbf2e522b	-0.6809413
240	0xbe8583ac	-0.2607702
241	0xbe23e0f9	-0.16003789
242	0xbd80659d	-0.06269381
243	0x3e8637fb	0.26214585
244	0xbec83648	-0.39103913
245	0x3ef1c5ae	0.4722113
246	0x3efc5018	0.49279857
247	0xbe891e5a	-0.2678097
248	0x3e18142e	0.14851448
249	0x3f2ae10c	0.66749644
250	0x3d9957cd	0.0748745
251	0xbc3209a3	-0.010866555
252	0xbee715f0	-0.45133924
253	0x3eaf7d46	0.34275264
254	0xbeb83383	-0.359768
255	0x3eac7625	0.33683887

bias f4 [512]
0	0xbd96e41b	-0.073677264
1	0x3e18332f	0.14863275
2	0xbd9dcf06	-0.07705502
3	0x3ccc25ba	0.024920333
4	0xbe1c7e1d	-0.15282483
5	0x3d94f3e1	0.07273079
6	0x3da95ef4	0.08270064
7	0x3d8ade8e	0.0678073
8	0x3c27da10	0.010244861
9	0x3d59211b	0.053010087
10	0xbc5acb8d	-0.013354194
11	0x3d01944c	0.031635568
12	0xbd91c991	-0.07118524
13	0xbad3149b	-0.0016104163
14	0x3c9ebab6	0.01937614
15	0x3d3c12b9	0.045916293
16	0x3cc0cc6d	0.023534978
17	0xbd9f5bcf	-0.07781183
18	0x3d4b379e	0.049613588
19	0xbc0e3f49	-0.008682081
20	0x3e21b9a8	0.15793478
21	0x3e23380f	0.15939353
22	0xbded1b71	-0.115775
23	0x3db8115f	0.08987688
24	0x3e29e963	0.16592936
25	0x3d8e80a1	0.06958128
26	0xbd853256	-0.065037414
27	0xbd73a162	-0.05948008
28	0x3e2c4a2b	0.16825168
29	0xbdd0f44b	-0.10202845
30	0xbdc3c9b4	-0.09559956
31	0xbd1fb666	-0.038992308
32	0x3dfbdac7	0.12297588
33	0x3d9aba0c	0.07555017
34	0xbcc389ca	-0.023869414
35	0x3d935ab6	0.07195036
36	0xbd520fd7	-0.051284637
37	0xbd24412d	-0.04010122
38	0xbd938af0	-0.072042346
39	0x3d827092	0.06369127
40	0x3da3bf19	0.07995433
41	0x3d705b6b	0.058680933
42	0x3d84fa3f	0.06493043
43	0xbd8fd6d9	-0.07023401
44	0x3d9f0010	0.07763684
45	0x3d488b81	0.048961166
46	0x3cfe207e	0.031021353
47	0xbd2c873c	-0.042121157
48	0xbcc3b03f	-0.023887752
49	0x3dbf84ca	0.093514994
50	0xbd0ae328	-0.03390804
51	0xbe1040d3	-0.14087228
52	0x3c3b668d	0.011438024
53	0xbc947314	-0.01812128
54	0xbe0f79dd	-0.14011331
55	0x3d5231e2	0.051317103
56	0x3df80e27	0.12112074
57	0xbd958ce0	-0.073022604
58	0xbc5ad0f1	-0.01335548
59	0xbd7da26f	-0.061922487
60	0x3de485d1	0.11158336
61	0x3e253ee2	0.16137269
62	0x3d6ccdb4	0.05781336
63	0xbdebf8be	-0.11522053
64	0xbe023fe7	-0.1271969
65	0x3cd66f30	0.026176065
66	0xbcd1f24f	-0.025628237
67	0xbd6c1937	-0.057641234
68	0x3e16c334	0.14722902
69	0x3d1e13b6	0.038593017
70	0xbbea791d	-0.007155551
71	0xbdc1c24d	-0.09460888
72	0xbc8acb42	-0.016942624
73	0xbaf29ee8	-0.0018510493
74	0xbd13b2b5	-0.0360591
75	0x3d8b3a61	0.06798244
76	0x3db30b33	0.087423705
77	0x3d6c3cb0	0.057675064
78	0x3d58f2dd	0.052965987
79	0x3da5a661	0.08088375
80	0x3d283be9	0.04107276
81	0xbc5de6c5	-0.013543789
82	0x3d514878	0.051094502
83	0xbdfc2b73	-0.12312975
84	0x3e05d066	0.13067779
85	0x3be1a8a8	0.0068865605
86	0xbe676922	-0.22598699
87	0x3e27fe60	0.1640563
88	0xbd9df4d7	-0.07712715
89	0xbd34ddab	-0.04415671
90	0x3e1e96f4	0.15487272
91	0x3dbba318	0.09161967
92	0xbdf5d2ef	-0.12003123
93	0xbcb8d6df	-0.022563396
94	0x3cfa1425	0.030527184
95	0xbcc2b9a4	-0.023770161
96	0xbdd5f617	-0.104473285
97	0x3da5841a	0.08081837
98	0xbdb40ddd	-0.08791707
99	0xbdbcf0ea	-0.09225638
100	0xbdeb9b7c	-0.11504266
101	0x3d89f79f	0.06736683
102	0x3d03e209	0.032197986
103	0x3b8a865c	0.0042274427
104	0x3e03d934	0.12875825
105	0x3de44352	0.11145653
106	0x3c6c178e	0.014409913
107	0xbe50c1f1	-0.20386483
108	0x3e0894d5	0.13338025
109	0xbe493191	-0.19647814
110	0x3d93d01d	0.07217429
111	0x3d0a62a0	0.033785462
112	0x3d3ab6c3	0.04558445
113	0xbd597e0e	-0.05309873
114	0x3d72636a	0.05917684
115	0xbd16ea27	-0.0368444
116	0xbd97352e	-0.0738319
117	0x3cf37d16	0.029722732
118	0x3dff0215	0.12451569
119	0xbdd9a9d3	-0.106280945
120	0x3ce74bca	0.028234381
121	0x3dc62678	0.09675306
122	0xbe1f4fd8	-0.15557802
123	0xbd548efc	-0.051894173
124	0xbda855e8	-0.0821951
125	0xbc85a260	-0.016312778
126	0x3da7edc2	0.081996456
127	0x3d492778	0.049109906
128	0x3b7dcda8	0.0038727317
129	0xbd8280bb	-0.0637221
130	0x3df04ba3	0.117331766
131	0xbcab240e	-0.020891216
132	0x3dd2b3d8	0.10288209
133	0x3d91e5ba	0.07123895
134	0xbdc23971	-0.09483612
135	0x3d41e868	0.04734078
136	0xbd8c344a	-0.06845911
137	0x3d9cb28f	0.07651245
138	0x3e00da78	0.12583339
139	0xbdaa2989	-0.083087035
140	0x3bee1116	0.0072652204
141	0x3e1be77c	0.15225023
142	0x3e04c844	0.1296702
143	0xbde37896	-0.11106984
144	0x3d681503	0.056660663
145	0x3d789e89	0.060698066
146	0x3de2ebad	0.11080108
147	0x3d2f0a42	0.042734392
148	0xbdb68ac4	-0.08913186
149	0xbdaff273	-0.085911654
150	0x3d86de27	0.06585341
151	0x3d4a8060	0.049438834
152	0xbd95e207	-0.07318502
153	0x3dc9dbfc	0.09856412
154	0x3da1404d	0.078735925
155	0xbe2647ea	-0.1623837
156	0x3d2ff9b8	0.04296276
157	0xbde9f3d7	-0.11423462
158	0xbca52664	-0.020159908
159	0xbd1b1779	-0.037864182
160	0x3dad5c2a	0.084648445
161	0x3d633b88	0.055476695
162	0xbd037377	-0.032092538
163	0x3c641f30	0.013923451
164	0x3d729700	0.059226036
165	0x3db05477	0.086098604
166	0x3bf4c9e2	0.0074703554
167	0x3da415fd	0.080120064
168	0x3d31882e	0.04334276
169	0x3ddbfdb5	0.1074175
170	0x3e25e31a	0.16199914
171	0xbd1d50c4	-0.038407102
172	0xbbaca4d3	-0.005268672
173	0xbbecd122	-0.007227079
174	0xbcb57a99	-0.022153186
175	0x3da64a57	0.08119648
176	0xbe1ed41b	-0.155106
177	0x3e4478d1	0.19186713
178	0xbdcac8bd	-0.09901569
179	0x3dd19dc5	0.1023517
180	0xbd5df188	-0.05418542
181	0x3d8bb552	0.068216935
182	0x3d9e6905	0.07734875
183	0x3e2561f0	0.16150641
184	0xbd1c6fd2	-0.038192578
185	0xbe04c6fb	-0.1296653
186	0x3dd471a0	0.10373235
187	0x3dd329f7	0.103107385
188	0x3cc68a8d	0.024235988
189	0x3ccf2aed	0.025289023
190	0x3e0d459f	0.1379609
191	0x3e64da32	0.2234886
192	0xbd671d95	-0.056424696
193	0xbd4e23cc	-0.050327107
194	0x3e312a03	0.17301182
195	0x3d90ccf8	0.07070345
196	0xbb69dc7f	-0.0035684404
197	0xbd9aab05	-0.07552151
198	0x3deeb187	0.116549544
199	0x3e0d43f6	0.13795456
200	0xbdbdb5fb	-0.09263226
201	0xbbbc9263	-0.0057547553
202	0xbe091edc	-0.13390678
203	0xbd67841f	-0.056522485
204	0xbc184aed	-0.009295207
205	0x3cb4ff6d	0.022094453
206	0x3c6dac1a	0.014506364
207	0xbc602aab	-0.013682048
208	0xbd44f5c1	-0.04808593
209	0x3d34360a	0.04399685
210	0xbd27b004	-0.040939346
211	0xbd1be6c9	-0.03806189
212	0xbc2b7ac0	-0.010466278
213	0x3e0cecb6	0.13762173
214	0xbc1f36e5	-0.009717678
215	0x3cfd19d8	0.030896112
216	0xbc54e72d	-0.01299457
217	0xbd447c23	-0.04796995
218	0xbc726b69	-0.014796116
219	0x3c1fcfdf	0.00975415
220	0xbd241649	-0.040060315
221	0xbdf6a580	-0.12043285
222	0xbd5fca86	-0.0546365
223	0xbd54e847	-0.05197933
224	0x3cea26f3	0.028583026
225	0xbe07473f	-0.13210772
226	0x3d2e029f	0.04248297
227	0xbd78ac4c	-0.06071119
228	0x3da2ba15	0.079456486
229	0xbcd057ba	-0.025432456
230	0xbd6a12ca	-0.057146825
231	0xbd70cf83	-0.05879165
232	0x3d4be2bb	0.049776774
233	0x3c84329c	0.016137414
234	0xbe0ff350	-0.1405766
235	0xbdea2365	-0.11432532
236	0x3d6d01cc	0.05786304
237	0xbb82f08c	-0.0039959606
238	0x3d9ffa37	0.078113966
239	0xbd974bb7	-0.07387488
240	0xbc99607b	-0.018722763
241	0xbe0b6032	-0.13610914
242	0x3d90dd5d	0.07073472
243	0x3e0eecbe	0.13957497
244	0x3cda851c	0.0266748
245	0x3e12c0a2	0.14331296
246	0xbe273d5d	-0.16332002
247	0xbb052f0a	-0.0020322227
248	0x3d8023cd	0.062568285
249	0x3cd15f1d	0.025558049
250	0xbe1b53ee	-0.15168735
251	0x3df502ff	0.11963462
252	0x3d6ae41d	0.057346452
253	0xbd42c12e	-0.04754751
254	0x3d963616	0.07334535
255	0x3e000d5a	0.12505093

weight f4 [256, 512]
0	0x3e850cf0	0.25986433
1	0xbea66655	-0.32499948
2	0xbdf21532	-0.11820449
3	0xbea24480	-0.31692886
4	0x3e454d03	0.19267659
5	0x3ec6fda6	0.38865393
6	0x3e5ad0e8	0.21368754
7	0xbdeb9314	-0.11502662
8	0x3ded5180	0.115878105
9	0x3d0d1faa	0.034454025
10	0xbd9508be	-0.07277058
11	0x3dd4a003	0.10382082
12	0xbe014fa4	-0.12628037
13	0xbe5ec4b4	-0.21754724
14	0xbed92d39	-0.42417315
15	0xbf0f4cf6	-0.5597681
16	0xbcc5c729	-0.024142819
17	0xbdff9589	-0.124796934
18	0x3e210f37	0.1572846
19	0xbdf4e856	-0.11958377
20	0xbef3451d	-0.47513667
21	0xbefc80cd	-0.49317017
22	0xbb87d084	-0.00414473
23	0x3e947e5f	0.29002663
24	0x3cb3327e	0.021874662
25	0xbee6e280	-0.4509468
26	0xbe86af47	-0.263056
27	0x3ccb6860	0.024830043
28	0xbe72cc4c	-0.23710746
29	0xbdd77d1b	-0.10521909
30	0xbdccdf4f	-0.1000353
31	0xbe12e431	-0.1434486
32	0x3e40fc79	0.1884631
33	0x3ccf1fc8	0.02528371
34	0xbd0f222b	-0.034944694
35	0x3e4fb378	0.20283306
36	0x3e26ee89	0.16301931
37	0xbf136758	-0.57579565
38	0xbda6710a	-0.08127029
39	0xbe0b0ec4	-0.13579851
40	0x3d371b4e	0.044703774
41	0x3e507314	0.20356399
42	0xbe90c601	-0.28276065
43	0xbea99457	-0.33120987
44	0x3e0114c3	0.12605576
45	0x3c539182	0.01291311
46	0xbed0c1c2	-0.40772825
47	0x3dfdb789	0.12388522
48	0xbdc36b01	-0.09541894
49	0x3de9c1ee	0.11413942
50	0xbd7885ba	-0.060674407
51	0x3c968752	0.018375073
52	0xbd6862db	-0.0567349
53	0xbd9e58bb	-0.07731768
54	0xbdf51ce2	-0.119683996
55	0x3d993340	0.07480478
56	0x3d7fc6b2	0.06244535
57	0xbd0d32b3	-0.03447218
58	0xbde2003f	-0.11035203
59	0x3e86c035	0.26318517
60	0x3e39f89c	0.18161243
61	0xbd056452	-0.032566376
62	0x3e45a77f	0.19302176
63	0x3dad6ee2	0.08468415
64	0x3ea107bc	0.31451213
65	0x3cb5ee51	0.022208365
66	0xbdd300a1	-0.10302854
67	0x3e119479	0.14216794
68	0x3e86ed51	0.26352933
69	0xbe1503c5	-0.14552219
70	0x3d242146	0.040070795
71	0x3e025fa4	0.12731797
72	0xbd740199	-0.059571836
73	0x3c25694c	0.0100959055
74	0x3ecbe6bf	0.39824483
75	0x3bb3980a	0.005480771
76	0x3e10a0cb	0.14123838
77	0x3df57a14	0.11986175
78	0x3d17e16b	0.03708021
79	0x3e64a4f6	0.22328553
80	0xbd8cbc20	-0.068718195
81	0xbd82343f	-0.063576214
82	0x3d8b444a	0.068001345
83	0x3e6beb06	0.23038873
84	0xbd297448	-0.04137066
85	0xbccda0a6	-0.025101017
86	0xbf11a52a	-0.56892645
87	0xbeb201a0	-0.34766865
88	0xbe9c3c1e	-0.30514616
89	0x3b6e22aa	0.003633658
90	0x3f0e1ebf	0.55515665
91	0x3e2a7468	0.16645968
92	0xbe5e0745	-0.2168246
93	0x3dd98a09	0.10622031
94	0x3e9bc198	0.30421138
95	0xbca26734	-0.019824602
96	0x3e3e95b8	0.186118
97	0xbf6f9a75	-0.9359506
98	0x3e67e904	0.22647482
99	0xbd17f226	-0.037096165
100	0x3ed81676	0.42204636
101	0x3c71a45b	0.014748658
102	0xbcc8e20c	-0.02452185
103	0xbef23a84	-0.4731027
104	0xbe2a3f7d	-0.16625781
105	0xbd2e6470	-0.042576253
106	0x3dd45410	0.10367596
107	0x3e419165	0.1890312
108	0x3e4437d5	0.19161923
109	0xbe5ce93d	-0.21573348
110	0xbc014b4d	-0.007891488
111	0x3de167cd	0.110061266
112	0x3d931081	0.07180882
113	0xbd99a0cd	-0.075013734
114	0xbe24a855	-0.16079839
115	0xbe2c600c	-0.16833514
116	0xbdcc46a9	-0.09974415
117	0x3ddaf0a8	0.10690433
118	0xbe174b82	-0.14774898
119	0x3ea2b1f6	0.31776398
120	0x3d0df4ec	0.034657404
121	0x3d8a6356	0.06757228
122	0x3da9f34f	0.082983606
123	0x3dee72eb	0.116430126
124	0xbd89db2e	-0.06731258
125	0xbcb2d0d0	-0.021828085
126	0xbe5ef1f7	-0.2177199
127	0x3e255005	0.16143806
128	0xbd1b0b18	-0.037852377
129	0x3d8047ac	0.0626367
130	0x3f465bee	0.77484024
131	0x3c924b22	0.017858092
132	0xbd4c1f0b	-0.049834292
133	0xbd7acf8a	-0.06123308
134	0x3e055da1	0.13023998
135	0x3e9f4013	0.31103572
136	0x3d5b4047	0.053528097
137	0xbe93a0b1	-0.28833535
138	0xbd971123	-0.073763154
139	0x3d335bc1	0.043788675
140	0xbdbbb43b	-0.091652356
141	0xbebd0562	-0.3691817
142	0x3d17cbc0	0.037059546
143	0x3ef18103	0.4716874
144	0x3c24d1cc	0.010059785
145	0xbdb27171	-0.087130435
146	0x3e3126c4	0.17299944
147	0xbe0676d2	-0.13131264
148	0x3dc7a029	0.09747345
149	0x3d43aa8c	0.047770068
150	0x3eac9af2	0.33711964
151	0xbea6948f	-0.32535216
152	0x3dea2ab1	0.11433924
153	0xbd91dcd2	-0.07122196
154	0xbe56eb84	-0.2098828
155	0xbdfb4404	-0.12268832
156	0xbef0caed	-0.4702982
157	0x3cf43d5c	0.029814415
158	0xbe1bce86	-0.15215501
159	0xbe9383cf	-0.288115
160	0xbddbd269	-0.10733492
161	0xbe634476	-0.22194085
162	0xbde40571	-0.1113385
163	0x3e1a66fd	0.1507835
164	0x3e932d71	0.28745607
165	0x3e663edf	0.22484921
166	0x3e25f01d	0.16204877
167	0x3c06a761	0.008218617
168	0xbe8523a8	-0.26003766
169	0xbc25bc78	-0.010115735
170	0x3eba446b	0.36380324
171	0xbbd73b9a	-0.0065683844
172	0xbe125774	-0.14291173
173	0x3d147d3e	0.036252253
174	0xbe195fd8	-0.14977968
175	0xbcbf1add	-0.02332824
176	0xbe60e7a7	-0.21963368
177	0x3da6e340	0.08148813
178	0xbde9f800	-0.11424255
179	0x3e94399b	0.289502
180	0xbddf213c	-0.10895011
181	0x3e156219	0.14588203
182	0xbc96a4b8	-0.01838909
183	0x3df7f4ce	0.1210724
184	0x3d3c4e9a	0.045973398
185	0xbe0d09d0	-0.13773274
186	0xbddf1c2e	-0.10894047
187	0xbdb8c2f6	-0.09021561
188	0x3d3953f3	0.045246076
189	0xbd161188	-0.036637813
190	0xbe5ff8c9	-0.21872248
191	0xbcc14578	-0.023592696
192	0xbd5c8426	-0.053836964
193	0xbc85be59	-0.016326116
194	0x3d391f27	0.045195725
195	0x3ea3e3b2	0.32009655
196	0x3e9397cc	0.2882675
197	0x3d94cd0d	0.07265673
198	0xbdb86db2	-0.09005298
199	0x3e2ebbdc	0.1706385
200	0xbdf1d458	-0.118080795
201	0xbde16b7b	-0.110068284
202	0xbedd19e0	-0.43183804
203	0x3c438227	0.011932886
204	0xbd19675f	-0.037452098
205	0xbc2b3c22	-0.0104513485
206	0x3e011508	0.12605679
207	0x3e442f4b	0.19158666
208	0xbec45fc4	-0.38354313
209	0xbe8aa908	-0.27082086
210	0xbe04f9ed	-0.12985964
211	0xbd8052fa	-0.062658265
212	0xbe1e2b95	-0.15446313
213	0x3ded0afb	0.1157436
214	0x3dfaf564	0.12253836
215	0xbe16308b	-0.14666955
216	0xbdb7c413	-0.08972945
217	0xbddb1186	-0.10696702
218	0xbebedce8	-0.37277913
219	0x3e66a263	0.22522883
220	0xbdd5a39c	-0.10431597
221	0xbc87f2d5	-0.016595284
222	0x3dd703d4	0.10498777
223	0x3e6f37e2	0.23361161
224	0x3e4dfb78	0.20115459
225	0x3ed761f5	0.42066923
226	0x3e0e9a66	0.13926086
227	0xbe53baa1	-0.20676662
228	0x3dd244b3	0.102670096
229	0xbda64b13	-0.08119788
230	0x3ca3f86f	0.020015923
231	0xbe1912c8	-0.1494857
232	0x3de47312	0.111547604
233	0xbd8b1ad9	-0.0679223
234	0xbd453c62	-0.04815329
235	0xbdb5faa1	-0.08885694
236	0x3c09531d	0.008381632
237	0x3ef335df	0.47502038
238	0x3e0d75c9	0.13814463
239	0xbd9b1f48	-0.07574326
240	0xbd4daef9	-0.050215695
241	0x3e981294	0.29701674
242	0xbc95238a	-0.018205423
243	0x3ddf38a3	0.108994745
244	0x3e35ff73	0.17773227
245	0x3e87ff1e	0.26561826
246	0x3e85afdf	0.26110741
247	0x3de7695a	0.11299391
248	0x3e20faf3	0.1572073
249	0xbe4a8b09	-0.197796
250	0xbe12efef	-0.1434934
251	0x3e3bdc2d	0.18345709
252	0x3e862e1f	0.26207063
253	0xbe0991d8	-0.13434541
254	0x3e00cd7a	0.12578383
255	0x3dc12780	0.09431362

bias f4 [256]
0	0x3d8ab7a8	0.06773311
1	0x3d30c29f	0.043154355
2	0x3de7c1c6	0.11316256
3	0x3dc065aa	0.09394391
4	0x3ccd1e4e	0.025038864
5	0x3df7d24b	0.12100657
6	0x3d620b9d	0.055186857
7	0x3db4e447	0.08832603
8	0x3c04dee4	0.008109782
9	0xbc821fb5	-0.01588426
10	0x3d7e144e	0.062031083
11	0x3dd4f2cc	0.10397872
12	0xbe0c49a5	-0.13699968
13	0x3bb715d8	0.005587321
14	0xbd7247e0	-0.059150577
15	0x3cc07305	0.023492346
16	0x3da27aff	0.07933616
17	0xbc56024e	-0.013062073
18	0x3d6f16f5	0.058371503
19	0x3dc714f1	0.09720791
20	0x3d59b848	0.05315426
21	0x3d95f079	0.07321257
22	0x3e244223	0.16040854
23	0xbd2ccf5b	-0.042189937
24	0x3d380377	0.04492518
25	0x3d8de852	0.06929077
26	0x3d7a1ec1	0.061064485
27	0x3da15dca	0.07879217
28	0x3da22546	0.079172656
29	0x3db8e2ac	0.09027609
30	0x3d951a65	0.07280425
31	0x3de211af	0.11038529
32	0xbc39e15d	-0.011345235
33	0x3d899c38	0.067192495
34	0x3cd34307	0.025788797
35	0x3d454db3	0.048169803
36	0xbab71240	-0.0013967231
37	0x3d4dbe3e	0.050230257
38	0x3db23424	0.08701351
39	0x3dadfd8f	0.08495628
40	0x3d7b1e50	0.061308205
41	0xbdcdc651	-0.100475915
42	0x3bfdcc5c	0.007745309
43	0x3db432b6	0.08798735
44	0x3c87e862	0.016590301
45	0x3d9075bf	0.07053708
46	0xbb07ace1	-0.002070241
47	0x3de558dd	0.1119859
48	0xbd9d0bc3	-0.07668259
49	0x3d959b2f	0.073049895
50	0xbd129646	-0.035787843
51	0x3d2a9a89	0.041651282
52	0x3cd8ad20	0.02644974
53	0x3ddd25c5	0.107982196
54	0x3e0a6536	0.13515171
55	0x3c4593bb	0.0120591475
56	0x3dd0d8b5	0.101975836
57	0x3a4a7851	0.0007723617
58	0x3b071353	0.0020610883
59	0x3db2f80d	0.08738718
60	0x3d6fa872	0.05851025
61	0xbd093073	-0.03349347
62	0x3db02305	0.086004294
63	0x3d4b018d	0.049562026
64	0xba4c22c4	-0.0007787163
65	0x3c537a58	0.012907587
66	0xbcc48d0c	-0.023993038
67	0x3de1760d	0.110088445
68	0xbd8901d5	-0.066898026
69	0x3c8f1219	0.017464684
70	0xbd054c87	-0.032543685
71	0x3ddea0a0	0.108704805
72	0x3d3ca30d	0.046053935
73	0x3d812af5	0.063070215
74	0xbd0f470e	-0.034979872
75	0x3d1ee56d	0.038793016
76	0x3e05cc8d	0.13066311
77	0x3d2b454e	0.04181414
78	0x3d8d70ce	0.069062814
79	0x3dbd90ee	0.09256159
80	0x3d1fbb32	0.038996883
81	0x3e419a70	0.1890657
82	0x3db08192	0.086184636
83	0xbca46faf	-0.020072786
84	0x3da48de5	0.08034877
85	0x3ce65326	0.02811582
86	0xbdafcd72	-0.085841075
87	0x3d05225b	0.032503467
88	0xbd151138	-0.036393374
89	0x3d723d41	0.059140448
90	0x3d831a8d	0.064015485
91	0x3d7d86cb	0.061896127
92	0x3dcd61cb	0.10028418
93	0x3d81ba4e	0.06334363
94	0x3e023a06	0.12717447
95	0x3d9dc779	0.07704062
96	0x3d2cdaf9	0.042201016
97	0x3dd2f8f2	0.10301389
98	0x3d382be0	0.044963717
99	0x3de8974f	0.11356985
100	0x3ddad3e9	0.1068495
101	0x3e238a04	0.15970618
102	0x3ca0d8fe	0.01963472
103	0x3cf8acc3	0.030355817
104	0x3db9ef43	0.09078839
105	0x3c90cff3	0.017677283
106	0xbb883ed3	-0.00415788
107	0x3e69952c	0.22810811
108	0xbcf5d6bc	-0.03000962
109	0xbd2f39c8	-0.042779714
110	0x3d94183b	0.07231184
111	0x3d88fd37	0.06688922
112	0x3ca999d0	0.020703226
113	0x3bec0c86	0.0072036413
114	0x3d7fb367	0.06242695
115	0x3db9eebc	0.09078738
116	0xb9cab8cc	-0.00038666127
117	0x3dd7e850	0.10542357
118	0x3d032507	0.032017734
119	0x3d80d4aa	0.062905625
120	0x3dae1554	0.08500162
121	0x3cffbb4e	0.031217244
122	0x3db486c2	0.088147655
123	0x3dcf6f75	0.101286806
124	0x3d1e7bae	0.03869217
125	0x3d353b1f	0.044245835
126	0x3bc55028	0.0060215183
127	0x3d056e31	0.03257579
128	0x3dacdc00	0.08440399
129	0x3d1a4e92	0.037672587
130	0x3ca39093	0.0199664
131	0x3e12278e	0.14272901
132	0x3d419a2a	0.047266163
133	0x3cb752fb	0.022378435
134	0xbca487a4	-0.02008421
135	0xbd2df42c	-0.04246919
136	0x3cfa3bf8	0.030546173
137	0x3da757e4	0.08171061
138	0x3df84819	0.121231265
139	0x3d4745fc	0.048650727
140	0x3d813f11	0.06310857
141	0x3d5b3bb3	0.05352373
142	0x3dfe4581	0.124156006
143	0x3db942fd	0.0904598
144	0x3cbeee3d	0.02330696
145	0x3d75629e	0.0599085
146	0xbcded25d	-0.027199918
147	0x3dd0acce	0.1018921
148	0x3de5d1cb	0.112216555
149	0x3d9b70b0	0.07589853
150	0x3d8ffe04	0.070308715
151	0x3cb130bf	0.02162969
152	0x3df45c10	0.11931622
153	0x3defd5e4	0.11710718
154	0x3d113248	0.035448343
155	0xbce979a3	-0.028500384
156	0x3dd179d4	0.10228315
157	0x3d1e7dbe	0.038694136
158	0x3d9af874	0.0756692
159	0x3d7615ee	0.060079508
160	0x3d5262bb	0.051363688
161	0x3d0f6d33	0.03501625
162	0x3db7e1d6	0.08978622
163	0x3d523566	0.051320456
164	0xbd71a15b	-0.05899177
165	0xbbcfb5bb	-0.0063388026
166	0xbc0ffcd3	-0.008788305
167	0x3ce35fba	0.027755607
168	0x3cc66800	0.024219513
169	0x3d5520e5	0.052033324
170	0x3db78d36	0.08962481
171	0xbcbea642	-0.023272637
172	0x3cd60e16	0.026129764
173	0x3d6377e6	0.055534266
174	0x3cfc5194	0.030800618
175	0x3da7f539	0.082010694
176	0x3dcde2f0	0.100530505
177	0x3da04831	0.078262694
178	0xbd00c96c	-0.03144209
179	0xbd0cdb38	-0.03438875
180	0x3d898e90	0.06716645
181	0x3df77117	0.12082117
182	0x3da2dbeb	0.07952102
183	0x3d80b99d	0.06285403
184	0x3dfbd77c	0.1229696
185	0x3cc8b6bb	0.024501195
186	0x3d465ed9	0.048430298
187	0xbe894609	-0.26811245
188	0x3d9bc4ea	0.07605918
189	0x3da0cedf	0.078519575
190	0x3df89322	0.12137438
191	0x3d0a8895	0.03382166
192	0x3dd302f7	0.103033
193	0x3daafeef	0.08349406
194	0x3de511e7	0.11185055
195	0x3d75cc43	0.060009252
196	0x3a088453	0.0005207706
197	0x3d1a856d	0.0377249
198	0x3dba4df4	0.090969
199	0x3da75e5a	0.08172293
200	0x3c7325c6	0.014840549
201	0x3da75cd3	0.08172002
202	0x3d8bab51	0.068197854
203	0x3d522f29	0.051314507
204	0x3de589be	0.11207913
205	0x3dd108fa	0.1020679
206	0x3cc182bd	0.023621911
207	0xbdbaaa46	-0.09114508
208	0x3cbbac34	0.022909261
209	0x3e3b5e56	0.18297705
210	0x3d31528f	0.043291625
211	0x3e03f793	0.12887411
212	0x3debbcec	0.11510643
213	0x3e1284bd	0.14308448
214	0x3d1d2682	0.038366802
215	0x3dc8f466	0.0981224
216	0x3db227d6	0.08699004
217	0x3cf5d5f8	0.030009255
218	0x3da3b13f	0.079927914
219	0x3d845796	0.06462018
220	0x3b331375	0.002732483
221	0x3ddb5bcd	0.10710869
222	0x3c3fe1d7	0.011711559
223	0x3db50603	0.08839037
224	0x3deef48f	0.116677396
225	0x3d70dc40	0.058803797
226	0x3da318bc	0.07963702
227	0x3e0a1579	0.13484754
228	0x3da2e0db	0.07953044
229	0x3d68402f	0.056701835
230	0x3dff7610	0.124736905
231	0x3d7baeca	0.06144599
232	0x3dd46d73	0.10372438
233	0x3d2f3f5b	0.04278503
234	0x3cd36a5c	0.025807552
235	0x3d77431c	0.060366735
236	0x3d584c36	0.052807055
237	0xbcdb5bcf	-0.026777176
238	0x3dd5e804	0.10444644
239	0x3d92d8a7	0.071702294
240	0x3d9306da	0.07179041
241	0x3e19bdcf	0.15013812
242	0xbce2fed6	-0.027709406
243	0x3dc73607	0.09727102
244	0x3e126f71	0.14300324
245	0x3dc34868	0.09535295
246	0xbd3e568d	-0.04646926
247	0x3d4f4806	0.050605796
248	0x3da50f08	0.080595076
249	0x3d85e842	0.0653844
250	0x3dc54a01	0.09633256
251	0x3bea5663	0.0071514114
252	0x3dba9e2d	0.09112201
253	0x3bab359a	0.0052248957
254	0xbcb238df	-0.021755634
255	0x3dd91b91	0.10600961

weight f4 [64, 256]
0	0xbddd87ed	-0.108169414
1	0x3d6e783f	0.058220144
2	0x3da7c8b6	0.081925794
3	0x3c70df3c	0.014701661
4	0xbcc727a0	-0.024310887
5	0xbc15cf75	-0.0091437
6	0x3c7a2108	0.015266664
7	0xbd259591	-0.04042584
8	0xbdc6b0d2	-0.097016945
9	0xbd0f7446	-0.035022996
10	0x3d991d1f	0.074762575
11	0xbdfd447b	-0.12366577
12	0x3d5ecad2	0.054392643
13	0x3da6db11	0.08147252
14	0xbf86de0a	-1.0536511
15	0x3d3bcf9a	0.04585228
16	0x3e11cc82	0.1423817
17	0xbdeaaf41	-0.11459208
18	0x3dfe3940	0.12413263
19	0x3dc1f37b	0.09470268
20	0x3cc7af9e	0.024375733
21	0xbccea2b9	-0.025224077
22	0x3dee5d51	0.116388924
23	0x3de1a234	0.11017266
24	0xbd4ea177	-0.050446954
25	0x3da816d7	0.08207481
26	0x3e4fa854	0.20279056
27	0xbdd5fca2	-0.104485765
28	0x3d3f93ce	0.046771817
29	0xbe12fb74	-0.14353734
30	0xbcebf461	-0.028803052
31	0x3dc621cb	0.09674414
32	0xbe0adb8b	-0.13560311
33	0x3e7e19cc	0.24814528
34	0xbcdce8dc	-0.026966505
35	0x3d40afbf	0.047042605
36	0xbc17210e	-0.009224189
37	0x3dea412d	0.114382125
38	0xbd8cbc3e	-0.06871842
39	0xbd4236ce	-0.047415547
40	0xbc574112	-0.013138073
41	0xbe954f28	-0.29161954
42	0xbe9531b3	-0.2913948
43	0x3dac59fa	0.08415599
44	0xbda1213c	-0.07867667
45	0x3e06ebbe	0.13175866
46	0xbd555f2f	-0.052092727
47	0x3d9c82c9	0.07642133
48	0xbda5a801	-0.08088685
49	0x3c23225a	0.0099569205
50	0x3dc73087	0.09726053
51	0xbd4cfe7d	-0.050047386
52	0xbdcb4bfe	-0.09926604
53	0x3e392d66	0.18083724
54	0x3ddd9e5b	0.108212195
55	0x3d34892e	0.044076137
56	0xbd2a2317	-0.04153737
57	0x3db3e185	0.08783249
58	0xbd0d1753	-0.03444607
59	0x3c52cbdb	0.012865986
60	0xbe452933	-0.19253998
61	0x3d710cee	0.05885022
62	0x3dc9c52e	0.09852062
63	0xbdd7bb50	-0.10533774
64	0xbdd5dfb1	-0.104430564
65	0x3d98442e	0.07434879
66	0xbce4c695	-0.027926723
67	0xbe4c08a9	-0.19925179
68	0xbe968f8a	-0.29406387
69	0xbdddb2e9	-0.1082514
70	0x3d9a5beb	0.07537063
71	0x3e086895	0.13321145
72	0xbde32923	-0.110918306
73	0x3e36f924	0.17868477
74	0x3c91a7de	0.01778024
75	0xbca2476e	-0.019809451
76	0x3d0319de	0.03200709
77	0xbe2dfbff	-0.1699066
78	0x3bea59b1	0.0071518053
79	0x3cc6014c	0.02417054
80	0x3d88203d	0.06646774
81	0xbd80f013	-0.062957905
82	0x3d8218c2	0.063523784
83	0x3e3ec4d2	0.18629768
84	0x3c909a40	0.017651677
85	0x3d45b008	0.04826358
86	0xbc41ff45	-0.011840646
87	0xbe1a4345	-0.15064724
88	0xbea6176b	-0.32439741
89	0xbcd09cce	-0.025465395
90	0xbd484af5	-0.04889961
91	0xbed454f5	-0.41471067
92	0x3e645cec	0.22301072
93	0x3dcd2d48	0.10018402
94	0xbdd4babd	-0.1038718
95	0x3d7ef9b8	0.06224987
96	0x3d59513d	0.05305599
97	0x3c8780d5	0.016540924
98	0xbae9c220	-0.0017834343
99	0xbce84712	-0.028354201
100	0x3a8ca19c	0.0010729316
101	0xbdc39984	-0.09550765
102	0xbb8ab9ed	-0.00423359
103	0xbd531565	-0.051534075
104	0xbe717109	-0.23578276
105	0x3e116288	0.14197743
106	0x3df5f923	0.1201041
107	0x3c0f9bbb	0.008765156
108	0x3df00dad	0.117213584
109	0xbb5b0d4c	-0.0033424674
110	0xbe129a86	-0.14316759
111	0xbe2fbebf	-0.17162608
112	0x3e0d7111	0.13812663
113	0xbe2a8525	-0.16652353
114	0x3e257d5d	0.16161104
115	0xbe131a92	-0.14365605
116	0xbd1f1d13	-0.038846087
117	0x3e11873e	0.14211747
118	0xbca99b1c	-0.020703845
119	0xc02232e2	-2.5343556
120	0xbd97e5e1	-0.07416893
121	0xbc5244c5	-0.012833779
122	0x3cf47871	0.029842587
123	0x3e205eec	0.1566121
124	0x3dd36acd	0.10323105
125	0x3b317ae3	0.0027081303
126	0x3e47803c	0.19482511
127	0x3c390010	0.011291519
128	0xbb9134b9	-0.004431334
129	0x3d1c9c66	0.03823509
130	0xbe0bf020	-0.13665819
131	0x3db90553	0.09034219
132	0x3cd1b11f	0.025597153
133	0x3e0fe9fa	0.14054099
134	0x3d9dc1c4	0.077029735
135	0xbd2dd022	-0.04243482
136	0x3e40724a	0.18793598
137	0xbe0215aa	-0.12703577
138	0x3adc62bb	0.0016814092
139	0x3d7462f4	0.05966468
140	0xbc6df1d9	-0.014522993
141	0xbde8aea3	-0.11361434
142	0x3de68111	0.11255086
143	0xbe841d23	-0.2580348
144	0x3e90759c	0.2821473
145	0x3e219d23	0.15782599
146	0x3dc15baf	0.094413154
147	0xbb9527f6	-0.004551883
148	0x3db4fd94	0.08837429
149	0xbec41f4b	-0.38305125
150	0x3e17a890	0.14810395
151	0xbd5bfc34	-0.053707317
152	0x3d07e825	0.033180375
153	0x3cd17c55	0.025571981
154	0x3d0707c1	0.03296638
155	0x3d93d382	0.07218076
156	0x3d1e88e9	0.038704786
157	0x3e2b9002	0.16754153
158	0xbc09072f	-0.008363529
159	0x3d54a9a7	0.051919606
160	0x3e03aac2	0.12858108
161	0x3beb0255	0.007171909
162	0xbd4970e7	-0.049179938
163	0x3d71c642	0.059026964
164	0x3dfa21c2	0.1221347
165	0xbdd680b1	-0.10473765
166	0xbdd2c3ff	-0.102912895
167	0xbc032ac4	-0.008005802
168	0x3df87ffd	0.12133787
169	0xbd5fbdb5	-0.054624278
170	0xbc5c129a	-0.013432169
171	0xbc6aabbe	-0.014323173
172	0x3c09c6b6	0.008409193
173	0xbd3f74fc	-0.046742424
174	0x3e74c41c	0.23902935
175	0x3dfccca0	0.123437166
176	0xbdb8e516	-0.0902807
177	0xbeb1c48d	-0.3472027
178	0x3d27d657	0.040975895
179	0x3dc4bd81	0.096064575
180	0xbbbb3cbe	-0.005714028
181	0x3de47d97	0.11156767
182	0x3e0a9891	0.13534762
183	0x3ce90f71	0.028449746
184	0x3e49daac	0.19712323
185	0xbdf42e22	-0.11922862
186	0xbce365f9	-0.027758585
187	0x3e2d7434	0.16938859
188	0x3e27493e	0.16336533
189	0x3d644cd2	0.055737324
190	0xbd4711af	-0.04860085
191	0xbda560ab	-0.080750786
192	0x3d23048e	0.039799266
193	0x3e9d49ba	0.3072031
194	0x3de1b655	0.11021105
195	0x3dd52d00	0.10408974
196	0xbbf785fa	-0.007553813
197	0xbd839c8c	-0.06426343
198	0xbdc32998	-0.09529418
199	0xbe61f1cc	-0.22064894
200	0xbdf40a50	-0.119160295
201	0x3aad5e1e	0.0013226902
202	0x3cc14527	0.023592545
203	0x3cb146aa	0.02164014
204	0xbe8c8601	-0.27445987
205	0xbdfc1bf0	-0.12310016
206	0xbe83ea5a	-0.25764734
207	0xbd954cd9	-0.07290048
208	0x3e169d8b	0.14708535
209	0xbce1491c	-0.027500682
210	0x3d7b5442	0.06135965
211	0x3d22a966	0.039712332
212	0x3cef74af	0.029230444
213	0xbe077814	-0.132294
214	0xbd185051	-0.03718597
215	0x3dee37c5	0.11631731
216	0xbd6d2317	-0.057894792
217	0x3e4b4cf3	0.19853573
218	0x3e26adaf	0.16277193
219	0xbd1f89b2	-0.038949676
220	0x3e3ab90c	0.18234652
221	0xbd86716f	-0.065646045
222	0xbb171fd6	-0.0023059747
223	0xbdca6220	-0.09881997
224	0xbd621a7c	-0.05520104
225	0x3dd736e1	0.10508514
226	0x3d7e2b98	0.062053293
227	0x3d62deed	0.05538838
228	0x3e035b06	0.12827691
229	0x3cfdba9e	0.030972775
230	0xbea3f93d	-0.3202609
231	0x3e25d3c2	0.1619406
232	0x3a828454	0.000995765
233	0x3d563243	0.052294027
234	0xbd211d41	-0.03933454
235	0x3db2e506	0.08735089
236	0xbe177ed7	-0.1479448
237	0x3d119597	0.03554305
238	0xbdf80002	-0.121093765
239	0x3d667935	0.056267936
240	0xbd0e6fba	-0.03477452
241	0xbc6632c1	-0.014050187
242	0x3c21efbf	0.00988382
243	0x3c2d627d	0.0105825635
244	0x3c54a9d8	0.012979947
245	0x3dca6b39	0.09883732
246	0xbff90c8f	-1.9456958
247	0xbcd56964	-0.02605123
248	0xbb6c0db7	-0.0036018917
249	0x3e23361f	0.15938614
250	0xbdd340bb	-0.10315081
251	0x3c3603d5	0.011109312
252	0x3cc64ada	0.024205614
253	0x3d925be5	0.07146434
254	0xbe0bb867	-0.13644563
255	0xbd9925c7	-0.074779086

bias f4 [64]
0	0xbd3671d3	-0.044542145
1	0x3e4165e6	0.18886527
2	0x3ecc500b	0.39904818
3	0x3cd5fcfc	0.026121609
4	0xbef6d175	-0.48206678
5	0x3f015b13	0.50529593
6	0x3cff6072	0.031173918
7	0x3eb6af65	0.3568069
8	0xbf2ad592	-0.6673213
9	0x3e70daff	0.2352104
10	0xbe0199a2	-0.12656263
11	0xbe8e5500	-0.27799225
12	0x3e31b399	0.17353667
13	0xbe99e921	-0.30060676
14	0x3db2ec2e	0.08736454
15	0x3da5354b	0.080668055
16	0x3e0fc975	0.14041694
17	0xbe8d3b1a	-0.27584153
18	0x3e54457f	0.20729636
19	0x3db063e3	0.08612802
20	0xbb7fdfc5	-0.003904329
21	0x3c66e331	0.014092253
22	0x3d7b86d5	0.061407883
23	0x3bc52ed5	0.0060175457
24	0x3e0e4f7b	0.13897507
25	0xbc21c15c	-0.009872761
26	0xbe2d8798	-0.16946256
27	0xbd1fba8c	-0.038996264
28	0xbd1999d6	-0.037500225
29	0x3db512e7	0.08841496
30	0xbc87a61a	-0.016558696
31	0xbd6f1559	-0.058369968
32	0xbdec01ef	-0.11523806
33	0xbebed77f	-0.37273785
34	0xbdcb9fcb	-0.099425875
35	0x3cdaa60e	0.02669051
36	0xbb426212	-0.0029660505
37	0x3dd7e035	0.10540811
38	0x3ec62c01	0.38705447
39	0x3d64b874	0.05583997
40	0xbe283a5d	-0.16428514
41	0xbea5773f	-0.3231754
42	0x3dad708a	0.08468731
43	0xbdac3a6d	-0.08409581
44	0x3d5a3afc	0.053278908
45	0xbd5a54b4	-0.053303435
46	0xbf4817ce	-0.78161323
47	0xbe420409	-0.18946852
48	0xbe96af39	-0.2943056
49	0x3e07f3e9	0.13276638
50	0xbe9a192d	-0.30097333
51	0x3e7d559d	0.2473969
52	0xbe056466	-0.1302658
53	0x3d010c52	0.03150589
54	0xbdc2199f	-0.09477543
55	0x3eea486c	0.45758379
56	0x3d77ebb8	0.060527533
57	0x3f5435d2	0.82894623
58	0x3ee79072	0.4522739
59	0xbdaed62f	-0.08536946
60	0xbf1f13b3	-0.62139434
61	0xbe875b4c	-0.2643684
62	0x3f192ca7	0.5983376
63	0xbebe1dba	-0.37132055
