pth/takada_model_105.pth (torch, 464802 bytes, 6 tensors)

weight f4 [256, 128]
00000000: e914 8e3d 1929 e53e a0d4 003e 0362 6c3d
00000010: e2fa 8c3d ba14 5ebd 9753 d7be a41a 483d
00000020: 6bc4 8fbc 6fbe 1e3f f012 1c3e 11aa 243f
00000030: 5f30 5cbe 5b4f 573d 49a9 56bd ccd7 c0be
00000040: 31c7 f9be 1ca4 a23e 45c6 95be 10f4 523e
00000050: 1763 a03d d226 3dbe 127f e13c 1331 123e
00000060: cd16 943d 6adc e7be c380 0f3e c8db 813e
00000070: a23d 353e abce 863d 05a9 13be d40e 8e3e
00000080: a0c2 993e d46f 01bd b44c d8bd 366b 713d
00000090: 2083 123e 3e36 a43e 79c5 0c3d 6169 9bbd
000000a0: d162 3e3e 5473 d03d 12ac 9fbe df99 463e
000000b0: 5538 963d 5ff1 94be 1f71 b03e 2a0c 92ba
000000c0: 29f7 493f 2d1b 953b 5da0 98bd 0503 fa3e
000000d0: cdb5 06bd c5c3 d33e ad0d debe 0b13 463d
000000e0: 102f 2dbf f114 7fbe c639 10bf d7d1 aa3e
000000f0: 6276 17be a639 1dbe 94c9 803e eca7 aebe
00000100: 52d2 b83c da9d ce3e 74f2 3b3f c0f8 b13d
00000110: b682 08be 842f b33e 1e1a e1be ff87 bf3e
00000120: 586f bf3e af34 ecbd 8f86 d83b de4b bb3e
00000130: 0cb2 b8be 098d 63be a598 8ebe 09b1 75be
00000140: aaf2 19be b382 e73d 5e5c 7cbe 8f72 903e
00000150: 4b54 b63c a8c4 cdbe b974 c33d 9ef6 2dbe
00000160: 9cc7 c0bb fcc7 103d f0f0 4f3e 6e4c 5bbd
00000170: 2e26 1b3e 9784 8bbe 9d60 ea3d fa4c 8c3e
00000180: 84a6 8e3e 20d2 663d a470 57be 5f8b 293e
00000190: 7351 ed3d 5cb8 bd3e ef08 62be f452 0c3f
000001a0: 8d23 5dbe 8264 f1bd fa16 c3be 3a30 56be
000001b0: 9646 3e3e 21c3 78be 2f4e 733c bc82 5ebe
000001c0: 0d28 4e3e 9832 89be ae0e d23e da3d d43d
000001d0: e7b9 11be a702 67be 682f 083e 8a2a 21be
000001e0: b20d 183f 6f59 573e 1ea3 99bd 90b2 843e
000001f0: 8fb8 af3e 4cad b03d d503 d73d c5d7 89bf
00000200: 3439 85bf 377b 71bf b04c 6ebe 6afe e3be
00000210: 7a90 6dbe 17fb e53e 2f0e f1bd 7a65 023f
00000220: be00 cc3c 9ab0 b8bd 96ea 023e db43 4dbc
00000230: 904a dcbd 6850 36be 469a 9e3a e3a5 123f
00000240: 1bf3 b2bd 3ae9 a3bd aabd 563e 16ed c63d
00000250: 2cd2 063f 65a9 123c c14a 82be 5740 153e
00000260: 8091 d83e 0856 4d3c 0e57 f4bc 9bed 23be
00000270: 3d8f 923b fcd9 53bd 3214 babe 9726 783f
00000280: dbf0 8ebe 32c0 763d ebdc 93be def7 c1be
00000290: a832 babd e1e8 a4bd 1fe2 d1bc f0c5 f1be
000002a0: 08de 163f e5d7 e33e 291d f0be 1e02 9f3e
000002b0: 451b 9bbd 53b8 cfbe 0c0f 783e e30d c33d
000002c0: 0140 333d d6e0 013e 0ec7 b4be 141a 33bd
000002d0: 64cb 5bbe 9dea 09be acc1 973e 57de 183d
000002e0: b160 da3f 910d c2bd e17b a53e 5bbd 303e
000002f0: a128 86be db86 153f a9e6 4ebc f0cc e13e
00000300: be9d 87bf eba3 383f 8083 f4be e537 ddbe
00000310: 18fb 8fbe 0995 1f3f 12dd a73d 3852 c5bd
00000320: 1677 27bf 5b5e 29be 40e4 b53e a5d9 f63e
00000330: fe1e 5dbe 341d 983c 36e7 59be 6c5a 8b3f
00000340: 9151 023f 7937 3c3e dc77 ba3e 0b50 ba3e
00000350: 9b18 983d fd0f 4f3c 2e15 acbe 0e3e 563c
00000360: c9fe ba3e 7512 7abe bf0d 613e c3ee 1cbd
00000370: 9f4b a3bd e646 a4be 97d1 643e 4a29 56bd
00000380: 125d 3cbf 95d6 7f3e da26 06bd feb8 023e
00000390: fd24 18be 54dd 9dbe dedb 853e d670 8dbe
000003a0: 7d96 783e e885 d5bd 613d 25bc 0dbd e33d
000003b0: 372e 8bbd 0e1f 9fbe b307 de3d 7e42 dfbd
000003c0: f3a1 1cbe edc5 33bf 1dbc abbe abcb 34bd
000003d0: c3df 843e c6e8 c3be 304c 6dbd 48bd 2d3f
000003e0: 8bd6 7b3f 9a7d 9c3f 8d8c 60be eed6 983e
000003f0: a7cf 19bf 607b 433d 60ab ddbe 1aec c13b
0.06937582 0.44757918 0.1258111 0.05771066 0.068837896 -0.054218985 -0.4205596 0.04885353
-0.017549714 0.6200933 0.15241599 0.64322 -0.21502827 0.052565914 -0.052407537 -0.3766464
-0.48784783 0.3176583 -0.2925283 0.20600915 0.078314 -0.1847184 0.027526412 0.14276533
0.072309114 -0.4528535 0.14013962 0.25362992 0.17699292 0.065823875 -0.14419945 0.27745688
0.300313 -0.03160079 -0.10561505 0.058940135 0.14307833 0.32072634 0.034368012 -0.07588459
0.18592383 0.10178247 -0.31185967 0.19394635 0.07334963 -0.29090402 0.34461305 -0.0011142541
0.7889276 0.0045503587 -0.07452462 0.4883043 -0.032888222 0.41360298 -0.4336981 0.048358005
-0.67649937 -0.24910332 -0.56338155 0.3336322 -0.14791253 -0.15354022 0.25153792 -0.3411249
0.022561226 0.40354806 0.7341683 0.086900234 -0.13331112 0.3499719 -0.43965238 0.37408444
0.37389636 -0.11533486 0.0066078375 0.3658132 -0.3607334 -0.2222177 -0.27850834 -0.23993315
-0.15033975 0.11304226 -0.2464461 0.282124 0.02225699 -0.401891 0.095437475 -0.16988608
-0.0058831703 0.03534697 0.20306754 -0.053539686 0.15151283 -0.27249596 0.11444209 0.27402478
0.27861416 0.056352735 -0.21039063 0.16557072 0.11587801 0.37054718 -0.2207372 0.54814076
-0.21595593 -0.117867485 -0.38103467 -0.20916834 0.18581614 -0.24293186 0.014850183 -0.21729559
0.20132466 -0.26796412 0.41026825 0.1036336 -0.14231072 -0.22559606 0.13299334 -0.15738884
0.593959 0.2103021 -0.07501815 0.25917482 0.34320495 0.08626804 0.10498778 -1.0768973
-1.0408082 -0.94328636 -0.23271441 -0.4453004 -0.23199645 0.4491813 -0.117702834 0.5093609
0.024902698 -0.09018059 0.127848 -0.012528385 -0.10756409 -0.1780411 0.001210042 0.57284373
-0.08737775 -0.08003469 0.20970789 0.09713189 0.52664447 0.00895152 -0.25447658 0.14575325
0.42298508 0.0125327185 -0.029826667 -0.16008608 0.0044726417 -0.051721558 -0.36343533 0.96933883
-0.27918133 0.060241885 -0.28879485 -0.3788442 -0.09091693 -0.080522306 -0.025620518 -0.47221327
0.5893254 0.44500652 -0.46897247 0.31056303 -0.075735606 -0.40570316 0.2422449 0.09524133
0.04376221 0.12683424 -0.35308117 -0.043726042 -0.21464306 -0.13468404 0.29639947 0.037321415
1.7060758 -0.09475244 0.32321075 0.17259733 -0.26202872 0.584089 -0.012628236 0.44101667
-1.0595014 0.7212512 -0.47756577 -0.43206707 -0.28121257 0.62336785 0.08196463 -0.096348226
-0.65416086 -0.165399 0.35525703 0.48212925 -0.21593854 0.018568613 -0.21279606 1.088697
0.5090571 0.18380536 0.3641957 0.36389193 0.07426568 0.012638089 -0.3360991 0.013076318
0.3652251 -0.24421103 0.219779 -0.03831364 -0.07973408 -0.3208534 0.22345577 -0.05228547
-0.73579514 0.249842 -0.032751895 0.12765881 -0.1485786 -0.30832922 0.26144308 -0.2762515
0.24276157 -0.10425931 -0.010085435 0.11120043 -0.06795924 -0.3107838 0.10841312 -0.10901354
-0.15296154 -0.70223886 -0.33541957 -0.044139545 0.25951967 -0.3826353 -0.057933986 0.67866945
0.9837424 1.222583 -0.21928616 0.29851478 -0.6008248 0.04772508 -0.4329481 0.005918038

bias f4 [256]
00000000: ab6e 083e 22d6 efbd ed96 41be 97b0 9fbd
00000010: fa11 7e3d e7ef 92ba 8b62 933d badc 2ebe
00000020: f766 cd3b 764d 023d a69c 3fbd aace a5bd
00000030: b473 e23d 6f2a fa3d 9dc1 043e 31b5 6c3d
00000040: cee5 2b3e 0a24 663e d426 2dbd 26d4 36bc
00000050: 6448 f53d 24fb c53d 8af1 d53d 4847 823d
00000060: feb5 e33d a259 53be 1ae5 27bd bbf6 75bd
00000070: 2707 f63d 0be0 0d3e 5abe a0bc 0c32 ee3d
00000080: b359 cdbd 6c25 2fbe 6107 39bd 456a 9f3d
00000090: 59e0 ed3c 5f01 debc 8986 4a3c 0255 583b
000000a0: 8ac9 123d 3a2d 52be 29bd 32be 4b06 f83c
000000b0: 52ed 9d3d 649e f23d 4b2b 84bc 48c5 473d
000000c0: 7a7d 4f3b 541b df3d 007f 0b3e 3546 053e
000000d0: d1de 023d 769a ca3d f719 db3d a8e8 d83c
000000e0: 5afc e6bd efdb 6c3d 5fc9 12be 100c 80bd
000000f0: 7a75 d33d 676f bdbc cf6d 34bd 808e 4c3e
00000100: 9e47 8e3e 2e4c 14bd 6049 953c 45a7 5e3e
00000110: bdb8 af3d c976 dd3d e22e 2dbe c3f6 e0bd
00000120: 9e9f 393d 2317 293e 4552 0abe 24d9 b73d
00000130: 9098 15be 7ed5 4ebe 4c6b ecbd 0931 143e
00000140: 9d0d 603d 303b bd3d 5226 243e 8986 773c
00000150: a8ac 2bbe 436b 193e d538 393c 59fa 2f3d
00000160: 6bd0 c6bd 778c ae3d 231a 34be 8996 e93d
00000170: 871e 173e ce44 8bbc d68a 1f3e 93a5 47be
00000180: 2863 c13d b03e 403d f8d7 553e 2709 29be
00000190: 9a91 583e 1fbc 29be d635 fdbc 2884 97bc
000001a0: 8181 f73d fb64 803c 40c4 873d a6fe e8bd
000001b0: 25e8 153e b15a 343c b495 55bd 39c2 26be
000001c0: 7906 3cbd 4f8e c63d be63 6abd 6e5a 813d
000001d0: 3639 07be 426d 3dbe 07dc 1a3e 9917 0ebe
000001e0: ae36 2fbe aa04 bf3d c12e 1f3e 5b0e d7bd
000001f0: 9f8b ff3d a06e 4b3e a04f 1f3e fb65 ecbd
00000200: 92f2 e73d a4d7 23be 8f8f 803d c840 493d
00000210: ba82 4ebd 85ec 8fbc 30c8 7e3d 6c89 33bc
00000220: bd0e b03d f52c 053e 7148 693d c8bd f43d
00000230: 5159 f53c fa11 4cbc 9396 9d3d 558a 373d
00000240: 5ca1 003d 1552 233e 8326 a83d a162 ef3b
00000250: aa61 1e3d 5cac 56bd 755c 11be 84ad 0e3e
00000260: c663 bcbd add8 39be 3d8b 253e a8d5 353e
00000270: 4824 0fbe 99a3 e8bd fd11 fd3d 09a4 9cbd
00000280: adc0 393e 7650 01be 1aea 243e de6c 21bd
00000290: 5779 ce3d cf80 2d3d 0703 4ebe 92f8 c43c
000002a0: 6fea ebbc 917e 84bd d2c0 f13d 344e 1fbe
000002b0: 4646 33bd af5a 473e 8c15 d4bd f1bf 26bd
000002c0: e851 5fbd d65e 1f3e 22d3 613d 048c 2c3e
000002d0: 98f8 dc3d 999f d63d 03fb 2ebd dbc6 0dbe
000002e0: b1f6 46be 4b0e 153e fac4 d4bc f583 f43c
000002f0: a7fd 483e d10f 903d 4d3a c73d 0ebd 15be
00000300: ce6b b3bd 6873 813d 1440 503d 87e9 31be
00000310: 075e 69be a965 60bc 91a0 2bbe f338 a53d
00000320: 19fa fdbc 8848 2cbe 95bd 173d ccc7 12be
00000330: 0ba7 223e 452b 183d eb45 013d 1bfa 043e
00000340: 6d6d 5cbd 3ea9 e83c a489 253d 8711 343e
00000350: ccf6 0a3d d548 d0ba 7e24 88be b4ca 03be
00000360: eb7a 9e3d f773 f33b 32fb 5cbe 27e0 95bc
00000370: a54e 673c edb1 cbbd e333 ff3d c9aa bd3d
00000380: 5c80 eabd 4f56 d6bd e591 c83d accc 4dbe
00000390: 1fdb d83d ad6c e5bd 7f07 d13c afe8 90bd
000003a0: d01d c23d 3ae1 293e 2cb1 81bd 7048 d73b
000003b0: 5f80 03bd 4f88 0fbe 310e 033e 936a bfbd
000003c0: fb4a fcbd e66b 1ebd 312d 00be 1066 e4bd
000003d0: 74c3 05bd fb1b 093e 8781 453e 8fcc 123d
000003e0: 9a55 14be 7d0c 8e3d 2bf7 d03d fe93 b73d
000003f0: bc4c 3a3e 7323 903d 582a 2a3e e3b5 c83d
0.13323466 -0.117107645 -0.1890523 -0.07797354 0.062028863 -0.0011210412 0.0719653 -0.17076388
0.006268378 0.031812154 -0.04678025 -0.08096059 0.11057225 0.12215125 0.12964483 0.057789985
0.16786882 0.22474685 -0.042273358 -0.011158979 0.11976698 0.09667042 0.104464605 0.06361252
0.11118697 -0.20639661 -0.040989973 -0.060049754 0.12013083 0.13854997 -0.019622017 0.116306394
-0.100268744 -0.17104119 -0.045173053 0.07783941 0.029037641 -0.027100263 0.012361177 0.0033009653
0.035836734 -0.20525065 -0.17454971 0.030276438 0.07711281 0.11846617 -0.016133925 0.048772126
0.0031660483 0.10893884 0.13622665 0.13015063 0.031950776 0.09892742 0.10698312 0.026478127
-0.11278601 0.057826933 -0.1433463 -0.06252301 0.10325141 -0.02312441 -0.044050034 0.19976234
0.27789015 -0.036205463 0.018223464 0.21743496 0.08580158 0.10813672 -0.16912416 -0.10984566
0.04531824 0.16512732 -0.13507946 0.08976963 -0.14608979 -0.20198628 -0.11543903 0.1447183
0.054700483 0.09239805 0.16030243 0.015107759 -0.16765082 0.14982323 0.011305054 0.04296336
-0.09707721 0.08522885 -0.17588095 0.114056654 0.14757739 -0.017000582 0.15580305 -0.19496755
0.09442741 0.046934783 0.20883167 -0.16507398 0.21149293 -0.16575669 -0.03090946 -0.018495634
0.12085248 0.015673151 0.066292286 -0.11376695 0.14639337 0.011007951 -0.05214472 -0.16285028
-0.04590461 0.09695112 -0.057224028 0.06316076 -0.13205418 -0.1849871 0.15122996 -0.1387619
-0.17110702 0.093270615 0.15545179 -0.10500785 0.124778025 0.19866419 0.15557718 -0.11542889
0.113255635 -0.16000229 0.06277382 0.049134046 -0.05041764 -0.017568836 0.062202632 -0.010958057
0.08596561 0.13005431 0.05695385 0.119502604 0.029949816 -0.012455458 0.076947354 0.044809658
0.031403884 0.1594928 0.082104705 0.0073054587 0.03866736 -0.05241047 -0.14195426 0.13933378
-0.09198718 -0.18149062 0.16166396 0.17757285 -0.13978684 -0.11359329 0.123569466 -0.07648475
0.18139906 -0.1262835 0.16104928 -0.039410464 0.100817375 0.04235917 -0.20118342 0.024044309
-0.02879831 -0.06469453 0.11804356 -0.15557176 -0.04376819 0.19468187 -0.10355672 -0.040710393
-0.05452147 0.15563521 0.055132993 0.16850287 0.10789603 0.104796596 -0.042719852 -0.13845389
-0.19430043 0.14556234 -0.025972832 0.029848078 0.1962801 0.07034267 0.09727917 -0.146229
-0.087607965 0.0632084 0.05084236 -0.1737424 -0.22789775 -0.013696113 -0.1676047 0.08067503
-0.031003045 -0.16824543 0.037046034 -0.14334029 0.15884034 0.03715064 0.03156082 0.12986033
-0.053815294 0.028401013 0.040414467 0.17584811 0.03392677 -0.0015890846 -0.2659034 -0.12870294
0.077382885 0.0074295956 -0.21580198 -0.01829536 0.014117871 -0.09946046 0.124610685 0.0926109
-0.11450264 -0.10465681 0.09793452 -0.20097607 0.10588669 -0.11202369 0.02551627 -0.07075631
0.094783425 0.16589823 -0.06332621 0.0065699145 -0.032104846 -0.14016841 0.12798382 -0.09346499
-0.12318989 -0.03867712 -0.12517239 -0.111522794 -0.0326571 0.1338958 0.19287692 0.035839614
-0.1448578 0.06935976 0.102033935 0.08963774 0.18193334 0.070380114 0.16617715 0.09800317

weight f4 [256, 256]
00000000: 8bc1 163e b5e0 cb3d eb75 523e 5cbb 6c3d
00000010: 6078 133f 5672 963e 5883 15bd 2a82 7a3e
00000020: aad0 4f3e ac4b d03c ca48 713e fa76 cabd
00000030: d2a6 073e 43c2 813e fb92 443f 6b66 bbbd
00000040: ae28 603d e435 03be 2ebc 5bbe 1752 45be
00000050: c373 f1bf 0425 4bbd 70d1 163d 06f9 013f
00000060: 8c32 55bd 082f 603e 6174 173e b8ad b6bd
00000070: 8787 f4bc 0022 3b3e 25ed 4a3e 50e4 d6be
00000080: 1706 60bd ba63 d0bd 049f abbe 2932 0dbf
00000090: 05ef 883f 9aac 83bd 93b8 eb3e 6998 eabd
000000a0: 047c 8a3e c886 8a3e c0f4 3cbf 57b8 243f
000000b0: f083 e2bd c9c2 cbbc f35e bb3d cbf4 6c3c
000000c0: 5eaa 883e 0852 a93d fa94 f7bd 3f72 dc3e
000000d0: b04e 943e a2c0 b5bc 1dcc ac3d 5007 73bd
000000e0: f4ea 90be 9b9a a9be c9d6 ad3e 734c ea3d
000000f0: f54b 5fbf 3c14 bb3e e2bf 3d3c 7f35 f1bd
00000100: e2e2 5fbe 8a8f fbbe 6f23 7fbf 2030 f13e
00000110: a90a febe d9a0 293c db0a 933d bccd a0be
00000120: c5dc a63e bf81 c4be 87ab 8fbe 18e6 103f
00000130: 9c5a 803e 180f 083e d2f7 cc3c e81b f83b
00000140: c55f 89be 018c 43bd e8a9 da3e 5541 e13d
00000150: 5536 c43e 762e a83d 4af6 703d 5aab 50bf
00000160: dc45 9dbe 35f5 b43e 59e7 da3e 46e0 dc3c
00000170: 59aa 363e 8fdc c2be 13da 1b3f 808a cdbe
00000180: 591d 0e3c 9af3 ce3c 6efd 08be 367c 5fbd
00000190: aea7 02bf 1459 24bf a2f4 0ebe 0f62 1e3f
000001a0: d5ae f53d a023 1bbe 7f4a 423d 9dde 6c3c
000001b0: 396d 3fbe 914b 91be c1f9 8b3e 2e59 7fbe
000001c0: bb61 13bb 225e 553c c466 66ba f2f3 303e
000001d0: c592 523e c5a9 5fbe 2443 c5be ecd4 90be
000001e0: 9d32 e5bd 68ad 55be bdc9 29be ba99 903e
000001f0: b5ff 25bf 848e 42be 0e83 d9bd 9f09 9fbd
00000200: 780b 863d 9303 843e c36a a1bc c7b9 7bbe
00000210: 22ee 43bd aca1 d8be ed4c c6bb 4524 bc3e
00000220: 4f47 56be 3944 6ebe da47 fabd f16f 1fbf
00000230: bf47 93be 23ba 853e 44a6 a7be 069d 843e
00000240: 5f4b 0fbd faab 0b3e 0b81 383f 2bee 933b
00000250: e2b5 5e3e 7ae4 b5be 11aa 9d3e 95f5 aebe
00000260: 9712 803e 5788 60be 57f4 92be a389 a5bf
00000270: 8a1d 123f dde8 32be 9cd3 01bf a7e0 103f
00000280: 9435 3ebf 2f28 8f3e 4347 92be bcb4 433e
00000290: 4b0e c7be eb31 49be d7ff 09be 5000 3d3b
000002a0: e002 2c3f 8976 313f 6789 51bd 20ef 243f
000002b0: 3b26 73be 9145 84bf 688f 983e 2185 f13e
000002c0: 6edd 993e 1a9d 23bf 659e a53d a6f1 ae3e
000002d0: 9a6a 9a3d e29f 04bf eccf 90be c4ce 4b3f
000002e0: d1fb 30bd c204 05be 0ce5 bc3d 319b 92be
000002f0: a89a 9a3e a801 da3e b55c d53d 4197 8dbe
00000300: 736d a73d 069d f4ba 805b 13be c0f6 603d
00000310: e491 813f f316 c9bb 82ee f9bd b806 6fbe
00000320: 3c4c a33d 7963 133e 3177 793e efc7 913e
00000330: 3c85 50bd e3e9 c7bc 0b63 73be 81b6 3abe
00000340: 46b8 0bbf 16f2 20be a4bb 09bf a785 e5be
00000350: e596 893e 8c58 7cbe 61cb e8be 9116 91bc
00000360: 3fb3 0ebe 55cd 47bf d47a 7e3e c2ed 3c3e
00000370: a000 963d b15a c03e c647 9f3d 8b21 94bd
00000380: 2343 f03d 8f61 b43d 8823 0ebe e851 913e
00000390: 1f01 b43d f690 76be 996d 24be 4326 6f3e
000003a0: 1e51 57bf c42b 72be 7315 a8be ca8d 073d
000003b0: 70be 3cbe 3bb3 823e 334c 233e f338 893d
000003c0: af8b bebd adba 96bd dcdb fbbd 533f 5e3c
000003d0: ead8 bdbe d2aa 80bb 005e 9bbe ab96 6bbe
000003e0: f558 413e 1bee 053f 3fce 1f3e 818a 36be
000003f0: 332c 99be 7404 a63d 1b99 bfbf a8cc 803e
0.14722268 0.09954969 0.20552795 0.057795867 0.5760555 0.29384106 -0.036502212 0.24463716
0.20294443 0.025426708 0.23562923 -0.09885974 0.1324723 0.25343522 0.76786774 -0.09150394
0.054726295 -0.12813526 -0.21458504 -0.19269596 -1.8863453 -0.049595848 0.03682083 0.50770605
-0.05205016 0.21892941 0.14790489 -0.08919853 -0.02984978 0.18274689 0.19817026 -0.41971064
-0.054693308 -0.10175271 -0.33519757 -0.55154663 1.0697943 -0.064294055 0.46039256 -0.11454851
0.2704774 0.27055955 -0.7381096 0.6434378 -0.11060321 -0.024873154 0.091489695 0.01446266
0.2669248 0.08267599 -0.12088962 0.43055913 0.28966284 -0.022186581 0.08437369 -0.059333146
-0.28304255 -0.33125767 0.3395293 0.11440363 -0.87225276 0.36538875 0.011581393 -0.11777782
-0.21863893 -0.4913295 -0.9966344 0.4710703 -0.49617508 0.0103532905 0.07179805 -0.31406963
0.3259031 -0.38380238 -0.28060552 0.56601095 0.2506913 0.13287008 0.025020514 0.007571686
-0.2683088 -0.04774094 0.42707753 0.10998789 0.38322702 0.08211987 0.05882863 -0.8151146
-0.3071736 0.35343328 0.4275463 0.02696241 0.1783842 -0.38058898 0.6087963 -0.4014473
0.008673989 0.025262643 -0.13377926 -0.054561816 -0.5103711 -0.6419842 -0.13960508 0.61868376
0.11996237 -0.15150309 0.047434326 0.014457372 -0.18694009 -0.28377965 0.27338985 -0.24936363
-0.0022488672 0.013022931 -0.0008789117 0.17280558 0.205638 -0.21842106 -0.38527787 -0.28287446
-0.11191294 -0.2086693 -0.16580863 0.28242284 -0.648433 -0.18999678 -0.106207 -0.07765507
0.06545156 0.25783977 -0.019704228 -0.24582587 -0.047834523 -0.42310846 -0.0060516507 0.3674642
-0.2092564 -0.23268212 -0.12220736 -0.62280184 -0.28765675 0.26118574 -0.32744038 0.2590105
-0.03498399 0.13639823 0.72071904 0.004514476 0.2174907 -0.35525876 0.30793813 -0.3417174
0.25014183 -0.2192701 -0.28702042 -1.2932628 0.57076323 -0.17471643 -0.50713515 0.5659279
-0.74300504 0.27960345 -0.28569993 0.19111913 -0.38878092 -0.19647948 -0.13476501 0.0028839298
0.67191887 0.69321495 -0.051156428 0.64427376 -0.23745053 -1.033373 0.2979691 0.47171882
0.3005175 -0.6391159 0.08086852 0.34168738 0.07539864 -0.5180646 -0.28283632 0.79612374
-0.0432089 -0.12990096 0.09223375 -0.28634027 0.30196118 0.4257939 0.10418073 -0.2765446
0.08175173 -0.0018662519 -0.14390373 0.05492282 1.0122647 -0.006136769 -0.12203695 -0.23342407
0.07973525 0.14393415 0.24361874 0.2847285 -0.050908312 -0.024403518 -0.2376825 -0.18233682
-0.54578054 -0.15717348 -0.5380194 -0.4482853 0.26872936 -0.24643153 -0.45467666 -0.017710956
-0.13935564 -0.78047687 0.24851543 0.18450072 0.07324338 0.37569192 0.077773616 -0.0723296
0.11731555 0.0880767 -0.13880742 0.28382802 0.08789276 -0.24078736 -0.16057433 0.2335444
-0.8410815 -0.23649508 -0.32828864 0.033094205 -0.18432021 0.25527367 0.15947036 0.06700315
-0.09303986 -0.07359824 -0.12297794 0.013564902 -0.37079555 -0.0039266134 -0.30345154 -0.23006694
0.1888159 0.52316445 0.1560602 -0.17826273 -0.29916534 0.08106318 -1.4968599 0.2515614

bias f4 [256]
00000000: 3606 fb3c dbcc 083e ca94 183e f222 6ebd
00000010: c723 8c3d be65 6c3d 6d24 113e ca14 963d
00000020: 8662 4f3d 49ca 8339 5ba2 ca3d ff27 e83c
00000030: c8fd 84bc 2294 043d b8a8 d03d c7fe 843b
00000040: 9dd9 d83d 6b68 acbd c1ae 713d 9697 86bc
00000050: 5d08 953d 5bce b7bc 2764 a23d e881 8e3d
00000060: 6e5a b73d 5784 903d ccdf 0f3c f7a7 103e
00000070: 6d54 943d 454a 0b3e a80b d43d e505 ad3d
00000080: 49da 413d 525d a03d 255a 8ebc be4a 3fbc
00000090: 12c1 f8bc d224 c03d ae8c b7bd db14 4ebc
000000a0: 3216 3a3e 8fbd 123d c56c 573d 5057 1b3e
000000b0: 8013 523e 7313 09bd 86ca fd3d 9867 4b3d
000000c0: 3c4f d8b9 d263 013e 5ab8 733d b6cb b63d
000000d0: ff5e 203e 656b 6c3d 711a 193d 4b00 a9bb
000000e0: c2f3 793d c309 9f3d a3c7 d23d 79c4 d33d
000000f0: 3e95 903d ca6d b23d 1cf7 03bd c4c2 033e
00000100: 1ac3 ed3c 9aa8 a93d 0f04 d9bc 8159 473d
00000110: 8fee b13d cac3 5fbd a36f 6c3c 0cd3 243d
00000120: 3ea5 8f3d 8249 f13c e980 fc3b 4c3e 033e
00000130: e88f fb3c f8d3 c83d ac0b d5bc 6e62 b83d
00000140: 50a6 1d3e 83fe 9e3d 36ca 413d eaaa 8f3d
00000150: 9b45 dc3d 443e 2d3d d400 1cbd 3570 703e
00000160: d54b f03d c8fd 34bd 0998 55bc e8d9 283e
00000170: 1ffc 2a3e 4d77 483d 5711 9ebd ac57 143e
00000180: bdd4 083e 8d19 603d e8d9 763d fce9 07bd
00000190: 42c6 2a3e a69c 823d 1537 9d3d 9283 fc3d
000001a0: 3985 953c 8b83 a23d ebec 1c3e 2b21 613d
000001b0: f4ea e9bc 7ba1 973d 9ec2 8b3c 1342 45bc
000001c0: 977d cf3d d567 2c3d 7e95 a33c 4ff6 343d
000001d0: 6673 e43d 112a a8bd 8a76 973c 5c53 10bd
000001e0: a47d 333e 6f96 8d3d 91d8 df3c 88e8 b23d
000001f0: 97e4 29bd c362 ac3a 5ec6 0c3d 1f80 4a3e
00000200: 1923 9d3d d2e5 aa3c f6e3 843d 4d36 cb3c
00000210: d70c 383e 9a38 c23d 4d09 863d f7c2 0c3d
00000220: 7409 21bd 69ee 0ebd fb21 0a3e 9551 f0bd
00000230: db06 1d3d 0a3d 26bd cd0d 343e c3c8 5c3d
00000240: 6b0a df3d 54ab 5a3e e688 103a 49f2 a23d
00000250: d700 153e f103 533d d1fe 973c 7b95 60bc
00000260: 25eb 113d c807 8dbc 7f7f 1d3d 2d5d 0bbd
00000270: 6e33 cc3d 8975 ca3d 81a9 b63d 546a a03d
00000280: 1885 8f3d 53b2 8a3d 212e ffbc fbb6 8c3d
00000290: 9441 3e3d 3c85 cc3d 9685 183d 141a 923d
000002a0: db59 203d f836 523d 9e28 023e 5d78 3e3d
000002b0: 7a1c 3a3d c5e5 093c 2331 a83d 1e37 ee3d
000002c0: c9c1 b23d 1f87 7fbd e7e6 aa3d 466a 8ebd
000002d0: dcb7 10bd 1a4e 463d a4b8 1e3e 3b9d c03d
000002e0: c34a 0b3e 8b99 943d 0304 993b 5031 613d
000002f0: fc58 fc3d 6533 d93d 5bf0 823d 42c7 263e
00000300: 1f3b fe3d d810 ff3c a0fe 4b3c 287c e73c
00000310: caa2 a13d 29f0 683d 0504 d23d acd2 ca3d
00000320: 4989 cebd 57b6 4b3d ffc1 b23d 316a 633d
00000330: 27d3 9d3d 0eae a2bc b158 68bd e257 fe3d
00000340: 8212 65bc 02b4 a4bd 7809 0e3e b694 8c3d
00000350: 4eb1 d23d 5898 b3bc e871 3d3e 71a3 733d
00000360: 968b 1d3e 5d7d 743d c12d 8cbb df02 fc3d
00000370: c947 1d3e 419d 893d 4843 873d 0724 873d
00000380: d429 083e 529f 6a3d deb2 093e 21eb a53c
00000390: 0e1e 243d a6ac 36bd 2f64 e0bc 189b c83d
000003a0: e153 fe3d f489 683d 8831 aabd c70c 093b
000003b0: 9a90 32bd 2582 253d 80b0 d33d 8d6f 393e
000003c0: 06a6 023a 9866 e13c d150 6f3d 1075 3e3d
000003d0: ab9f f73d f89f a9bc fbb6 a03d 4cd8 0e3e
000003e0: e5b0 273e 7e8d d2bc 7454 0f3d da74 b33d
000003f0: 8d04 19bd 6efc 9a3c a25b 5b3d be09 61bc
0.03064261 0.13359396 0.14900509 -0.058138795 0.068427615 0.057714216 0.14174052 0.07328184
0.05063107 0.0002513698 0.09894248 0.028339384 -0.016234294 0.032367833 0.101884305 0.004058692
0.105883814 -0.08418354 0.05900455 -0.016429704 0.07276986 -0.022437265 0.07929259 0.069583714
0.08952795 0.07056492 0.008781385 0.14126574 0.072426654 0.1360255 0.10353786 0.0844839
0.047327314 0.078302994 -0.017376969 -0.011675535 -0.0303655 0.09382023 -0.089623794 -0.0125782145
0.1817253 0.03582531 0.052593965 0.15170026 0.20515251 -0.033465814 0.12392144 0.04965934
-0.00041257765 0.12635735 0.059501983 0.089255735 0.15661238 0.057719607 0.037378732 -0.0051575056
0.06102348 0.07765534 0.10291984 0.103402086 0.07059716 0.08712347 -0.032218084 0.12867266
0.029023696 0.08284111 -0.026491193 0.048669342 0.086880796 -0.05463008 0.014430913 0.040240332
0.07013939 0.029453997 0.007705797 0.12816733 0.030708268 0.09806055 -0.026006542 0.09003149
0.15395474 0.07763388 0.047311984 0.07015021 0.10755464 0.04229571 -0.038086727 0.23480304
0.11733214 -0.044187337 -0.013036736 0.16489375 0.16697739 0.0489419 -0.07718151 0.14486569
0.13362403 0.054711867 0.060266405 -0.03318213 0.16677192 0.063775346 0.07676522 0.123297825
0.018252002 0.07935246 0.15324752 0.054963272 -0.028554417 0.07403847 0.017060574 -0.012039679
0.10131376 0.04209121 0.019968744 0.04418021 0.11154823 -0.082111485 0.018489141 -0.035235748
0.17528397 0.069134586 0.027324947 0.08735758 -0.041477766 0.0013151992 0.034368865 0.19775437
0.0767271 0.02086154 0.064887926 0.024806166 0.17973648 0.09483452 0.06544743 0.03436562
-0.039315656 -0.034895334 0.13489525 -0.117343105 0.038336616 -0.040585555 0.1758339 0.0539024
0.10890659 0.21354419 0.00055135635 0.079563685 0.14551102 0.05151743 0.018554123 -0.013707514
0.035624642 -0.017215624 0.038451668 -0.034024406 0.09970747 0.09885699 0.08919049 0.078327805
0.070078075 0.06772294 -0.031149926 0.06870838 0.04644926 0.0998635 0.037236772 0.0713388
0.039148193 0.051321954 0.12710807 0.046501506 0.045437314 0.008416598 0.08212497 0.116316065
0.08728368 -0.06238472 0.083448224 -0.06953864 -0.035331592 0.048414327 0.15500122 0.09404989
0.13602738 0.072558485 0.0046696677 0.05497867 0.1232166 0.10605506 0.063935004 0.16286948
0.1241362 0.031135961 0.012450844 0.028257445 0.07892378 0.05686966 0.10254673 0.09903464
-0.10084779 0.04973444 0.08728408 0.055521194 0.0770629 -0.019858386 -0.056725208 0.12419106
-0.013981463 -0.08042146 0.138708 0.06864302 0.102877244 -0.02192323 0.18500483 0.05948204
0.15385279 0.05968987 -0.004277915 0.12305235 0.15359415 0.06719447 0.0660463 0.065986685
0.13297206 0.057280846 0.13447139 0.02025372 0.040067725 -0.044598244 -0.027391521 0.09795207
0.124183424 0.056772187 -0.083102286 0.0020912157 -0.043594934 0.04040732 0.10336399 0.1810896
0.0004983846 0.02751474 0.058426682 0.04649836 0.12091001 -0.020706162 0.07847401 0.13949698
0.16376074 -0.025702234 0.03499265 0.08762522 -0.037357856 0.018919196 0.053554185 -0.013735233

weight f4 [64, 256]
00000000: 6802 02be 452b 4ebe 430b 743c 3e5a a13e
00000010: a111 dc3d 5261 4ebe 8f05 7abe 0e69 adbd
00000020: b1fd 5a3d 8d2c 8ebd 5c2d c33d cdde fe3c
00000030: a8e4 b63e ec91 72bd f4bb 35be 0813 dfbc
00000040: 6c21 d6be 72f1 8cbd 0fb1 fa3d ab46 30be
00000050: 4c78 87bd f43f f03d 0156 1a3e dae4 8f3d
00000060: 7ff1 b43e 9106 9b3d 633e f13c e2de 0abe
00000070: d28e 6d3e 3a34 553e 7692 063e 5b3c 863d
00000080: 6618 8dbc 018c ddbd dcba 45bc d71e 81be
00000090: 4efc bbbe ad52 523e ba4d fa3d 95c7 9abb
000000a0: 9fd3 16be abfa 0cbe 7954 16bd 70fb 9ebd
000000b0: e0a9 183e 0ec6 0fbd 5e60 1bbe 0202 603d
000000c0: c179 52bd 3787 deba a205 a93d f55f 8fbd
000000d0: 5ecd 1fbe 7b0e df3d f4c8 ac3d 5947 023e
000000e0: 034b c7be c7b9 edbc e844 0d3e 781a 0e3d
000000f0: 7e7c bc3c 9289 91be 32d1 c2be 66dd 0dbe
00000100: a3d6 c9bd d11e 39bd ef59 4ebb b60c ad3d
00000110: 4c9b 85be d5be 043d e7a9 843e dc90 5abc
00000120: 5ac7 393b af33 0cbe 3cce e8bc 72fa b8bd
00000130: 24b7 40bd a5ae 6bbc c2f9 243e 39ff 2bbb
00000140: 0b7f 443e 162d 80be 31b7 b83d cf03 c6bc
00000150: fab2 043e 195a 2f3e 8ba0 9ebc cd41 9d3e
00000160: e21e 0d3e 1402 463c f022 a7bc b8d6 e53b
00000170: 9877 ea3d a230 a1bd 9294 223c ddbf 9e3d
00000180: 2163 443e ef14 47be 837d 083e d228 753d
00000190: 0aed b53d 2e98 66be ac5c b6bc f18b 323d
000001a0: 2959 e1bc 1a1d e23d 1c6f c5bd 020f 683e
000001b0: 24cf 063e 2e19 d1be b944 9abc 2c6a 153e
000001c0: 3263 d3bd 093a 1f3e ee81 11be dd4d ac3d
000001d0: 0ca3 6b3d c729 88bd 8939 a93e e45d 343c
000001e0: 5735 8f3d a2e8 bd3d 7747 1d3e 8d41 42bc
000001f0: f5d8 3c3e ad8b b83c 7c84 c5bd f479 cdbd
00000200: 2efe b13d c293 213c 350f 1a3e 832a 7fbd
00000210: c048 ddbd 1bc8 b13d 284a 8ebe 7d34 b4bd
00000220: ed1f fe3d 62ee 1f3e 2412 79bc 9b2a a03e
00000230: b6c1 4c3d 56eb 26be 965d 973d 1435 7d3d
00000240: 47fd d5bc 21bb 60bd 683a 413e f3fa 65bd
00000250: acf8 b63c 9748 86bc 9a52 063e 7ccb bb3d
00000260: 7bd7 c3bd e5c0 29bd 9847 b6bd 4d6d 6b3e
00000270: d078 24bd a7f7 a23c 98ff 273e 14a7 6ebe
00000280: 2bf9 83be ced6 9c3c 90ea 0f3d 19b0 42bd
00000290: 7bc6 3ebe 7487 08bd f43e a2be 50ee c2be
000002a0: 805e 13be 61c1 afbd 4ca1 50be 6a87 7fbc
000002b0: a3be db3d 9ff3 553e 0000 a53c 199a 443d
000002c0: c6f6 0dbe 86cc b23d 1861 993d 1590 403e
000002d0: abdc cfbc 9f8d 3fbe e239 2fbe adc2 343d
000002e0: 4c0c 023d dd83 543d d618 86bd 6660 2f3e
000002f0: 2162 793d 09c7 5cbe 4f85 443d f1d4 32bd
00000300: f117 43be b173 d2bc 24f6 003e abf2 23be
00000310: a53c 163d 1338 67be 2b14 7abd 88e4 93bd
00000320: f989 d03c 9f2c f73d 8b74 b4bd 77e8 053e
00000330: 8816 9ebd bcf1 19bc 8332 003d bbd3 e83d
00000340: 86b2 d33d ac54 d03e 53b7 573c 3126 e03d
00000350: 60a2 a5bd 21aa d03d f825 4f3e 371b 263e
00000360: 0f0b 7c3d f7a8 36bd 9f4b b83e 4110 0fbe
00000370: d97e 82bd c9d4 223d ebb5 85ba cd7e 073f
00000380: 4de6 d43d 69d9 a23d 5515 ccbc 9b71 893d
00000390: 38ed 843e 7c6e bdbd 81ef 583d 890e 1bbd
000003a0: f49b 7fbe 2c83 8fbc 3da7 8ebe 7ef7 34bc
000003b0: 2dcc 293d a098 4d3c c2f6 14bd 5329 8c3d
000003c0: c3f5 953d ca98 513d 932d 713c 8bdd 123e
000003d0: 1acc d4bd 43ac 4b3e df98 a0bc 9f78 4f3e
000003e0: fda1 3e3e 3c8a a23d a7ac a3bc 65de c43d
000003f0: 1dd1 7b3c e425 c93d edc2 2ebc 76b1 973b
-0.1269623 -0.20133694 0.014895263 0.31514162 0.1074555 -0.20154312 -0.24416183 -0.08467303
0.053464595 -0.06942091 0.09530136 0.031112099 0.35721326 -0.059221193 -0.1774748 -0.027230754
-0.41822374 -0.068819895 0.122408025 -0.17214458 -0.06614742 0.11730948 0.1507187 0.07026072
0.35340497 0.07569612 0.029448694 -0.13561586 0.23199013 0.20820704 0.13141808 0.06554481
-0.017223548 -0.10817719 -0.0120684765 -0.2521884 -0.3671593 0.20539351 0.122218564 -0.004723499
-0.14729165 -0.13767497 -0.036701653 -0.07762802 0.14908552 -0.03510099 -0.1517348 0.054689415
-0.051385645 -0.0016977553 0.082530275 -0.07000724 -0.15605685 0.10891434 0.08436766 0.1272253
-0.38924417 -0.02901925 0.13795817 0.03469321 0.023008581 -0.2842527 -0.38050228 -0.13853988
-0.09855392 -0.045195404 -0.003148671 0.0844969 -0.26095045 0.032408554 0.25910875 -0.013340201
0.0028347583 -0.1369159 -0.028418653 -0.09032144 -0.047049657 -0.0143849 0.161109 -0.0026244654
0.19189088 -0.25034398 0.09019316 -0.024171738 0.12958899 0.17124213 -0.019363662 0.30714265
0.13781312 0.012085456 -0.020402402 0.007014122 0.11448592 -0.07870604 0.009923117 0.07751439
0.1917844 -0.1944158 0.13329129 0.059853382 0.08883102 -0.2251899 -0.022260986 0.04359049
-0.027508335 0.11040707 -0.09640333 0.22661975 0.13164955 -0.40839523 -0.018831598 0.14591283
-0.103216544 0.15549482 -0.1420972 0.08413289 0.05752854 -0.066485934 0.33051708 0.011008713
0.06992596 0.09272887 0.15359293 -0.011856449 0.18442138 0.02252754 -0.0964441 -0.10033026
0.08691059 0.009861888 0.15044864 -0.0622964 -0.108048916 0.08680745 -0.27790952 -0.08799074
0.12408433 0.1561828 -0.015202079 0.31282505 0.049989425 -0.16300711 0.07390897 0.061818197
-0.026121749 -0.05486596 0.18869936 -0.056147527 0.022335373 -0.016392035 0.13117447 0.09169671
-0.09562584 -0.041443724 -0.08900374 0.22990914 -0.04015428 0.01989348 0.16406095 -0.23305923
-0.25776038 0.019145396 0.035135806 -0.04753122 -0.18630402 -0.033332303 -0.31688654 -0.38072443
-0.14391518 -0.08581806 -0.2037403 -0.01559625 0.107297204 0.20893715 0.020141602 0.04799852
-0.13863668 0.08730416 0.07489222 0.18804963 -0.025373777 -0.18706368 -0.17111924 0.04413097
0.03175001 0.051883567 -0.06547706 0.17126617 0.0608846 -0.21560301 0.047978695 -0.043660108
-0.19052102 -0.025689932 0.12593895 -0.16010539 0.03667893 -0.22579984 -0.06105439 -0.07221323
0.025456415 0.12069058 -0.08811291 0.1307696 -0.07719141 -0.009396013 0.03129817 0.113685094
0.10336785 0.406896 0.0131662665 0.109447844 -0.08087611 0.101886995 0.20229328 0.16221319
0.061533984 -0.04459473 0.35995194 -0.13971044 -0.063718505 0.03975371 -0.001020131 0.5292786
0.10395489 0.07951624 -0.024912516 0.06711122 0.25962234 -0.09249589 0.052962784 -0.03785566
-0.24961835 -0.017518602 -0.27861968 -0.011045335 0.041454483 0.012548596 -0.03636814 0.068438195
0.07322266 0.0511711 0.014720338 0.14342324 -0.10390492 0.19889931 -0.019604145 0.20260857
0.18616481 0.07936522 -0.019979788 0.09612731 0.015369681 0.0982168 -0.010666591 0.0046293093

bias f4 [64]
00000000: d442 703d 9777 e33c cb77 993e fee2 c3be
00000010: 678c a83e 5e8b 1fbc 0bcd d13d 52a0 453e
00000020: 9b60 0bbf 4b32 d4bb adf5 1abe 6265 9cbd
00000030: e9c1 813e f08e 263e ae01 d23d d594 5b3e
00000040: 435f 8a3d ded1 fc3d 0fe2 f4bd 0d5b 15be
00000050: 081a 0d3e 6575 a83c cd57 10be ab78 77bd
00000060: 6bb7 1dbd f09d c5be bd21 ff3d d15a 433c
00000070: f9e5 8abc 0761 553d 6b2d 973c 58be 2a3e
00000080: bcaf 843a 48ca 99be e207 9cbd af01 7abc
00000090: 188a 65bd c1fa 38be bded 2abe b0e6 6bbe
000000a0: c063 4fbd f541 7cbe d260 af3d 84f7 893d
000000b0: 11be 313d 8aa4 0ebd 5826 4ebd 10c0 0fbe
000000c0: e28e 38be 17a9 fdbe 1b4f 11be 13b5 1bbe
000000d0: 91b9 6a3e 5eb1 163f b9a8 ebbd 6813 f33d
000000e0: 4cfc 0abd 9839 683c dab0 823e 5bbb 533e
000000f0: 1d5b fabe 30f2 45be ee8c e33e c2c4 0a3e
0.058657482 0.027766986 0.29974207 -0.3825912 0.32919618 -0.009737818 0.10244187 0.19299439
-0.54444283 -0.006475722 -0.1513278 -0.07636525 0.25343254 0.16265464 0.102542266 0.21443494
0.06756451 0.123447165 -0.1195718 -0.14585514 0.13779461 0.02056379 -0.14095993 -0.060417812
-0.038505 -0.3859706 0.12457607 0.011923508 -0.016955363 0.052094486 0.018454274 0.16674173
0.0010123174 -0.3003714 -0.07618691 -0.01525919 -0.0560399 -0.18064405 -0.16692252 -0.23037219
-0.05063224 -0.24634536 0.08563389 0.06736663 0.043394152 -0.034824885 -0.050329536 -0.1403811
-0.18023255 -0.49543068 -0.14190333 -0.15205793 0.2292235 0.5886439 -0.11506791 0.11868936
-0.033932015 0.014173888 0.25525552 0.20676939 -0.4889764 -0.19330668 0.44443458 0.1355162
